Assets/Environment3/Brains/Env3Behavior.onnx (onnx, 73426 bytes, 7 tensors)

network_body._body_endoder.seq_layers.0.weight f4 [128, 6]
0	0xbebe293b	-0.3714083
1	0xbf03904d	-0.5139206
2	0x3e086c1a	0.13322487
3	0xbe8bee46	-0.27330226
4	0xbe92753e	-0.28605074
5	0x3e689780	0.22714043
6	0x3d594c24	0.05305113
7	0xbf2e4b07	-0.6808323
8	0xbf0c60b7	-0.54835075
9	0x3d19eb33	0.03757782
10	0xbdda0c11	-0.10646833
11	0xbe9ec5a1	-0.31010154
12	0x3ea78fcb	0.32726893
13	0xbe9211b6	-0.28529137
14	0xbc0aebd0	-0.008479074
15	0x3f78f1be	0.9724387
16	0x3e7637eb	0.24044769
17	0xbe803893	-0.25043163
18	0xbe080d28	-0.13286269
19	0x3dfa491f	0.12220978
20	0x3dfa9936	0.12236254
21	0xbe2ae1d7	-0.16687714
22	0xbf22b348	-0.6355481
23	0x3f979072	1.1840956
24	0x3edf4221	0.4360514
25	0xbee9b98f	-0.45649382
26	0x3e69a829	0.22818054
27	0x3da6617e	0.08124064
28	0xbda3ae76	-0.0799226
29	0xbf9254f5	-1.1432177
30	0xbded6bdd	-0.11592839
31	0x3e1271e4	0.14301258
32	0x3d9c58f6	0.076341555
33	0x3db9dcd1	0.090753205
34	0x3e2d7cb3	0.169421
35	0xbf2dde05	-0.679169
36	0xbf45c86d	-0.7725895
37	0xbe4eb75a	-0.2018713
38	0xbe3c923d	-0.1841516
39	0xbea621b1	-0.3244758
40	0xbe4cd5a6	-0.20003375
41	0xbe74bfbc	-0.23901266
42	0xbe822d1c	-0.2542504
43	0x3ed72dd3	0.4202715
44	0x3d932cf4	0.071863085
45	0x3e5ceb6d	0.21574183
46	0xbe448c8f	-0.19194244
47	0x3d8d82b9	0.06909699
48	0x3db9a38f	0.090643995
49	0x3eba4a90	0.36385012
50	0xbd52f6b1	-0.051504795
51	0xbd54855f	-0.051885005
52	0xbc9baa3c	-0.019002073
53	0xbecc0095	-0.39844194
54	0x3f147d28	0.58003473
55	0x3f2112c6	0.6291927
56	0x3edd9c1f	0.43283173
57	0x3eb8d254	0.36097968
58	0xbf1725ba	-0.5904194
59	0xbf72d94c	-0.9486282
60	0xbf53ac02	-0.8268434
61	0x3f4435c4	0.7664454
62	0x3edd3611	0.43205312
63	0x3e10ab37	0.14127813
64	0xbf4657bc	-0.7747762
65	0x3f1057a7	0.56383747
66	0x3e5dae24	0.2164846
67	0x3dadf981	0.08494855
68	0x3e0acd60	0.13554907
69	0x3ecb2af4	0.39681208
70	0xbefac858	-0.48980975
71	0xbe0fc8a4	-0.14041382
72	0xbee2bf7f	-0.44286725
73	0x3ef36655	0.4753901
74	0xbec8e74b	-0.39238963
75	0x3e9993fb	0.29995713
76	0xbb38b6c7	-0.0028185116
77	0xbf0272fa	-0.5095669
78	0xbdc6469e	-0.09681438
79	0xbedd3009	-0.4320071
80	0xbe861fea	-0.26196223
81	0xbdf433f6	-0.11923973
82	0xbd76bbf3	-0.060237836
83	0xbd568443	-0.05237223
84	0xbcb58527	-0.022158219
85	0xbeac2ffe	-0.33630365
86	0x3d72790c	0.05919747
87	0x3e026cad	0.12736769
88	0x3f1a5a18	0.6029372
89	0x3eea266e	0.45732445
90	0xbf23afec	-0.6394031
91	0xbdcb2329	-0.09918816
92	0xbc8f47c1	-0.01749027
93	0xbe8c81a3	-0.27442655
94	0x3f16c7a8	0.588984
95	0x3ed127e1	0.40850738
96	0x3d85b7ec	0.06529221
97	0x3e904b01	0.28182223
98	0xbe7d44cb	-0.24733274
99	0xbe48977b	-0.19589035
100	0x3f33c9d9	0.7022987
101	0x3da217e7	0.07914715
102	0xbe2c7362	-0.1684089
103	0x3f31b463	0.69415873
104	0xbe11784f	-0.1420605
105	0x3f3a5600	0.72787476
106	0x3ebe21b0	0.37135077
107	0x3de64f2b	0.11245569
108	0x3ef5f5b9	0.48039034
109	0xbce86549	-0.028368609
110	0x3e83b714	0.25725615
111	0xbd404057	-0.04693636
112	0xbf05ea22	-0.52310383
113	0x3f607039	0.8767124
114	0xbe901f7c	-0.2814902
115	0x3e78af53	0.24285631
116	0x3e3b7ded	0.18309756
117	0xbd789c70	-0.060696065
118	0x3d71edd0	0.059064686
119	0x3f1bd042	0.6086465
120	0x3e2d3430	0.16914439
121	0xbeee840c	-0.4658512
122	0xbe9c50c7	-0.30530378
123	0x3cbf155e	0.023325618
124	0xbdd40ec6	-0.1035438
125	0x3ea64eeb	0.32482085
126	0xbd8d5849	-0.06901605
127	0xbd94be06	-0.072628066
128	0xbcea0dd2	-0.028571043
129	0x3f2341fe	0.6377257
130	0x3c2b85c1	0.010468901
131	0xbf70bb16	-0.9403547
132	0xbeb1fe5f	-0.34764382
133	0xbf0bfcd3	-0.54682654
134	0xbe888f41	-0.26671794
135	0xbf0de6ce	-0.55430305
136	0xbf1d45a7	-0.61434406
137	0xbe44ca18	-0.19217718
138	0x3dc79d99	0.09746856
139	0xbf0962ad	-0.5366619
140	0x3f65f87d	0.8983229
141	0x3dac4654	0.084118515
142	0xbf2efcfa	-0.6835476
143	0x3ddd69d1	0.108111985
144	0x3e6cfc52	0.23143128
145	0xbe5bb01a	-0.21453896
146	0xbf479b7c	-0.77971625
147	0x3c8e3d56	0.017363232
148	0xbdac6c84	-0.08419135
149	0xbdedfbfe	-0.11620329
150	0xbcac832a	-0.021058638
151	0x3c53a9b5	0.012918879
152	0xbe176d63	-0.14787821
153	0x3e9a4fce	0.3013901
154	0x3f295b13	0.66154593
155	0xbed28977	-0.41120502
156	0x3d36040c	0.044437453
157	0xbdb04a33	-0.086079024
158	0xbd62573a	-0.055258967
159	0x3dd10ca4	0.10207489
160	0xbcaa6216	-0.020798724
161	0x3e07c4dd	0.13258691
162	0x3f22354b	0.6336257
163	0x3efb625b	0.49098477
164	0xbf7cc2de	-0.98734844
165	0xbdc572d2	-0.09641041
166	0x3d961265	0.07327727
167	0xbeb92f8d	-0.3616909
168	0xbe37fb58	-0.17966974
169	0xbe9ba8b1	-0.3040214
170	0x3ce86e61	0.028372945
171	0x3ee8389f	0.45355698
172	0xbed9c1e9	-0.42530754
173	0x3ea2b9ba	0.31782323
174	0xbe3b77f3	-0.18307476
175	0xbef14d07	-0.4712908
176	0x3c5f8884	0.013643388
177	0xbdaa103c	-0.08303878
178	0xbefa5621	-0.48893836
179	0xbf15dcf7	-0.5854029
180	0x3dc3bc06	0.09557347
181	0xbec4b475	-0.38418928
182	0x3d9ccaad	0.07655845
183	0xbe97b17e	-0.29627603
184	0xbf042ecf	-0.51633924
185	0xbecae919	-0.39630964
186	0xbeb41e07	-0.3517916
187	0xbeb51740	-0.353693
188	0x3e69755b	0.22798674
189	0x3e915c01	0.28390506
190	0x3e8351d0	0.25648355
191	0x3f061303	0.5237276
192	0x3eaf2e1f	0.34214875
193	0xbf6f7f97	-0.9355406
194	0x3e1c93cf	0.1529076
195	0xbe624e3b	-0.22100155
196	0x3e5f23b4	0.21790963
197	0xbec7cbee	-0.39022774
198	0xbd8789e6	-0.06618099
199	0xbf26b052	-0.65112793
200	0xbd587c32	-0.052852817
201	0x3dbd9aa6	0.092580125
202	0xbe529eb1	-0.20568348
203	0x3e9044c5	0.28177467
204	0x3e92ab66	0.28646392
205	0x3ecbfdde	0.39842123
206	0xbed4b1eb	-0.4154199
207	0x3ddef402	0.108863845
208	0x3df355be	0.118815884
209	0xbacd3c44	-0.0015658219
210	0xbe2de735	-0.1698273
211	0x3d49fc7a	0.049313046
212	0xbea49e6b	-0.32152113
213	0xbd477048	-0.048691064
214	0x3f8a8dc2	1.0824511
215	0x3cd907f6	0.026493054
216	0xbddb8e10	-0.10720456
217	0x3eafb907	0.34320852
218	0x3e96e92b	0.29474768
219	0xbe95e475	-0.2927586
220	0xbe9413db	-0.289214
221	0x3dac6ec3	0.084195636
222	0xbf1a2b23	-0.6022207
223	0xbe6a4ce4	-0.22880894
224	0xbe025120	-0.12726259
225	0xbe8d423b	-0.27589592
226	0x3f08871d	0.53331167
227	0xbd8076b3	-0.0627264
228	0x3f3a5c69	0.72797257
229	0x3f501933	0.8128845
230	0x3f1fe40c	0.62457347
231	0x3df582a4	0.11987808
232	0xbedc4f55	-0.43029276
233	0xbd109a4f	-0.03530341
234	0xbe8579e9	-0.26069573
235	0xbeda862f	-0.426805
236	0x3d95468f	0.072888486
237	0xbe57676b	-0.21035545
238	0x3d0ad4f9	0.033894513
239	0x3cdcf4b5	0.026972154
240	0xbd1234a3	-0.03569473
241	0x3e6acda2	0.22930005
242	0xbe4b6b03	-0.1986504
243	0x3eef0cbf	0.46689412
244	0x3f110187	0.56642956
245	0x3ece1f67	0.40258333
246	0x3db56963	0.088579915
247	0xbdd14dd3	-0.10219922
248	0x3e88e934	0.2674042
249	0x3e4b2fe3	0.19842486
250	0xbe8fc7b0	-0.28082037
251	0x3e2c9e19	0.16857184
252	0xbf44635b	-0.76714104
253	0xbe0cda72	-0.13755205
254	0xbe37376c	-0.17892236
255	0xbedb0c0b	-0.42782626

network_body._body_endoder.seq_layers.0.bias f4 [128]
0	0xbd59cca3	-0.053173672
1	0x3dceec10	0.10103619
2	0x3d8888bc	0.06666705
3	0xba7679f2	-0.00094023265
4	0x3d9bb50d	0.07602892
5	0x3d05c958	0.03266272
6	0x3c6cfc75	0.014464487
7	0xbd9d0d15	-0.07668511
8	0xbd979575	-0.074015535
9	0xbc98af3d	-0.018638248
10	0xbd7c37a1	-0.06157649
11	0x3d39598a	0.045251407
12	0x3cbacb8a	0.022802133
13	0xbd7ef1ff	-0.062242504
14	0xbd9a723a	-0.07541318
15	0xbc9ad2f3	-0.018899417
16	0xbd8bf68b	-0.06834134
17	0xbd839b70	-0.06426132
18	0x3d9f5dc6	0.07781558
19	0xbd6d887c	-0.05799149
20	0xbdc4c13f	-0.09607171
21	0x3c991eae	0.018691387
22	0x3cee6940	0.029102921
23	0xbd97ec87	-0.07418161
24	0xbcafbe9a	-0.02145319
25	0x3d26d462	0.040729888
26	0x3d0204ca	0.03174285
27	0xbd6725af	-0.056432422
28	0xbcf8290d	-0.030293012
29	0x3da7bbe0	0.08190131
30	0xbcb3951a	-0.021921683
31	0x3d3f8d00	0.046765327
32	0xbce6e594	-0.028185643
33	0xbdbbae38	-0.09164089
34	0xbc045882	-0.0080777425
35	0xbda8be29	-0.08239395
36	0x3d5314ba	0.05153344
37	0x3ca7bc93	0.020475661
38	0xbd2ee591	-0.0426994
39	0xbd26e9bf	-0.04075026
40	0xbcf8a69b	-0.030352881
41	0xbd40cb69	-0.047068987
42	0xbc290e16	-0.0103183
43	0xbd235c08	-0.03988269
44	0xbd0f52d3	-0.034991097
45	0x3c26a7a4	0.010171805
46	0x3dd5c7e7	0.10438519
47	0x3d1d0432	0.03833408
48	0xbdc1f625	-0.094707765
49	0xbabfbae9	-0.0014627847
50	0x3d1e58fd	0.038659085
51	0x3d52e426	0.05148711
52	0xbd4e52a3	-0.050371777
53	0xbd327ef8	-0.043578118
54	0x3baaa80b	0.0052080206
55	0xbceff61d	-0.02929216
56	0xbdd76965	-0.10518149
57	0x3bedbbe5	0.007255065
58	0x3c79770e	0.015226139
59	0x3d82bbd3	0.06383481
60	0x3dcb5885	0.09928993
61	0xbc1ca415	-0.009560605
62	0xbd039211	-0.03212172
63	0xbdc2cf9f	-0.09512257
64	0xbb9ff870	-0.004881911
65	0xbdaac526	-0.08338384
66	0xbdc6daa0	-0.09709668
67	0xbdb92d3f	-0.09041833
68	0xbcb864fb	-0.022509089
69	0xbd7e0140	-0.06201291
70	0xbc8eb526	-0.017420363
71	0x3d813495	0.06308857
72	0xbc9823bf	-0.018571733
73	0xbdc9269f	-0.098218195
74	0xbcf0e02e	-0.029403772
75	0xbbc1abcf	-0.0059103738
76	0xbdda7809	-0.10667426
77	0x3cc5bd0b	0.024137994
78	0x3d9997ae	0.07499634
79	0x3bb71bb1	0.005588018
80	0xbd45a755	-0.048255283
81	0xbd8b3b81	-0.06798459
82	0xbbb0e22f	-0.005398057
83	0x3cb372cf	0.021905331
84	0xbd28e141	-0.041230444
85	0x3d87fac0	0.06639624
86	0xbd8d9811	-0.0691377
87	0xbdbcb78a	-0.09214695
88	0xbd96f0a9	-0.07370121
89	0x3ce8204e	0.028335717
90	0xbd099ce4	-0.03359689
91	0xbbc1f728	-0.005919356
92	0x3d30d647	0.0431731
93	0xbd91cf8e	-0.07119666
94	0xbdc0b3a3	-0.09409263
95	0x3de51924	0.11186436
96	0x3cbefcb6	0.023313861
97	0x3ae39930	0.0017364379
98	0x3cb47a39	0.022030937
99	0xbc850125	-0.016235897
100	0x3dae6e7f	0.08517169
101	0x3b522045	0.0032062691
102	0xbd7e6581	-0.06210852
103	0xbd00b31c	-0.031420812
104	0xbb78b76c	-0.0037951125
105	0x3c9e9edf	0.019362865
106	0x3db39424	0.0876849
107	0xbd87d39b	-0.066321574
108	0x3d3cc81e	0.046089284
109	0x3b76f84e	0.0037684622
110	0x3d18897e	0.037240498
111	0xbd7e6d6b	-0.062116068
112	0x3ca45e74	0.02006457
113	0xbd29cd04	-0.041455284
114	0xbd53a9c9	-0.05167559
115	0xbcf3bf9d	-0.029754454
116	0x3dbcea29	0.0922435
117	0xbd03a11e	-0.032136075
118	0xbd2768a0	-0.040871263
119	0x3d7f849e	0.062382333
120	0xbd016cdb	-0.031597953
121	0xbdae1fab	-0.08502134
122	0xbba16009	-0.0049247784
123	0xbcb0248f	-0.021501807
124	0x3dbe6247	0.09296089
125	0xbd105bd9	-0.035243843
126	0x3d82f6a8	0.06394702
127	0x3bea3dba	0.0071484717

network_body._body_endoder.seq_layers.2.weight f4 [128, 128]
0	0x3da8ef1e	0.08248733
1	0x3e2da6a2	0.16958097
2	0xbcd5f705	-0.026118765
3	0xbdb48462	-0.088143125
4	0xbddbe240	-0.10736513
5	0xbdc72726	-0.09724264
6	0x3cca326a	0.024682242
7	0xbda45af7	-0.08025163
8	0x3cda3445	0.026636252
9	0x3d4e5fc3	0.050384294
10	0x3d7ccead	0.06172054
11	0x3cd6de41	0.026229026
12	0x3cad89f3	0.021183943
13	0x3d0be67f	0.034155365
14	0x3cd5b6d3	0.026088154
15	0xbd01e7cd	-0.031715203
16	0x3d4acc94	0.049511507
17	0xbc00ef1c	-0.007869508
18	0xbde7b9cc	-0.11314735
19	0xbcedc5d6	-0.029025
20	0xbc8167e4	-0.01579661
21	0x3d186e7e	0.03721475
22	0xbdb25ab2	-0.08708705
23	0x3d853733	0.06504669
24	0xbb25c3ea	-0.0025293776
25	0x3d690575	0.05688997
26	0xbd039789	-0.032126937
27	0x3d5c09a2	0.053720124
28	0x3d9b2bdb	0.07576724
29	0xbdd4e69a	-0.10395546
30	0xbcf0c6f6	-0.029391747
31	0x3d29f221	0.041490678
32	0x3d3fc41b	0.04681788
33	0xbc9a2fe0	-0.018821657
34	0x3b462eaf	0.0030240228
35	0x3d74e79e	0.0597912
36	0x3d06f4cb	0.032948297
37	0x3cb91871	0.022594662
38	0x3cc34a00	0.023838997
39	0x3dcda839	0.100418516
40	0xbceb1000	-0.028694153
41	0x3d17005e	0.036865585
42	0xbd484efb	-0.048903447
43	0x3c11f50a	0.0089085195
44	0x3c93123b	0.017953029
45	0xbc109d00	-0.008826494
46	0x3dc218f5	0.094774164
47	0x3e042381	0.12904169
48	0x3e0a1f53	0.13488512
49	0xbdac0def	-0.08401095
50	0x3d8f20c1	0.06988669
51	0x3d390346	0.045169137
52	0x3ca56940	0.020191789
53	0xbd0e8e9a	-0.034803964
54	0x3c62bfa5	0.013839637
55	0xbe00b34a	-0.12568393
56	0x3c63985a	0.013891304
57	0xbe32020f	-0.17383598
58	0xbd0a1810	-0.033714354
59	0x3ccca929	0.024983006
60	0xbd2795c3	-0.04091431
61	0x3d61a6a1	0.05509055
62	0xbd4bab1c	-0.04972373
63	0x3dbf2dce	0.093349084
64	0x3e005462	0.1253219
65	0xbdd5185c	-0.10405037
66	0x3e22fa91	0.15915896
67	0x3ed27912	0.41107994
68	0xbdfa73c4	-0.12229112
69	0xbdb7283f	-0.08943223
70	0xbe00c20a	-0.1257402
71	0xbc62bdf8	-0.013839237
72	0x3c5e4627	0.01356653
73	0x3d2994f0	0.041401803
74	0xbd3e040c	-0.04639058
75	0xbda12e02	-0.078701034
76	0xbc909a2d	-0.017651642
77	0xbca5d722	-0.020244185
78	0xbd9b89dd	-0.07594655
79	0x3d8469fe	0.06465529
80	0x3d87474a	0.06605394
81	0x3bee2409	0.0072674793
82	0x3d6ba5cf	0.057531174
83	0x3e005f87	0.12536441
84	0xbc9ae598	-0.018908307
85	0xbbff9f92	-0.0078010047
86	0xbddd2a4f	-0.10799085
87	0xbc8b6a07	-0.017018331
88	0x3d915af1	0.07097424
89	0xbdb85b92	-0.09001841
90	0xbe2acdde	-0.16680095
91	0xbd9f18e9	-0.07768423
92	0xbcde714d	-0.027153635
93	0xbd887b5e	-0.066641554
94	0x3d98c97c	0.07460305
95	0xbdb0c320	-0.08630967
96	0xbd59ef8b	-0.05320696
97	0x3d696bff	0.05698776
98	0x3dcc1485	0.09964851
99	0x3d06a45a	0.03287158
100	0x3ddc42e6	0.10754947
101	0x3d4378f9	0.04772279
102	0xbd8095d1	-0.06278575
103	0x3d17cf04	0.03706266
104	0xbbf30f58	-0.0074176006
105	0x3d045bc8	0.032314092
106	0x3dcb4eca	0.09927137
107	0x3d4a0c43	0.0493281
108	0xbe0ccb5f	-0.13749455
109	0xbdb2dc4b	-0.08733424
110	0xbd5838f9	-0.05278871
111	0x3e33415e	0.17505404
112	0x3d1f6c10	0.038921416
113	0xbd8f5f47	-0.070005946
114	0x3d4804e0	0.048832774
115	0xbb1e291e	-0.0024133394
116	0x3e4b8a17	0.19876896
117	0x3df8c4c6	0.121469066
118	0xbe200283	-0.15625958
119	0x3db99267	0.09061127
120	0xbd44c4b5	-0.048039157
121	0x3c0a35d9	0.00843569
122	0xbd322c67	-0.043499377
123	0xbcaf9803	-0.02143479
124	0xbd63c93a	-0.055611826
125	0x3d63ba9d	0.05559789
126	0x3dc9242f	0.098213546
127	0xbd09b197	-0.03361663
128	0xbe458d13	-0.19292097
129	0x3acc65ba	0.0015594282
130	0xbca2d542	-0.01987708
131	0x3b4dc762	0.003139936
132	0x3dd98b1d	0.10622237
133	0x3a62a17d	0.00086452794
134	0x3ac3eaac	0.0014947257
135	0xbdb1746b	-0.08664783
136	0x3dc68607	0.096935324
137	0x3d2924b7	0.04129478
138	0xbd7f77d0	-0.06237012
139	0xbe627fc5	-0.22119053
140	0xbdb2c6bf	-0.08729314
141	0x3daade65	0.083432
142	0xbd1444fd	-0.036198605
143	0x3c5287ee	0.012849791
144	0x3ceae234	0.028672315
145	0xbdfe53c2	-0.12418319
146	0xbddf7d00	-0.10912514
147	0x3c8e8ec4	0.01740206
148	0xbe179c49	-0.14805712
149	0x3c92d522	0.017923895
150	0xbd6de4e5	-0.05807962
151	0xbdb6c443	-0.08924153
152	0xbdb5720f	-0.088596456
153	0x3dbe5530	0.09293592
154	0x3d8cf5e5	0.06882838
155	0x3c924ba9	0.017858343
156	0x3db171af	0.086642615
157	0xbb6cd60d	-0.0036138326
158	0xbaa205ae	-0.0012361312
159	0xba960b25	-0.0011447413
160	0xbd85a427	-0.0652545
161	0xbc072680	-0.008248925
162	0x3e08b275	0.13349326
163	0x3d9547a9	0.07289059
164	0xbc482292	-0.012215273
165	0x3d99a114	0.07501426
166	0x3b35f9a3	0.0027767203
167	0xbcd50bd0	-0.02600661
168	0xbde080ab	-0.109620415
169	0x3cafedae	0.02147564
170	0xbd6998ec	-0.057030603
171	0x3d2c426a	0.042055525
172	0xbd85c28a	-0.06531246
173	0xbd881c44	-0.06646016
174	0x3ce2e5a0	0.027697384
175	0x3d1a607d	0.037689675
176	0x3da0b7dd	0.07847569
177	0xbe20afc7	-0.15692054
178	0xba02ec02	-0.00049942743
179	0xbd95bb5c	-0.073111266
180	0xba9727cb	-0.0011532245
181	0xbde67ea6	-0.11254625
182	0x3e583498	0.21113813
183	0xbd2ed0c9	-0.04267958
184	0xbdce4da3	-0.10073402
185	0x3d9ddc66	0.07708053
186	0xbd5f7259	-0.05455241
187	0xbd150559	-0.036382053
188	0x3d3066ca	0.043066777
189	0x3e175f07	0.14782344
190	0x3dbcddc5	0.09221987
191	0xbd610715	-0.054938395
192	0x3d14b1bd	0.036302317
193	0x3c26fee9	0.010192611
194	0xbdf700d0	-0.12060702
195	0xbd8625b3	-0.06550159
196	0xbdb0a343	-0.0862489
197	0xbdc74ef9	-0.0973186
198	0xbbf15e32	-0.0073659653
199	0xbe029a81	-0.12754251
200	0x3d0f8713	0.035040926
201	0x3df4c794	0.11952129
202	0xbda55754	-0.08073297
203	0x3e1da424	0.15394646
204	0xbbbbd7cd	-0.0057325126
205	0x3e5c1614	0.21492797
206	0xbd209d4b	-0.039212506
207	0x3da88774	0.08228961
208	0x3d584672	0.052801557
209	0xbcd1d616	-0.02561478
210	0xbcc1d8fd	-0.023663038
211	0xbd2b05a6	-0.041753434
212	0xbcda0e94	-0.02661828
213	0x3b40b8b4	0.0029406967
214	0xbdebaab5	-0.11507169
215	0x3dcd7a64	0.1003311
216	0xbcf5fea9	-0.030028658
217	0x3d02c84d	0.031929303
218	0x3e12c234	0.14331895
219	0xbdc4ec63	-0.096154
220	0xbe131987	-0.14365207
221	0xbcf9784a	-0.030452866
222	0xbd7b005d	-0.061279643
223	0xbc982603	-0.018572813
224	0x3e393622	0.18087056
225	0xbda6aa3b	-0.08137938
226	0x3caf7c81	0.021421673
227	0xbcf11a57	-0.029431505
228	0x3d362720	0.044470906
229	0x3da65629	0.081219025
230	0x3d933bb3	0.07189121
231	0x3da0e6b0	0.078565
232	0x3da5eca1	0.08101774
233	0x3c4aef91	0.012386219
234	0xbd9888c3	-0.0744796
235	0xbcca2604	-0.02467633
236	0x3db8786c	0.09007344
237	0x3dea4f58	0.11440915
238	0xbc7b450b	-0.015336285
239	0x3c61444b	0.0137491925
240	0x3cd334ef	0.025782077
241	0x3d537228	0.05162254
242	0xbde52d4d	-0.11190281
243	0x3ddf6473	0.10907831
244	0x3e892800	0.2678833
245	0xbda7da4d	-0.081959344
246	0xbd8959c4	-0.067065746
247	0xbd3f5ffa	-0.04672239
248	0xbde6cb53	-0.1126925
249	0xbd83af12	-0.064298764
250	0xbaf5b875	-0.0018746989
251	0xbd87e342	-0.06635143
252	0x3e2e556d	0.17024775
253	0xbd993d95	-0.07482449
254	0x3dd69ea8	0.1047948
255	0x3d727c02	0.059200294

network_body._body_endoder.seq_layers.2.bias f4 [128]
0	0xbcba18d7	-0.022716923
1	0x3c554dbf	0.013019024
2	0xbd75b879	-0.05999038
3	0x3c0906e6	0.008363461
4	0x3c9cb368	0.019128516
5	0x3da13924	0.07872227
6	0x3dafa2ff	0.08576011
7	0x3c301416	0.010746976
8	0x3d5d5a19	0.054041002
9	0xbc9e6f2e	-0.019340124
10	0x3d56bc51	0.052425686
11	0xbb71e080	-0.0036907494
12	0x3d4ba591	0.049718443
13	0x3d55ab5d	0.052165378
14	0x3bc3a3f1	0.005970471
15	0x3cd135ce	0.025538351
16	0x3d1c6150	0.038178742
17	0x3c9e104a	0.019294877
18	0x3dff6927	0.12471228
19	0x3d3538af	0.04424351
20	0x3da01dff	0.07818221
21	0x3a3aaad5	0.0007120793
22	0x3daaae7e	0.08334063
23	0x3da16331	0.078802474
24	0x3c1c0fae	0.009525223
25	0x3c5bbd97	0.013411901
26	0x3c4c2169	0.0124591375
27	0xbca0e1a6	-0.019638848
28	0xbcc788fc	-0.024357311
29	0xbcb5f854	-0.022213139
30	0xbd34a551	-0.04410297
31	0x3d1f5a5b	0.03890453
32	0x3d92dddd	0.07171223
33	0x3d243f7b	0.040099602
34	0xbcf36ff3	-0.029716467
35	0x3d8dfa08	0.06932455
36	0x3cb29c08	0.021802917
37	0xbbee6af6	-0.0072759343
38	0xbc0c0119	-0.008545184
39	0xbc54f059	-0.0129967565
40	0x3d19bb55	0.03753217
41	0x3d07dbe6	0.033168696
42	0x3c55f370	0.013058528
43	0xbd126d33	-0.03574867
44	0x3c950709	0.018191831
45	0x3cea0e68	0.028571323
46	0x3d76f8ab	0.060295742
47	0x3deb04f0	0.11475551
48	0x3d7c1798	0.06154594
49	0xbd8bc653	-0.06824937
50	0x3c84a5c8	0.016192332
51	0x3c660565	0.014039372
52	0x3d289f98	0.041167825
53	0x3d264277	0.04059073
54	0x3e005943	0.1253405
55	0x3ddbdabd	0.107350804
56	0x3d965112	0.07339682
57	0x3b9406bf	0.0045174058
58	0x3d4d2671	0.05008549
59	0xbc71c419	-0.014756226
60	0x3b7a0033	0.0038147091
61	0x3dcd3eef	0.10021769
62	0xbc940f6b	-0.018073758
63	0x3db85bae	0.090018615
64	0x3c77b99f	0.015119939
65	0xbceb96f2	-0.0287585
66	0xbcdbb183	-0.026818043
67	0xbb91b1c3	-0.0044462397
68	0xbd974a56	-0.07387225
69	0xbd884908	-0.066545546
70	0xbcf8f45f	-0.030389963
71	0x3c63a036	0.013893178
72	0xbccb0016	-0.024780314
73	0x3d160848	0.03662899
74	0x3de36d50	0.11104834
75	0x3c6290f4	0.013828505
76	0xbc4b25b5	-0.012399127
77	0x3cf3d175	0.029762963
78	0x3da0e9ac	0.078570694
79	0x3a299b6f	0.000647
80	0x3bb94982	0.005654515
81	0x3cc66d39	0.024222003
82	0xbc81d1aa	-0.015847046
83	0x3d84ed46	0.06490569
84	0x3d3ecd93	0.04658277
85	0x3d52ce22	0.051466115
86	0xbd2b4ea3	-0.04182304
87	0x3c8c2488	0.017107263
88	0x3db0b0a5	0.08627442
89	0x3d183478	0.037159413
90	0x3c2b71d4	0.01046415
91	0xbd65a0fd	-0.056061734
92	0xbd3badfc	-0.04582022
93	0x3ccee974	0.025257803
94	0x3d5ceb45	0.053935308
95	0xbd478780	-0.048713207
96	0x3dd5b5ee	0.10435091
97	0x3c9d7dee	0.019225087
98	0x3da9afca	0.08285482
99	0x3c8cddb2	0.017195556
100	0x3d421ef0	0.047392786
101	0x3da8d246	0.082432315
102	0x3d692e7e	0.056929104
103	0x3cf423ed	0.029802287
104	0xbce43770	-0.027858466
105	0x3b7b12a8	0.003831068
106	0x3d08576f	0.03328651
107	0x3d8f3372	0.06992234
108	0x3ddd2012	0.107971326
109	0x3d49aec3	0.04923893
110	0xbb244326	-0.0025064438
111	0x3da0191f	0.078172915
112	0x3d299e32	0.041410632
113	0x3c4902c5	0.012268727
114	0xbc787e2b	-0.0151668
115	0x3bb9129b	0.00564797
116	0xbd1ea7bc	-0.038734183
117	0xbd01dda9	-0.031705532
118	0x3d4ae0f7	0.04953095
119	0xbd1007aa	-0.03516356
120	0x3c6131cc	0.013744783
121	0xbd1d2977	-0.038369622
122	0x3cf56acc	0.029958151
123	0x3d8888c8	0.06666714
124	0x3a8868e8	0.0010407241
125	0xbd0ff443	-0.035145056
126	0xbd096709	-0.033545528
127	0x3ca12b94	0.0196741

action_model._continuous_distribution.log_sigma f4 [1, 2]
0	0xbceb9a66	-0.028760146
1	0xbda6ca1f	-0.0814402

action_model._continuous_distribution.mu.weight f4 [2, 128]
0	0xbb6f7ee4	-0.0036544139
1	0xbb82f155	-0.003996054
2	0x3c58a5a8	0.013223089
3	0x3a0970e4	0.0005242957
4	0x3c1e4dd9	0.009662115
5	0xbd4ef98e	-0.050530963
6	0xbd2633bd	-0.040576685
7	0x3d3086ac	0.043097183
8	0x3d8a4e0f	0.0675317
9	0x3b0bcda6	0.0021332293
10	0x3d5b96fd	0.05361079
11	0x3b617192	0.0034399969
12	0xbd219c1c	-0.039455518
13	0x3e0c750b	0.13716523
14	0xbba4f247	-0.0050337645
15	0xbc79fdfb	-0.015258308
16	0x3b991575	0.0046717473
17	0x3dad51bf	0.084628575
18	0x3c93fadf	0.01806396
19	0xbcb4c1a9	-0.022065
20	0x3d254f2e	0.040358715
21	0xbc430da3	-0.011905107
22	0x3d095078	0.033524007
23	0x3d30160e	0.042989783
24	0x3dc78122	0.09741427
25	0x3ce8d930	0.028423876
26	0xbcad0335	-0.021119693
27	0x3ce4fa0f	0.027951268
28	0xbd18e152	-0.037324257
29	0xbcbcd00c	-0.023048423
30	0x3dcc8614	0.09986511
31	0x3d7ac135	0.061219413
32	0xbc6ff630	-0.014646098
33	0x3d5c0a11	0.053720538
34	0x3cab96d0	0.020945936
35	0xba2c60fc	-0.0006575731
36	0xbcbcf0a0	-0.023063958
37	0xbc01b542	-0.00791675
38	0x3bd31278	0.0064414106
39	0xbd59ec5b	-0.05320392
40	0x3c5f041a	0.013611818
41	0xbd195a20	-0.037439466
42	0xbc22eedb	-0.009944643
43	0xbd42b6ef	-0.04753774
44	0xbaf6afe2	-0.0018820728
45	0xbc39bfa9	-0.011337199
46	0xbba07c5e	-0.004897638
47	0x3d69d1db	0.0570849
48	0x3d982321	0.07428575
49	0x3d1a2811	0.037635867
50	0xbc8eb223	-0.017418927
51	0x3cbc7dfb	0.02300929
52	0x3d38c3bf	0.045108553
53	0x3dad6438	0.08466381
54	0xbd5361c5	-0.051606912
55	0xbd7aa5a8	-0.06119314
56	0xbd2efe3c	-0.042722926
57	0x3bbe89bb	0.0058147586
58	0xbc0a3c8a	-0.008437285
59	0x3c0a2a5a	0.008432949
60	0x3c7a5f4b	0.015281509
61	0x3d92d536	0.07169573
62	0x3da51c20	0.08062005
63	0xbbc4381f	-0.0059881355
64	0x3dc1c1cb	0.09460791
65	0x3bd3af92	0.0064601386
66	0x3c2501e8	0.010071255
67	0x3c9b4589	0.018954055
68	0x3d09c925	0.033639092
69	0x3d01fd5a	0.031735756
70	0x3d04fbc3	0.03246666
71	0x3d0f6873	0.03501172
72	0x3cd3b025	0.025840828
73	0x3d0e45b6	0.03473445
74	0xbd7deff5	-0.06199642
75	0x3d3e28eb	0.04642574
76	0xbc808ea9	-0.015693026
77	0x3d341c5b	0.043972354
78	0xbc736a58	-0.014856897
79	0x3ce93c9b	0.028471282
80	0xbc105fbe	-0.008811889
81	0x3d406e33	0.046980094
82	0xbb895410	-0.0041909292
83	0xbbdef43b	-0.006804017
84	0x3d876a7e	0.06612109
85	0x3c544fcc	0.012958478
86	0x3c8a229d	0.016862208
87	0x3cdfff8a	0.02734353
88	0x3d9acf7f	0.07559108
89	0xbbb108d7	-0.005402665
90	0x3d0dc0b5	0.034607608
91	0x3ca41c44	0.02003301
92	0x3c7f927b	0.0155988885
93	0xbce10839	-0.027469741
94	0x3d5eb95f	0.054376002
95	0x3ce373d3	0.02776519
96	0x3c03c7ec	0.008043271
97	0xbc914d0a	-0.01773693
98	0xbd572da4	-0.05253376
99	0x3d857d9c	0.06518099
100	0xbcbb71f8	-0.022881493
101	0x3d8fe639	0.07026333
102	0xbcb9215c	-0.022598915
103	0xbbb20629	-0.0054328633
104	0x3c915b47	0.01774372
105	0x3ba03974	0.0048896614
106	0xbcc9b680	-0.024623156
107	0xbd61eee8	-0.05515948
108	0xbdbbba30	-0.09166372
109	0x3de9dfb5	0.11419622
110	0xbd1ab72c	-0.037772343
111	0xbd56a53a	-0.052403666
112	0xbbe254c9	-0.00690708
113	0xbc5941e9	-0.013260343
114	0x3be25850	0.0069075003
115	0xb9da2e8d	-0.00041614883
116	0x3cf3a4b6	0.029741626
117	0x3c2f200e	0.010688795
118	0x3d1caebc	0.038252577
119	0x3c2db49a	0.010602141
120	0xbd0a2020	-0.033722043
121	0x3c7db92d	0.015486044
122	0xbb859de2	-0.004077659
123	0xbc8d996f	-0.017285077
124	0x3cb52ba4	0.022115536
125	0x3dc8b465	0.098000325
126	0x3c9a7b3c	0.01885759
127	0x3cd441ef	0.025910346
128	0xbb7f74b7	-0.003897948
129	0x3d03f9ea	0.03222076
130	0xbcbacf34	-0.02280388
131	0x3b1d7dbd	0.0024031245
132	0xbd1f02be	-0.038820975
133	0x3c9a5072	0.018837187
134	0x3d847ca0	0.06469083
135	0x3b0b32b0	0.002123993
136	0xbd4c2d15	-0.04984768
137	0x3d2eff75	0.04272409
138	0xbd05c5d4	-0.032659367
139	0x3d005e1b	0.031339746
140	0xbbecbf9a	-0.007224989
141	0xbd36da2e	-0.044641666
142	0xbd19d439	-0.037555907
143	0xbc9aa9df	-0.018879829
144	0xbcc1a715	-0.023639241
145	0xbd3fbbc9	-0.046809945
146	0x3e1d3810	0.15353417
147	0xbccf1779	-0.025279747
148	0x3dba18de	0.09086774
149	0xbc92a237	-0.017899616
150	0x3dae2acd	0.08504257
151	0x3d80e704	0.06294063
152	0xbd2ed39b	-0.04268227
153	0x3c247a1a	0.010038877
154	0x3c305155	0.010761579
155	0xbc8e3d28	-0.017363146
156	0xbd1f6140	-0.038911104
157	0xbd4797ee	-0.048728876
158	0xbcbbb76d	-0.022914613
159	0x3d40f1e4	0.047105685
160	0x3d8595fd	0.065227486
161	0xbd113b21	-0.03545678
162	0xbc062b15	-0.0081889825
163	0x3d4796e9	0.048727904
164	0x3c1bf131	0.009517954
165	0xbaa5fe12	-0.001266422
166	0xbd3e812d	-0.04650991
167	0x3c81366a	0.015773017
168	0x3cd7104c	0.026252888
169	0x3c02621b	0.0079579605
170	0x3ba3c20f	0.004997499
171	0xbc14330a	-0.009045372
172	0xbcb8a58e	-0.02253988
173	0x3b7aa0c1	0.003824279
174	0x3cf309c8	0.02966775
175	0x3df23629	0.118267365
176	0x3d91b03d	0.07113693
177	0xbb84d795	-0.0040540197
178	0xbceffc25	-0.029295037
179	0x3d277f76	0.04089304
180	0xbc95b7fa	-0.018276203
181	0x3c99d4e3	0.01877827
182	0x3dbed412	0.09317793
183	0x3de07d3e	0.10961388
184	0xba60a228	-0.0008569085
185	0x3c706029	0.014671364
186	0xbd0e2bc7	-0.034709718
187	0x3d2650a2	0.04060424
188	0xbc2c0de5	-0.01050136
189	0x3dcfe569	0.101511784
190	0xbd7149aa	-0.058908142
191	0x3da7aee8	0.081876576
192	0xbc93704b	-0.017997881
193	0x3c57c35f	0.013169139
194	0x3d313dc4	0.043271795
195	0xbcae13f3	-0.021249747
196	0xba9f4005	-0.0012149817
197	0xbd0571ff	-0.03257942
198	0x3b172999	0.0023065566
199	0x3c8ad58b	0.016947528
200	0xbd198353	-0.037478756
201	0x3d1a6744	0.037696138
202	0x3d3fad0b	0.046795886
203	0x3caf5206	0.021401417
204	0x3c547872	0.0129681695
205	0x3cb0c232	0.021576975
206	0x3cbe56a7	0.023234678
207	0x3d189006	0.037246726
208	0x3c835c77	0.016035302
209	0x37341192	1.0732927e-05
210	0x3ce1ebec	0.027578317
211	0xbb3661c7	-0.0027829276
212	0xbdb0876e	-0.08619581
213	0x3ca48790	0.020084172
214	0xbd045b75	-0.032313783
215	0xbc059132	-0.008152293
216	0x3dafb846	0.08580069
217	0xbc483ebf	-0.012221991
218	0xbcd4ce20	-0.025977194
219	0xbc497da9	-0.012298026
220	0xbd1a3164	-0.03764476
221	0xbc6a0c20	-0.014285117
222	0x3c00e185	0.007866268
223	0x3c405a28	0.011740245
224	0x3dcbae7b	0.09945389
225	0x3cde5385	0.027139435
226	0x3c8dc43d	0.017305488
227	0xbd8e2b80	-0.06941891
228	0x3ca6f8a8	0.02038224
229	0x3d8d53b0	0.06900728
230	0x3c26e3c4	0.0101861395
231	0xbcc89252	-0.024483833
232	0x3c4eede3	0.012629959
233	0xbccebbc7	-0.025236024
234	0x3c932cb0	0.017965645
235	0x3d209e3e	0.03921341
236	0x3d13f9cc	0.036126897
237	0xbdb4edbe	-0.08834408
238	0xbd035b94	-0.032069758
239	0xbd5bba3e	-0.05364441
240	0xbc8a509c	-0.01688414
241	0x3c1bf5a1	0.009519012
242	0xbca5d954	-0.020245232
243	0xbc88a85c	-0.016681843
244	0xbd1f0626	-0.038824223
245	0x3cce1cae	0.02516016
246	0x3d1028ea	0.03519527
247	0x3c5abc57	0.013350568
248	0x3ccc7ee9	0.02496286
249	0x3cb0c972	0.021580432
250	0x3c6a323e	0.014294205
251	0x3d0fd687	0.0351167
252	0xbc45c43d	-0.012070713
253	0xbda18b9a	-0.07887955
254	0xbaeba534	-0.0017978312
255	0xbc261455	-0.0101366835

action_model._continuous_distribution.mu.bias f4 [2]
0	0xbd1fc41a	-0.039005376
1	0x3bf63c21	0.007514492
