Assets/Environment4/Brains/25actions/Env4Behavior 1.onnx (onnx, 86951 bytes, 6 tensors)

network_body._body_endoder.seq_layers.0.weight f4 [128, 9]
00000000: 7b82 9abe 25b0 07be 7cb0 fa3e 8d6f b03e
00000010: dd36 6fbd 3e6b 993d 37ab 0b3e b5fd aa3d
00000020: 028c ae3e 6b5e cabe 63d7 65bf 3360 62bd
00000030: 2a7e abbc 2c0b 32bf 2c5c 59bf 33af 5b3e
00000040: c6b3 0d3e 49a5 56be 688e d73d c9e7 4ebe
00000050: 4247 89bd d01f 5bbe 6929 aabd b283 383e
00000060: 86c8 9f3e 0dc4 d5bd 8d23 903e 0e2c b2be
00000070: 919b 133f 2965 1cbe 6c7d b53e 172a 193e
00000080: 7a47 cb3e 308e f13e aab3 a83c 0c54 983e
00000090: 2bc9 17be 7178 9dbe 68b2 943d 785c 9c3d
000000a0: 7b8a 95be b2f2 8c3e 0170 933d 7615 c63d
000000b0: 3eee 8a3e 456e e13e cb51 e73c 3564 313f
000000c0: ac0f 2f3d ea59 30bf fe37 ccbe 5eec 373e
000000d0: 2223 2e3e 4efa 503e a1f7 4ebf 2036 babe
000000e0: ddbc 87be 388a 8ebe c612 97be 3e42 2b3f
000000f0: a73a 9b3e c467 8f3e e0e5 03bf 1862 f0be
00000100: 76b6 be3d 1a9d 5a3e ee87 8b3e 64a9 c73d
00000110: d16c 323e 60e0 adbe d0b2 a43d c25b 1f3f
00000120: 394a 91be dea5 04be 4c2f 9f3e e561 00be
00000130: e236 01be 5319 163f 466d 853e be29 65be
00000140: 2926 c5be 405a 9c3e 9539 a83c 35e2 afbd
00000150: f51e bebe ac81 f53d b309 1a3d bbbf 8a3e
00000160: 057a 2e3b 8ec7 143e 5d61 cc3e 8e1d b83e
00000170: b045 3f3e 46b5 243e 3a06 1e3e 0b88 183f
00000180: 3719 4abd a70a 703e 7b07 0c3f ba00 12bd
00000190: 3497 6e3e a57b 00be 37f6 babe c838 853f
000001a0: a545 fd3c 2a14 b33d 8c3a fb3d c241 19bf
000001b0: 2299 8b3e 4bd1 c03e dfa6 f0be 2ee8 abbe
000001c0: e863 e13c 03c3 333e e7ed d0be 9dec 973e
000001d0: 3fa5 843e cfcf e7be ea3f 0ebf c8e8 41bf
000001e0: e28e 5cbe 81e6 b9be 9037 0d3e b5a1 563e
000001f0: 6507 f9be 3c26 2cbf d70e 90be e82a e63d
00000200: 27ed 283f f38e a7bd 5cb9 ad3e 74df 133f
00000210: fdd9 253e 043c 133e 5849 ac3e b382 f5bd
00000220: 6c77 f1be db00 22bf 5677 a83e b1f1 663e
00000230: f5d1 3b3f 0c52 71bd 10fd cd3e 692c 0b3f
00000240: 910e afbd 386b ddbd 4a16 23bd 733c 43be
00000250: b474 893e ea09 6fbe 968c ecbe ed03 c13c
00000260: c9f9 afbe b80d e33e 4259 0bbf 6079 dbbe
00000270: 6de9 fcbc 5c74 febe 1af8 4d3e 3308 453e
00000280: 60e1 2cbd 53c4 36be dd96 a03e f580 37be
00000290: e814 b5be f9d5 d73e c1ea 1abe 3da0 8cbe
000002a0: b3a2 a33e 730c e63e a528 a23e 5c3a 303e
000002b0: c7fa eb3e ee91 44bf 562b 9c3e 6f33 ea3e
000002c0: 71a8 0dbf 2756 e4be 32a5 5bbe 6a57 0dbc
000002d0: 5c45 91be 98cf 38be a1ac 1cbe 8ee6 88be
000002e0: 088f d8be 821e e5be 733e c5be 100f 343e
000002f0: 6e3e 303f 7691 113e c94e dbbe 49e1 1cbd
00000300: 809e 8bbe 771b 45bf ce71 fc3d 17f6 e83d
00000310: 2025 cdbd ffb8 04bf 48ec d63e 02ee b2be
00000320: 45c0 5d3e 6c75 c8be 40ee 7fbe 8031 a7bd
00000330: 193e e53e c55c a8bd f816 313e 5e65 9bbe
00000340: 07e1 e53d d65b e23d 858c 713e dbcc a43e
00000350: 2547 83be b95b 1b3f 9b93 ddbe ab4b 66bd
00000360: 0a1e 193d 4277 0bbd 3f2f 2b3f e6b5 18bd
00000370: 7b27 d7bd 36bd a5bd cf5d 913e 57b9 98be
00000380: a858 88be 6ffd 753e d601 4c3d 2ca8 2c3e
00000390: 55cc d53d 9bd3 823e fc64 a03d a035 b5be
000003a0: f645 5fbe a87e d03d 5be5 523d 10d1 26be
000003b0: 7bd7 89be becd 283f 0508 163f 9999 173f
000003c0: a359 83be d700 af3e bc9f c33d 79d5 c03e
000003d0: 2d11 bd3e babb 903e 1fbd a3bd 0727 dd3c
000003e0: 1779 0dbf 1470 c3bd 0612 f73d 22f7 bdbe
000003f0: ff96 d1bd c4db 6f3e 1d2d d83e 9494 bbbe
-0.30177674 -0.13250788 0.48962772 0.34460106 -0.05840193 0.07491158 0.13639532 0.08349172
0.34091192 -0.3952516 -0.8978178 -0.055267524 -0.020934183 -0.69548297 -0.8490627 0.21453552
0.1383811 -0.20961489 0.10525209 -0.20205607 -0.067030445 -0.21398854 -0.083086796 0.18018988
0.31207675 -0.10437784 0.28152123 -0.34799236 0.5765925 -0.15272965 0.35447252 0.14957462
0.3970297 0.47178793 0.020593483 0.29751623 -0.14822833 -0.30755952 0.07260591 0.076348245
-0.29207215 0.27528912 0.071990974 0.09672062 0.2713489 0.4402944 0.028237244 0.6929353
0.042739555 -0.688872 -0.3988647 0.1796126 0.1700559 0.20407984 -0.808466 -0.3636942
-0.2651128 -0.27839828 -0.2950651 0.6689795 0.30318186 0.28008854 -0.51522636 -0.4694984
0.093121454 0.21348992 0.27252144 0.097491056 0.17424323 -0.33960247 0.08041918 0.62249386
-0.2837694 -0.12953898 0.31090772 -0.12537344 -0.12618592 0.5863239 0.26059932 -0.22379205
-0.38505676 0.30537605 0.02053527 -0.085880674 -0.37132993 0.119876236 0.037606906 0.27099404
0.0026623022 0.14529249 0.39918032 0.35960048 0.18678927 0.16084775 0.15432063 0.59582585
-0.049340453 0.23441564 0.54698914 -0.035645224 0.23299867 -0.12547167 -0.36515972 1.0407953
0.030916998 0.0874408 0.12267026 -0.59865963 0.2726527 0.37659678 -0.47002313 -0.33575577
0.02751346 0.1755486 -0.40806505 0.2967271 0.25907323 -0.45275733 -0.55566275 -0.7574582
-0.2153888 -0.36308673 0.13790727 0.20960124 -0.48638454 -0.6724584 -0.28136322 0.112386525
0.65986866 -0.08181562 0.3393048 0.5776284 0.16196437 0.14378363 0.33649707 -0.119878195
-0.47161424 -0.63282555 0.32903546 0.22553135 0.73367244 -0.058916137 0.40232134 0.5436464
-0.085477 -0.10811466 -0.03981618 -0.19066028 0.2684685 -0.23343626 -0.4620101 0.023561442
-0.34370258 0.44346404 -0.5443307 -0.4286604 -0.030873025 -0.4969815 0.20114174 0.19241409
-0.04220712 -0.17848329 0.313651 -0.17920287 -0.35367513 0.42155436 -0.15128614 -0.27466002
0.31960067 0.44931373 0.31671634 0.17209762 0.46089765 -0.7678517 0.30501813 0.45742366
-0.55335146 -0.4459698 -0.21449736 -0.008626798 -0.2837323 -0.1804794 -0.15300228 -0.267384
-0.42296624 -0.44749838 -0.38524207 0.17583871 0.6884526 0.14215645 -0.42833546 -0.038300786
-0.27269363 -0.76995033 0.12326394 0.11375063 -0.10016847 -0.5184478 0.41977143 -0.3494721
0.21655376 -0.39152086 -0.24993229 -0.08163738 0.4477394 -0.082208194 0.17293918 -0.30350775
0.11224561 0.110526726 0.2358876 0.32187542 -0.25640216 0.6068683 -0.43276677 -0.056224506
0.037382163 -0.03404928 0.66868967 -0.037282847 -0.10505577 -0.0809273 0.28391883 -0.29828903
-0.2663014 0.24022458 0.04980644 0.16861027 0.10439364 0.25552067 0.07831761 -0.35392475
-0.21804032 0.10180408 0.05148826 -0.16290689 -0.2692221 0.6593894 0.58605987 0.59218746
-0.25654325 0.34180328 0.09551951 0.37662867 0.36927167 0.28268224 -0.07995056 0.026996149
-0.55262893 -0.095428616 0.120639846 -0.3710261 -0.10233878 0.23423678 0.4222192 -0.36636794

network_body._body_endoder.seq_layers.0.bias f4 [128]
00000000: adfb 0d3c ad7b c83b 4d3f 733c c50e 003a
00000010: 0bb8 483d 2195 0f3d 7398 053d 326b 413c
00000020: eae7 cf3c b1c4 c13b a83f 3e3c daf0 113d
00000030: b465 2d3d 711e cc3c 4c03 403d 64a2 353c
00000040: 3e87 2f3b 32f7 2f3d 7977 cf3c 6541 3a3d
00000050: fd11 24bc ea2a 4a3b c5f6 59bc 76b0 8f3c
00000060: bbb7 4c3d 8b67 673c b65a 23bc 3534 5539
00000070: 8db1 fc3c f855 493d 6258 bd3c b00a 613a
00000080: c8fe 623c ae7a 8e3c 024d 1c3d 1703 133c
00000090: 5e2a 883c 4bd8 383d 7be5 aa3c a2c6 f23c
000000a0: a95f 333c ee4e 9b3b 32fd 84bb b2f5 213d
000000b0: 5f8a 563d d7c9 3d3c 4f93 163c 5d5e 003d
000000c0: 9285 eb3c 27f7 de3c ce69 303b 1b2f 203c
000000d0: 1fd2 81bc af16 abbc c04a d13c f90e 363d
000000e0: bf7a 7f3d 288a 6fbb fc2a 363d 531e 0b3d
000000f0: 9d67 123a dba7 013d 56b4 aebc 7c5b a13c
00000100: 5cae 903c 5924 743c 8280 223d 4de4 2a3c
00000110: 5b36 183d 09b6 0e3d e906 923c 637c eb3c
00000120: 55c7 7b3c eda0 033d d253 c2bc 8df6 1ebc
00000130: 5a32 633d 3e70 243c 4ca8 173d 5b79 473d
00000140: bac3 af3c f873 cb3c c29b 2b3d c01f a93c
00000150: bb4b 0b3d 4175 56bc f83f 923b 7489 64bb
00000160: d6e7 71bc f682 563c 2d43 a4bc 3fc0 903c
00000170: 8387 883c e348 f33c 8340 ef3c 2337 a0ba
00000180: 91b7 c33c 9980 bf3c b337 aa3c 7d8d 193a
00000190: 0715 eb3c 41af b53b 8f10 dcbb 0da5 b83c
000001a0: e454 553c 2a77 c13c fb88 aa3b d5a5 dab9
000001b0: dba8 99bc be90 233d f2d3 c83c 3553 143d
000001c0: 81ac 83bc 0d67 983b caf5 b53c 2238 103c
000001d0: 5518 7b3d 438f faba 8d5d f23c 886d f43c
000001e0: d5f0 bd3c 4b29 ac3a de47 293d b651 b83c
000001f0: 1cf0 11bc 4068 c83c 0fec d03b b4bf 323d
0.008665961 0.006118259 0.014846635 0.00048850133 0.049003642 0.03505433 0.03261609 0.0118053425
0.02537914 0.00591334 0.0116118565 0.035630085 0.04233332 0.02491686 0.046878144 0.01108608
0.0026783491 0.042960353 0.025325524 0.04547252 -0.010014054 0.0030848333 -0.013303463 0.017540198
0.049979907 0.014123808 -0.009970358 0.00020332712 0.030846382 0.04915425 0.023113433 0.00085846614
0.01385469 0.017392483 0.038159378 0.008972905 0.016621765 0.045128148 0.020861378 0.029635731
0.0109481 0.0047396338 -0.0040585035 0.039540954 0.052378055 0.011583767 0.009190395 0.03133999
0.028750215 0.02721746 0.0026918533 0.009776856 -0.015847264 -0.02088484 0.025548339 0.044447873
0.06237292 -0.0036550853 0.044474587 0.033964466 0.00055848976 0.03165422 -0.021326225 0.019696943
0.017661266 0.014901244 0.039673336 0.010430408 0.037161212 0.03484157 0.01782556 0.028745836
0.015367349 0.032135893 -0.02372161 -0.009702337 0.05546794 0.010036526 0.037025735 0.048699718
0.021455634 0.024835572 0.04189659 0.020645022 0.03400777 -0.013089479 0.004463192 -0.0034871968
-0.014764747 0.013092747 -0.020051563 0.017669795 0.01666618 0.029697841 0.029205566 -0.0012223463
0.023891242 0.02337675 0.020778513 0.000585757 0.02869655 0.0055445735 -0.006715841 0.02253964
0.013020728 0.023616392 0.0052043176 -0.00041703755 -0.018757274 0.03993296 0.024515126 0.036212165
-0.016073467 0.0046509565 0.022211928 0.008802446 0.0613025 -0.0019116182 0.029585624 0.029837385
0.023186127 0.0013134865 0.041328304 0.0224999 -0.008907344 0.024463773 0.0063757966 0.043639854

network_body._body_endoder.seq_layers.2.weight f4 [128, 128]
00000000: 5952 32bd 158a 1bbd 5bdc 4d3d e8d7 fa3d
00000010: 835c 11be f422 c63a 82d9 92bd c962 d2bd
00000020: caca 54bd b6e3 623d 793a f3bd 8641 be3d
00000030: ed09 003e fa19 e13d 9e0d c83c 2876 90bd
00000040: 8c35 30bb 8f6e d0bc 16fe 1b3e b445 ca3d
00000050: 86c9 b4bc b113 19bd 41f3 193e 90dc a7bc
00000060: 51c0 31bc 05fd 233e d760 f33d 6b02 733d
00000070: d569 36bc 46f4 33bd 30ed 51bd 3fa8 12bd
00000080: aa56 4bbe d48e c2bd 611a 27bd e962 41be
00000090: e91e 363d 4613 603d 1f6f 35be 398f 31be
000000a0: 7949 713d c765 c43b c59e 773c 779f a43c
000000b0: 010d bdbd 2535 263c 46eb 3cbe dc07 8cbd
000000c0: 99f6 e3bd 6e13 e4bd d624 153d c39f 06bd
000000d0: bf10 203d 9812 c83c 68f0 8cbd 7c5f eb3d
000000e0: 3ed6 1abb c0d7 b7bc d3f7 8c3d 4ebc 84bc
000000f0: b157 ef3d 55f3 df3b 8184 a9bd 31b0 dc3c
00000100: 582b 063e 003b 313d 27fe 293d 2e85 043a
00000110: 0f5c 863d 419d 393d 897f 113c a51d 203e
00000120: 6be2 2dbd 4aa5 83bd 411d ac3d 2329 94bd
00000130: 8c81 e8bc 8136 583d b385 853d e94f abbd
00000140: 23d1 98bd ff84 9abc 28e4 d7bc 11fb a8bd
00000150: e77d 10bc 0517 d7bd 1fdd 8e3d b5e9 27bd
00000160: 50d0 2c3d d61b 7abd 0df1 17bd 2ecd cf3c
00000170: b783 dabc db6e 61bd bb57 b83d f838 883c
00000180: c361 e53c b789 c5bc 5857 333c 8acd a5bd
00000190: 01aa d33c 7b18 863d 8dfc 40be 3dab 463d
000001a0: c9a8 8f3c 2ac2 87bc 12cd 98bd 76b4 94bd
000001b0: fda0 0b3e 58fc 683c b5fa 303d 3994 b8bd
000001c0: 1ef1 fcbd b026 bbbd 8164 2d3d 88b8 efbb
000001d0: e32e 4ebb 33a2 1f3e 00a2 86be b232 3c3e
000001e0: e487 943c acf7 98bd e4ba 853d ed62 173e
000001f0: 0b2c 82bd faef b43d 4ea9 d3bd 66b1 b0bd
00000200: 7c9a 85bd eb88 11be 2996 a03d 3ff5 5b3d
00000210: c4af 0bbd 6bbc c1bd 0489 1a3e 1d60 933c
00000220: d8e1 d2bd 513e c4bd 9018 cdbc 9ab4 bc3d
00000230: e60d 6b3d 847e 61bd 116c 323d a24f abbd
00000240: c097 573e c7c9 70bd b562 fc3c e1c5 2abc
00000250: 4ac6 923b cd71 c23d 1530 b9bd 9fce 9aba
00000260: cb5a 773d b179 503d dee8 babd 5036 62bc
00000270: 55b6 f43d 43f2 2fbe effe 8dbd 678e 2f3c
00000280: af6d f13d 6037 bbbd 4672 1abe dce0 24bc
00000290: bad5 e7bd 8bfe d63c 1c17 87bd d05f 1a3d
000002a0: 0ebd 11ba a382 91bd 72ae 5bbd 5f70 67bd
000002b0: b4c9 c73d 5995 5dbc 35aa 9a3d 6339 a8bd
000002c0: b5b4 9d3d 04f6 e7bd 688b 5c3d 23d7 a4bb
000002d0: 0940 f93b ea5d a43e 554f e53d 5845 a0bd
000002e0: e734 1b3d 4523 433e 293d e8bc c364 313e
000002f0: dce5 f6bc a50a 533d 352d 4f3c 8a16 3cbc
00000300: 2ca8 053d de29 903d 9ac0 853b 13fa 3fbd
00000310: ac6f 1cbe 9ccf 94bd ea78 cdbd 3105 cc3d
00000320: 9828 cabd 9fc9 c33d 0fee 423e 2d01 9f3d
00000330: bb13 a7bd 6a41 ee3d 7e80 d1bd bdbb 913b
00000340: 922e 08bc ff8d 223e c7b2 61bc 9406 373d
00000350: 8ba3 963d 11c3 ecbd 31ee 5b3c c12e 96bd
00000360: 56a4 27bd cb41 c7bc c8ba b1bc f990 2dbe
00000370: d24b 41bc 5d7e 1d3d 37d5 27bd 8c91 793d
00000380: ce83 f93c 6dfa 9cbd 42d0 f43c d259 abbd
00000390: 314f 58bb 1312 97be 316e cabd ef45 8cbd
000003a0: b237 88bd 9f30 d8bc 8d4e 48bc 1949 44bd
000003b0: 13fa 3c3d b38a 8f3c 789f d0bd 07b6 84bd
000003c0: 9aa0 71bd 2938 b3bd 30a1 2c3c 6b84 38bb
000003d0: 16ea 8db9 3cbc 06bd 0aee 56bc f48d 993d
000003e0: 67e6 8abb 7b23 f33c 35f7 a53c 5ef1 37be
000003f0: f104 9dbd d746 f93d 383d d13d 002a f1bc
-0.043535564 -0.037973482 0.050258975 0.12248212 -0.14195447 0.0015116618 -0.071703926 -0.10272748
-0.051951207 0.055392943 -0.11876387 0.09289841 0.12503786 0.10991283 0.024420556 -0.070537865
-0.0026887385 -0.025443343 0.15233645 0.09876576 -0.02206875 -0.037372295 0.150342 -0.020490915
-0.010849074 0.16014488 0.11883705 0.059328478 -0.011133631 -0.04393413 -0.05125159 -0.035804983
-0.19857278 -0.094998986 -0.04079664 -0.18885387 0.044463072 0.05470588 -0.1771817 -0.17339791
0.05890796 0.005993578 0.015113537 0.02009557 -0.09230996 0.010144507 -0.18449125 -0.068374366
-0.11131019 -0.111365184 0.036412083 -0.032867204 0.03907847 0.024422929 -0.06881791 0.114928216
-0.0023626233 -0.022441745 0.06883206 -0.016203072 0.11686648 0.0068344274 -0.08277226 0.026939483
0.13102472 0.043269157 0.041502144 0.0005055246 0.065605275 0.045315985 0.008880504 0.15636308
-0.042452257 -0.06428011 0.08404017 -0.07234409 -0.028382085 0.052786354 0.06519642 -0.08364851
-0.07461765 -0.018862246 -0.02635391 -0.08251012 -0.00881908 -0.105024375 0.06975769 -0.040994365
0.04219085 -0.061061703 -0.03709512 0.025366392 -0.026674135 -0.05503736 0.09001108 0.016628727
0.028000718 -0.02411352 0.010946117 -0.08095844 0.0258379 0.06547638 -0.1884634 0.04850315
0.017536538 -0.016572077 -0.07460989 -0.07260983 0.13635631 0.01422032 0.043207843 -0.09012646
-0.12350677 -0.091382384 0.042332176 -0.007315699 -0.0031461052 0.15589218 -0.2629547 0.18378714
0.018131204 -0.07469115 0.06529787 0.14783831 -0.06356057 0.088348344 -0.10335027 -0.08627586
-0.06523606 -0.14212386 0.07841141 0.05370068 -0.03410317 -0.09459766 0.1509133 0.017990166
-0.102969825 -0.095821984 -0.025036126 0.092141345 0.0573863 -0.055052295 0.04356009 -0.08364798
0.21053982 -0.05878618 0.030808786 -0.010423155 0.0044792043 0.09494362 -0.09042374 -0.0011810845
0.06038932 0.050897304 -0.09126447 -0.013806894 0.119488396 -0.1718226 -0.0693339 0.010715104
0.117884986 -0.09141421 -0.15082654 -0.010063376 -0.11320062 0.026244422 -0.06596205 0.03768903
-0.00055594824 -0.07104995 -0.05363316 -0.05650365 0.09755269 -0.013524377 0.07551996 -0.08214071
0.07700483 -0.11326221 0.053843886 -0.005030529 0.0076065105 0.321029 0.11196772 -0.07825726
0.03789225 0.19056423 -0.028349476 0.17323594 -0.030138902 0.051523823 0.012645056 -0.011479983
0.032631084 0.070392355 0.004081798 -0.04686935 -0.15276974 -0.07266161 -0.10032828 0.09961928
-0.09871024 0.095599405 0.19036125 0.07763896 -0.0815806 0.116335705 -0.10229586 0.004447429
-0.0083118845 0.1587448 -0.013775534 0.044684008 0.07355412 -0.115606435 0.0134234885 -0.07333136
-0.040928207 -0.024323365 -0.02169551 -0.16949834 -0.011797862 0.038450588 -0.040974822 0.06092982
0.030458357 -0.076649524 0.029884461 -0.08366741 -0.0033006186 -0.29505977 -0.098842986 -0.06849276
-0.06651248 -0.026390372 -0.012225759 -0.047921274 0.046136927 0.017522192 -0.10186666 -0.064800315
-0.058991052 -0.08750946 0.010536477 -0.00281551 -0.00027068023 -0.032894358 -0.013118276 0.074977785
-0.004238892 0.029680004 0.020259479 -0.17963168 -0.07666958 0.12171715 0.10216755 -0.029438972

network_body._body_endoder.seq_layers.2.bias f4 [128]
00000000: 0b1b a43c 4990 a4bb 558a 133d 906a ae3c
00000010: 3680 163c 6a82 643b 4e45 533b d438 303d
00000020: a26a 613c 83bc 193c 2207 d23c 5b13 ab3c
00000030: cb47 ad3c b907 323c 6bef e33b 6229 2d3c
00000040: 595a 393b b890 633d 25f1 94b8 57d8 81bb
00000050: 475d 783c 296c df3c 3fa5 a73c bd68 f03c
00000060: 7055 823c 6e97 e83b a320 8b3c 2912 083c
00000070: bfea 273c c90e 183d 5ca9 8b3d fb4a 303c
00000080: 74fe 743c c937 96ba ff6d ed3b 39b1 c13c
00000090: 945d 793c 1cfd d1bb ae7c ef3b 084f f43c
000000a0: b139 303b 6db2 6b3d 1117 3f3c 432e a83b
000000b0: 4396 c23c aafb 803c 8e8a ad3b 8357 fb3c
000000c0: fcf8 ab3a d12b 033b 6913 e43b 912b 013d
000000d0: 947a d63a 4d32 6b3c 0a82 b63c 16e4 273c
000000e0: c38f 283c 68ba 92bb 6bae af3b 9415 ef3b
000000f0: 44ba d83c 4bb8 833c 9dbc 043d 11eb b13c
00000100: 71de fa3c 7390 7a3c b30a ba3c 32ee bf3b
00000110: 22fe 643c 5ccc 333c 9673 37bb b25f ca3c
00000120: 66f5 c03b 8b97 9ebc eff0 eb3c f10f cb3c
00000130: a620 3a3d 6715 913d f4ed 4a3c 2700 323c
00000140: a86b ad3b fc54 173d 2fc7 ebbb 9093 da3c
00000150: 40d1 953c 1883 f8bb 1ec9 f23c 343e f73c
00000160: 4587 d83c 15f5 f83b 48bc 7c3c 9a88 243c
00000170: a5be f23c fc03 6f3d b3eb a53b bf02 173c
00000180: a937 2c3c 330b cc3a 4462 86bb 1207 913b
00000190: cddc cabb 9854 1dbb 4d4b 113a 8c06 d03c
000001a0: 1036 e73b b3af 263c d889 d23c cd85 f63c
000001b0: 6fe1 913c 4943 f83c e0eb 3c3c 2524 4abb
000001c0: b614 bdbb 4755 143d ad1a b0ba 7ad1 de3b
000001d0: 06d1 143d 9aeb 4b3b 85ce b3ba 3c1f 243c
000001e0: f48e 223c cc37 b13b d79d 983a cf14 053d
000001f0: 5b48 7f3c 273f 743b 44f0 ee3c 813a 103d
0.020032426 -0.005022083 0.036020596 0.021291047 0.009185841 0.0034867772 0.0032237354 0.043022946
0.013758333 0.009383324 0.025638167 0.020883253 0.021152398 0.010866099 0.006956031 0.010568948
0.0028282611 0.055557936 -7.1021066e-05 -0.0039625573 0.015158958 0.027273254 0.020464538 0.029346818
0.01590988 0.00709813 0.016983336 0.008305111 0.010248839 0.037123475 0.06819412 0.010760064
0.0149532445 -0.0011460717 0.0072457786 0.023644077 0.015220065 -0.006408347 0.007308564 0.029822841
0.0026889856 0.057543207 0.011663214 0.005132468 0.023753291 0.015745003 0.005296058 0.030681377
0.0013120468 0.002001513 0.0069603217 0.03153569 0.0016363435 0.014355254 0.022278804 0.010247251
0.010288182 -0.0044777878 0.0053613684 0.0072962735 0.026456006 0.016079089 0.03240644 0.021718534
0.030623646 0.015293228 0.02271018 0.0058572525 0.013976606 0.010974016 -0.0027992479 0.024703834
0.005888629 -0.01935937 0.02880141 0.024787875 0.045441292 0.0708416 0.012385834 0.010864294
0.0052923746 0.03694628 -0.0071953754 0.026681691 0.018288255 -0.007583987 0.029636916 0.030181028
0.026431689 0.0075975754 0.015425749 0.010042334 0.029631922 0.05835341 0.005063498 0.009216963
0.010511317 0.0015567302 -0.0041010696 0.0044258917 -0.0061908723 -0.002400672 0.0005542532 0.025393747
0.0070560053 0.010173726 0.025700495 0.030093098 0.01780769 0.030305522 0.011530846 -0.0030844298
-0.005770291 0.03621414 -0.0013435684 0.006799874 0.036332153 0.0031115771 -0.0013718164 0.0100172125
0.009921778 0.005408263 0.001164372 0.032490548 0.015581216 0.0037269087 0.029167302 0.035212044

action_model._discrete_distribution.branches.0.weight f4 [25, 128]
00000000: f112 c53c b07c 92bc 0e6b 323c d13b 463c
00000010: f243 2dbc e805 6dbc aeba b1bc 112e 14bd
00000020: 12cd 12bc b6dc 913c dd79 3d3c 0580 473c
00000030: 1f5d af3c 584e ca3c ee0a fd3b f4f2 31bb
00000040: a036 1ebb ae16 26bc 22cd 0fbd 2480 65bc
00000050: 7e48 cc3c 8d31 353c 6f86 d4bc 1be7 07bd
00000060: 7710 eaba 6d1b b03a 3d91 b3bc ccbc 6abb
00000070: 2832 6a3c 932e 7d3c b5e0 63bc 0d63 0dbc
00000080: ec8e b63c 28b0 993b 1b50 21bc 1d4b a63c
00000090: d112 163c 55bc 38bb 7cf1 2bbb 0d09 7abc
000000a0: 8595 503c c9f5 08ba ff88 13bc f59f f9ba
000000b0: 4f1e 47bc 36e1 33bb fe75 a2bc 0d3b 1e3c
000000c0: 7942 e63c 144f 403c 7849 cfbc 91e0 db3c
000000d0: 9e6a 4abc 5da3 873c d8d0 73bb d60f 17bd
000000e0: d244 68bc bc45 68bc 5bba 31bc 7a3e 09bb
000000f0: de4a a4bc 8d44 86bc 6f59 01bd 99e4 bb3b
00000100: ccc5 d2b9 1d51 72bc bdd9 0f3c 235d b6bb
00000110: ed80 77bc e9c1 2f3c 56ce 56bc 272b 24bc
00000120: 9349 7f3a f4a4 c4bb 71c1 afbc 1b09 f33a
00000130: 016b 22bd bedf 873c b7c6 423c 1b89 4dbc
00000140: f55c 87bc ead9 253b c97f 85ba 60eb cbbc
00000150: 0094 51bd fd40 a63c 42bc a3bc 961f b5bb
00000160: ce07 873c 9933 c7ba beff f83b 7cd9 1cbc
00000170: 3b31 8e3a 0116 103d bed1 e43a 59da 88bc
00000180: 586b 013c 82cf 62bc 8df5 263a 4163 a2bc
00000190: 3dd6 4fbc 4a4a 223a ae9a 89bc 046a 683b
000001a0: 1f76 01bd 1bcd 7abb 706c ed3b a735 00bd
000001b0: fb76 7e3c ce14 b2bc a96f 4e3c 171d 55bc
000001c0: 872a 593b dcc5 9e3c db1e bb3c c9de 933c
000001d0: 9604 7fbc 9d11 c7bc 5828 a7bc abee ad3b
000001e0: d778 633c 1830 323a 3d29 82bc 42ee 743c
000001f0: f014 0abb 4597 323c 19e8 abbc e104 99bc
00000200: aaa3 19ba 6d93 35bc 8ea8 843c 409d 3cba
00000210: 3bb6 c2bb 4818 2cbc fd99 2ebc 7953 d1bc
00000220: d91c 13bc 4562 5c3c c6ce 4c3c bd13 aabb
00000230: 7f84 593c 6521 aa3c 03c3 1c3c e31d 4fbb
00000240: 43d6 b13b 08c2 04bd 41dd 353c 8468 0c3c
00000250: 6590 8c3c 7298 503c c017 7abc 82e3 d4bc
00000260: 31ea 91bc 1012 9a3c 6ac2 1a3c 5378 c83c
00000270: 31f5 973b b3c9 473c 3315 2bbd 370b 91bc
00000280: 42e7 cf3b cae2 84bc 4b21 44ba ae5d fe3b
00000290: 5847 963c 0ea7 a53c f9be 97bc d44b f6bc
000002a0: ead6 a93b d449 403b 9165 19bc 569a f43b
000002b0: ede1 22bc 55fd 8cbc 60ec 863c da8f e93c
000002c0: ce5c 343c b616 87ba b707 ba3c 3c83 4c3c
000002d0: 159f a6bb 6e64 00bc eace 7a3c 03c5 c7ba
000002e0: d422 203c 41da 08bc 2dc4 56ba ff16 1bb8
000002f0: 8fa1 c73c 8d1d 4abc f5c0 a8bb 7c08 a93c
00000300: 5ff7 26bb 88fc 4bbb c5cb 113c ed33 cf3a
00000310: aa4e 14bc 189d 97bb e3fa c43c 2b82 0cbc
00000320: d62f 4d3c cb6c 233b d64e 8f3c 0d90 793b
00000330: 2f6d 3e3c 5368 fcbc 20f1 803c 9f3a 80ba
00000340: dba2 da3b 049b 1b3b afdc 903b e3a4 4cbb
00000350: a290 a3bc d3c9 593b b54d fcbb 84c5 4f38
00000360: 985b 473c acfb 8abc 048b 1b3c 2f08 71bc
00000370: b514 f73c 3b06 7e3a 45fa d23c a363 27bc
00000380: e681 f939 1ed3 ba3c 2a6c 523a d61a c5bb
00000390: 9eb4 223c f6eb a2ba abe1 dc3a 1a71 6fbb
000003a0: 063c cd3b 8376 c6bc 681f 6f3c e7ff 59bc
000003b0: 9b63 bfbc 7b41 33bc 8654 9bbb 4236 fcbb
000003c0: a534 1bba 749e fd3b 005d 813a 806d d1ba
000003d0: f0f5 103d 4bd3 4b3c 8188 18bb 6e54 c53c
000003e0: c1a5 183c e545 6c3b 5313 d53c 6a76 243c
000003f0: 7f6a 94bb 3cef 203c f97e b63c bedd 51bc
0.024056884 -0.017881721 0.010889782 0.012099222 -0.010575281 -0.01446674 -0.021695461 -0.036176745
-0.008960025 0.017805438 0.011564699 0.012176518 0.021406708 0.02469556 0.00772225 -0.0027152868
-0.0024141446 -0.010137243 -0.03510774 -0.014007602 0.02493691 0.011059177 -0.02594301 -0.033179384
-0.001785769 0.0013435908 -0.021919841 -0.0035818098 0.014294185 0.015452999 -0.013908555 -0.008629573
0.022284947 0.004690189 -0.009845759 0.020299489 0.00915976 -0.0028188427 -0.0026236465 -0.015260947
0.012730961 -0.0005224613 -0.00900483 -0.0019044863 -0.012153222 -0.0027447469 -0.019831654 0.0096576335
0.028107869 0.011737604 -0.025303587 0.02684048 -0.012354521 0.01655739 -0.0037203338 -0.036880337
-0.014176564 -0.014176782 -0.010847653 -0.002094178 -0.02005523 -0.01639011 -0.03157943 0.005734038
-0.0004020169 -0.014789847 0.00877994 -0.005565302 -0.015106422 0.010727384 -0.013110718 -0.010020054
0.00097384414 -0.0060011093 -0.021454545 0.0018542142 -0.039652828 0.01658618 0.011888198 -0.0125448955
-0.016523818 0.002530689 -0.0010185178 -0.024892509 -0.051166534 0.02029466 -0.01998723 -0.005527447
0.016483214 -0.0015197872 0.007598846 -0.009573337 0.0010848412 0.035177235 0.0017457528 -0.016705679
0.007899128 -0.013843419 0.00063689874 -0.019822719 -0.012685356 0.00061908795 -0.01679739 0.003546358
-0.03160679 -0.0038269225 0.007245593 -0.031301167 0.015531297 -0.021738436 0.012599864 -0.013007424
0.003313692 0.019381456 0.022841861 0.018050568 -0.015565058 -0.02430039 -0.02040498 0.0053079925
0.013883791 0.00067973277 -0.015888805 0.014949383 -0.0021069609 0.010900323 -0.020984696 -0.018679084
-0.00058608747 -0.011082512 0.016193654 -0.0007195063 -0.0059421337 -0.010503836 -0.010656831 -0.025552498
-0.008979046 0.013451164 0.0125004705 -0.0051903413 0.013276218 0.020767877 0.009567979 -0.0031603507
0.0054271533 -0.032411605 0.011100114 0.00856984 0.017158696 0.012731658 -0.0152644515 -0.02598739
-0.017811866 0.018807441 0.009445766 0.024471438 0.0046373834 0.012194085 -0.041768264 -0.017705543
0.0063447068 -0.016221423 -0.00074817677 0.0077626323 0.018344566 0.02022126 -0.01852368 -0.030065455
0.0051830905 0.002934088 -0.009362594 0.0074646873 -0.00994156 -0.017210642 0.016470134 0.028510977
0.0110084545 -0.0010306451 0.022708757 0.012482461 -0.005084882 -0.007836444 0.015308121 -0.0015241209
0.009773929 -0.008352817 -0.00081926846 -3.6976297e-05 0.02436903 -0.012336147 -0.0051499554 0.020633928
-0.0025477035 -0.0031125862 0.00889868 0.0015808322 -0.009051958 -0.0046268813 0.024045413 -0.008575956
0.012523612 0.0024936672 0.017493647 0.0038080246 0.011622711 -0.030811464 0.015739977 -0.0009783095
0.006672246 0.002374352 0.004420839 -0.003122621 -0.019966427 0.003323187 -0.007699693 4.9536597e-05
0.012167834 -0.01696571 0.009493593 -0.014711424 0.030161241 0.00096902595 0.025754103 -0.010216626
0.00047589763 0.022805747 0.0008026982 -0.006015162 0.009930758 -0.0012429941 0.0016851922 -0.003653592
0.006263259 -0.024226433 0.01459489 -0.013305641 -0.023362925 -0.010940905 -0.0047403006 -0.0076968977
-0.00059206254 0.0077398364 0.0009869635 -0.0015978068 0.035390794 0.012440513 -0.0023274722 0.02408811
0.009316863 0.0036052403 0.026010191 0.010037998 -0.004529297 0.009822663 0.022277342 -0.012809215

action_model._discrete_distribution.branches.0.bias f4 [25]
00000000: 0643 1ebb ad6f 9d3b bea7 883b d0ba 88bb
00000010: 1adb b1bb fc95 cd3b 092a 1abb a425 40bc
00000020: 1509 c9bb 7dff ba3b 1d0c 323b fbb7 f7bb
00000030: 952d 0fbc 867d e8bb 9d36 2bba 1bdd 623c
00000040: d56c 79ba 6499 59bc 1d58 30bb 46c3 f13b
00000050: f535 133a fab0 7bb9 7e46 5f3b de4d 0e3c
00000060: ff20 c63b
-0.0024148836 0.0048045726 0.004170387 -0.0041726604 -0.0054277303 0.006273983 -0.002352359 -0.011727724
-0.006135116 0.005706726 0.0027167865 -0.007559774 -0.008738895 -0.0070950417 -0.00065312703 0.013846661
-0.00095148134 -0.0132812 -0.0026907988 0.0073780147 0.0005615645 -0.00024003154 0.0034069116 0.008685557
0.006046414
