Assets/Environment4/Brains/25actions/Env4Behavior.onnx (onnx, 86951 bytes, 6 tensors)

network_body._body_endoder.seq_layers.0.weight f4 [128, 9]
0.107625216 -0.2315928 0.27714822 -0.6639983 -0.3702142 0.19352882 -0.5405991 0.018671412
-0.10102435 -0.00048310598 0.047677603 0.019019382 0.15230562 -0.38633916 -0.020002149 -0.35127705
0.00069205 0.64795613 0.07535689 0.30892718 0.30346268 -0.24103644 0.08170755 -0.09051993
-0.14914395 -0.0928899 -0.20210159 -0.0759259 0.37606198 0.18558723 -0.2564593 -0.46937153
-0.16831079 -0.08676739 0.17173795 -0.11738812 -0.44382963 0.3500613 -0.32708132 0.1959024
0.03986101 -0.028568361 0.40553683 0.19825369 0.15523076 0.34309518 0.31335646 -0.031228801
0.11091426 -0.09671464 -0.13629565 -0.36906135 0.07561535 0.044254303 -0.27661106 -0.36224112
-0.34122765 -0.35985932 0.3706151 -0.6044266 -0.12847432 -0.17296052 -0.095310085 -0.039105486
-0.14643732 0.48090133 -0.4097944 0.046680443 0.0809785 -0.31621504 0.41869962 -0.7212863
0.32669565 0.23521893 -0.173376 -0.19889131 -0.32261944 0.045856636 -0.47569162 -0.003966718
0.51058334 -0.01092468 -0.018669283 0.10813518 0.22421345 0.09607223 -0.053885475 -0.17750898
-0.13853423 0.27207112 -0.13655506 0.09985357 -0.4016834 -0.30991656 0.14383991 -0.30659008
-0.31060785 0.028709758 0.18650019 -0.06823942 0.052685704 0.15728177 -0.05603666 -0.42932755
-0.013754668 0.61372894 0.57293177 -0.24251316 -0.15173696 -0.19007051 0.22299352 -0.43467122
-0.430554 -0.4955238 -0.17134342 0.038484108 -0.36890078 -0.23069033 -0.33058733 -0.01509455
0.44570762 -0.6583414 0.386582 0.081224464 -0.11619689 -0.019332625 0.32721102 0.4224335
-0.25521374 0.2910506 -0.64539397 -0.35057768 -0.015525382 0.68708533 -0.015113806 -0.194927
0.16852425 -0.1763266 0.23276192 0.08394635 0.08301444 0.1852132 0.4654871 0.06138313
0.15758206 0.46223718 -0.06597536 0.18456654 -0.34397393 -0.121430695 -0.045556184 -0.45126045
-0.37496066 0.22959828 0.09377723 0.477959 -0.16642088 -0.3101943 0.17775947 0.06873891
0.24628113 -0.13519257 -0.5774515 -0.4996918 0.046469823 0.7643072 -0.34639224 -0.014238806
0.28750655 -0.5619109 -0.41334555 -0.16786204 0.37689883 -0.26216912 -0.20786136 -0.4318596
0.4956541 0.53568625 -0.04684771 -0.18775728 -0.30435506 0.3060528 -0.40184265 -0.3131088
-0.49315435 0.1628635 -0.34755653 -0.32390237 0.5208108 -0.09459313 0.38317436 0.011521871
-0.6252442 -0.10358828 0.20926277 0.07028437 0.0709609 -0.058100194 -0.22362357 0.37150702
-0.45815772 0.28610563 -0.21218023 -0.5916226 0.018492833 -0.43533432 0.041702077 -0.536798
-0.07138897 0.09360412 0.061458867 0.7539095 -0.12176623 -0.28331107 -0.08821549 -0.103080265
0.3065049 0.27749875 0.30458218 -0.3910054 -0.302235 -0.6653675 0.12034964 0.06228405
0.43696594 0.29819083 -0.28736067 0.8170186 0.5670787 -0.07581878 0.25924048 0.6134182
-0.5406599 0.44682345 0.8994181 0.18522434 0.189913 0.04993699 0.44249544 -0.09905082
-0.39430195 -0.07214431 -0.24826515 -0.04330165 -0.23483449 -0.09029734 0.342575 0.57860446
-0.10677011 0.124072365 -0.05590184 -0.3533566 0.1451835 0.2872491 -0.19944201 0.14805959
00000000: 9c6a dc3d aa26 6dbe 5fe6 8d3e cbfb 29bf
00000010: b78c bdbe 6b2c 463e b464 0abf caf4 983c
00000020: dbe5 cebd 6349 fdb9 9749 433d 89ce 9b3c
00000030: 01f6 1b3e 3fce c5be 8cdb a3bc 96da b3be
00000040: b06a 353a 74e0 253f b754 9a3d b42b 9e3e
00000050: 765f 9b3e 42d2 76be 4a56 a73d 8362 b9bd
00000060: 31b9 18be 0f3d bebd b8f3 4ebe 0a7f 9bbd
00000070: 328b c03e 940a 3e3e a24e 83be 7751 f0be
00000080: aa59 2cbe 1ab3 b1bd 13dc 2f3e 2f69 f0bd
00000090: a33d e3be 3c3b b33e 3477 a7be a49a 483e
000000a0: 4c45 233d 3208 eabc 86a2 cf3e 0403 4b3e
000000b0: d0f4 1e3e 2caa af3e 4270 a03e 8bd3 ffbc
000000c0: 0427 e33d 5312 c6bd 1691 0bbe 9cf5 bcbe
000000d0: 38dc 9a3d 0044 353d f79f 8dbe ab77 b9be
000000e0: 64b5 aebe 7b3f b8be 43c1 bd3e b4bb 1abf
000000f0: c68e 03be 901c 31be ef31 c3bd 132d 20bd
00000100: aaf3 15be b338 f63e 92d0 d1be fe33 3f3d
00000110: 0ed8 a53d f0e6 a1be cc5f d63e 38a6 38bf
00000120: a744 a73e 3bdd 703e 7a89 31be 2aaa 4bbe
00000130: 602e a5be 2bd4 3b3d da8d f3be 3efb 81bb
00000140: 97b5 023f 6efd 32bc 53f0 98bc fa75 dd3d
00000150: 3698 653e 84c1 c43d 04b7 5cbd eac4 35be
00000160: ebdb 0dbe e84c 8b3e 17d5 0bbe 0780 cc3d
00000170: 72a9 cdbe 62ad 9ebe c54a 133e 60f9 9cbe
00000180: fe07 9fbe ba30 eb3c e8f9 3e3e 1cc1 8bbd
00000190: f7cc 573d 790e 213e b286 65bd d2d0 dbbe
000001a0: 425b 61bc 571d 1d3f a8ab 123f 5f55 78be
000001b0: ef60 1bbe d8a1 42be 6a58 643e 3a8d debe
000001c0: 9371 dcbe 4cb5 fdbe a674 2fbe 83a1 1d3d
000001d0: 90e0 bcbe 163a 6cbe be42 a9be 224f 77bc
000001e0: ca33 e43e 1089 28bf 13ee c53e 0359 a63d
000001f0: a3f8 edbd 745f 9ebc 3488 a73e 3449 d83e
00000200: 60ab 82be 9604 953e 8a38 25bf eb7e b3be
00000210: 2c5e 7ebc d3e4 2f3f e69f 77bc f29a 47be
00000220: 9f91 2c3e f68e 34be 2459 6e3e 10ec ab3d
00000230: 7a03 aa3d 87a8 3d3e 5354 ee3e e06c 7b3d
00000240: 315d 213e 5aaa ec3e 171e 87bd 03ff 3c3e
00000250: 5a1d b0be a8b0 f8bd 1f99 3abd 9c0b e7be
00000260: d8fa bfbe d01b 6b3e 470e c03d 0bb7 f43e
00000270: 3c6a 2abe cad1 9ebe 9406 363e fcc6 8c3d
00000280: 1f31 7c3e ec6f 0abe ddd3 13bf 9bd7 ffbe
00000290: 2457 3e3d a3a9 433f 535a b1be e249 69bc
000002a0: 0f34 933e 65d9 0fbf 07a2 d3be 07e4 2bbe
000002b0: e2f8 c03e 083b 86be 9cd9 54be b41c ddbe
000002c0: 60c6 fd3e bc22 093f 62e3 3fbd 7243 40be
000002d0: 6dd4 9bbe f4b2 9c3e 52be cdbe cc4f a0be
000002e0: ba7e fcbe b0c5 263e eef2 b1be 88d6 a5be
000002f0: db53 053f 0bba c1bd 6e2f c43e 3bc6 3c3c
00000300: 0110 20bf 1826 d4bd fb48 563e 40f1 8f3d
00000310: f353 913d 78fa 6dbd 94fd 64be 2b36 be3e
00000320: a693 eabe 707c 923e c645 59be 9474 17bf
00000330: 487e 973c 24e4 debe cccf 2a3d 986b 09bf
00000340: 6134 92bd 84b3 bf3d 4bbc 7b3d 3700 413f
00000350: 9360 f9bd 260e 91be 53aa b4bd bf1b d3bd
00000360: 36ee 9c3e 5114 8e3e 32f2 9b3e dc31 c8be
00000370: 8cbe 9abe 8655 2abf df79 f63d 8f1d 7f3d
00000380: 00ba df3e 78ac 983e f020 93be 2228 513f
00000390: 122c 113f e046 9bbd 2bbb 843e fa08 1d3f
000003a0: b068 0abf 0bc6 e43e 4440 663f 73ab 3d3e
000003b0: 8e78 423e bb8a 4c3d c38e e23e 28db cabd
000003c0: f2e1 c9be 65c0 93bd 3839 7ebe 125d 31bd
000003d0: 7478 70be d0ed b8bd fe65 af3e 6c1f 143f
000003e0: 4aaa dabd a719 fe3d 54f9 64bd 28eb b4be
000003f0: fcaa 143e 5012 933e 873a 4cbe ef9c 173e

network_body._body_endoder.seq_layers.0.bias f4 [128]
0.0 0.0 0.0 0.0 0.0 0.0 0.0 0.0
0.0 0.0 0.0 0.0 0.0 0.0 0.0 0.0
0.0 0.0 0.0 0.0 0.0 0.0 0.0 0.0
0.0 0.0 0.0 0.0 0.0 0.0 0.0 0.0
0.0 0.0 0.0 0.0 0.0 0.0 0.0 0.0
0.0 0.0 0.0 0.0 0.0 0.0 0.0 0.0
0.0 0.0 0.0 0.0 0.0 0.0 0.0 0.0
0.0 0.0 0.0 0.0 0.0 0.0 0.0 0.0
0.0 0.0 0.0 0.0 0.0 0.0 0.0 0.0
0.0 0.0 0.0 0.0 0.0 0.0 0.0 0.0
0.0 0.0 0.0 0.0 0.0 0.0 0.0 0.0
0.0 0.0 0.0 0.0 0.0 0.0 0.0 0.0
0.0 0.0 0.0 0.0 0.0 0.0 0.0 0.0
0.0 0.0 0.0 0.0 0.0 0.0 0.0 0.0
0.0 0.0 0.0 0.0 0.0 0.0 0.0 0.0
0.0 0.0 0.0 0.0 0.0 0.0 0.0 0.0
00000000: 0000 0000 0000 0000 0000 0000 0000 0000
00000010: 0000 0000 0000 0000 0000 0000 0000 0000
00000020: 0000 0000 0000 0000 0000 0000 0000 0000
00000030: 0000 0000 0000 0000 0000 0000 0000 0000
00000040: 0000 0000 0000 0000 0000 0000 0000 0000
00000050: 0000 0000 0000 0000 0000 0000 0000 0000
00000060: 0000 0000 0000 0000 0000 0000 0000 0000
00000070: 0000 0000 0000 0000 0000 0000 0000 0000
00000080: 0000 0000 0000 0000 0000 0000 0000 0000
00000090: 0000 0000 0000 0000 0000 0000 0000 0000
000000a0: 0000 0000 0000 0000 0000 0000 0000 0000
000000b0: 0000 0000 0000 0000 0000 0000 0000 0000
000000c0: 0000 0000 0000 0000 0000 0000 0000 0000
000000d0: 0000 0000 0000 0000 0000 0000 0000 0000
000000e0: 0000 0000 0000 0000 0000 0000 0000 0000
000000f0: 0000 0000 0000 0000 0000 0000 0000 0000
00000100: 0000 0000 0000 0000 0000 0000 0000 0000
00000110: 0000 0000 0000 0000 0000 0000 0000 0000
00000120: 0000 0000 0000 0000 0000 0000 0000 0000
00000130: 0000 0000 0000 0000 0000 0000 0000 0000
00000140: 0000 0000 0000 0000 0000 0000 0000 0000
00000150: 0000 0000 0000 0000 0000 0000 0000 0000
00000160: 0000 0000 0000 0000 0000 0000 0000 0000
00000170: 0000 0000 0000 0000 0000 0000 0000 0000
00000180: 0000 0000 0000 0000 0000 0000 0000 0000
00000190: 0000 0000 0000 0000 0000 0000 0000 0000
000001a0: 0000 0000 0000 0000 0000 0000 0000 0000
000001b0: 0000 0000 0000 0000 0000 0000 0000 0000
000001c0: 0000 0000 0000 0000 0000 0000 0000 0000
000001d0: 0000 0000 0000 0000 0000 0000 0000 0000
000001e0: 0000 0000 0000 0000 0000 0000 0000 0000
000001f0: 0000 0000 0000 0000 0000 0000 0000 0000

network_body._body_endoder.seq_layers.2.weight f4 [128, 128]
-0.11487701 0.016116953 -0.03486972 -0.044247754 0.0954155 0.046103973 -0.08453573 0.07075361
-0.1283058 0.06639958 0.034822 -0.065627664 -0.068456374 0.041759446 0.15990938 0.07994219
0.08667282 -0.23921585 0.023325248 0.015069715 0.07196764 0.08397059 -0.0033477366 0.087648295
0.02278223 -0.17171156 0.058855597 -0.015039857 0.096576154 -0.014193314 0.11299626 0.2387491
0.063792564 -0.034341287 0.10486352 -0.16375244 -0.09590033 0.12849382 0.07376589 0.078054875
-0.16097218 0.13865 0.07817269 -0.046336282 0.036391493 0.032468066 -0.17025207 0.03408328
-0.119806536 -0.026195312 0.05015254 0.12536246 -0.074653186 -0.06701589 -0.0089292275 -0.030032929
0.073695526 0.14137283 0.035244305 -0.03686763 0.03448106 0.0340345 -0.23778993 -0.15713927
-0.031789493 0.079390936 -0.023858747 0.15963659 -0.14576621 -0.08926905 0.17196637 0.06754573
0.010303834 0.17619973 -0.123733416 -0.07794858 -0.034794845 -0.018846992 -0.007962108 0.17989059
-0.108554214 0.025108328 0.19810137 -0.0050881444 0.012954234 0.04233913 -0.043946538 -0.116097875
-0.05688518 -0.009932739 0.060764045 -0.05236191 0.13537906 -0.22468103 -0.030179063 0.028958851
0.22090264 -0.0029602721 -0.02085937 0.08751016 -0.04346379 0.0769779 -0.061080217 -0.05307703
0.0034882522 -0.17118071 0.02073376 0.03583498 0.022731831 -0.024232991 0.06458139 -0.09547009
-0.11121431 0.022166481 0.01079516 -0.09674027 0.10968796 -0.080845416 0.011890203 0.059990752
0.04913178 0.17546122 -0.22989379 0.133905 0.10113168 0.09804149 0.18654922 -0.028886253
-0.06810324 0.062279638 0.096545435 0.0113491705 -0.060966447 0.021823468 -0.022665698 -0.06663035
0.17998615 -0.053614672 -0.06385488 0.12224577 0.048197925 0.20672074 -0.026124924 0.04002424
-0.086821705 0.016886896 0.014954248 0.03449309 -0.030158916 0.149379 0.07423927 -0.027966643
-0.065685086 0.09423374 0.018737908 -0.0035148447 -0.08566081 -0.054204408 -0.07448573 0.044205453
0.027394773 0.080912456 -0.06514247 0.15452416 -0.02846329 -0.011784642 0.05539982 0.09358172
-0.043410987 -0.14345823 -0.03213959 -0.12646031 0.048069853 -0.096718736 -0.15698218 -0.014466297
0.0057752556 0.057828035 -0.04684934 0.024187814 -0.06405868 0.015552049 0.114959456 0.04747383
0.03762728 0.13350253 0.020067388 -0.0025922013 0.04738317 -0.046730176 -0.08535183 0.04881176
0.108065695 0.011344775 0.11254397 -0.040336523 -0.051940717 0.116695315 -0.08498953 0.050663486
0.0073080156 -0.006106998 -0.06642366 0.033190534 -0.046400502 -0.04144761 0.040267695 0.02408459
-0.028077722 0.11152821 0.07858348 0.02377254 0.09903465 -0.029191209 0.13396437 0.10460992
0.09666181 0.06792624 0.08117151 -0.04391541 0.056553308 0.03667914 0.07069086 -0.09769925
0.04235281 -0.043747917 -0.13710023 0.03086277 0.12965237 -0.1689409 -0.019101648 -0.07758044
0.029667595 -0.011976594 -0.18717346 0.008346364 0.009519552 0.034237284 0.0012479863 -0.032882445
0.07851632 0.001539904 0.13442747 -0.071810104 -0.09924442 -0.028466882 0.087262474 0.03761463
-0.038789418 -0.18872868 0.04312667 -0.0732257 -0.07705929 0.11415403 0.017832216 0.051105823
00000000: a344 ebbd b307 843c 8dd3 0ebd 223d 35bd
00000010: 3469 c33d 85d7 3c3d 1221 adbd 45e7 903d
00000020: 9862 03be 81fc 873d 83a1 0e3d cc67 86bd
00000030: db32 8cbd f40b 2b3d 49bf 233e bbb8 a33d
00000040: 8581 b13d 00f5 74be 9714 bf3c f7e6 763c
00000050: c563 933d c6f8 ab3d b365 5bbb f380 b33d
00000060: cda1 ba3c 28d5 2fbe 9112 713d bb69 76bc
00000070: b8c9 c53d 138b 68bc 956a e73d a57a 743e
00000080: ada5 823d 73a9 0cbd afc2 d63d b8ae 27be
00000090: 6467 c4bd e293 033e 9212 973d 3cdb 9f3d
000000a0: e4d5 24be 44fa 0d3e 0119 a03d 1dcb 3dbd
000000b0: 3f0f 153d 3cfd 043d 8f56 2ebe e99a 0b3d
000000c0: 215d f5bd 8d97 d6bc c06c 4d3d 045f 003e
000000d0: c5e3 98bd a03f 89bd e54b 12bc 9e07 f6bc
000000e0: aeed 963d 0ac4 103e 555c 103d 8302 17bd
000000f0: 033c 0d3d c367 0b3d 347f 73be 1ee9 20be
00000100: b335 02bd b797 a23d 6b73 c3bc c677 233e
00000110: bd43 15be b1d2 b6bd f417 303e 6a55 8a3d
00000120: 6ad1 283c b46d 343e f267 fdbd 81a3 9fbd
00000130: 0a85 0ebd 0265 9abc 8073 02bc 3d35 383e
00000140: ac51 debd fbaf cd3c 16db 4a3e 73ba a6bb
00000150: ff3d 543c cc6b 2d3d 4901 34bd b9c4 edbd
00000160: 6f00 69bd edbc 22bc b8e3 783d 7179 56bd
00000170: cfa0 0a3e c912 66be 153a f7bc 1d3b ed3c
00000180: 4d34 623e 2001 42bb 45e1 aabc 8738 b33d
00000190: 1607 32bd 97a6 9d3d 402f 7abd 4d67 59bd
000001a0: 299b 643b ff49 2fbe d9d9 a93c b3c7 123d
000001b0: 1b38 ba3c 4484 c6bc 3f43 843d d385 c3bd
000001c0: 54c4 e3bd 7b96 b53c 2fde 303c c31f c6bd
000001d0: 15a4 e03d 4892 a5bd 20cf 423c ddb8 753d
000001e0: 683e 493d 1bac 333e 4769 6bbe 641e 093e
000001f0: 201e cf3d fac9 c83d c206 3f3e dda2 ecbc
00000200: b679 8bbd ef18 7f3d 9db9 c53d dff1 393c
00000210: f4b7 79bd 21c7 b23c 6aad b9bc 7e75 88bd
00000220: 4a4e 383e 0f9b 5bbd 59c6 82bd fe5b fa3d
00000230: 306b 453d 9aae 533e f003 d6bc 75f0 233d
00000240: 94cf b1bd 6356 8a3c aa02 753c a048 0d3d
00000250: d50f f7bc cff6 183e c20a 983d 4d1a e5bc
00000260: e785 86bd 9efd c03d 3e80 993c 4f59 66bb
00000270: ef6e afbd 7105 5ebd f98b 98bd c710 353d
00000280: 016b e03c 6eb5 a53d 6a69 85bd 953b 1e3e
00000290: d82b e9bc 5f14 41bc ecea 623d c6a7 bf3d
000002a0: b8cf 31bd b7e6 12be cda4 03bd d07e 01be
000002b0: e5e4 443d 7914 c6bd f0bf 20be 0c04 6dbc
000002c0: 5b3e bd3b 17dd 6c3d 18e5 3fbd 8625 c63c
000002d0: 3231 83bd 05ce 7e3c dd6f eb3d eb73 423d
000002e0: 101f 1a3d e3b4 083e 5d64 a43c ece1 29bb
000002f0: db14 423d 2468 3fbd f1cc aebd d7ee 473d
00000300: 8c51 dd3d 6fdf 393c 747d e63d e937 25bd
00000310: cabf 54bd f4fd ee3d fe0e aebd 8484 4f3d
00000320: 1478 ef3b 361d c8bb 2109 88bd ccf2 073d
00000330: 740e 3ebd f8c4 29bd bdef 243d 0c4d c53c
00000340: 4003 e6bc e768 e43d 60f0 a03d a1be c23c
00000350: aed2 ca3d 6722 efbc f52d 093e ba3d d63d
00000360: a1f6 c53d ea1c 8b3d 403d a63d a5e0 33bd
00000370: 71a4 673d de3c 163d 5fc6 903d 8b16 c8bd
00000380: 247a 2d3d 0431 33bd 0164 0cbe ebd3 fc3c
00000390: 97c3 043e d8fe 2cbe 0f7b 9cbc 7ee2 9ebd
000003a0: 7509 f33c 7a39 44bc 66aa 3fbe 30bf 083c
000003b0: e5f7 1b3c 653c 0c3d 7993 a33a beaf 06bd
000003c0: 2acd a03d 9bd6 c93a 5ba7 093e 2d11 93bd
000003d0: a940 cbbd 6133 e9bc abb6 b23d cc11 1a3d
000003e0: a7e1 1ebd 1742 41be 97a5 303d 5bf7 95bd
000003f0: 43d1 9dbd 97c9 e93d de14 923c 5754 513d

network_body._body_endoder.seq_layers.2.bias f4 [128]
0.0 0.0 0.0 0.0 0.0 0.0 0.0 0.0
0.0 0.0 0.0 0.0 0.0 0.0 0.0 0.0
0.0 0.0 0.0 0.0 0.0 0.0 0.0 0.0
0.0 0.0 0.0 0.0 0.0 0.0 0.0 0.0
0.0 0.0 0.0 0.0 0.0 0.0 0.0 0.0
0.0 0.0 0.0 0.0 0.0 0.0 0.0 0.0
0.0 0.0 0.0 0.0 0.0 0.0 0.0 0.0
0.0 0.0 0.0 0.0 0.0 0.0 0.0 0.0
0.0 0.0 0.0 0.0 0.0 0.0 0.0 0.0
0.0 0.0 0.0 0.0 0.0 0.0 0.0 0.0
0.0 0.0 0.0 0.0 0.0 0.0 0.0 0.0
0.0 0.0 0.0 0.0 0.0 0.0 0.0 0.0
0.0 0.0 0.0 0.0 0.0 0.0 0.0 0.0
0.0 0.0 0.0 0.0 0.0 0.0 0.0 0.0
0.0 0.0 0.0 0.0 0.0 0.0 0.0 0.0
0.0 0.0 0.0 0.0 0.0 0.0 0.0 0.0
00000000: 0000 0000 0000 0000 0000 0000 0000 0000
00000010: 0000 0000 0000 0000 0000 0000 0000 0000
00000020: 0000 0000 0000 0000 0000 0000 0000 0000
00000030: 0000 0000 0000 0000 0000 0000 0000 0000
00000040: 0000 0000 0000 0000 0000 0000 0000 0000
00000050: 0000 0000 0000 0000 0000 0000 0000 0000
00000060: 0000 0000 0000 0000 0000 0000 0000 0000
00000070: 0000 0000 0000 0000 0000 0000 0000 0000
00000080: 0000 0000 0000 0000 0000 0000 0000 0000
00000090: 0000 0000 0000 0000 0000 0000 0000 0000
000000a0: 0000 0000 0000 0000 0000 0000 0000 0000
000000b0: 0000 0000 0000 0000 0000 0000 0000 0000
000000c0: 0000 0000 0000 0000 0000 0000 0000 0000
000000d0: 0000 0000 0000 0000 0000 0000 0000 0000
000000e0: 0000 0000 0000 0000 0000 0000 0000 0000
000000f0: 0000 0000 0000 0000 0000 0000 0000 0000
00000100: 0000 0000 0000 0000 0000 0000 0000 0000
00000110: 0000 0000 0000 0000 0000 0000 0000 0000
00000120: 0000 0000 0000 0000 0000 0000 0000 0000
00000130: 0000 0000 0000 0000 0000 0000 0000 0000
00000140: 0000 0000 0000 0000 0000 0000 0000 0000
00000150: 0000 0000 0000 0000 0000 0000 0000 0000
00000160: 0000 0000 0000 0000 0000 0000 0000 0000
00000170: 0000 0000 0000 0000 0000 0000 0000 0000
00000180: 0000 0000 0000 0000 0000 0000 0000 0000
00000190: 0000 0000 0000 0000 0000 0000 0000 0000
000001a0: 0000 0000 0000 0000 0000 0000 0000 0000
000001b0: 0000 0000 0000 0000 0000 0000 0000 0000
000001c0: 0000 0000 0000 0000 0000 0000 0000 0000
000001d0: 0000 0000 0000 0000 0000 0000 0000 0000
000001e0: 0000 0000 0000 0000 0000 0000 0000 0000
000001f0: 0000 0000 0000 0000 0000 0000 0000 0000

action_model._discrete_distribution.branches.0.weight f4 [25, 128]
-0.013547616 -0.008173017 0.0017189669 0.0055925436 -0.00028531972 0.0014215865 0.00019304611 -0.0035004292
0.0028334053 -0.012011248 -0.000729274 -0.0057269675 0.008873342 -0.0014242574 0.0018088581 0.01633009
0.0077179954 0.00823128 -0.0022540176 -0.005699151 -0.0003408986 0.016548721 0.009475638 0.0049638962
0.016424594 -0.0108375065 0.019761017 -0.004739529 0.028512776 -0.0014749882 -0.011192836 -0.0014077472
-0.009559279 0.014515697 0.0037627236 -0.003028155 -0.005540553 0.0051592174 0.0035976728 -0.0044853636
0.009253816 0.010222099 0.018086283 -0.0017220824 -0.0067141354 0.0046155634 0.00046595326 -0.012637466
0.00310272 -0.0014327464 -0.008693512 -0.008738475 0.007467016 -0.009655426 -0.013341944 -0.0093460465
0.0025417393 -0.009211322 0.003378765 0.0047111297 0.008907758 0.003849813 0.0046189837 -0.0124928355
-0.003904444 -0.012373744 -0.0013697478 -0.0006204999 0.0008900015 -0.009561555 0.008009929 -0.006405563
-0.0023023826 0.0023745187 -0.010421223 -0.0020505863 -0.012706265 -0.0024908518 0.0050014104 -0.0042392365
0.007425693 -0.019806774 -0.008765048 0.017689025 -0.012614995 0.011050447 0.007843973 -0.0077783214
-0.00520449 -0.010316181 0.00871269 -0.0022369036 -0.018445142 0.0048993314 0.012049993 0.003149895
-0.00882909 0.0053025787 0.009049616 -0.006953685 0.0074402504 0.0066247354 -0.01724392 0.003948999
-0.0022971958 0.005375478 -0.010351815 0.011832195 -0.008379633 -0.0046305563 0.004316356 0.0003308513
0.0117594665 0.006301054 0.0024924264 0.0009849295 0.0044783256 0.015584494 0.01181431 0.015039371
0.0058945823 -0.005336308 0.0028312018 0.0014320225 -0.013787113 0.006198874 0.007197282 -0.016823595
0.009174508 0.0018999208 0.0016450299 -0.006440331 -0.001293175 -0.007565651 0.004792451 -0.0023540107
0.0008750772 -0.007240049 -0.0028168822 0.003577123 0.007828805 0.009592439 0.012865665 -0.005213719
-0.00620345 0.011609614 0.008315156 -0.0033334836 0.0070085027 0.014641306 -0.0056807655 -0.010835589
-0.0057015563 -0.0047478317 0.0082734935 -0.004051994 -0.0030837879 0.0060859732 0.004329389 0.006344452
-0.01618917 0.011129251 -0.0016988682 -0.0036289662 0.012713085 -0.0063405046 0.005073364 0.013872792
-0.009487445 0.002465388 0.0061475537 0.008105457 0.004824649 0.010369553 -0.007335306 0.0025849326
0.0035236445 -0.0057878694 -0.0060240845 0.004191247 0.008562947 -0.014435655 0.0025088766 0.0029515235
0.0072350674 0.0028401113 -0.003721491 -0.0080988435 -0.007832467 -0.0053874254 0.011602253 -0.011139846
-0.015606152 -0.000546263 0.005858592 -0.015184539 -0.002418736 -0.009703252 -0.0036087122 -0.0029580144
-0.0029925362 0.010812452 0.014657359 0.0040045367 0.0014018201 -0.010876521 0.0041284687 -0.012530798
-0.0020860392 -0.0029213142 -0.007298702 0.0010417585 0.009653856 0.0018295776 0.010895214 0.0064779962
-0.0005570484 -0.015147182 -0.007879299 -0.006206229 -0.0044507734 0.012021694 -0.0068701454 0.00844914
-0.010235577 0.009362038 -0.0066088536 -0.0027294247 -0.015408841 0.009870847 0.0025182157 0.010464618
-0.009220803 0.010557058 -0.0021491428 -0.017572781 -0.0072323084 -0.0012482725 -0.0030507247 -0.009105939
-0.006987372 -0.0012762735 0.0041962774 0.0026902172 0.011203563 0.00943606 0.0005348805 -0.014087512
0.0014423927 0.00407654 0.0032093343 -0.007372624 0.0045196223 -0.007055457 -0.013080928 -0.0007126511
00000000: d2f6 5dbc 1ee8 05bc f54e e13a a841 b73b
00000010: f796 95b9 8754 ba3a 6c6c 4a39 7567 65bb
00000020: a7b0 393b d3ca 44bc c02c 3fba 49a9 bbbb
00000030: 7e61 113c 26ae baba 3517 ed3a aec6 853c
00000040: 3de7 fc3b 7edc 063c 24b8 13bb f2bf babb
00000050: a3ba b2b9 2f91 873c b53f 1b3c 2ea8 a23b
00000060: df8c 863c cc8f 31bc dbe1 a13c 0d4e 9bbb
00000070: a093 e93c 6454 c1ba 2862 37bc 2884 b8ba
00000080: 869e 1cbc 3fd3 6d3c 0798 763b 0374 46bb
00000090: 878d b5bb a70e a93b efc6 6b3b f5f9 92bb
000000a0: 519d 173c 977a 273c af29 943c 7fb7 e1ba
000000b0: 4002 dcbb 273e 973b 304b f439 600d 4fbc
000000c0: 0157 4b3b feca bbba 3b6f 0ebc d22b 0fbc
000000d0: dfad f43b cb31 1ebc 2b98 5abc 2920 19bc
000000e0: 4f93 263b 16eb 16bc 456e 5d3b d25f 9a3b
000000f0: d8f1 113c 254d 7c3b d85a 973b c0ae 4cbc
00000100: b3e1 7fbb 3ebb 4abc 1c89 b3ba 0ba9 22ba
00000110: fd4e 693a 12a8 1cbc 143c 033c c2e5 d1bb
00000120: 92e3 16bb d09d 1b3b c7bd 2abc 2163 06bb
00000130: f02d 50bc 8f3d 23bb dfe2 a33b 4be9 8abb
00000140: 3a53 f33b d141 a2bc 479b 0fbc 93e8 903c
00000150: 20af 4ebc ef0c 353c 0284 003c 4ae1 febb
00000160: 6d8a aabb 3305 29bc acbf 0e3c 0499 12bb
00000170: 441a 97bc 928a a03b 556d 453c 786e 4e3b
00000180: e3a7 10bc 41c1 ad3b d744 143c bddb e3bb
00000190: 58cd f33b 4f14 d93b 1f43 8dbc 9b66 813b
000001a0: 8d8c 16bb c724 b03b a99a 29bc d3db 413c
000001b0: ba4a 09bc ecbb 97bb 3870 8d3b 1c76 ad39
000001c0: c7aa 403c 1279 ce3b fa57 233b c018 813a
000001d0: ebbe 923b 1b56 7f3c cf90 413c b267 763c
000001e0: 5727 c13b 32dc aebb af8b 393b b4b2 bb3a
000001f0: 58e3 61bc ed1f cb3b 2dd7 eb3b a3d1 89bc
00000200: ad50 163c c306 f93a 0b9e d73a 6a09 d3bb
00000210: c17f a9ba 48e9 f7bb fe09 9d3b bf45 1abb
00000220: 7065 653a ef3d edbb 719b 38bb 2a6e 6a3b
00000230: 6344 003c 9b29 1d3c 83ca 523c d8d7 aabb
00000240: 4f46 cbbb 4036 3e3c 4b3c 083c 9376 5abb
00000250: 95a7 e53b 17e2 6f3c b725 babb c187 31bc
00000260: 1fd4 babb b393 9bbb 8c8d 073c 97c6 84bb
00000270: 6019 4abb d86c c73b 8cdd 8d3b 1fe5 cf3b
00000280: 269f 84bc 7657 363c 8fac deba f3d3 6dbb
00000290: 8b4a 503c 02c4 cfbb 763e a63b b54a 633c
000002a0: 3a71 1bbc 5992 213b 6b71 c93b c0cc 043c
000002b0: 1718 9e3b 0fe5 293c 025d f0bb f967 293b
000002c0: f2ec 663b 2ba8 bdbb af65 c5bb ba56 893b
000002d0: 9a4b 0c3c 8783 6cbc f76b 243b 596e 413b
000002e0: 2514 ed3b 2921 3a3b 42e4 73bb 03b1 04bc
000002f0: bf53 00bc 0089 b0bb 6017 3e3c e783 36bc
00000300: f2b0 7fbc 1733 0fba 6ff9 bf3b 93c8 78bc
00000310: a883 1ebb 64fa 1ebc 2580 6cbb 3fdb 41bb
00000320: 6d1e 44bb b626 313c 6b25 703c 7d38 833b
00000330: 47bd b73a 6f33 32bc 1b48 873b fa4d 4dbc
00000340: eeb5 08bb 8573 3fbb f329 efbb 9d8b 883a
00000350: 352b 1e3c 70ce ef3a d781 323c 5f45 d43b
00000360: e306 12ba e32b 78bc 2d18 01bc 9f5d cbbb
00000370: cbd7 91bb a4f6 443c f51e e1bb 436e 0a3c
00000380: 1fb3 27bc 3c63 193c 158f d8bb 26e0 32bb
00000390: 5d75 7cbc 55b9 213c a608 253b ca73 2b3c
000003a0: da12 17bc 83f7 2c3c a2d8 0cbb cbf4 8fbc
000003b0: 00fd ecbb 139d a3ba abee 47bb 1431 15bc
000003c0: 53f6 e4bb a248 a7ba ed80 893b 5b4e 303b
000003d0: 268f 373c b499 1a3c 3937 0c3a 4fcf 66bc
000003e0: ab0e bd3a 7f94 853b b253 523b 0d96 f1bb
000003f0: 5719 943b 7731 e7bb 6351 56bc 35d1 3aba

action_model._discrete_distribution.branches.0.bias f4 [25]
0.0 0.0 0.0 0.0 0.0 0.0 0.0 0.0
0.0 0.0 0.0 0.0 0.0 0.0 0.0 0.0
0.0 0.0 0.0 0.0 0.0 0.0 0.0 0.0
0.0
00000000: 0000 0000 0000 0000 0000 0000 0000 0000
00000010: 0000 0000 0000 0000 0000 0000 0000 0000
00000020: 0000 0000 0000 0000 0000 0000 0000 0000
00000030: 0000 0000 0000 0000 0000 0000 0000 0000
00000040: 0000 0000 0000 0000 0000 0000 0000 0000
00000050: 0000 0000 0000 0000 0000 0000 0000 0000
00000060: 0000 0000
