Assets/Environment4/Brains/25actions/Env4Behavior 2.onnx (onnx, 86951 bytes, 6 tensors)

network_body._body_endoder.seq_layers.0.weight f4 [128, 9]
000000 9a dc 7b 3e 04 59 dc be 48 d2 be 3d bc 6f 00 3e
       0.24595872 -0.43036664 0.09317452 0.12542623
000010 5e 3e e1 3e d3 5d f7 3e 1b ae 2e be a2 bf bc be
       0.43992895 0.4831377 -0.17058603 -0.36864954
000020 4e 82 b3 be 9e 39 6e 3d d1 10 0f bd 70 99 52 3e
       -0.35060352 0.058160417 -0.034928147 0.20566344
000030 d1 a9 84 be 0e ec e5 be 82 a4 9a 3e f5 f9 f0 bb
       -0.2591081 -0.44906658 0.30203635 -0.007354016
000040 94 7d 88 be 74 83 bd 3e 43 78 5d 3e 3a cf 3e 3b
       -0.26658309 0.37014353 0.21627907 0.0029115216
000050 08 32 d7 be f5 6b 49 be 64 87 3c 3f f2 84 3f 3e
       -0.42030358 -0.19670089 0.7364409 0.18703058
000060 0a 98 2d 3d 24 01 0e 3f 1c c8 a5 bd 5e 33 b7 bc
       0.042381324 0.5547049 -0.080948085 -0.022363361
000070 f4 87 9b be 71 8f 9e bd f5 3f ce 3e 1f 78 21 bd
       -0.30377162 -0.07742203 0.4028317 -0.039421197
000080 85 50 b0 be c6 dd a0 bd 4c 8c 8e 3e 9b 18 05 3e
       -0.34436432 -0.078548 0.27841413 0.12997667
000090 4f 4a 94 bc 71 12 2e 3e fd 18 e4 3d df 8d 87 3e
       -0.01810184 0.16999222 0.11137579 0.26475427
0000a0 90 8e df 3d 08 d5 2b bf e8 6a 2b be be dc 1c be
       0.109158635 -0.67121935 -0.1674 -0.15318581
0000b0 88 84 bb 3e 2f 39 cc 3e 61 d7 62 bf d5 d5 7d be
       0.3662455 0.39887378 -0.8860989 -0.24788602
0000c0 b9 c4 55 be ad 91 85 be 34 bc dd bd e1 35 d7 3e
       -0.20875825 -0.26087704 -0.108269125 0.42033294
0000d0 26 59 0c 3f 17 ec dc 3e 3f c9 91 3d bb f4 bc 3e
       0.5482353 0.43148872 0.07118463 0.36905465
0000e0 da 54 f8 be c5 95 59 bf 13 a7 9f 3e 5b 28 cc be
       -0.48502237 -0.84994155 0.31182155 -0.3987454
0000f0 74 ce f2 bd c0 29 aa be cb ed 02 bf cc 86 c4 3e
       -0.11855784 -0.33234978 -0.51144093 0.38384092
000100 48 68 ce 3e 8c c3 dd be 66 41 c8 bd d6 02 35 be
       0.40313935 -0.43313253 -0.09778099 -0.17676863
000110 9a 5f ba 3e 48 66 85 3e 2d 11 0a 3e ae 97 4b be
       0.36401063 0.26054597 0.13483115 -0.1988208
000120 22 69 75 be 68 b0 18 3f dc 42 00 bf 35 b5 ff be
       -0.23965886 0.59644175 -0.5010202 -0.49942937
000130 c5 f1 63 3e d0 8a bb be 7d 98 de bc e6 3e 5e be
       0.22260197 -0.36629343 -0.027172321 -0.21703681
000140 e8 de 70 3e b6 be 34 3e 00 b8 a7 bd d5 c5 04 3f
       0.23522532 0.17650875 -0.08189392 0.5186437
000150 d6 fd 17 be 7d 84 c4 3d b9 ea 71 bd da e7 c2 bd
       -0.14842924 0.09595583 -0.05906174 -0.095168784
000160 f7 6f de 3e 86 53 27 3e 42 9a d4 3e 46 76 ac 3e
       0.43444797 0.16340455 0.4152394 0.33683985
000170 fe ca ea bd 75 cc 7b 3e 06 eb 36 be d5 77 20 3d
       -0.11464499 0.24589713 -0.17863092 0.03917678
000180 4e a0 fd 3d 8d bc 80 3d c2 56 c4 be 28 c4 9c 3e
       0.12384091 0.06285963 -0.3834744 0.30618405
000190 05 db 07 bd 12 ab e3 be a1 c3 df 3d e6 3c c8 3e
       -0.033167858 -0.44466454 0.10925985 0.39108962
0001a0 ee 4f ed bd c8 07 9f 3d 0a c5 36 3d 9e dc 1e be
       -0.11587511 0.07765156 0.044621505 -0.15513846
0001b0 15 59 65 be bc 3d 67 be 98 7a 3a bf 34 e3 3e 3e
       -0.22397263 -0.22582144 -0.72843313 0.18641359
0001c0 d0 a4 ba be 98 7f 08 3f 8a 57 15 3e 68 97 99 be
       -0.36453867 0.5331969 0.14584175 -0.29998326
0001d0 4a 08 1c 3f 94 e0 37 be fb b2 0f bd 8f 14 33 3e
       0.6095015 -0.17956764 -0.0350828 0.17488311
0001e0 df 55 10 3f b8 7f 14 3e 22 b0 74 3e fd b6 57 3e
       0.5638103 0.14501846 0.23895314 0.21065898
0001f0 74 49 74 3e b9 59 11 be dc ca 61 3e ca bd 42 be
       0.23856145 -0.14194383 0.22050041 -0.19017711
000200 d3 3b e9 3e fa 41 38 be 59 a7 9c 3d 8d 17 0d 3e
       0.45553455 -0.17993918 0.076491065 0.13778515
000210 61 a3 ff be 7a 4e 25 3d 4c 81 f3 bd 5f 9a 1d 3e
       -0.49929336 0.040358044 -0.11889896 0.15390919
000220 0d 77 52 3e 6d 46 1b be 22 ac d1 be d5 79 c4 bd
       0.20553227 -0.15163584 -0.4095164 -0.0959355
000230 c2 15 3f bf 48 a6 86 be 96 e1 78 3e 4f 3a bb be
       -0.74642575 -0.26298738 0.24304804 -0.36567923
000240 4f b3 b5 3e 9a 31 25 3e 38 96 26 be 07 9a a1 be
       0.35488364 0.16132203 -0.16268241 -0.31562826
000250 4a c0 86 be a0 eb b3 3e b0 39 4d be 1d 6b b8 3e
       -0.2631858 0.35140705 -0.20041537 0.3601922
000260 12 c2 3c 3d 78 05 f4 be 02 16 9f 3e 99 b0 89 be
       0.046083517 -0.47660422 0.31071478 -0.26892546
000270 d7 44 41 3e 9a 56 03 3f c8 3a 0e be 59 f6 97 bd
       0.18873917 0.5130402 -0.13889611 -0.07420034
000280 05 54 84 be d3 2b 2b 3e 26 c9 83 be 9e 4f fb be
       -0.25845352 0.16715936 -0.25739402 -0.4908418
000290 a5 26 21 bd 7e 80 c7 3e 74 1e 93 bd 53 24 83 be
       -0.039343495 0.3896522 -0.07183543 -0.2561365
0002a0 5a a6 34 3e c5 e4 92 bd e2 78 7e bc 2e e4 0a bf
       0.17641583 -0.071725406 -0.01553175 -0.54254425
0002b0 37 1c 79 bd 15 d2 9c be bf 66 53 3e ab a6 d8 be
       -0.060817923 -0.3062903 0.20644663 -0.42314658
0002c0 31 95 4f be df d2 a1 bd 18 c8 9f 3e cf cc 18 3e
       -0.20271756 -0.079015486 0.31207347 0.14921878
0002d0 e2 b0 a3 3d d8 41 b5 3d 4c bf 9f be f9 05 e7 3e
       0.07992722 0.08850449 -0.31200635 0.45121744
0002e0 e2 ad 99 be b5 83 8f 3e 3e d2 84 3f 86 02 86 3d
       -0.30015475 0.28030172 1.0376661 0.0654345
0002f0 f9 d1 83 be f0 5b b8 3e 8d ef 1c be 05 0f 82 3e
       -0.25746134 0.36007643 -0.15325756 0.25402084
000300 42 6e 95 be 55 80 e8 bc e3 16 01 3e 42 98 b0 be
       -0.29185683 -0.028381506 0.12606387 -0.34491163
000310 bb 38 80 bd 83 83 64 3e f0 ab e8 be 2c 21 7e bd
       -0.062608205 0.22315793 -0.45443678 -0.062043354
000320 4a b9 00 bd 3c 2d 66 3e ee 15 33 bd 54 b8 03 3f
       -0.031426705 0.22478193 -0.043722086 0.5145314
000330 75 79 e8 3e 3f c8 11 be 01 70 cc 3e 56 a1 2e 3f
       0.45405164 -0.14236544 0.39929202 0.6821493
000340 22 ee 7f 3e 73 63 16 3e 1a 62 96 be ed d6 0a bf
       0.24993184 0.14686374 -0.2937172 -0.542342
000350 7b e7 53 bf a6 9a 0a be 90 34 18 be 37 2b df 3c
       -0.82775086 -0.13535556 -0.14863801 0.027242286
000360 1b 05 13 bf 13 7f a7 3b f3 a0 bf be c1 43 1d bf
       -0.57429665 0.005111584 -0.37427482 -0.6143151
000370 39 45 3f 3e cd b0 83 be 89 1b d2 3d ca 76 2c bf
       0.1867875 -0.25720826 0.10259158 -0.6736876
000380 b6 1b 55 3e b4 4b fa 3e cf 5e 3b be 70 ab c1 bd
       0.20811352 0.48885882 -0.18297885 -0.09456527
000390 56 3e 50 3e df 0f a3 be 73 65 60 3e 51 2f 93 bc
       0.2033628 -0.31848046 0.219137 -0.017966898
0003a0 01 01 d8 3e 6d a7 40 3f 1a c3 07 bf 8c ca c8 bd
       0.42188266 0.7525547 -0.53032076 -0.09804258
0003b0 00 27 13 be 60 c4 b9 3c ec 50 7b be a2 20 f5 3e
       -0.14370346 0.022676647 -0.24542588 0.4787646
0003c0 63 cb 80 be e3 45 ea 3e 0d a4 76 3e 59 10 eb be
       -0.25155172 0.45756444 0.24086018 -0.4591091
0003d0 9a ac 73 3e 08 3e 27 3f 8a 4c bc 3e e0 36 05 3e
       0.23796311 0.6532903 0.36777145 0.13009214
0003e0 84 cd 0f 3f 01 5f dd 3d b5 19 df 3e ed ec f4 bd
       0.56172967 0.10809136 0.435743 -0.119592525
0003f0 cd 0b a5 be 40 05 b3 bd 7d 94 4a be cd fd 3e 3d
       -0.32235566 -0.08741236 -0.19783206 0.046628762

network_body._body_endoder.seq_layers.0.bias f4 [128]
000000 b2 8d ca 3b da 2a 2b bc 24 f3 93 3c a1 a2 18 3d
       0.006181442 -0.010447228 0.018060274 0.03726447
000010 98 f7 b2 3d 32 b2 cd 3c f0 7e 82 3d bd d3 2b 3d
       0.08738631 0.025109384 0.06371868 0.041949976
000020 34 06 94 3d 59 d8 88 3d cd 5a 83 bc 16 bc c6 3d
       0.07227746 0.0668189 -0.016034508 0.09703843
000030 1b ee 9c 3d 8d bd 3b 3d 4d 4f a4 3d 48 18 d2 3c
       0.076626025 0.045835067 0.08022938 0.025646344
000040 2b 99 8f 3d 09 b6 06 3d 50 f8 41 3d 21 58 ab 3d
       0.07011636 0.032888446 0.04735595 0.08366419
000050 bd e6 71 3d fe a7 74 3d f0 cd 60 3d e3 21 18 3d
       0.05905794 0.059730522 0.054883897 0.037141692
000060 68 b4 42 3d 59 b6 84 3c f5 68 23 3d 21 05 44 3d
       0.04753533 0.016200231 0.039895017 0.047856454
000070 48 6c ac 3c 06 83 3e 3d 9e ad f4 3c 0e 39 1b 3d
       0.021047726 0.046511672 0.029867943 0.03789621
000080 01 9c 82 3d e1 25 98 3d c3 8b 47 3d 58 d6 d8 3c
       0.06377412 0.074291 0.04871727 0.026469395
000090 09 a1 ab 3c c7 d5 ab 3d 68 0e 3d bd df 34 a2 3d
       0.020950811 0.08390384 -0.046156317 0.079202406
0000a0 5f e1 28 3d 5f 34 86 3d 4e e3 42 3d 55 69 8b 3d
       0.041230556 0.06552958 0.047580056 0.068072
0000b0 b3 96 a5 3c f0 a1 77 3d 70 f6 8d 3d c3 c3 af 3d
       0.02021346 0.06045717 0.0693177 0.085822605
0000c0 75 01 e8 ba 37 21 75 3a c1 df 83 bc 3b 9a 87 3d
       -0.001770063 0.00093509577 -0.016097905 0.06621214
0000d0 fe f0 b8 3c 84 85 35 3c 55 3a a6 3d 4e ec 59 3d
       0.022575852 0.011079196 0.08116595 0.053203873
0000e0 51 1b eb 3c 10 25 d1 bc d2 2d 5a 3d 97 4e 62 3c
       0.028699549 -0.025530368 0.053266354 0.013812683
0000f0 0c 70 32 3d 65 23 f1 3c 89 6d a7 bc a6 ad 1e bd
       0.043563887 0.029435823 -0.020437973 -0.038739823
000100 70 32 d8 3c 9c d7 97 3d e2 3f 85 3d 99 23 5f 3d
       0.026391238 0.07414171 0.06506325 0.054477308
000110 7e 9a 38 bd 2f 1f 98 3c 47 06 67 3c 4a 27 65 3d
       -0.04506921 0.018569557 0.014100618 0.055945672
000120 0c 50 29 3d 02 32 0b 3d f7 87 b0 3d ee ca 81 3c
       0.041336104 0.033983238 0.08619683 0.015843835
000130 06 a5 ad 3d 37 01 0d 3d 6e b5 7f 3d 7c e9 94 3d
       0.08478741 0.034424987 0.062428884 0.07271096
000140 13 e1 ad 3c 14 58 ae 3d 6d 49 90 3d 2a e7 4b 3d
       0.021225488 0.08512893 0.07045255 0.049781002
000150 9d e2 ab 3c 85 b2 8c 3c a2 61 bd 3d d8 2a f6 3c
       0.020982081 0.017174968 0.092471376 0.030049726
000160 a5 ae c5 3d b2 f2 6b bd c6 ed 80 3d 07 d6 87 3d
       0.096524514 -0.0576045 0.06295352 0.06632619
000170 dc 60 22 3d 4b 3c a3 3c ab ca 92 3d 66 75 85 bc
       0.039643154 0.01992621 0.07167562 -0.016291331
000180 e4 f4 f4 3c 2c 0d be 3c c6 13 a5 3d a6 37 84 3d
       0.02990193 0.02319964 0.08060412 0.064559266
000190 4b 47 37 bb 43 ea 15 3d b4 75 96 3d 68 02 3b 3d
       -0.0027966078 0.036600363 0.07346669 0.04565659
0001a0 47 e5 2b 3d 9e f4 77 3d 24 ab c3 3c a0 af b1 3c
       0.041966703 0.06053602 0.023885317 0.02169019
0001b0 a0 50 d9 3c c7 60 3f 3c 9f 23 86 3d 70 b0 95 3c
       0.026527703 0.011680788 0.06549763 0.018272609
0001c0 b6 de f7 3c 53 7e 12 3d f5 b2 a3 bb fa 74 93 bc
       0.030257564 0.035765003 -0.0049956986 -0.018000115
0001d0 ca 50 45 3d d5 47 90 3d 1f a7 b8 3d 92 9d 35 3d
       0.04817275 0.07044951 0.09016251 0.044339724
0001e0 3a 02 fb 3d 58 d7 9f 3d be 88 22 3d 95 e7 0e 3d
       0.12256284 0.078047454 0.03968119 0.034888823
0001f0 29 b8 27 3d 56 0e 98 3c 0c 04 db 3c 65 72 87 3b
       0.040947113 0.018561523 0.026735328 0.00413351

network_body._body_endoder.seq_layers.2.weight f4 [128, 128]
000000 9b 88 85 3c 80 88 18 3e 57 3f 4e bd 16 da 90 3d
       0.01630049 0.1489582 -0.050353374 0.070728466
000010 c1 af 31 bd 44 d2 ba 3d 31 66 0c be ff 77 30 bd
       -0.043380503 0.09122136 -0.13710858 -0.043083187
000020 96 d5 37 3d 9c 02 1d 3e 43 e5 50 bd ca 86 20 be
       0.044881426 0.15333027 -0.05099989 -0.15676418
000030 f8 67 88 bd 30 3a 1a bb 52 ff 18 3e 3d 02 bb 3d
       -0.066604555 -0.0023533218 0.14941147 0.09131286
000040 a0 dd 23 bd bd e0 50 3c ee 75 51 bd 1c c3 97 bd
       -0.04000628 0.012748894 -0.051137857 -0.07410261
000050 26 f3 fd bd b1 9d 2e 3e 56 71 03 be 8e 8b b5 bd
       -0.123998925 0.17052342 -0.12836203 -0.088645086
000060 59 40 de 3d 55 45 b2 bc 1a ec 25 3e dc 3e c4 3e
       0.10852117 -0.021761576 0.16203347 0.38329208
000070 57 1f e0 bc 5e c7 6c bc b0 72 ad 3d 78 45 40 bd
       -0.027358694 -0.01445183 0.084691405 -0.04694125
000080 65 76 e5 3c 1b 00 f9 bd 75 67 15 3d e2 45 8d 3d
       0.028010556 -0.12158223 0.036475617 0.06898095
000090 3b 4e 09 bd 46 d6 74 3b c9 09 1e bd 99 27 c1 bd
       -0.033521872 0.0037359162 -0.03858355 -0.09431381
0000a0 d7 d0 05 be be 3a 0a be 26 0d f7 3d 19 ce d6 bd
       -0.13067947 -0.13498971 0.12063055 -0.10488529
0000b0 c5 0d ba bc 6e 07 2b bc 92 e5 24 3e 1f 1a 8f 3d
       -0.022711644 -0.010438783 0.16103199 0.06987404
0000c0 d0 78 29 3d 4a 69 23 bd 4b 14 c8 3d 98 ad 15 bd
       0.04137498 -0.039895333 0.097694956 -0.036542505
0000d0 26 1b 49 bc 6d 6c 88 3d b0 2a 07 3e 87 8e a9 3d
       -0.012274539 0.066613056 0.13199878 0.08279138
0000e0 43 03 36 3d 82 b0 0c 3e 17 1f b1 bd 10 a4 45 3e
       0.044436704 0.13739207 -0.08648508 0.19300866
0000f0 56 4f b4 3d 72 b8 1c be 26 20 3a bd bf 36 a0 3d
       0.08804195 -0.15304735 -0.045440815 0.07822942
000100 f7 58 09 be 2b 99 0f be ce a3 a3 3d 4f 6a d4 3d
       -0.13412844 -0.14023273 0.07990228 0.10371839
000110 fa 33 5d bc 94 08 ee 3c 7b e0 26 3e 21 82 17 bd
       -0.013501162 0.029056825 0.1629657 -0.036989335
000120 91 d3 1f 3d a7 75 d3 3d 95 d1 08 be 85 91 bb 3c
       0.039020125 0.10325175 -0.13361199 0.022896538
000130 9e 1e 4b 3d 31 91 8a bb 40 eb a9 bb 9f e1 7b 3d
       0.049589746 -0.004228734 -0.0051855147 0.061494466
000140 d9 98 df bd 08 da c1 3d b5 c5 b8 bc af bf 81 3e
       -0.10917825 0.09465414 -0.022555212 0.25341555
000150 39 ec 49 3d 0a d9 9c bd e5 dd bb bd d8 66 12 3e
       0.049297545 -0.076585844 -0.091731824 0.14297044
000160 9d eb b2 3d 2a d2 eb bd 1d 49 af 3d b4 8e f0 ba
       0.08736346 -0.11514695 0.08558867 -0.0018353076
000170 3e e6 58 3e 6e 22 03 3e 4d 4b e0 3d 14 a6 d8 bd
       0.2118158 0.12806103 0.109518625 -0.10578552
000180 ff 95 7e bd 50 dc 92 bd 3d b8 94 3c 21 17 50 bd
       -0.062154766 -0.071709275 0.018154258 -0.050803307
000190 45 f3 34 3e 0b ce 83 3c b4 0c cc bd 0a cb 67 bb
       0.17670925 0.01608946 -0.099633604 -0.0035368823
0001a0 90 a8 ec bd 7f db 3c 3e 70 43 7c bd 9d f8 bc bd
       -0.11555588 0.18443106 -0.06158775 -0.09227107
0001b0 cb a1 ed 3d 5c 65 8a bc 54 7d 26 3e ee c5 0b 3e
       0.11603125 -0.016894035 0.16258746 0.13649723
0001c0 c1 1e c0 3a b8 8e 0d 3e 9b 96 b2 bd 74 4f 93 bd
       0.0014657603 0.13823974 -0.08720132 -0.07192889
0001d0 83 e6 7f 3d 27 6d 38 be b2 4e 27 be f8 ad 20 bd
       0.062475692 -0.18010388 -0.16338614 -0.03922841
0001e0 98 c6 65 3e c9 c2 8a bb d2 0a f2 bd 8c a4 93 bc
       0.22439039 -0.004234646 -0.1181847 -0.018022798
0001f0 5a 92 11 bd 91 88 82 bd 5d 7e 16 bd 76 3a 96 3d
       -0.035539962 -0.06373704 -0.036741603 0.07335369
000200 34 d3 7a bd 32 33 35 bd ed f9 84 3d a5 b4 9d bd
       -0.061236575 -0.044238277 0.06492982 -0.07700471
000210 74 e8 ad 3e 1a 32 b0 3d ab 94 df bd b9 8b 84 3d
       0.3396641 0.08603306 -0.10917028 0.064719625
000220 82 65 66 3c fe 7e 15 bd aa cd 12 3d f9 4e 09 3e
       0.014062287 -0.036498062 0.035840668 0.13409032
000230 cf 7a 4d bd 37 10 51 bd 23 31 5f 3d ce c0 20 3d
       -0.050165948 -0.051040854 0.05449022 0.039246373
000240 d3 de e9 3d b6 da 08 3d c1 de 11 3e b9 51 91 bd
       0.114194535 0.033411704 0.1424513 -0.070956655
000250 8c 30 19 3e b5 87 c4 3c 81 cb c4 3d a6 91 02 be
       0.14959925 0.023990491 0.09609128 -0.12750873
000260 35 eb 27 3c cd 1c 52 3b 9d 9a 1d bc c2 b9 1d bd
       0.010248949 0.0032060624 -0.009619382 -0.03850723
000270 7b e6 53 be f5 e2 03 be ac f4 24 be 1a c8 03 3d
       -0.2069339 -0.12879546 -0.1610896 0.032173254
000280 e7 fb b2 3d 00 05 c4 3c fb 2a 47 be bd 5f 0f 3e
       0.08739453 0.023928165 -0.1944999 0.14001365
000290 65 d7 96 3d a7 14 be 3c 47 60 42 be 26 1f 20 bd
       0.07365302 0.023203207 -0.1898204 -0.039092205
0002a0 31 3c b3 3d a8 16 10 3e 65 7f e2 3d 24 28 9d 3c
       0.08751715 0.14071143 0.11059455 0.01918418
0002b0 28 5c 9b 3d 8e 13 d0 3d 96 95 95 be 94 c1 56 bc
       0.07585937 0.1015998 -0.29215688 -0.013107676
0002c0 11 86 bc bd c4 65 b8 3c 2d 66 ae bc bb af 11 be
       -0.09205259 0.022509463 -0.021288956 -0.14227192
0002d0 14 54 7e bd ae 45 72 bb 44 a7 41 bc b6 37 f5 3d
       -0.062091902 -0.0036967802 -0.011819664 0.11973517
0002e0 2a ea 3c 3d 5d ff a1 3d ba 54 b8 3d 3f 4e 07 bd
       0.046121754 0.07910035 0.09000535 -0.033033606
0002f0 5b 56 58 3c bf ef 37 bd 44 b2 24 bd 0f c8 75 bd
       0.0132041825 -0.044906374 -0.04020907 -0.060005244
000300 13 4d 26 3e 6c 97 4b 3d 29 c1 02 3e c7 d9 9b 3d
       0.16240339 0.049704954 0.12768997 0.07609897
000310 57 ae 12 bd 1e 96 c1 3c 6c f5 be bd 88 b3 e5 bc
       -0.035810795 0.023631152 -0.09324154 -0.028039709
000320 4b 43 cc bd 15 c5 f3 bd a0 87 a3 3d c9 8d f0 bd
       -0.099737726 -0.11902825 0.07984853 -0.11745793
000330 7d 0b e2 bb 29 ce bc 3c 22 c9 d3 bc 53 55 c1 bd
       -0.006898342 0.023047524 -0.025852744 -0.094401024
000340 49 eb 2e 3e 0c c3 cc bd 8b e6 44 bd b5 be 73 bd
       0.17081942 -0.0999814 -0.048071425 -0.059508044
000350 e2 f2 0f 3e 46 9a f6 3d 21 98 de bc 8d 4f b5 3c
       0.14057496 0.12041144 -0.02717215 0.02213266
000360 13 05 bf bc 5d 5d 14 bd 0f 3c 0b 3d f0 1a c8 bc
       -0.02331785 -0.03622185 0.033992823 -0.024426907
000370 12 ba 93 bd 24 00 9c bd c4 70 84 bc 8d 6f a2 3d
       -0.072132245 -0.07617214 -0.016167052 0.07931433
000380 50 e9 27 3d ab 51 20 bb f8 83 60 bc 6c c0 d0 3a
       0.04099399 -0.002446274 -0.013703339 0.0015926487
000390 a7 98 26 bd fc 82 ef bc b2 2a 08 3e b4 62 bc bd
       -0.040672924 -0.029237263 0.13297537 -0.091985136
0003a0 2d e0 a7 bc 2b e4 46 bd 2a 68 b4 bd df 3f bb 3d
       -0.020492638 -0.04855744 -0.0880893 0.09143042
0003b0 8c 22 e5 3d 1d 95 df bd 5b 31 d8 3c 25 49 a6 bd
       0.1118823 -0.10917113 0.026390722 -0.0811942
0003c0 64 60 6a 3d 66 22 bb 3c 07 33 48 bd f2 52 ff 3d
       0.05722083 0.02284355 -0.04887679 0.124669924
0003d0 71 98 0e bd b6 b0 2f bb 19 6d 55 3d 00 2d 45 3d
       -0.03481335 -0.0026808209 0.052105997 0.04813862
0003e0 68 15 0e 3c 1f 07 10 bc b5 e8 2a be 83 ca 1c 3d
       0.008672096 -0.00879076 -0.16690333 0.038279068
0003f0 30 e3 3e 3c aa 63 7d bc 0c a8 e6 bd e8 c0 23 bd
       0.011650845 -0.015465656 -0.11262521 -0.03997889

network_body._body_endoder.seq_layers.2.bias f4 [128]
000000 f4 06 4b 3d 54 0f 4a 3c be e6 a4 3c aa 30 35 3d
       0.049567178 0.012332756 0.020129558 0.044235863
000010 03 9d 34 3d 62 1f 26 3d 87 d5 71 3c a4 5e 9c 3b
       0.04409505 0.040557273 0.014760382 0.004772024
000020 67 66 63 3b 6e 9a 0d 3c a9 24 86 3d c2 57 dc bc
       0.0034698488 0.008642776 0.06549961 -0.026897315
000030 62 08 04 3d a6 e1 b9 3c 73 6c 15 3d 7d e2 96 3c
       0.032234557 0.022690605 0.03648038 0.018418545
000040 55 43 08 3c a0 31 44 3b 45 7f dd 3c 5a 46 5d 3c
       0.008316834 0.0029936805 0.027038226 0.013505543
000050 4d c9 09 3c 3a 5a 98 3d bb 5d 65 3d 43 a5 33 3c
       0.00840981 0.07439084 0.05599759 0.010964694
000060 5e 7f 60 3d ec e3 26 3d 54 0a 3b 3d c6 ff 8a 3a
       0.054808967 0.040744707 0.045664147 0.0010604791
000070 e2 5e c6 3c ed 8d 60 3c 12 aa df 3c 54 cb 3b 3c
       0.024215166 0.013705713 0.027302776 0.011462051
000080 52 72 d6 3b 1c 83 fb 3b fb 37 05 3c b3 39 c2 3c
       0.0065443898 0.0076755416 0.008131023 0.023709154
000090 96 11 d4 b9 60 4b ad bb da b8 91 3d 1f dc 9d 3c
       -0.00040448894 -0.0052885264 0.07115336 0.019270001
0000a0 80 28 ca 3c 46 4f bc 3c cb c6 e1 3c 62 ab ef 3c
       0.024677515 0.02298702 0.027560612 0.029256526
0000b0 df c2 21 3d cb f2 1d 3d 9c f9 40 3c a0 ce 2a bb
       0.039492484 0.038561624 0.0117782615 -0.00260631
0000c0 fa cd c9 3c 8b 66 4b 3d e0 a4 3e 3d 9c 85 4d 3d
       0.02463435 0.04965834 0.046543956 0.050176248
0000d0 2d 3c 08 3d 8b 22 00 3d d7 57 27 3d 53 eb fa 3c
       0.033260513 0.031282943 0.040855255 0.03062979
0000e0 26 b1 9c 3b a2 58 1b bd 27 07 12 3d 3f 26 a4 3c
       0.00478186 -0.037926324 0.035651352 0.020037768
0000f0 7a 04 be 3c f4 b0 9f 3d 9d c9 99 3d d4 d9 8b 3d
       0.023195494 0.07797423 0.07509158 0.06828657
000100 d9 e1 b9 3b 81 0a 26 bc ce ae 4b 3d 19 2e d3 3d
       0.005672675 -0.01013434 0.049727254 0.10311527
000110 2d 7a 9a 3c 59 28 da 3c b4 e1 f1 3c ca a3 23 3d
       0.018857086 0.026630567 0.029526569 0.039951123
000120 0e c7 94 3c 9c 9d 3b 3c bf ec 67 bc 3b 9a 54 3d
       0.018161323 0.011451151 -0.014155566 0.051904898
000130 60 d9 0b 3d e9 b3 4a bb 50 31 7f ba e3 dd 7b bc
       0.03414285 -0.0030929989 -0.0009734826 -0.015372726
000140 01 1a 6a 3c 7e e2 30 ba 63 9d 07 3b 07 11 bc 3b
       0.014288426 -0.0006747617 0.0020693175 0.0057393345
000150 b1 5d 58 3c 01 b1 cc 3c 63 2e 88 3d 5a 52 38 3c
       0.0132059315 0.024986746 0.066494726 0.011250103
000160 04 f0 be 3c b9 49 4b 3c 64 8e c0 3c 5e 30 1c 3d
       0.023307808 0.012407714 0.023505397 0.038132064
000170 5d 5b 76 3c df 35 8f 3c 5d dd 11 3d 44 76 05 3d
       0.015036431 0.017481742 0.0356115 0.03258349
000180 b8 3b bc 3b 6d 8a c4 3c 10 14 5e 3d 21 d9 23 3d
       0.0057444237 0.023991788 0.05421835 0.040001992
000190 06 45 e7 3c 51 e8 cb 3b 15 9e 6a 3d b2 90 85 3d
       0.028231155 0.0062227626 0.057279665 0.06521739
0001a0 5f 30 8d 3d 37 e1 41 3d 5a cb 71 3d 90 8f 90 3c
       0.06893992 0.047333922 0.05903182 0.017646581
0001b0 be cc 98 3a be 54 8e 3c a0 d8 83 3c eb ff 8c 3c
       0.0011657698 0.017374393 0.016094506 0.017211875
0001c0 62 46 32 3d 2b 09 05 3a 6a db 3e 3d 56 4f 41 3d
       0.043524154 0.00050749135 0.04659597 0.0471948
0001d0 61 a1 b6 3c 34 28 79 3c d0 1f 4f 3d eb d0 3a 3d
       0.022293748 0.015207339 0.05056745 0.045609396
0001e0 c0 49 d1 3c 7b fe 41 3c 93 65 58 3d 2a d5 f4 3a
       0.025547862 0.011840458 0.052831244 0.001867925
0001f0 dc 3a 11 3d c1 73 c3 3b 62 5b 39 3d 1f 25 17 3c
       0.035456523 0.0059647267 0.045253165 0.009225159

action_model._discrete_distribution.branches.0.weight f4 [25, 128]
000000 dd 1f 8a bc 90 1b 82 3c 87 d0 0e 3c 4d b8 ae 3c
       -0.016860897 0.015882283 0.008716709 0.021328116
000010 1c aa 0b 3c 3f 8c 45 bc bd fa 45 bb 9f 3b c7 bc
       0.008524444 -0.012057363 -0.0030209266 -0.024320422
000020 a1 b5 f4 3b e6 b0 1a 3c ac 54 6e bd cd c1 15 bd
       0.007467941 0.00944159 -0.05818622 -0.036561776
000030 66 d1 11 bd 2e d3 ea bc bb 7d bf 3c 67 b4 08 3c
       -0.03560009 -0.028665151 0.023375383 0.0083437925
000040 ce 11 bd 3b 06 cd 36 3c 83 aa be 3b 0b 0c 33 3c
       0.0057699447 0.01115728 0.0058186664 0.010928164
000050 d7 be 24 3d 51 ff 2d 3d 64 3a 66 bd 65 4d 44 3c
       0.04022106 0.042479817 -0.05620803 0.011981343
000060 44 4c 85 3c e4 f4 f1 3c 32 20 8b 3b b5 31 a3 bc
       0.016271718 0.029535718 0.0042457813 -0.019921163
000070 9b 38 7d bc af bd 42 3c 0b 0f 94 3b db fa 79 3c
       -0.01545539 0.011886044 0.004518395 0.0152575625
000080 8d 2f 91 ba 3f 50 a1 bc 3e 4a 74 bc c5 bd 23 bc
       -0.0011076793 -0.019691585 -0.014910279 -0.009993975
000090 fd 63 1f bb 30 0d 05 bc bf 6f 2b 3d 6e 4a 86 3c
       -0.0024321072 -0.00812082 0.041854616 0.016392913
0000a0 83 6e b1 bc 7d f8 19 bc 3c 2a 61 3c ff bc 24 bc
       -0.021659141 -0.009397623 0.01374298 -0.010054826
0000b0 90 a2 1b bb 4d 8c c2 3b d3 a3 40 39 0a 77 59 3b
       -0.0023748018 0.0059371353 0.00018371576 0.0033182525
0000c0 8f 8d 86 bc d7 94 1d bd e6 7a 77 3d 51 ef 28 3d
       -0.016424922 -0.038472023 0.06041994 0.041243855
0000d0 aa 86 5b bc fc ca 48 3b d3 de a2 bc 71 70 28 3c
       -0.013398806 0.0030638566 -0.019881641 0.010280714
0000e0 61 e1 9d bc bb b6 d2 bb bb bb 78 3b 69 8e 3f 3c
       -0.019272508 -0.0064304746 0.0037953693 0.011691668
0000f0 b0 19 12 bc 88 10 81 3d 6f 8c 21 3d bf 3c 33 bd
       -0.008917257 0.06301981 0.03944057 -0.043759104
000100 af 3f 46 3b 20 0c 49 ba 68 05 f9 bc 04 d4 7f 3d
       0.003025036 -0.0007669348 -0.030398086 0.062458053
000110 80 a6 40 bc 2e e3 e4 bc 86 af f3 3c dd 1b 0a bd
       -0.011758447 -0.027940359 0.029746782 -0.03371798
000120 92 d9 aa 3c aa e8 d4 bc fc 0a 19 bc bf 2c 98 3c
       0.020855699 -0.02598985 -0.009340998 0.018576024
000130 bb 15 1f 3b 04 5b 83 3c a4 50 10 3c d1 b4 95 bc
       0.0024274427 0.01603461 0.008808289 -0.018274697
000140 86 ae 01 3a 12 ee 78 3b 95 b6 08 bc 01 a3 d2 bb
       0.00049469655 0.0037983698 -0.008344312 -0.006428123
000150 df 7a 66 3c 73 c7 da 3c b9 eb 1c 3d 08 82 93 bc
       0.014067381 0.026706433 0.03831074 -0.01800634
000160 f2 41 06 3c 8d 11 4d bc 12 a7 97 3c e5 cb f3 bb
       0.0081944335 -0.012516391 0.018512283 -0.0074400776
000170 a2 a6 73 3c 1e 5f 2e 3c 6f 12 9e bb 99 95 12 bd
       0.014871271 0.010642795 -0.004823975 -0.0357872
000180 8a 92 86 3a a6 38 88 3c 24 e2 8d bc a8 1d 56 3c
       0.0010267061 0.016628575 -0.017319746 0.013068594
000190 57 4d d3 3c 6e cf b3 bc 8f d8 d2 3c b4 3b 40 bd
       0.025793714 -0.021949496 0.025738029 -0.046931937
0001a0 39 a8 c2 3c 52 b4 66 bc 55 6f 1a bc 08 0e f8 3a
       0.023761855 -0.014081078 -0.009425958 0.001892508
0001b0 fa ab 81 bb 70 3c 8c 3c 80 4c 48 3c 2f 33 5c bc
       -0.003957269 0.017118663 0.01222527 -0.0134399375
0001c0 ff 86 98 3c 84 65 5e bc b0 89 7a 3c 00 47 5b 3d
       0.018619059 -0.013574008 0.015291616 0.053534508
0001d0 e8 2a d7 3c 5e 0b 5b bc 74 37 f1 3c b7 e3 d2 3c
       0.026265576 -0.013369409 0.029445387 0.025743349
0001e0 63 dc 3d bd 84 62 fc bc f0 10 10 3c 0d 73 fd bb
       -0.046352755 -0.030808695 0.008793101 -0.0077346624
0001f0 91 55 19 bd 93 b2 26 3c d0 5b ab bc b2 78 01 bd
       -0.037435118 0.010174411 -0.020917803 -0.031609245
000200 6f 1b b1 3b 0b 00 82 3b 5d 79 b6 3b 96 ea 0c 3d
       0.0054048817 0.0039672903 0.005568667 0.034403406
000210 c8 e7 33 3d cc 27 02 3c 30 b4 34 3b 1c 3a 5f bc
       0.043922216 0.007944059 0.002757322 -0.013624694
000220 8a e8 f3 ba 43 0b 50 3c d5 26 48 bd 90 f9 64 bb
       -0.0018608731 0.0126979975 -0.048865158 -0.003493879
000230 0b 69 2e bd 04 9b 9a bc fe 7d 68 3c 71 eb a0 bc
       -0.042580646 -0.018872745 0.014190195 -0.019643517
000240 13 06 17 bc 0b 30 3d bb 48 60 4b bb 74 98 98 3b
       -0.009217757 -0.0028867747 -0.003103273 0.0046568457
000250 7d 9d 1a 3c 9c 8e 26 3d 52 4c 68 bc e4 84 8e 3c
       0.009436962 0.040663347 -0.014178352 0.017397352
000260 a6 33 9c 3c 89 02 31 3c 99 70 20 3b c9 b1 84 3c
       0.019067597 0.010803827 0.0024481176 0.016198056
000270 2b e0 fa 3b 42 64 10 3b b1 29 30 3c 38 fc ce bc
       0.0076561174 0.0022032415 0.0107521275 -0.025266752
000280 f8 98 5e ba d3 eb 31 3c 89 8a 85 bc 57 8a ba bc
       -0.0008491422 0.0108594475 -0.01630141 -0.022771044
000290 3c b1 9a 3b ba ee f3 3b b2 ac ef 3c 71 f5 5a ba
       0.004720835 0.00744423 0.029257152 -0.00083526137
0002a0 90 10 0f bd 54 a1 be bc 51 b7 75 3c 1d d9 f9 bb
       -0.034927905 -0.023270287 0.014997319 -0.007624759
0002b0 d1 3e 7f 3c 67 07 3f 3c 20 92 e8 3c 3f af 00 3c
       0.015578941 0.01165948 0.02838999 0.007854282
0002c0 ca e5 8a bc fb cd c4 bc ef dc 08 3d 9d c3 59 3c
       -0.016955275 -0.024024 0.033413824 0.013291267
0002d0 9c 2e 9a 3a bf 11 4c bc aa e3 b6 bc ea 50 db 3c
       0.0011763158 -0.012455403 -0.022325356 0.026771981
0002e0 3f 1d c2 bc 18 e1 47 3c d0 b4 77 3c 3a 21 60 bc
       -0.023695586 0.012199663 0.015118793 -0.013679797
0002f0 6b 47 eb bc eb a4 11 3d 2d 6b 4f 3d 29 6e e7 bb
       -0.028720578 0.03555767 0.05063932 -0.0070626927
000300 e9 96 ad 3c e6 fb 52 bc d7 10 a6 bc 07 05 14 3d
       0.021190124 -0.01287744 -0.020271702 0.036137607
000310 31 3b 11 bb 9a 04 15 bd c7 84 63 3c 1d 77 09 bd
       -0.0022160525 -0.03638134 0.013886637 -0.03356086
000320 05 09 a7 3b 60 ca ad 3c 54 59 8e bb 21 f6 06 3c
       0.0050975108 0.021214664 -0.004344145 0.008237393
000330 6d 4c 85 3b 9f f3 24 bb 64 8a 46 3c 2a 3b 41 bb
       0.0040679486 -0.0025169624 0.012117956 -0.0029484727
000340 17 f2 07 ba c6 de f2 bb 3b 94 dd 3b a3 40 0a bb
       -0.00051859155 -0.0074118106 0.006762055 -0.0021095655
000350 06 f3 0b 3c 8b 3e 96 3c f7 38 60 3d ee a7 9f 3a
       0.008541828 0.01834037 0.054741826 0.0012180784
000360 e3 bd 96 3b 8d 84 b8 b9 a0 dd 38 bb 9f 98 a4 bc
       0.004600273 -0.00035193973 -0.002820827 -0.020092307
000370 79 35 6d 3b 3d 17 5f 3c a1 51 bd bc ff 92 0d bd
       0.0036195202 0.01361638 -0.023110213 -0.034564015
000380 c1 22 e0 3a 9e 89 ac 3c 15 db 20 bd ed 97 9d 3c
       0.0017100201 0.021061715 -0.039271433 0.019237483
000390 5f 4a 35 3a f9 18 90 3a 6b 87 8d bb d5 f5 31 bd
       0.0006915684 0.001099377 -0.0043191216 -0.043447334
0003a0 28 91 ca 3c f4 4b fa 3b 56 50 da 3c c9 b0 b7 3b
       0.024727419 0.007638449 0.026649635 0.005605791
0003b0 13 19 e9 bb 42 43 a2 3c 08 31 89 3b 83 e8 01 bd
       -0.007113585 0.019807462 0.004186753 -0.03171588
0003c0 f2 da 63 3b 1a f8 a9 bc 37 68 99 3c 45 0c 5c bb
       0.0034767953 -0.020748187 0.018726451 -0.003357665
0003d0 18 29 56 3c 63 15 ac 3b 92 5c c8 3c 1b bc 9d 3c
       0.013071321 0.005251573 0.024458203 0.019254735
0003e0 52 4c ba bc 25 44 a7 bc aa 05 e5 bb dd 6b 73 3c
       -0.02274147 -0.020418236 -0.0069892006 0.01485726
0003f0 62 05 3d bb b6 25 19 3c 17 bd fa 3a 41 84 4c bc
       -0.002884232 0.00934737 0.001912984 -0.012482704

action_model._discrete_distribution.branches.0.bias f4 [25]
000000 75 8e ac 3c 4a 7c b8 3b 51 25 05 bc 5b 39 ed bb
       0.021064023 0.005630051 -0.008126573 -0.0072395033
000010 18 3c a2 3b 0f f9 46 bb 98 d9 d4 bb 98 2e 93 3a
       0.0049510114 -0.0030360853 -0.0064956658 0.0011229096
000020 e4 69 56 bc 90 ef 2c 3b 62 25 c8 3b 39 c6 29 bc
       -0.01308677 0.0026387908 0.006107972 -0.010362201
000030 c5 46 6f bc ad 57 5d bc f7 a5 5d 3a bc e7 6f 3c
       -0.014604275 -0.013509673 0.00084552116 0.014642652
000040 6d 4d 56 bb d6 42 35 bc e6 3b 33 bc 9e 43 1c bc
       -0.0032699958 -0.011063298 -0.010939574 -0.009537606
000050 a7 01 89 3c 44 37 06 3c da 6f 09 bb 48 92 2a 3b
       0.01672442 0.008191887 -0.002097121 0.0026027132
000060 07 aa 7a 3c
       0.015299327
