Assets/Environment4/Brains/25actions/Env4Behavior 3.onnx (onnx, 86951 bytes, 6 tensors)

network_body._body_endoder.seq_layers.0.weight f4 [128, 9]
00000000: dc50 df3e 9355 e5bb 8a49 4dbf 98fb 7a3c
00000010: 0942 0fbd 026d debe b729 9ebd 57e4 0f3d
00000020: 5869 b33e ad9c f7be 9b63 063d b342 adbe
00000030: 7e24 293e d842 a4be 7f08 98be 646d 07bf
00000040: 6f70 0ebe 781c fc3e 1021 cfbe 8060 b33e
00000050: bcc4 4f3e 2898 a33d 92b9 f73e 8c58 d4be
00000060: d898 1e3f 6524 e33d 91b0 e93e 620b 373e
00000070: 7b94 303e c963 69be deda 02be d22d 0cbd
00000080: 165b dfbe 57e9 59be a842 b93e 8a3c 043f
00000090: 52b1 96be 6706 63bf db8c bb3d 24bf 5c3f
000000a0: b1e4 913e 7821 b2bc a6c3 a33e 97e7 c2bc
000000b0: 4c85 6dbe c688 d33e 7f46 633e 69a9 11bd
000000c0: 9699 9a3b 0a9d 0b3f 1290 c73e a249 23bd
000000d0: 364c d8be a98b f6bd 9ad3 c1be 7957 b5be
000000e0: 3bb4 c23e 4b68 5f3d 29ec 3abc da2b cc3d
000000f0: bd8f df3e 8f89 d53e b271 2c3e 71b7 5abe
00000100: 466f 7c3e ab9d 8abe dedf 1abf c8c5 243e
00000110: b783 a33e e412 61be 1dbb 363e 7c23 713e
00000120: baff 50be 3f99 963d 61c0 593f ad9d 2a3f
00000130: 167b a53d 76b5 dcbe 795f 193f 55bb f2be
00000140: 41a0 c3bd 84ae 13be e41c 76be 7b86 0cbe
00000150: a4e2 b13c 3196 f6be 9432 acbe 0d5a 2ebe
00000160: cf22 1c3f 3fd4 dfbd d226 8b3e 4f56 aa3e
00000170: e6c1 f73d 2c47 04bf 7f58 6abe ba6f 013f
00000180: a359 c23e 934e 7c3e cb59 a03e e574 83bd
00000190: 827a 03bf 8926 5fbf 54f3 073d ea51 2ebe
000001a0: efeb a43e af1e f73e 90a5 263d e9c0 17be
000001b0: bca4 133f c871 afbd 8b2f d2bd 8364 c3be
000001c0: a1d7 36be 7eae 2c3d 0ed4 91be 4f91 273f
000001d0: 8968 4fbe 5e2e 95be d36d fabe 519f 9bbe
000001e0: 8af2 f23e 5637 cfbe 5e5a 36be 2751 3abe
000001f0: f87b bd3e 000c c4be 11e2 8ebe 4063 e53e
00000200: fada b5be 527f d3bd 6290 24bf 4823 a53e
00000210: 7690 c2be 236d 10be 65d3 da3b 3c14 cb3e
00000220: 9759 16bf 53db f53e 9742 633c 8439 9cbe
00000230: a864 90bd e4d2 903e 5f5a e03d 9cf2 d7bc
00000240: 2ff3 e1be 2db9 333e 4351 2ebf 2ede b7be
00000250: 4aaf 1e3f 69d5 f3be 3a70 95be 9f21 b3be
00000260: 0fea 2c3f 9e10 183f aff4 c43d b6c3 26be
00000270: 438c f0bc a575 0ebf 2b64 d2be 3c76 763e
00000280: 1243 c33e 3167 193e 023f 3abe 6da2 adbd
00000290: 84d3 1e3f 420a 87be e0d9 b9be 48bf 043e
000002a0: 281d 26bf d8c0 84bc d1c0 303e 5f4e 1e3f
000002b0: 9471 95be d0b8 8cbd 7af4 383e 487b 033f
000002c0: 592c ef3d fe8d ebbb b973 853e c688 d53e
000002d0: 991c 0ebc f559 0a3e f9ef c03e f2ce 09bf
000002e0: 5e28 85bc b820 2abd 8f67 bfbe a85f c6be
000002f0: d44d b9be 1696 06bf 0dcc eebc 8d55 1bbd
00000300: 56b5 c8be 6ba0 d0be 93a2 3bbe c66e 803e
00000310: 2420 83be 68af 113f bf9d 373d a51e cb3e
00000320: 58b5 85be 2e75 35bf 2c13 6f3d 5cfd b8bd
00000330: 4a8f a1bc bb58 423e 7f1d 983d d605 e3bb
00000340: d2ec a73d 9478 06bf cf84 6e3c 949e 9c3e
00000350: 9442 bbbe c74c 013f a611 e8be 4a56 293b
00000360: ff10 5bbf 1f1d 933f cce2 5bbf f8e2 513e
00000370: 4965 b1bd e171 efbd 671d 1f3f af36 1dbe
00000380: 4eaf 703e 46e6 ab3e c99b d83d 9a55 3fbf
00000390: f232 44bf 14f0 073e c2df 7ebb a509 a13e
000003a0: bbeb 2d3e ec48 ac3d 8d0d 3d3f 56e7 bcbe
000003b0: b88c 2f3e 403b b33d 74d5 0d3e e54a e63e
000003c0: 7ca6 673e 8cf8 b53e b48a 4a3f f1d5 863e
000003d0: 970d b43e a14e 80be 81f6 41bf fc9d fc3d
000003e0: f7bd d2bc 4036 df3d e0be 653e 7a6d 193e
000003f0: 7064 dd3d 49c7 f63d 27ea 53bf aefe 03bf
0.43616378 -0.0069987266 -0.80190337 0.015318774 -0.034975085 -0.4344254 -0.077228 0.03512987
0.35041308 -0.48361722 0.032809835 -0.3383995 0.16517827 -0.32082248 -0.29693982 -0.5290129
-0.13910078 0.4924047 -0.40454912 0.3503456 0.20289892 0.07988006 0.48383766 -0.41473806
0.6195197 0.11090926 0.45642522 0.17875436 0.17244141 -0.22791971 -0.12778804 -0.034223385
-0.4362418 -0.21280418 0.36183667 0.51654875 -0.2943216 -0.88681644 0.091577254 0.8622916
0.2849479 -0.021744475 0.31985205 -0.023792071 -0.2319538 0.41315287 0.22194861 -0.035561953
0.004718016 0.545365 0.38977104 -0.039865144 -0.42245644 -0.12038357 -0.37856752 -0.354183
0.3802813 0.05454282 -0.011408844 0.099693015 0.4366435 0.4170651 0.16840246 -0.2135904
0.24651822 -0.27073416 -0.60497844 0.16091073 0.31936428 -0.21979862 0.17844816 0.23548692
-0.20410052 0.07353448 0.8505917 0.66646844 0.080801174 -0.43107194 0.59911305 -0.47408548
-0.095520504 -0.14422041 -0.24034458 -0.13723175 0.021714516 -0.48161462 -0.33632338 -0.17026539
0.60990614 -0.109291546 0.27178055 0.33268973 0.1209753 -0.516711 -0.22885321 0.50561106
0.37959012 0.24639349 0.31318507 -0.0641878 -0.5135881 -0.87168175 0.03319104 -0.17023435
0.32211253 0.48265597 0.040685236 -0.14819683 0.5767324 -0.08566624 -0.10262974 -0.38162622
-0.17855693 0.042158596 -0.28482097 0.654561 -0.20254721 -0.29136938 -0.48911914 -0.30394986
0.47450668 -0.40471905 -0.1780791 -0.1819502 0.37008643 -0.38290405 -0.2790685 0.44802284
-0.35518628 -0.10327019 -0.6428281 0.3225348 -0.3800084 -0.14104132 0.006678032 0.39663875
-0.58730453 0.48018894 0.013870857 -0.3051263 -0.07050449 0.28285897 0.10954737 -0.026360802
-0.44130847 0.17551108 -0.68092746 -0.35911697 0.6198622 -0.47623757 -0.29187185 -0.34986588
0.67544645 0.59400356 0.09616982 -0.16285595 -0.029363757 -0.5564826 -0.41092047 0.2406854
0.38137108 0.1498077 -0.18188098 -0.08478246 0.620415 -0.26375014 -0.36299038 0.12963593
-0.6488824 -0.016205236 0.17261054 0.61838335 -0.29188216 -0.06871188 0.1806201 0.5135999
0.116783805 -0.0071885576 0.26064852 0.41705912 -0.00867381 0.13510878 0.37683085 -0.538314
-0.0162546 -0.04153511 -0.37383696 -0.38744855 -0.3619219 -0.5257276 -0.029150033 -0.037923384
-0.39200848 -0.4074739 -0.18323736 0.25084513 -0.2561046 0.56908274 0.044828173 0.39671817
-0.26114917 -0.70881927 0.058367893 -0.090326995 -0.019721646 0.1897916 0.07427501 -0.006928186
0.08199467 -0.5252774 0.014558031 0.30589736 -0.36574233 0.5050778 -0.45325965 0.0025838786
-0.8557281 1.1493262 -0.8589294 0.20496738 -0.08661897 -0.116916426 0.6215424 -0.15352891
0.23504373 0.33574122 0.10576589 -0.7473999 -0.76640236 0.13275176 -0.0038890694 0.3145267
0.16984455 0.08412346 0.738488 -0.36895245 0.17143524 0.087515354 0.13850957 0.44979015
0.22622102 0.3554119 0.79117894 0.263351 0.35166618 -0.2505999 -0.7576676 0.12334821
-0.025725348 0.10899019 0.22436094 0.14983168 0.108101726 0.120497294 -0.82779163 -0.51560485

network_body._body_endoder.seq_layers.0.bias f4 [128]
00000000: 1189 193e ad24 203e 7c4d f03d 89ee 8b3d
00000010: 4e90 cb3d 125a 943d ed3d db3d 6630 bf3d
00000020: 6885 b03d 7290 0f3c 85d4 ec3d 7748 e43d
00000030: 7773 953d acb1 c03d f853 11bc 70c3 b43c
00000040: 2639 ef3d f64b e43d ec8f e53d 99fb b33d
00000050: 3b3a 9a3d b4ae 5c3d e3e7 183e f11e 0a3e
00000060: d2eb db3d a9d2 193e 3833 c63d a619 113e
00000070: a083 6f3d 02dc d13d 8640 643d 9617 78bc
00000080: 575b ff3d d5f1 cc3d 83f3 413e 7475 3e3d
00000090: 0109 fa3d 0134 eb3d 48fe bb3d 0faa ff3d
000000a0: 9f8b 0c3e 6b50 843d f0e2 8c3c 0629 e13d
000000b0: 9bf3 f73d fe6e ed3d 272b b63d 9c26 9b3d
000000c0: 4ef7 2e3e 029e af3d 6813 c63d c62b f53d
000000d0: b0d5 5e3d 3034 173d 501e fc3d e02c 943d
000000e0: 2cf0 ff3d bdb5 003e 1d77 c13d 6119 c73d
000000f0: e809 953d 73d6 b33d e161 103e 3711 043e
00000100: 3faa 0b3e b0b8 923d 2c12 b23d 76fc 823d
00000110: 8d94 f83d 4cd3 b03d 0a27 8a3d d3f0 1a3e
00000120: dccb d73d 9d9c f83d fb05 833d 5b08 e03d
00000130: f3dc ad3d db67 12bc 5f4f 1a3c d1f3 d43c
00000140: be3a 843d a396 6a3d a312 9a3d e688 b23c
00000150: c19e 8d3c 1784 d03d 719e e63d be4b 0b3e
00000160: 8000 b43d 3115 653d 54cb ab3c 095e 923d
00000170: 1f65 223e a436 153e 7815 bd3d 5210 103d
00000180: 7f9a e63d 43cd 153e fc0c d73d b9a6 163e
00000190: 7977 873d d9a5 003e 5eff e83d fe5e 033e
000001a0: 0559 ee3d 7932 6c3d a41a 2f3d cbed b43d
000001b0: 2cd7 fdbc c6a3 1a3e 8b78 de3d 82ed 0a3e
000001c0: 0f79 803d 9616 c33d c64b c43c 8351 1f3e
000001d0: 2426 fa3d 0036 5d3d ed28 893d 551b ef3d
000001e0: da89 953d 50a2 a73c 7594 e33d 03a2 623d
000001f0: 88f0 1f3d 843d a43d 4300 c73d 9d2c 2f3e
0.14993693 0.1563899 0.11733529 0.06832606 0.09939633 0.07243742 0.10705171 0.09335403
0.08619195 0.008762466 0.115639724 0.11146634 0.07297414 0.09408888 -0.008870117 0.022065848
0.11680822 0.11147301 0.112090915 0.08788223 0.07530638 0.053877547 0.14932208 0.13488366
0.107383385 0.15021767 0.09677738 0.1416994 0.058475137 0.10247041 0.055725597 -0.015142342
0.124685936 0.10007063 0.18940549 0.04649873 0.122087486 0.11484528 0.0917936 0.12483608
0.13725136 0.06460651 0.017198056 0.10994153 0.12107011 0.11593436 0.088949494 0.075757235
0.17086527 0.085750595 0.0967167 0.1197124 0.054403007 0.036915004 0.12310469 0.07235122
0.12496981 0.12569328 0.09446547 0.097216375 0.0727728 0.08781137 0.14099838 0.12897192
0.13639162 0.071641326 0.08694872 0.06395809 0.12137709 0.08634052 0.06745727 0.1513093
0.1053693 0.121392466 0.06397625 0.10939094 0.08489408 -0.008935894 0.009418338 0.025995167
0.06456517 0.057272565 0.07523086 0.021793794 0.017287614 0.10181444 0.11260689 0.13603112
0.08789158 0.055928413 0.020970978 0.07146842 0.15858887 0.14571625 0.092326105 0.035171814
0.112599365 0.14629082 0.105005234 0.14712037 0.066145845 0.12563266 0.113768324 0.12829205
0.11638073 0.057665322 0.042750016 0.08834418 -0.030986391 0.15101537 0.108628355 0.13567165
0.0627309 0.09525792 0.023961913 0.15558438 0.12214306 0.054006577 0.06697259 0.11675135
0.07301684 0.020463139 0.111123 0.055330288 0.039047748 0.08019546 0.09716847 0.17106862

network_body._body_endoder.seq_layers.2.weight f4 [128, 128]
00000000: 4c02 81be a074 84bc a3ed dcbd 6322 d2bd
00000010: 3db0 26bd 61db 57be 3a10 23be 1374 e7bd
00000020: 81d3 2a3d 5013 893d 31b1 84bd a995 42bd
00000030: 0758 d43d ee36 f8bd 1b24 13bd 62f3 c1bd
00000040: 4216 3339 c595 173e abb2 e63c 07f5 a0bd
00000050: 8e39 443d d4ff 62bd ad9b 58bc 8d0d 0cbd
00000060: c2e6 11be 5a9a ecbc b6a0 8f3d 290b 59bc
00000070: 763d b9bd f071 033d 3d70 78bc f96a 41bd
00000080: af28 983d 2a58 e4bd fdbc 79bd 5b8b b9bd
00000090: 9345 0abe 87a2 1b3e 767f 2dbe 85e5 303c
000000a0: 2992 5bbe 1e27 003e 6e80 533d 5283 f33b
000000b0: 8c82 89bd 943e 11bd a61f 1cbb 1cfc 9abd
000000c0: 7db1 433d 3a38 09be fd7e 7c3c 5fc4 603d
000000d0: 3cc7 643a 4797 26bd db47 15be a8c9 a7bd
000000e0: 9d41 cb3d 9200 713c eee1 37bd df73 09be
000000f0: d1f6 d33d d3a6 2e3d db69 7d3d 18e8 b5bd
00000100: c2d7 8cbd 7fa2 243b cd7f 03be a22c 1d3d
00000110: 5bea a4bd 35f8 36bd 5291 adbd f859 cdbc
00000120: 399c 87bd 9ee5 e6bd 6678 8a3d 3b14 7dbd
00000130: 809e d73d 3e55 edbd b71e 22be aeb9 893d
00000140: 6436 66bd 806a 45bd 5d46 d83c 6bb8 eb3c
00000150: 6ef0 03bd 5126 9abc 5fa9 14be 1ef2 c0bd
00000160: 98ba 963c 9bbd 46bd 15b8 36bc f6d2 a5bc
00000170: 773e 91bd fbc0 51bd 7998 673d ecc8 6a3d
00000180: c95f e1bd 76fb 61bd bbd7 8dbd 6b18 f3bc
00000190: 129f 38be 3182 223d 0be3 c7b8 db60 533b
000001a0: caf7 0cbe 436e bcbd ea78 6f3d 20a8 c73d
000001b0: 87d8 60bd 3c40 53bd 6c31 16be 7368 5f3d
000001c0: c239 04bd 848d 42bd f7bb 7e3d b6c3 833c
000001d0: 8fe2 a5bc 947c 4f3d a6cd 28be 5ea4 553d
000001e0: 54b6 173e 46fa 773b 8764 a6bc edd5 de3a
000001f0: 1513 efbd d6b3 143d eefb c8bd 01b5 863d
00000200: ff2f 3abc b2de 9dbd 5a80 c33d 53ba 283d
00000210: 222f 04be d204 2dbe 04d2 1c3e 9819 a53d
00000220: c841 24bd 0c63 923d b22f 643e 861e 43bb
00000230: b69c ce3d 6655 02be 4228 263d fdf1 1bbc
00000240: 9105 413e cfae d73d 04da e63d db47 043d
00000250: c471 a83b f644 383b 00a7 373e e495 24be
00000260: bf82 073e 178d 043e d7a6 353c 91ce 823d
00000270: 67e1 4c3d d4cf 293e 221f 163d 7997 b7bc
00000280: 4791 31bc 9860 5cbd fc73 99bd 4b46 0abe
00000290: e451 75bd 08ab b7bd b0f6 e5bd 8dcc ef3d
000002a0: 37b0 bf3d 79c2 b7bd cbe9 873c e4ec 14be
000002b0: 6918 b73a 0252 153c 0568 c9bc 3824 433e
000002c0: a327 a6bd 55a8 1f3d fb04 e83d ef95 39bd
000002d0: 94ef e6bc 55a4 913d 5143 2b3e 8d6b be3d
000002e0: 9ca8 a43d 6296 0c3a 61ee 48be 68f2 77bc
000002f0: 191f 91bd a094 763d c9ec c83d bc6c aabd
00000300: 6f74 50be 7287 e03d 4a5b 9fbd 2b15 2f3e
00000310: 36f0 2cbc 9075 1dbe 2b14 e63d 553a 593d
00000320: 7c7e 503d 75d1 f13d 50e5 d5bc e77f 24bc
00000330: bfee 1f3e afbb 1abc bfce a239 3fac b33d
00000340: 3bae a9bd f3cc bd3d 5418 003e 9c6a 6d3d
00000350: 56cb 53bd 8fd1 8b3d d8c0 a53c 937c 2a3e
00000360: 7c3c d2bb eda3 acbc 1166 9fbd 940c 783c
00000370: bfe8 773c 4086 353e b890 b4bd 5e33 923c
00000380: 1914 c6bb 6ee5 af3c a2ce 0bbd 75e9 87bd
00000390: c970 ad3c b266 4abe cca3 2d3e acca 86bb
000003a0: 054b 29be b4b5 3cbc ee62 36be 8e0f 1f3e
000003b0: 1b21 9fbd 06ca fe3d 1609 353d 748f 14be
000003c0: a301 f6bd bfa8 aebd d2ce 5abd 4660 da3d
000003d0: a3eb f0bd 464f 2dbb 9435 0d3e 6564 06be
000003e0: 26e1 263e e150 4f3d 3ef6 113e df78 7c3b
000003f0: 988b 60bd f78f 2b3e beb9 3c3d f08b 7f3d
-0.25197065 -0.016168892 -0.10787513 -0.10260465 -0.040695418 -0.2107978 -0.15924159 -0.11301436
0.041705612 0.06693137 -0.06479109 -0.04750601 0.103683524 -0.12119852 -0.035923105 -0.0947025
0.00017079062 0.14803226 0.028161367 -0.07859235 0.04790645 -0.055419758 -0.01322071 -0.03419261
-0.14248183 -0.028882194 0.07013075 -0.01324729 -0.09044926 0.03209108 -0.015163478 -0.047221158
0.07429635 -0.111496285 -0.06097125 -0.09059783 -0.13503103 0.15198718 -0.16943154 0.010796909
-0.21442474 0.12514922 0.051636152 0.007431426 -0.06714353 -0.03546007 -0.0023822575 -0.07567617
0.047776688 -0.13400355 0.015411136 0.054874774 0.0008727198 -0.040671613 -0.14578192 -0.0819276
0.09924624 0.014709609 -0.044893198 -0.13423108 0.10349811 0.042639565 0.06186853 -0.08882159
-0.0687709 0.002512127 -0.12841721 0.038372643 -0.08052512 -0.044670302 -0.08474983 -0.025067315
-0.06621594 -0.11274265 0.067612454 -0.06178687 0.10528278 -0.11588524 -0.1583203 0.06724869
-0.056204215 -0.04819727 0.02640074 0.02877446 -0.032211713 -0.018817099 -0.14517735 -0.0942118
0.018399522 -0.048520666 -0.011152287 -0.020242196 -0.07091992 -0.05120943 0.056541894 0.05732052
-0.11004598 -0.055171452 -0.06925913 -0.02967473 -0.1802943 0.03967494 -9.5313495e-05 0.0032253775
-0.13766399 -0.09200718 0.058464922 0.09748864 -0.054893997 -0.05157493 -0.1466729 0.05454297
-0.032281645 -0.04749824 0.062190976 0.016084533 -0.020249633 0.050655916 -0.16484699 0.052158706
0.14815646 0.0037838384 -0.020311607 0.0017001011 -0.116735615 0.036304317 -0.09813677 0.065774925
-0.011363982 -0.077084914 0.095459655 0.041193318 -0.12908605 -0.1689637 0.1531449 0.08061522
-0.040101796 0.07147798 0.2228382 -0.0029772832 0.10088484 -0.1272789 0.040565737 -0.009518144
0.1884978 0.10531389 0.11272052 0.03229509 0.005140515 0.0028117276 0.17934799 -0.16072804
0.1323347 0.12944447 0.011087141 0.06387056 0.050019648 0.16583186 0.036650784 -0.022411095
-0.0108378595 -0.053803056 -0.074928254 -0.13503377 -0.05989255 -0.089681685 -0.112286925 0.11708937
0.09359782 -0.089726396 0.016590973 -0.14543492 0.0013969067 0.0091137905 -0.024585733 0.19056785
-0.08113029 0.038978893 0.11329075 -0.045309003 -0.028190412 0.07111422 0.16724898 0.092978574
0.08039972 0.0005362985 -0.19622184 -0.015133478 -0.070860095 0.060200334 0.09810788 -0.08321521
-0.20356916 0.10963334 -0.07781084 0.17097919 -0.010555318 -0.15376878 0.112343155 0.053034145
0.050901875 0.11807529 -0.026110321 -0.01004026 0.15618418 -0.009444161 0.00031053086 0.08773088
-0.08285185 0.092676066 0.1250928 0.057963 -0.051707588 0.068270795 0.020233557 0.16649084
-0.0064159017 -0.02107426 -0.077831395 0.015139718 0.015131175 0.17726994 -0.088166654 0.01784676
-0.0060448763 0.021471705 -0.034132607 -0.06636325 0.021171944 -0.19765738 0.16957015 -0.004113516
-0.16532524 -0.011517931 -0.17811176 0.15533277 -0.07769986 0.12440877 0.04419812 -0.14507848
-0.12012031 -0.085282795 -0.053419895 0.10662894 -0.11763694 -0.0026444956 0.1378997 -0.13124235
0.16296825 0.05061424 0.1425409 0.0038524193 -0.054820627 0.16754137 0.046075575 0.062389314

network_body._body_endoder.seq_layers.2.bias f4 [128]
00000000: 005b ba3a f9de f53c 1c8a 6a3d 17f4 8f3d
00000010: cc17 993d 4212 553d 97a4 f33d b5a1 d03d
00000020: 25bf 293d d1ee 4f3d b874 0a3d ac10 c03d
00000030: e69d 923d 4e8f d83d aa32 543d e460 8d3d
00000040: 9c3e aa3d 8b8f dd3d 1f66 913d 9700 633d
00000050: 1178 e83c edaa 923d 300d b73d fb0e aa3d
00000060: f6a6 893d fb72 893d 6ed3 1a3d 896e 8d3d
00000070: 80c2 e83c c0f9 313d 139b 863d e8ec 203d
00000080: 05f3 6c3d 6dae 9d3d 20cb 823d bfff 383d
00000090: 3f9c a23d 0738 a83d 5da0 b03d f942 9f3d
000000a0: 9926 553d 3293 9a3d 8b88 6d3d fffd b23d
000000b0: 3e98 6c3d ec34 e73c 87df 0d3d 8328 3f3d
000000c0: ecbb c83b 3fb0 b13d 4e01 6e3d 98ae ea3d
000000d0: 129d ef3d fa8c b53d 7266 233d f63a 5a3d
000000e0: 934e 043d 30d1 913d 4683 af3d 42b8 853d
000000f0: af07 6f3d 4447 7a3d 75de 5c3d 8162 8c3d
00000100: aca6 873d 22ee a63d 863a b53d 0be0 393d
00000110: ebb4 ab3d 9205 2e3d 7a1b 7d3d 3c97 c23d
00000120: d5f4 9f3d 3083 303d 213a a23d 7a10 863d
00000130: e176 673d 4218 b13d 723c 6e3d 4b4a 973d
00000140: 840a e33d 06b2 133d 4147 ab3c cc39 d43d
00000150: 24c6 783d 717a 4b3d bcfd 413d a583 00bc
00000160: 2092 fa3c 69b4 343d 7715 0dbd a979 5e3d
00000170: e4ae 003d 0ea2 843d 480b c73d dfe2 223d
00000180: c5ee ab3d 497a b83d 49a9 e33d e31a 873d
00000190: e8a5 ac3d aa00 a63d 578c 3e3d 765c 983d
000001a0: 933b b03d 4ad0 b73c f488 2f3d dcb7 603d
000001b0: f0ec ac3d a00d 203d 9321 bb3d 0c3a 953d
000001c0: f87c b63d a22a e73d b1a4 563d e2c0 483d
000001d0: a42e 553d 5559 af3b 7bd7 363d ca47 a03d
000001e0: ae78 883d c754 213d ea18 aa3d 8c55 513d
000001f0: 53fd 373d d262 9c3d 3d99 923d 75cd bf3d
0.0014217794 0.030013548 0.057260618 0.07028978 0.07475242 0.052019365 0.118966274 0.10187093
0.041442055 0.050764862 0.033802718 0.0937818 0.07159023 0.10574208 0.05180613 0.06903246
0.08312723 0.10818394 0.07099556 0.055420484 0.028377565 0.07161508 0.08938062 0.083036385
0.067212984 0.06711384 0.03779929 0.069058485 0.028413057 0.04345107 0.06572547 0.03928843
0.05784895 0.07699285 0.06386399 0.045165773 0.07939958 0.08213811 0.08624337 0.07776446
0.052038763 0.075476065 0.057991546 0.08739852 0.057762377 0.028223477 0.034637 0.046669494
0.0061259177 0.086761944 0.058106713 0.11459082 0.11699881 0.0886478 0.03989262 0.053278886
0.032301497 0.071199775 0.0856996 0.06529285 0.058356937 0.06110312 0.05392309 0.06854726
0.06623587 0.08150889 0.08849053 0.04537968 0.08384117 0.04248578 0.06179378 0.09501502
0.0781037 0.04309386 0.079212435 0.065461114 0.056509856 0.08647205 0.058163114 0.07387217
0.1108599 0.03605845 0.020908 0.103625864 0.060735837 0.049677316 0.04736112 -0.0078438865
0.030587256 0.044117365 -0.0344443 0.054315243 0.03141679 0.06476222 0.097189486 0.039767142
0.08395151 0.09007699 0.11116273 0.06596925 0.084300816 0.081055954 0.046520557 0.074395105
0.08605113 0.022438187 0.042855218 0.054862842 0.0844363 0.039075494 0.09137263 0.07286462
0.08910555 0.112874284 0.052403156 0.049012072 0.052046433 0.0053512254 0.044639092 0.07826193
0.06663643 0.03938749 0.08305533 0.051106974 0.044919323 0.07636036 0.07158134 0.0936536

action_model._discrete_distribution.branches.0.weight f4 [25, 128]
00000000: e873 42bc 9133 863c ede8 4b3d 1577 e1bc
00000010: c8f9 38bc 1ebb b73c de4f c83c 66c6 12bd
00000020: 7053 f53a 6a8a 67bd 1d2c ecbc 9836 293c
00000030: 2290 4c3d a23e 503d be53 183d e8eb 31bd
00000040: 7c7a 80bc b642 983d c782 413d a504 84bd
00000050: 9649 da3c 196e 0bbc bed9 ce3c 373f 07bd
00000060: 9827 fc3c 1467 dd3c d0a8 553b 72ea d0bc
00000070: 0fff 8e3c 88e6 103d fd82 323d b402 febc
00000080: 0709 383d db01 0d3d f6e8 2ebd c15e 81bc
00000090: 07ea 953d af28 553d 55e7 20bd 8c39 9dbc
000000a0: a8a5 653d 291a 343d 8ae8 ef3b ae1f 36bd
000000b0: 212e 7fbd 90c9 8fbc 2c03 33bc 99b4 80bc
000000c0: 5fc0 d53c cb8d 0abd 054a 11bc 2048 933d
000000d0: b02b 99bd 4064 b0bd e0c8 bd3c e796 6d3c
000000e0: c94f ff3b 1054 663d e32f a03d a690 e8bc
000000f0: d368 9dbc 515e cfbc 05a6 973d 78d9 1a3c
00000100: c0aa 46bc e207 d3bc 7008 a83d c180 3fbd
00000110: dc7e 913d f7fd 2a3a e389 303d 3a72 a33d
00000120: 8178 49bd f31d dcbc 0213 54bd 3d64 bd3c
00000130: a0d4 793d 4ad5 55bd 3ac1 8e3d 491d 40bd
00000140: 3719 003d 427b 913c b46d 9dbc dac9 173d
00000150: 826c 2abd cb1d b6bc 6f72 2c3d 0d57 b3bc
00000160: 7e8c ebbb 7445 81bc 0752 9bbc eae3 113c
00000170: 1985 17bc 182f 3fbd 530b 6e3d 3e09 40bc
00000180: 166d 36bd 0f0d d9bc 063d 8a3d 440b 5cbd
00000190: c1e4 77bd 8187 21bd f4c5 17bd 0010 7a3c
000001a0: 5643 2fbd 0507 b23c fc96 52bc 52d8 083d
000001b0: 5213 1f3d b6d2 153d 7945 c83c 082d 033d
000001c0: d29a 89bd f9e1 41bd ba02 0abd 6301 2b3d
000001d0: a044 2e3d 0447 b3bc e369 273d e9a6 243d
000001e0: 42ec 4a3d deaa 693d d4f8 1d3d f6da bcba
000001f0: 2a33 5bbc cf78 9f3d 3512 7fbc 90e4 a23d
00000200: 8cf0 83bc 5b11 433d 1f8e 193d e0d6 1ebb
00000210: f463 12bd 0610 e53c 963c 90bc 81f8 bcbc
00000220: 5a66 693c c009 48bd 13c0 25bc 5789 07bd
00000230: c286 0d3d b062 a93d 7ee2 24bc c92f 1ebd
00000240: 43c0 253c 189b eabb 4700 1b3d fdfd 46bd
00000250: d381 483c 6830 f2bc 1566 41bd 7a9a 16bd
00000260: f0e4 043d 9f1d 9d3c 4704 56bb 537c b13b
00000270: 5deb f33b 9361 a13c 2720 123d 95b4 4abc
00000280: 1c65 823d feb5 1c3d 0bec 89bd 5464 b13c
00000290: da4e 8d3d 033f f53c 1149 93bd ac6e 4cbd
000002a0: 1d97 ea3c 8b00 213d f571 073d 3233 8ebc
000002b0: 3019 69bd a9f5 12bb a255 32bc 8bf7 1e3c
000002c0: 2945 533c ac95 d3bc af2c 2dbd b3e3 3c3d
000002d0: c457 13bd 4b73 3dbd e982 b6bb cb2a d1bc
000002e0: c59f aebc 3742 5a3d 6f46 863d e873 79bd
000002f0: f2ca 5a3c fee5 68bc 1dcc 273d b3a7 603d
00000300: e7c9 dbbc 33f0 c2bc 3319 423d 848b cd3c
00000310: aed6 4d3d 7489 dfbb b2bf a63c 4797 2e3d
00000320: 76d1 25bd 2eb3 08bb 2852 43bd 8056 363c
00000330: f9f0 893c b718 4dbd aeda 273d 086a 32bd
00000340: 67c7 a33c 35dc 9b3c a3c9 5f3b c0d2 283c
00000350: f8df 82bc 45e5 363c 4ffd 5d3d 9f42 2c3c
00000360: 46b1 77bc cf84 90bc 20de bfbc dfad 163d
00000370: a6e9 fb3c 5b27 a7bc cb8c 853d f79a 91bb
00000380: 5189 39bd 1d9f 3dbc 0fb2 203d dc22 683b
00000390: fb4b 3cbd 128a 733c 3a74 7ebd 9b08 d13c
000003a0: 4b66 7bbd a477 c93c 1d81 dc3a 1564 bbbc
000003b0: fa78 f53c bcfc 0e3b 03e2 4ebc e17e 463d
000003c0: 1a08 58bd ed0c 96bd 1995 2dbd a752 ef3c
000003d0: 6e72 013d 630c 1d3d 4ef0 233d a5f2 5e3b
000003e0: 01fe 1e3d ed37 853b 1f8a a73d 18ca a23c
000003f0: 30c6 d43c e61b 5b3d 57e4 e23b 3dbf 843d
-0.0118684545 0.01638201 0.049782682 -0.027522603 -0.011290021 0.022428092 0.024452146 -0.03583374
0.0018716883 -0.056528486 -0.028829629 0.010327958 0.049942143 0.05084098 0.037189238 -0.04343787
-0.015683405 0.07434599 0.04724386 -0.064461984 0.026646417 -0.008510136 0.025250312 -0.03301927
0.030780599 0.02702669 0.003260184 -0.025502417 0.017455606 0.0353761 0.04358195 -0.031007148
0.044930484 0.034425598 -0.042702638 -0.015792252 0.07320028 0.052040752 -0.039283115 -0.01919248
0.056066185 0.04397026 0.007321422 -0.044463806 -0.06229985 -0.017552167 -0.010926049 -0.015711116
0.026092706 -0.03382663 -0.008867745 0.07191491 -0.07479036 -0.08612871 0.023167074 0.01450131
0.0077914936 0.056232512 0.07821634 -0.028389286 -0.019215023 -0.025313528 0.074047126 0.009451263
-0.012125671 -0.025760595 0.08204734 -0.04675365 0.07104275 0.0006522829 0.04310025 0.07980771
-0.049187187 -0.02686975 -0.05177594 0.023119086 0.06099379 -0.05220536 0.06970449 -0.04690293
0.031274047 0.01775897 -0.01921735 0.037057735 -0.041607387 -0.022231003 0.04210132 -0.021892095
-0.007188379 -0.015780188 -0.018960012 0.008904437 -0.009248042 -0.04667577 0.05811627 -0.0117209535
-0.044537626 -0.026495485 0.067499205 -0.05372168 -0.06052089 -0.039435867 -0.037054017 0.015262604
-0.042788826 0.021731863 -0.01285338 0.033409424 0.038836785 0.036577903 0.02444719 0.032025367
-0.06718983 -0.047334645 -0.033694007 0.04174937 0.042545915 -0.021884449 0.040872466 0.04019824
0.04954172 0.057047717 0.03856738 -0.0014408517 -0.013378898 0.07786714 -0.015568306 0.07953751
-0.016105913 0.047623973 0.037489053 -0.0024236962 -0.035739854 0.027961742 -0.017607015 -0.023067715
0.014245594 -0.048837423 -0.010116595 -0.03308996 0.034552343 0.08270776 -0.010063766 -0.03861979
0.01011664 -0.007159602 0.03784206 -0.048582066 0.012237984 -0.029564098 -0.047216494 -0.036768414
0.032444894 0.019179164 -0.0032656358 0.005416432 0.007443829 0.019699847 0.035675194 -0.012372156
0.06366941 0.0382595 -0.06734475 0.021654285 0.06899805 0.029937273 -0.07191671 -0.049910232
0.02863651 0.03930716 0.033067662 -0.017358396 -0.056908786 -0.0022424257 -0.010884674 0.0097025735
0.012894907 -0.025828205 -0.04227894 0.04611559 -0.03597237 -0.04625253 -0.005569805 -0.0255331
-0.021316418 0.053285804 0.06556403 -0.060901552 0.01335405 -0.014214991 0.040966142 0.05484743
-0.026829673 -0.023796177 0.047387313 0.02509094 0.050253563 -0.0068218056 0.02035508 0.042624738
-0.04048296 -0.0020858753 -0.047685772 0.011129022 0.016838538 -0.050072398 0.040980034 -0.04355815
0.019992543 0.019025901 0.0034147284 0.010304153 -0.015975937 0.011163061 0.054196652 0.010513931
-0.015117949 -0.017641453 -0.023421347 0.03678691 0.03075106 -0.020404508 0.06520995 -0.004443522
-0.04529697 -0.01157358 0.03923231 0.0035421168 -0.045970898 0.0148644615 -0.06212256 0.025516799
-0.06137685 0.024593182 0.0016823147 -0.022874871 0.029964913 0.0021818122 -0.012627128 0.048460845
-0.0527421 -0.07326684 -0.04237852 0.029214216 0.03160327 0.03834189 0.040024094 0.003401914
0.038816456 0.0040655048 0.081806414 0.019871756 0.02597341 0.053493403 0.006924193 0.06481788

action_model._discrete_distribution.branches.0.bias f4 [25]
00000000: b86d cc3b 343a 123c f9f3 04bd dcda e73b
00000010: 6c7d 9a3c 59b8 e03b 714b e4bc f0c0 21bc
00000020: 7a1e 6a3b cfdf e03b 07e0 32bc 80d9 78bc
00000030: da8a 0bbc 11cb 99bc 4125 94bb b9b7 973b
00000040: ff86 c6bc 7df4 d1bc 7e6f dfb8 8ddc ff3b
00000050: 960c 883c e6a9 c73b 139c 853c 716c 703b
00000060: aadd 003d
0.0062386654 0.0089250095 -0.032459233 0.0070756506 0.018858634 0.0068579135 -0.027868005 -0.00987266
0.0035723732 0.0068626176 -0.01091767 -0.015188575 -0.0085169915 -0.018773587 -0.0045210426 0.0046300557
-0.024234293 -0.025629276 -0.00010654236 0.007808274 0.016607564 0.0060932515 0.016309774 0.003668573
0.031461395
