Assets/Environment2/Brains/Env2Behavior.onnx (onnx, 74962 bytes, 7 tensors)

network_body._body_endoder.seq_layers.0.weight f4 [128, 9]
000000 49 fa af be 24 c4 d2 be 2c ac f5 3e 14 c1 f1 be
       -0.3437064 -0.41165268 0.4798292 -0.4721762
000010 ae d0 2d 3f ac 11 e2 be 0f a7 a3 3e 77 0b 75 be
       0.67896545 -0.44154108 0.31963393 -0.23930155
000020 aa 4f d9 be 4a 77 34 bf e6 e4 63 bf b8 1b 4c bf
       -0.4244359 -0.7049452 -0.89021146 -0.79729795
000030 e1 83 ae bc 7e 62 03 be c1 83 8f be ba e2 35 3f
       -0.02130312 -0.1283054 -0.28030208 0.7104908
000040 3c 51 c5 3e 56 23 e2 bd 77 ec 4c 3e ed 89 27 3f
       0.3853854 -0.11041896 0.20012079 0.65444833
000050 fb 45 7d bc bb c8 c8 3e 9d 21 0e be cb 3f 03 3f
       -0.015458579 0.39215645 -0.1388001 0.51269215
000060 7f 43 ed 3d a6 85 5f 3d ea 18 37 3c 4a e2 8b 3e
       0.115851395 0.054570816 0.011175374 0.27321082
000070 ea 8e 78 3d cf d9 5c 3e be 6f f5 3e 0b 4b a3 bd
       0.06068317 0.21567462 0.47936815 -0.07973298
000080 b5 c0 13 3d 8a 8a c7 bd 5c 22 a0 bd 27 44 e0 3e
       0.03607245 -0.09743221 -0.078190535 0.43801996
000090 35 c5 00 3f 49 e7 9c be e3 b1 b2 3e c0 a7 98 be
       0.50300914 -0.30645207 0.34901342 -0.29815483
0000a0 ea 3d 03 3f 33 42 b2 3d ea 30 ec 3e 8b 30 f9 bd
       0.5126635 0.08704033 0.46131068 -0.12167462
0000b0 4e 80 9a be ae 5f bb be 6c 16 08 3f d6 7d cf bd
       -0.30176014 -0.36596435 0.53159213 -0.10131423
0000c0 78 44 17 be 86 80 ca be c2 a4 11 bf ec 17 aa 3e
       -0.14772213 -0.3955118 -0.56892025 0.33221376
0000d0 ab a8 67 3d 9e b2 e6 3e b2 10 39 3f 0f bd c0 3e
       0.05655734 0.4505815 0.722911 0.3764424
0000e0 40 64 d1 be 69 12 07 3e 04 56 23 3e 69 4c bf 3e
       -0.40896797 0.13190617 0.15950781 0.37362984
0000f0 4c 27 48 bd 79 97 a5 3e c5 d8 cc ba bd f5 0d 3e
       -0.0488656 0.32342127 -0.0015628567 0.13863273
000100 f6 3a 32 bf 39 61 81 bd 6e a5 38 3e 77 7a f9 be
       -0.6962122 -0.06317372 0.18031856 -0.48726246
000110 06 9b 49 be 1a 81 8f 3e a3 5f d9 3d e6 35 13 bf
       -0.19688043 0.28028184 0.106139444 -0.5750412
000120 34 bc 81 3e bf 6f b7 be f7 d5 6a bd dd ee a3 3e
       0.253389 -0.35827443 -0.05733296 0.32018176
000130 b7 9c 54 be 24 d8 19 3f b0 41 d3 bd ce b4 65 be
       -0.20762907 0.6009543 -0.10315263 -0.22432253
000140 69 52 ab bd 29 0b ef bd 5f 43 68 be 36 b1 29 be
       -0.08365328 -0.116720505 -0.2268195 -0.16571507
000150 15 93 1b bf 16 1b 65 be a9 e3 92 be 94 e0 cc be
       -0.60771304 -0.22373614 -0.28689316 -0.4001509
000160 c4 aa 17 3f a3 98 04 bd 3d 64 31 3e 11 9a ac 3e
       0.5924494 -0.03237213 0.17323394 0.33711293
000170 df 97 1c bf fa 10 5c 3f a4 48 86 3e f1 92 8e 3e
       -0.61169237 0.85963404 0.26227295 0.27846482
000180 06 26 2d 3b f2 73 16 3e 8e 12 46 3e 06 d4 0c 3f
       0.0026420369 0.14692667 0.19343016 0.5501102
000190 73 26 d3 be c4 7a b7 bc 89 96 6a 3d 77 f9 6d 3e
       -0.41240272 -0.022397406 0.057272468 0.23239695
0001a0 17 3e ae be 30 6f 4d be 56 71 ae bd 81 51 7c 3e
       -0.34031746 -0.20061946 -0.08517711 0.24640466
0001b0 c2 da 2f 3f 3d 1b 76 3e b5 61 47 bd b2 15 ba be
       0.6869317 0.24033828 -0.048677165 -0.36344677
0001c0 1e f7 84 3e 08 7e 39 bf 42 03 3f be bc 9a 7d be
       0.25969785 -0.72457933 -0.18653587 -0.24766058
0001d0 33 16 cf bd c6 9e a6 3e 3d dd 7b 3e 84 72 d0 3d
       -0.10111656 0.3254301 0.24596114 0.10178092
0001e0 02 36 a2 3d be 19 3d bf 1a bb 41 3e 66 50 98 be
       0.079204574 -0.73867404 0.1891903 -0.2974884
0001f0 03 81 91 bd 8d 7c cc 3e a4 01 80 be 0d b4 9e bd
       -0.07104685 0.39938775 -0.25001252 -0.07749186
000200 ce 4f cd 3d 8c cb a4 bd be 52 18 3f 6f 75 96 be
       0.10024987 -0.08046636 0.59501255 -0.2938647
000210 33 0e ca 3e d8 5d f0 3e e4 3e 37 3f 06 50 85 be
       0.39463958 0.46946597 0.7158034 -0.26037616
000220 f2 3d ca 3d 16 f0 27 be 22 a5 50 bc c6 80 2e be
       0.098750964 -0.1640018 -0.012734683 -0.1704131
000230 98 48 7f 3d c9 8d 19 3e f2 8b d1 bd a5 99 3b bd
       0.06232509 0.14995493 -0.102317706 -0.045800824
000240 36 64 72 3d e0 ff 14 3f 0f 9d 17 bd 5a d2 13 3f
       0.0591776 0.58202934 -0.037015017 0.57742846
000250 b2 b5 cc 3e 30 5a 04 bd 5c 4c f8 be 8e cc f7 3d
       0.39982373 -0.032312572 -0.48495758 0.120995626
000260 1e 4a 9f 3e 85 97 0c 3f f4 30 e4 bd 6b 25 57 be
       0.31111234 0.549187 -0.111421496 -0.21010368
000270 5c 25 c2 3e de 1a 0b 3f c0 5a 47 3e 7c 25 4f be
       0.37919128 0.5433787 0.19468212 -0.20229143
000280 2a 5c f8 3e 53 7c 6f be b8 41 db 3e 34 59 e1 bc
       0.48507816 -0.2338727 0.42823577 -0.027508356
000290 e5 bd 97 3d 64 e1 8b bf f8 b7 2d bf f9 18 37 3f
       0.074092664 -1.0928159 -0.6785884 0.7152248
0002a0 d8 6e 86 3e 30 ed a2 be a6 81 c8 3c 33 ea 53 3e
       0.26256442 -0.31821585 0.024475884 0.20694809
0002b0 fd d9 32 bf c7 02 e8 bd 5b 2b 96 be 34 6d 32 3e
       -0.69863874 -0.11328655 -0.29329953 0.1742447
0002c0 fd b8 12 3f 35 d9 64 3e a1 fa 27 bf ea d2 c2 be
       0.5731352 0.22348483 -0.65616804 -0.3805154
0002d0 da 3b 40 3e 7b 72 d3 3d d0 28 7a 3f 5d 60 0d bf
       0.18772832 0.1032457 0.97718525 -0.55225164
0002e0 a3 93 91 3e 22 be 56 be 6e c6 d5 bd 30 b0 a8 3e
       0.2843295 -0.20970967 -0.10438238 0.3294692
0002f0 d6 72 cd 3d 7e 40 b7 3e a9 4f 3b bf 71 0d b9 3d
       0.10031669 0.3579139 -0.73168427 0.09035767
000300 40 15 81 3e f4 c6 88 be c6 b8 3f be f8 b5 c5 bd
       0.25211525 -0.2671429 -0.18722829 -0.096538484
000310 7c ff 1d 3f 2a 2e b0 be d5 25 1e 3e 55 e2 a1 3e
       0.61717963 -0.3441022 0.1544412 0.3161799
000320 2c 24 ff be 8d f2 ae be 32 a1 3c 3e f9 8e c7 be
       -0.49832284 -0.34169427 0.18420866 -0.38976267
000330 a9 3c 6c be 26 58 32 be 31 58 f5 bd b6 56 0b bc
       -0.23070015 -0.17416438 -0.11979712 -0.00850456
000340 c9 c1 ba 3d 30 5c a9 be 6e b9 b8 3e 6b 56 7c 3e
       0.09118993 -0.33078146 0.36078972 0.24642341
000350 b7 72 9c bd 42 67 46 bf a8 a5 88 bc ce b2 c6 be
       -0.076390676 -0.7750131 -0.016680554 -0.38808292
000360 00 3b fc 3d 24 89 62 3e 43 9c 4c bd cd aa 6f 3f
       0.12315941 0.22122627 -0.04995371 0.93619996
000370 35 a9 1d 3f ca f8 e3 bd c6 23 13 3e 27 e9 04 bf
       0.61586314 -0.11131437 0.14369115 -0.5191826
000380 0c 7d ab bd 70 0e 8a bd 53 79 a8 bd c0 03 18 bf
       -0.0837346 -0.06741035 -0.08226266 -0.5938072
000390 27 1d 1a 3e 5c 6e 1a bf c7 99 55 3d b0 36 92 3e
       0.15050183 -0.60324645 0.052148607 0.28557348
0003a0 a6 c4 e6 be 5c ea 93 bd 45 a6 b5 3e 30 22 28 bf
       -0.45071906 -0.07222435 0.35478416 -0.65677166
0003b0 b9 26 3a 3e 6b 64 eb bb 6e 9e 25 3c 23 55 16 bf
       0.18178834 -0.0071836016 0.010108573 -0.5872366
0003c0 77 0f 8c 3e 97 92 ea 3e 11 f5 8d 3e 5e 86 39 3e
       0.2735555 0.45814964 0.27726033 0.18117663
0003d0 1e 3d 8c 3e 2b e8 7b 3d 7c 21 86 3e 05 78 80 3e
       0.2739038 0.06150071 0.26197422 0.25091568
0003e0 06 6a e7 3d fc 78 0c be 0c ad a8 3e 41 f3 22 3e
       0.11299519 -0.13718027 0.32944524 0.15913107
0003f0 ce 06 9d 3e dd 91 80 3e 3e df eb bb 1f 31 ac be
       0.30669254 0.25111285 -0.0071982434 -0.33631226

network_body._body_endoder.seq_layers.0.bias f4 [128]
000000 93 95 31 3d f9 56 56 3d bf 34 fd bc 70 dc c0 3c
       0.043355536 0.052329037 -0.03090894 0.023542613
000010 26 b4 9d 3c b7 29 92 3d 7d 20 2e bc 1d c7 e9 bb
       0.01925094 0.07136863 -0.010627863 -0.007134332
000020 92 7a 6b 3d c6 f1 34 3c f0 de 29 3d 23 4b 64 bb
       0.05748994 0.011043971 0.041472375 -0.0034834824
000030 71 60 f9 bc 93 36 82 3c a3 27 36 3d b0 8d 36 3d
       -0.030441495 0.015895164 0.044471394 0.044568717
000040 3c 89 71 39 41 f8 3b 3b 7a 51 25 3d 2e 37 86 3d
       0.00023034675 0.0028681906 0.040360905 0.065534934
000050 6b 5d f1 3c 02 f6 bf 3c e9 6f 8f 3c 64 8a 09 3d
       0.02946349 0.023432735 0.017509418 0.033579245
000060 aa 02 21 3d e2 0b b8 3c d4 bb 2d 3d 33 df d3 bc
       0.03930918 0.022466604 0.042415455 -0.025863266
000070 f5 74 3c 3c cd bf bd bc b2 b8 c5 3c a7 c7 17 3d
       0.011502494 -0.023162747 0.024135921 0.037055638
000080 bc 59 6e 3c 4b 96 5a 3d b5 24 41 3d 89 15 75 3d
       0.0145477615 0.053365987 0.047154147 0.05983499
000090 d0 e3 9d 3d 16 eb 9e ba 71 d3 cf 3c 3f c2 49 3d
       0.077094674 -0.0012124504 0.025369378 0.049257513
0000a0 1e 65 b5 3c c1 93 18 3d 8c 9a e1 3c 6a f4 2c 3d
       0.022142943 0.037250284 0.027539514 0.04222528
0000b0 d7 28 6a bc 04 0a 01 3d 48 63 00 3d 20 f9 0f 3c
       -0.014291964 0.031503692 0.031344682 0.008787423
0000c0 5b 3f b6 3d bf 62 66 3d fc f7 95 3d cf 67 59 3d
       0.08898803 0.056246515 0.0732269 0.053077515
0000d0 38 34 96 3d 6c 4b d5 3b 2d f4 32 3d b7 6d fd 3c
       0.07334179 0.006509235 0.043689895 0.030936105
0000e0 ce 98 64 3c 68 07 23 3d a7 29 9f 3d be 66 af 3d
       0.013952447 0.039801985 0.077716164 0.085645184
0000f0 a2 20 2a 3d c3 9c af 3d 15 e9 88 3d 9a ff 71 3d
       0.041535027 0.08574822 0.06685082 0.05908165
000100 41 7f 49 3c 1d 4f 49 3c 83 93 50 3d 72 c2 e7 3b
       0.012298406 0.0122869285 0.05092193 0.0070727402
000110 b9 10 fe 3c 56 21 3e bb bf 71 6f 3d 20 6b 91 3d
       0.031013833 -0.002901157 0.058458086 0.071005106
000120 e7 87 20 bd 49 9d e2 bc 86 03 a7 3b ce c6 0a 3d
       -0.039192107 -0.02766289 0.0050968556 0.033881
000130 1a 41 c0 3c f6 a5 01 bd 7b 2c 4b 3c 97 ed a5 3d
       0.023468543 -0.031652413 0.012400742 0.08101957
000140 f1 fe 5a 3d 2b 03 06 3d 10 c1 49 3d 43 ef 2a 3d
       0.053465787 0.032717865 0.049256384 0.041732084
000150 b4 53 a6 3d e6 8f 19 3c c9 b3 d9 3a 19 f9 f2 3c
       0.08121434 0.009372687 0.0016609366 0.029659795
000160 0f b3 c8 3c 32 9b 32 3d 2e fd 7f bb 6d fc 80 3d
       0.024499444 0.043605037 -0.003906082 0.062981464
000170 31 89 08 3d 7c 44 a4 3d aa 58 70 3d 2e 35 8f 3d
       0.03333396 0.08020875 0.058678307 0.06992565
000180 d8 4d 76 bc 32 d3 01 3d b7 8c 97 3d 65 bd 0f 3d
       -0.015033208 0.031695552 0.07399886 0.03509273
000190 be 77 c8 bc 3f d3 df 3c ac 69 89 3d b7 2d d4 bc
       -0.02447116 0.02732241 0.067096084 -0.025900705
0001a0 be b0 18 3d fe f6 a5 3c b3 ed c2 3c f3 91 d8 3d
       0.03727793 0.020259377 0.023794984 0.105747126
0001b0 7e 81 3c 3d d3 a1 1e 3d bc 75 4e 3d bc 62 89 3d
       0.04602193 0.038728546 0.05040525 0.06708285
0001c0 19 52 04 3e 38 0e 63 3d 6e 51 e5 3d 40 fc 76 3d
       0.12921943 0.055433482 0.11197172 0.060299158
0001d0 5a 61 8d 3c ef f2 cf 3d d9 a7 3d 3c c8 99 6d 3d
       0.017258335 0.10153758 0.0115756625 0.058007985
0001e0 55 c7 87 3c c5 b0 9d 3c c3 d0 d1 3a 4a 8f 58 3d
       0.016574541 0.01924933 0.001600765 0.052871026
0001f0 ec f3 f0 3c 11 83 c0 3c bf 63 cc 3c 65 37 32 bc
       0.029413186 0.023499997 0.024949906 -0.010877465

network_body._body_endoder.seq_layers.2.weight f4 [128, 128]
000000 9a 42 fd 3c d2 2e 7a 3d 2c fe 4f bd f0 65 80 3e
       0.030915547 0.061079808 -0.050779507 0.25077772
000010 6e fa b0 bd 7f b0 47 bd 4e 4e 85 bb ab 9e 05 be
       -0.08641516 -0.048752304 -0.0040681725 -0.13048808
000020 49 9e 8e ba 6d 56 8f bd f8 7c 9c 3c 33 73 71 3e
       -0.0010880913 -0.06998906 0.019102558 0.23579101
000030 d2 5f bf 3c 41 9b c5 bd bf 37 cc bd 41 2a bd 3d
       0.02336112 -0.09648753 -0.0997157 0.09236575
000040 4a 97 c9 bd aa 04 6b bc f1 41 81 3e 5e 57 ff 3d
       -0.09843309 -0.014344374 0.25245622 0.12467836
000050 af a9 e0 3d d3 3a 2d 3e 76 ed b8 3d 56 f1 eb bd
       0.109698646 0.16916971 0.09029667 -0.115206406
000060 1d 58 d7 bd 5c ac a9 bd 06 b3 07 3d 42 d4 2e 3e
       -0.10514853 -0.08284828 0.033129714 0.17073157
000070 50 a1 13 be 16 41 11 3d 90 94 0d 3d d5 96 ee 3d
       -0.14417005 0.03546246 0.03456551 0.11649863
000080 c9 2e 12 3d 9c 3b d7 be ca ad 99 3d 9c f0 ac 3d
       0.03568915 -0.42037666 0.07503851 0.0844433
000090 2a 7e 19 be 7b ca 37 3e e8 70 a2 3d 47 8c 07 3e
       -0.14989534 0.17948334 0.079316914 0.13237105
0000a0 ee 29 85 bd 8c 8d 2a 3d 18 52 56 bd 59 c4 9f 3d
       -0.06502138 0.041638896 -0.052324384 0.07801122
0000b0 57 54 b6 bd 4c 95 2d 3d e7 f3 dc bd 3e 2f 60 3d
       -0.08902805 0.04237871 -0.10788708 0.054732554
0000c0 d1 a9 1b be ae 4c 98 bc 18 b9 35 3e c2 c0 5a 3e
       -0.15201499 -0.018591251 0.17746389 0.21362594
0000d0 be 4d 3a bd 4a 75 82 3d 3a 86 5b 3e f0 35 a1 bd
       -0.045484297 0.06370027 0.21437922 -0.07871616
0000e0 4f 72 bd 3d 15 40 ef 3c 8e 64 3b bd e2 45 ed 3d
       0.09250318 0.029205361 -0.045750193 0.11585595
0000f0 9f 16 82 bd 74 d7 b3 bc 35 d4 ff 3d 25 ef f8 3d
       -0.06351971 -0.021953322 0.12491647 0.12154988
000100 24 65 9f bd 95 da 5e be 08 5e 37 3d d9 48 12 be
       -0.07782963 -0.2176307 0.04476741 -0.14285602
000110 90 72 42 bc 90 f6 a6 bd f5 0d 06 3d 3d 59 04 be
       -0.011868134 -0.08152497 0.032728154 -0.12924667
000120 02 22 02 3c 59 99 ac bc ae e5 d0 bb 2a f9 af bb
       0.007942678 -0.021069216 -0.006375036 -0.005370279
000130 f9 a0 4c 3d 79 1e 9f 3c 72 65 79 3c 00 fc 20 3e
       0.049958203 0.01942371 0.01522194 0.1572113
000140 7b cc ce 3d 14 18 92 ba c3 05 96 bd 0a a9 77 3d
       0.10097595 -0.0011146092 -0.07325318 0.060463943
000150 53 69 3c be 1e 8b 08 3c 12 80 3e 3b 7e 09 59 bc
       -0.18399553 0.008333949 0.0029068035 -0.013246892
000160 31 94 8d bd ee c5 90 3d 45 91 f5 b9 aa e0 db 3d
       -0.06913031 0.07069002 -0.00046838276 0.10736211
000170 d0 06 76 3e 6d 71 06 3c 56 59 bf bd 50 02 13 bd
       0.24026036 0.008205754 -0.09343211 -0.035890877
000180 16 08 29 bd 78 cf 26 3e 12 d7 cc bd a6 88 96 3d
       -0.041267477 0.1629008 -0.10001959 0.07350282
000190 9a 8c 90 bb 7e d0 43 bc 5e 54 3d 3b d7 8d 18 3c
       -0.0044112923 -0.011951564 0.0028889398 0.009311161
0001a0 92 33 00 bd c0 bc 29 3e ff eb d4 bc 49 86 4c 3e
       -0.03129918 0.16575909 -0.025991438 0.199731
0001b0 1e 2f 1b bd dd d2 cb 3d eb 82 82 bd 13 c4 b6 3d
       -0.03788673 0.09952328 -0.06372627 0.08924117
0001c0 85 01 37 be 07 f6 52 bd 2b 3b 96 bd d7 77 17 bc
       -0.17871673 -0.05150416 -0.07335504 -0.009244881
0001d0 2a 3f 69 3d 5f d3 f8 bc 57 6e f9 bc b0 87 52 be
       0.056945004 -0.030374227 -0.030448122 -0.20559573
0001e0 af 15 99 bc 54 02 06 3e 51 22 cd bd 7c 85 9a 3d
       -0.018687097 0.13086826 -0.10016311 0.075449914
0001f0 5b 26 ba 3c 83 d8 8f 3d a0 6f b8 3d 20 c8 90 bd
       0.022723367 0.07023718 0.09005666 -0.07069421
000200 aa 98 38 bd 3e 94 35 3b 4a e6 bd 3c 6d 91 47 3d
       -0.045067467 0.0027706767 0.0231811 0.048722673
000210 52 dd 0a 3d 7e f0 e5 3d 00 1b 8c 3d e1 c6 1b 3e
       0.033902474 0.11227511 0.06841087 0.15212585
000220 22 4a b3 3c 15 bd 9e bb b8 52 30 be 39 54 70 be
       0.021885935 -0.0048443177 -0.17219055 -0.23469628
000230 46 94 1e bc d3 25 58 bc 62 50 03 3d 0b b0 40 bd
       -0.009678906 -0.013192612 0.03205908 -0.047042888
000240 f5 72 97 3c ad 3b 21 3e 94 0f 8b bd c9 69 c5 bd
       0.018487433 0.15745421 -0.06790081 -0.096393175
000250 64 ab 1d 3e 7b 2d 57 bd 6f 37 bb bd 42 b4 b6 3c
       0.15397412 -0.052533608 -0.091414325 0.02230275
000260 ee b2 4b bc 2d aa 38 be 73 f4 d4 3d 51 e9 4a 3c
       -0.012432797 -0.18033667 0.103981875 0.0123847285
000270 27 18 b8 bc ce de b6 3d 3b 10 66 bc fc 63 82 bd
       -0.022472454 0.08929215 -0.014041956 -0.06366727
000280 d2 30 77 bc 26 22 84 bd cb ac 11 be 42 82 0e 3c
       -0.015087323 -0.06451826 -0.14226072 0.008698048
000290 78 d3 16 be ea 80 11 be a5 6d df 3d 69 b1 b0 3b
       -0.14729106 -0.14209333 0.10909585 0.0053922427
0002a0 84 d4 2c 3d d1 7e b0 bd f9 e8 ca 3c 76 82 2b 3d
       0.04219486 -0.08617938 0.024769293 0.041872464
0002b0 25 20 e7 3c ab a9 a5 bd 26 6d e6 bd 6d 55 8b bd
       0.02821357 -0.08089002 -0.11251287 -0.06803403
0002c0 07 94 16 be 9f 81 99 bc 4a 17 e3 bd 54 32 a4 bd
       -0.14704905 -0.018738566 -0.110884264 -0.08017412
0002d0 63 a6 20 be ff 13 ca bd f7 09 06 3e 62 67 13 be
       -0.15688471 -0.09867095 0.13089739 -0.14394906
0002e0 86 c9 8d 3d 5e 1c a8 bd 97 9b c7 3c d1 60 32 3e
       0.06923203 -0.082085356 0.024366183 0.17419745
0002f0 b0 30 3f 3b ab f8 ef 3c 19 3c 24 be 96 98 ca bd
       0.0029173307 0.029293379 -0.1603855 -0.09892385
000300 d7 17 30 be 3f ad 28 be 01 fb 26 bb 54 dd b8 bd
       -0.17196594 -0.16472338 -0.00254792 -0.0902659
000310 e0 48 e5 bb 28 30 f3 bc b2 a0 6f bd 5d fb 85 bd
       -0.006997213 -0.029686049 -0.05850286 -0.06542084
000320 26 38 e5 3d 68 57 a1 3d b1 a7 db bd bf b1 22 3e
       0.1119235 0.078779995 -0.10725344 0.15888117
000330 79 e9 16 3c 6d 63 0d bb c5 d0 e7 bd 5b 3d b9 3d
       0.009210938 -0.0021574155 -0.113191165 0.09044906
000340 33 df bc bd c8 14 8d bb ff 23 b5 bd 01 ab 64 3d
       -0.09222259 -0.004305456 -0.08844756 0.055827145
000350 1f d2 bb bb b8 79 ca 3d 5c 8b ad bc 85 57 b9 3d
       -0.0057318355 0.09886497 -0.021184616 0.09049896
000360 26 22 d0 bd 60 ec cc bc ab de c5 bc cb 7d 1d 3e
       -0.10162763 -0.025015056 -0.024154028 0.15380017
000370 5e b6 fc 3b 2d 2e 1c be 09 95 d4 3c 40 4d 05 be
       0.0077121696 -0.1525199 0.025949972 -0.1301775
000380 58 6a 02 3e bf 94 07 be bd 6a 47 3c 33 e3 2d 3d
       0.1273588 -0.13240336 0.0121714445 0.042453002
000390 84 8f a1 bb ed 97 0a 3e cf e5 9a 3d 95 45 0b 3e
       -0.0049304385 0.13534518 0.07563364 0.13600762
0003a0 51 11 f0 bc 05 59 d9 bb 6a 19 a6 3d 5c 01 ac bd
       -0.029305132 -0.0066329264 0.08110316 -0.08398697
0003b0 fa 6c 8b 3c 30 4c fe bd 51 9e 63 bd 4b 73 d2 bd
       0.017019738 -0.12416875 -0.055570904 -0.10275897
0003c0 46 95 02 3d 75 52 e5 3d 61 96 cf bc 25 2b 54 3b
       0.03188064 0.11197368 -0.025340261 0.003237435
0003d0 09 32 ad bd 72 af 92 3d 3f 24 62 bd c7 f9 b0 3d
       -0.08456809 0.0716237 -0.05521035 0.08641391
0003e0 85 45 8b 3d 99 76 ee 3c b4 75 6d bd fe 10 02 3d
       0.06800369 0.029109286 -0.05797358 0.031754486
0003f0 f0 56 23 3e 41 22 a2 3d 0b bb c9 3c 9d a3 1b 3c
       0.15951133 0.0791669 0.024625322 0.009499458

network_body._body_endoder.seq_layers.2.bias f4 [128]
000000 8c ab 8e 3d 88 bb 45 3c 99 c7 ba 3c 98 7d b4 3c
       0.06966314 0.012068637 0.022800254 0.022032544
000010 1b 24 de 3c 41 29 22 bc d8 77 b4 3c a0 b2 4c 3d
       0.027116826 -0.009897531 0.022029802 0.049975038
000020 50 63 3a 3c 71 3a 7c 3d 77 0d 5f 39 25 f0 21 3d
       0.011376217 0.06157917 0.00021271953 0.03953566
000030 24 3e 37 bc 9d 9c 4e 3d b6 b8 11 3d b0 c9 ee 3c
       -0.011184249 0.050442327 0.035576545 0.029148906
000040 7c 55 3b 3c 55 88 07 ba 3a 06 89 3d d3 c6 e6 3c
       0.011433955 -0.00051701564 0.06690641 0.028170979
000050 43 61 c7 3c 6d c2 d1 3b 4d 4e 41 3d fd 7d 77 bb
       0.02433837 0.006401351 0.047193814 -0.0037764304
000060 08 17 4c 3d 5d 92 42 3d 02 ba 34 3d 3b 14 06 3d
       0.04982665 0.047502864 0.044122703 0.032734137
000070 04 1c 74 39 39 9b 80 3d 6d 2e 4f 3d 48 d8 cd 3c
       0.0002328009 0.06279606 0.050581384 0.025127545
000080 a2 06 27 3d 17 48 cf 3c 58 e3 7e bb 11 21 95 3c
       0.04077781 0.02530293 -0.0038892832 0.018204244
000090 67 82 34 3c 92 a1 72 3d 98 29 d9 3c 8a aa a2 3c
       0.0110174185 0.059236117 0.026509091 0.01985671
0000a0 65 a0 af 3c a4 8d 9d 3c 05 9f 45 3c 37 e3 51 3d
       0.021438787 0.019232579 0.012061839 0.05124208
0000b0 31 29 8a bb 1f d9 b9 3c 8e 30 a9 3c 28 ec da 3c
       -0.004216336 0.02268654 0.020653035 0.026723936
0000c0 59 f6 f3 3c 67 42 40 3d 9b bd 18 ba c0 4d d2 3b
       0.029780554 0.046938326 -0.0005826593 0.00641796
0000d0 57 56 d8 3c d9 1e 07 3d fc ca 9f 3c 3e 2c 22 3d
       0.026408358 0.032988403 0.01950597 0.039592974
0000e0 9c 04 e5 3b ba 81 52 3c e4 8c 54 3c 45 a3 64 ba
       0.006989075 0.012848312 0.012973044 -0.0008721839
0000f0 66 3b 61 3d e5 3c d7 3b ed f6 d7 3c 26 96 ff 3b
       0.054988287 0.0065685385 0.02636286 0.0077998815
000100 f6 eb 0d 3d 92 07 99 3c ca 6a f6 3c 27 bf 77 38
       0.034648858 0.018680368 0.030080218 5.9067414e-05
000110 56 7b 63 bc 74 ec 8d 3d 19 af 94 3c a6 29 4a 3d
       -0.013884386 0.069298655 0.0181499 0.049356125
000120 d8 01 03 3d 1e 95 04 3d e4 97 8c 3d e3 0b d3 3c
       0.03198418 0.03236877 0.06864908 0.025762504
000130 a3 05 9b 3c 4d 90 5d bc b8 50 a5 3d 07 f4 58 3d
       0.018923586 -0.0135231735 0.080720365 0.052967098
000140 64 a0 16 bd ad 06 57 3d 3e b0 82 3c ca 6d a8 3d
       -0.036774054 0.0524966 0.01595318 0.082240656
000150 20 e7 8c bd ed 94 0f 3d fd 21 6e 3a 21 cc 33 3b
       -0.06880021 0.035054136 0.0009084044 0.0027434903
000160 10 60 1e 3d 72 49 14 3c 36 91 0a 3d ba 81 e3 3c
       0.03866583 0.009050714 0.03382989 0.02777182
000170 71 c8 2e 3c 19 e9 7f 3d 62 b0 e6 3b 9f b7 a4 3d
       0.010667906 0.06247816 0.0070400694 0.080428354
000180 3e 21 89 3d 07 96 e0 3c de fd 09 3d 7c df 6b 3c
       0.066957936 0.027415289 0.033689372 0.014396545
000190 33 5b ac 3c 07 00 23 bc ca e8 14 3d ef ca 0f bc
       0.02103958 -0.009948737 0.036354817 -0.0087764105
0001a0 a9 09 69 3d d5 4f 63 3c 7c 74 63 3d f5 ea 72 3d
       0.05689398 0.013874014 0.05553101 0.059306104
0001b0 6d 20 78 ba 7f 37 a9 3a a9 3d 66 3c 4e 0a 2e 3d
       -0.0009465281 0.0012910216 0.014052787 0.042490296
0001c0 14 fe 61 3d 09 74 92 3c 9a e6 2b b6 be 6c 8b 3b
       0.05517395 0.017877595 -2.5615213e-06 0.0042549064
0001d0 59 e6 80 3c 7f 07 63 3d ad 48 67 3c 96 47 a3 bc
       0.015734838 0.05542707 0.014116448 -0.019931596
0001e0 c8 4b dc 3b cb ad a0 3c fa 1d 01 3d c4 b5 85 3d
       0.006722901 0.019614121 0.03152273 0.0652881
0001f0 3c 81 4e 3d 07 2f d3 3c 27 ef 38 3b 8d ed c1 3b
       0.050416216 0.02577926 0.0028218718 0.005918211

action_model._continuous_distribution.log_sigma f4 [1, 2]
000000 d9 43 0e bd 6d 5c 24 bd
       -0.034732673 -0.040127207

action_model._continuous_distribution.mu.weight f4 [2, 128]
000000 06 bf ba bd 16 68 34 3b a1 3f 16 bc c2 08 2f bd
       -0.09118466 0.002752786 -0.009170444 -0.04273296
000010 c8 8b bf 3b 47 7f f6 bb 22 ce 89 3c 4f 42 59 bc
       0.0058455206 -0.007522497 0.016821925 -0.013260438
000020 58 2a 15 3a 5d fb cd bc a6 41 2a 3c 1f 8c 8e 3c
       0.00056902086 -0.025144273 0.010391628 0.0174008
000030 d4 5d a1 ba dc 33 b7 3c dd a2 db 3c 68 b0 a4 bd
       -0.0012311288 0.022363596 0.026811058 -0.08041459
000040 5c 7b 6b bd 22 f2 de bc 83 0c 7d 3d d1 6f fd 3b
       -0.05749069 -0.027215067 0.06177951 0.007734277
000050 50 00 2d bd aa 74 1f bd 1a 29 4f bd 06 27 60 3c
       -0.042236626 -0.03892962 -0.050576307 0.013681179
000060 4c ba 82 3d b2 ed 65 3c d5 2d 51 3d 63 11 85 3c
       0.063831896 0.014033722 0.0510691 0.016243642
000070 72 81 eb bc de 55 b2 3c d4 e3 1e 3d 0e ed 53 3b
       -0.028748248 0.02176946 0.038791493 0.003233734
000080 15 39 a2 bd 2c 3b aa 3d f9 1e 16 3d 72 2b 89 bc
       -0.07921044 0.083120674 0.03665063 -0.01674435
000090 26 b5 1d 3d 3c b2 ab 3c 44 d6 2e bc 95 52 c3 bc
       0.038502835 0.020959012 -0.010671202 -0.02384309
0000a0 ac 31 f1 ba 6f c4 68 3c 6a bb db ba f7 d8 72 bd
       -0.0018401644 0.01420699 -0.0016764228 -0.059288945
0000b0 b7 97 1d 3a 61 81 2f bc 0b 92 a6 39 ca 7e 80 3d
       0.0006011682 -0.010711999 0.00031770798 0.06274183
0000c0 6b 52 3a bd 90 ee 17 3d 0b 2e c8 b8 88 a5 ab 3c
       -0.045488756 0.037092745 -9.545319e-05 0.020952955
0000d0 7d 8c 83 bc e1 e7 77 bc 0e 91 c8 bc f6 dc 60 bd
       -0.016058201 -0.015130968 -0.02448323 -0.054898225
0000e0 90 87 c8 3c 69 07 63 3d b5 fc 18 3d 3d a4 22 3d
       0.024478704 0.05542699 0.037350375 0.03970741
0000f0 33 93 00 bd 9b 18 8c bd f0 5b 10 3c e7 50 29 3d
       -0.03139038 -0.068406306 0.008810982 0.04133692
000100 1d 7a 6a bd ac 67 0b 3d 37 a9 c9 bc 62 bf 6e 3b
       -0.057245363 0.034034416 -0.02461682 0.003642999
000110 69 90 d2 3a 00 1b 52 3d 94 ac 78 3c d0 18 21 3c
       0.0016064766 0.05129528 0.015177865 0.009832576
000120 a4 54 2e bd 32 14 8a 3c cf 8a db 3d 80 01 cb 3c
       -0.04256119 0.016855333 0.10719835 0.024780989
000130 a1 0e 2a 3c f7 ff bc 39 36 3e 18 3d 2a 51 7f 3d
       0.010379464 0.00036048863 0.037168704 0.062333263
000140 49 14 27 3d 5b fe dc bd 14 51 c9 bb 1b 77 d5 3d
       0.04079083 -0.10790702 -0.0061436985 0.10423108
000150 3b 3c 9b 3c 95 97 07 bd 16 c9 73 bc c7 ad 46 3c
       0.018949619 -0.033103544 -0.014879486 0.012126393
000160 dd ad 5c bd 70 08 ab 3c 42 06 85 3c 7b 11 03 bd
       -0.053876746 0.020878047 0.016238336 -0.031999093
000170 f4 0c 94 3c d0 3b 93 3d 2a d1 11 3d 23 ca bc bc
       0.018072583 0.07189143 0.035599865 -0.023045605
000180 ee 3d 44 3d b8 39 ab 3d 50 81 f0 bc 7b 1b 10 3c
       0.047910623 0.08360618 -0.029358536 0.008795614
000190 6d d1 03 bb b9 4d f8 3b 7f eb 5f bd 17 62 f1 bb
       -0.0020113841 0.0075776246 -0.054667946 -0.0073664295
0001a0 af 2c 49 3d 77 36 2c bd 46 7b 0d bd 61 16 03 3d
       0.04911488 -0.04204413 -0.03454139 0.032003764
0001b0 17 ee 52 3c c5 46 21 3c 1b 7a e4 bb 51 1d 4c bd
       0.012874148 0.009843533 -0.006972564 -0.049832646
0001c0 a1 bb b0 bd ef ce 97 3d 27 47 ce 3c 74 bd 82 3c
       -0.086295374 0.07412516 0.025180412 0.015959479
0001d0 e6 7e fe bc 36 48 18 3c 61 a4 fa b9 a2 4c 57 3c
       -0.03106637 0.00929456 -0.00047806188 0.013140829
0001e0 f9 5d 14 3d dc 4a 2c bd e6 31 05 bc 3b 91 42 3d
       0.03622243 -0.04206358 -0.0081295725 0.047501784
0001f0 dc 6a 58 bd 4f f2 fd bc 05 63 6a bb f6 5b 8e bc
       -0.052836284 -0.03099933 -0.0035764587 -0.017377835
000200 97 12 03 3c 08 81 0d bd b4 5b 68 3d 62 9d 9d bc
       0.008000038 -0.034546882 0.05672808 -0.019240085
000210 b0 a1 3f 3d e4 a0 30 3d ec 58 43 3d 38 2c 77 3d
       0.046785057 0.043122187 0.047692224 0.060344905
000220 65 19 f8 bc f7 14 6b 3d 32 4f 10 bc cd ec 54 bd
       -0.030285547 0.05739304 -0.008807944 -0.051983643
000230 c0 c2 7c 3c 0e 49 b1 bd 4f 55 36 3d 8e 2c 18 3d
       0.015427291 -0.08656512 0.04451495 0.037151866
000240 d3 62 a0 3c ce 85 36 bc d7 6b 62 3d 4b fe 57 bd
       0.019578373 -0.0111403 0.055278625 -0.052732747
000250 a2 ec 98 3d a5 79 89 bc 93 f3 88 3d 79 da 97 3b
       0.07467009 -0.016781637 0.06687083 0.0046341983
000260 58 5d 18 3d cd c6 30 3d d2 c0 2a 3c aa f4 e2 bc
       0.037198395 0.04315834 0.0104219485 -0.027704556
000270 63 ca 94 bc 12 10 a8 bd 7b 00 90 3d e2 85 1d 3d
       -0.018162912 -0.0820619 0.07031342 0.03845776
000280 0d 8d 2b 3c 42 ce 87 bd 40 7b 83 3c 97 8d fd 3c
       0.010470641 -0.066311374 0.016049981 0.030951304
000290 50 eb 84 bc 2c 1a ab 3d 45 c1 4a bd 86 06 d9 bc
       -0.016225487 0.08354601 -0.049500722 -0.026492368
0002a0 c2 50 2f 3d 77 0b 2a 3d f4 0b 4e bc 6f 1f 71 3d
       0.042801626 0.04151484 -0.012576092 0.058867868
0002b0 20 ad 91 bc 6e 89 54 bd 5f f4 c4 3c b5 c6 08 3b
       -0.017782748 -0.051888876 0.024042306 0.0020870392
0002c0 a5 17 13 bd e5 8d 28 3d e0 11 a7 bc 06 8c 3c 3c
       -0.03591122 0.041150946 -0.020394266 0.011507994
0002d0 2c a4 2c bd a5 04 87 bd 37 6f 2e 3c 2a e6 fb ba
       -0.042148754 -0.06592683 0.010646633 -0.0019218375
0002e0 46 c7 00 bb 4f fd 80 bc 8d 12 36 3d 05 64 9b bb
       -0.0019650026 -0.015745787 0.044451285 -0.004742148
0002f0 3a 6d a0 bd e3 c8 ee 3c af e7 28 3d 68 83 c2 bb
       -0.07833333 0.029148525 0.041236576 -0.005936075
000300 5f 2c ff bc 83 ac df bb d3 36 3b bd 0d 96 67 3d
       -0.031149087 -0.006825985 -0.04570658 0.056539584
000310 be 59 42 3c 9c 03 26 bd e2 c3 4e 3d de c8 a6 3d
       0.0118622165 -0.040530786 0.050479777 0.08143781
000320 6f c6 09 3d 0f 56 8f bd 7d 38 0b 3d 65 94 c8 bc
       0.033636507 -0.06998836 0.03398942 -0.024484823
000330 4f a5 81 3c 8b 0c 37 bc 04 33 89 bd 74 74 09 3d
       0.015825896 -0.011172424 -0.066991836 0.033558324
000340 b9 2f c3 3c 96 c7 1c 3d dc 2b 78 3d 92 c6 07 3d
       0.023826467 0.038276277 0.060588703 0.033148356
000350 61 90 18 3d 57 38 b7 3c 89 b1 f4 bc 2f 6b 73 3d
       0.037247065 0.022365732 -0.029869812 0.05942839
000360 fb 7e 2e 3d d3 cb 6b bd 12 00 4f bd 50 a6 c8 3c
       0.042601567 -0.05756743 -0.050537176 0.024493366
000370 b0 2c 53 bc 0d 1b 95 3c 3f 19 e4 3c 05 7d 00 be
       -0.012889072 0.018201375 0.02784407 -0.12547691
000380 68 1b 21 3d 74 b6 3a bd a7 62 da bc 82 8b 37 bd
       0.039332777 -0.045584157 -0.02665837 -0.04481078
000390 44 b8 35 bd 0d 8f 6c bc a7 ba 49 3d 93 89 ce bc
       -0.044365183 -0.014438403 0.04925027 -0.025212085
0003a0 f6 6c c5 bc 5e 88 9f bc e5 78 2f 3d 49 df e8 bc
       -0.024099808 -0.019474205 0.042839903 -0.028426783
0003b0 81 bc c2 3c 84 e4 bc bc bd 1e 0c bd df 2f c4 bc
       0.023771526 -0.023058183 -0.034209 -0.023948608
0003c0 64 3d d5 3c bd ec c8 3c e0 20 07 3b 2b 2b c5 ba
       0.02603025 0.024526948 0.002061896 -0.0015042772
0003d0 d7 b7 5c bc 24 9e 36 bd 81 f3 1b bd 18 54 0d bb
       -0.013471565 -0.04458441 -0.03807402 -0.0021565016
0003e0 94 9c 7b bc 26 0d 13 3c b0 06 2d 3d a8 71 60 bd
       -0.015357155 0.008975303 0.042242706 -0.05479589
0003f0 21 77 37 bd 7c 37 f2 b9 fa fa 17 bd 6d e0 4b bb
       -0.044791345 -0.00046199176 -0.037104584 -0.003110911

action_model._continuous_distribution.mu.bias f4 [2]
000000 07 dc 24 bb 2b 39 8d bb
       -0.002515556 -0.0043097935
