Assets/Environment4/Brains/Env4Behavior3.onnx (onnx, 78694 bytes, 6 tensors)

network_body._body_endoder.seq_layers.0.weight f4 [128, 9]
0	0xbf113af5	-0.56730586
1	0xbf3763da	-0.71636736
2	0xbed4cb4a	-0.41561347
3	0xbeeb9662	-0.4601317
4	0xbd5a651d	-0.053319085
5	0xbe041a99	-0.12900771
6	0x3e6423e6	0.22279319
7	0x3eb09ed6	0.34496182
8	0x3d2d7d5d	0.042355884
9	0x3cb4b315	0.02205805
10	0x3f16e9ea	0.58950675
11	0x3de122ce	0.109929666
12	0x3d316dde	0.04331767
13	0x3e0aea2e	0.13565895
14	0xbcd9e061	-0.02659625
15	0xbf27aeab	-0.655009
16	0xbe30280b	-0.17202775
17	0x3d8483cc	0.06470451
18	0x3f0b4a34	0.544101
19	0x3e35a7fa	0.17739859
20	0x3d84da1d	0.06486914
21	0xbd8c2723	-0.06843402
22	0xbe373214	-0.17890197
23	0x3e8f7626	0.28019828
24	0x3e5724f8	0.21010196
25	0x3e2d15e5	0.16902883
26	0xbf12b89c	-0.5731294
27	0x3f0dcb08	0.55387926
28	0xbe78c2ed	-0.24293108
29	0xbb4279a4	-0.0029674554
30	0x3f03ec45	0.51532394
31	0xbe843d77	-0.25828144
32	0x3f0fd3bc	0.56182456
33	0x3e295821	0.16537525
34	0xbe7aa2cf	-0.24476169
35	0x3e7db3d4	0.2477563
36	0xbe8d25ca	-0.27567893
37	0x3e781dc1	0.242301
38	0xbee5cdd9	-0.44883612
39	0x3f4ce240	0.8003273
40	0x3cfde6b1	0.030993791
41	0x3e8ab19b	0.27088627
42	0x3f1dc770	0.6163244
43	0xbdde1d44	-0.10845426
44	0xbf434800	-0.7628174
45	0xbed72a80	-0.42024612
46	0xbdc12086	-0.094300315
47	0x3e101236	0.14069447
48	0x3dc97b3f	0.098379605
49	0xbecf62e2	-0.4050513
50	0xbd916714	-0.07099739
51	0xbe501540	-0.20320606
52	0xbea087fe	-0.31353754
53	0x3f0d1e69	0.5512453
54	0xbf1a43e9	-0.6025987
55	0x3d21b9ad	0.039483715
56	0x3e826ff5	0.2547604
57	0xbd804747	-0.06263595
58	0xbddbd7d1	-0.10734523
59	0x3e1a7580	0.15083885
60	0x3d9a04be	0.07520436
61	0xbe636448	-0.22206223
62	0x3f1ba42f	0.607974
63	0x3e7978d1	0.24362494
64	0xbf394f65	-0.7238677
65	0xbe2e019f	-0.16992806
66	0x3f374037	0.7158236
67	0xbc162320	-0.009163648
68	0x3e07f9b6	0.13278851
69	0xbe0c8ce7	-0.13725625
70	0x3dab26fa	0.083570436
71	0x3ddf8c7e	0.10915469
72	0x3d9d3028	0.07675201
73	0x3e8f0f76	0.27941483
74	0xbe920ca2	-0.28525263
75	0xbdfd5b22	-0.12370898
76	0x3e4093e6	0.18806419
77	0x3ea7bdda	0.32762033
78	0x3e98bfa3	0.29833707
79	0xbeaef587	-0.34171697
80	0x3e7adcf4	0.2449835
81	0xbbd2289f	-0.006413534
82	0x3e3a7104	0.18207175
83	0x3e1b2ba9	0.15153374
84	0xbd96456d	-0.07337461
85	0x3e4e237d	0.20130725
86	0xbee71f2e	-0.45140976
87	0xbc1d5ce4	-0.009604666
88	0x3f2298e8	0.63514566
89	0x3e0ef9a9	0.13962425
90	0xbd022a08	-0.031778365
91	0xbdf0fbec	-0.117668
92	0xbf48cde0	-0.7843914
93	0x3eadfef5	0.3398358
94	0x3f1f3eab	0.62205
95	0xbe88c927	-0.26715967
96	0xbf0d38f5	-0.55165035
97	0xbe1c3751	-0.15255477
98	0xbeb18587	-0.34672186
99	0xbf368809	-0.71301323
100	0xbf0e8779	-0.55675465
101	0x3ec986d4	0.39360678
102	0xbea1f8f0	-0.31635237
103	0xbea99a47	-0.33125517
104	0xbeefa6d6	-0.46806973
105	0x3dfbf3e7	0.1230238
106	0xbbd68ef9	-0.0065478054
107	0x3d85f4db	0.06540843
108	0x3f093491	0.53595835
109	0xbe9ba205	-0.3039705
110	0x3c06d1a8	0.008228697
111	0xbf220f92	-0.6330501
112	0x3e397c39	0.18113793
113	0xbe186a09	-0.14884199
114	0xbd195c0d	-0.037441302
115	0xbea56a01	-0.32307437
116	0xbef08a89	-0.46980694
117	0x3e7ff820	0.24996996
118	0xbe5098be	-0.20370767
119	0xbe220319	-0.15821494
120	0xbeab1dae	-0.3342108
121	0xbeb0d9ba	-0.34541112
122	0xbe37e914	-0.17960006
123	0x3e95deac	0.29271448
124	0x3ecf989c	0.4054612
125	0x3ddd5577	0.10807317
126	0xbed072c7	-0.40712568
127	0x3e4f14e6	0.20222816
128	0xbe81ed1f	-0.25376222
129	0xbed2f2d3	-0.41200885
130	0xbeaa6896	-0.33282918
131	0xbe174054	-0.14770633
132	0xbe29ca2b	-0.16581027
133	0x3eec525d	0.46156588
134	0x3efeb8b0	0.4975028
135	0x3da0eee6	0.07858066
136	0x3e2cc6d5	0.16872723
137	0x3e9f6d25	0.31137958
138	0x3e37ffb9	0.17968644
139	0x3e888a53	0.26668033
140	0xbcd7f496	-0.026361745
141	0x3d9742b8	0.073857725
142	0xbe1c33bc	-0.1525411
143	0x3f145abe	0.5795096
144	0x3e0b5149	0.13605227
145	0x3f9a7306	1.2066352
146	0x3e4de827	0.2010809
147	0xbebd14a0	-0.36929798
148	0xbe8d6d94	-0.27622664
149	0xbf049250	-0.51785755
150	0xbe440bed	-0.19145174
151	0xbf094ca0	-0.53632545
152	0x3ef4e80d	0.4783329
153	0xbe2dec4c	-0.16984671
154	0x3da07298	0.07834357
155	0x3e9303ed	0.28713933
156	0xbf209e67	-0.627417
157	0x3e115f5d	0.14196534
158	0xbe1183eb	-0.14210479
159	0xbe84a595	-0.2590758
160	0xbe1db6c9	-0.15401758
161	0x3d8ef9b7	0.06981223
162	0x3e4f6552	0.20253494
163	0x3ebcf3c9	0.36904743
164	0x3e1a6192	0.15076283
165	0x3ed1c188	0.40967965
166	0xbed35929	-0.4127896
167	0xbd3e50b4	-0.046463683
168	0xbe27f373	-0.16401462
169	0xbe84717f	-0.2586784
170	0x3f128f33	0.57249755
171	0x3d56282d	0.05228441
172	0x3eac920c	0.33705175
173	0xbf4cb63b	-0.7996556
174	0xbddc52b8	-0.10757965
175	0xbccec712	-0.025241408
176	0xbe45787a	-0.1928424
177	0xbf192d62	-0.59834874
178	0x3ebc0ece	0.36730045
179	0xbe2bdf53	-0.1678441
180	0x3e1f58f7	0.15561281
181	0xbdfa372c	-0.122175545
182	0xbe1ae284	-0.15125471
183	0x3c93fe12	0.018065486
184	0x3f37aa73	0.7174446
185	0x3d80192f	0.062548034
186	0xbdb9c6cc	-0.090711206
187	0x3e8ce1d3	0.2751604
188	0xbf3025ce	-0.68807685
189	0xbef821e9	-0.4846337
190	0x3e7d752e	0.24751732
191	0x3e9be714	0.30449736
192	0xbee3ab8c	-0.44466817
193	0x3f13fcc7	0.5780758
194	0xbe3d513b	-0.18488018
195	0x3df70b12	0.12062658
196	0x3ea3d038	0.31994796
197	0xbe9a01d3	-0.30079517
198	0xbf1c3ba4	-0.61028504
199	0xbe585556	-0.21126303
200	0x3e9e061c	0.30864036
201	0x3e371322	0.17878392
202	0x3e4010e2	0.1875644
203	0x3dfccdad	0.12343917
204	0x3f3e6eb8	0.74387693
205	0xbf69b465	-0.91290885
206	0xbd07cae4	-0.033152476
207	0xbddac865	-0.106827535
208	0xbf271f70	-0.65282345
209	0x3eb679b0	0.35639715
210	0xbe420ca4	-0.18950135
211	0x3e375373	0.17902927
212	0x3f09a1f6	0.5376276
213	0xbea873a6	-0.32900733
214	0x3e051213	0.12995176
215	0x3e6df957	0.23239647
216	0xbea189e4	-0.31550515
217	0xbf117381	-0.5681687
218	0xbe231957	-0.15927635
219	0xbd78dd47	-0.0607579
220	0xbd82d198	-0.06387633
221	0xbb4cefae	-0.003127079
222	0xbe9294a5	-0.28629032
223	0x3eecdf62	0.46264178
224	0x3f00b50a	0.50276244
225	0xbe8fdcdc	-0.2809819
226	0xbef6927e	-0.4815864
227	0x3edcca36	0.43123025
228	0xbdd58c42	-0.10427143
229	0xbec573db	-0.38564953
230	0xbe9212ce	-0.28529972
231	0x3e3a6f5d	0.18206544
232	0xbeb1e5a6	-0.3474552
233	0x3d692d6a	0.056928076
234	0x3e841521	0.2579737
235	0x3e4469fa	0.19181052
236	0x3f13207d	0.5747145
237	0xbe198f1b	-0.14995997
238	0x3e49d601	0.19710542
239	0xbf2b9090	-0.6701746
240	0x3db50cf8	0.08840364
241	0x3e8bbe4c	0.27293622
242	0x3eb981b5	0.3623177
243	0xbf28b74f	-0.65904707
244	0xbf03836e	-0.5137242
245	0xbe271bb0	-0.16319156
246	0x3c4fcbf5	0.0126829045
247	0xbf0018f1	-0.5003806
248	0xbee77985	-0.452099
249	0xbe1ffec7	-0.15624534
250	0x3d704461	0.05865896
251	0xbdb6f624	-0.08933666
252	0xbebb89fe	-0.36628717
253	0xbcbe0989	-0.023197906
254	0x3f1c43e7	0.6104111
255	0x3e371f24	0.17882973

network_body._body_endoder.seq_layers.0.bias f4 [128]
0	0x3c18ca82	0.009325625
1	0x3d100847	0.035164144
2	0xbc06f42a	-0.008236924
3	0x3d49aa50	0.04923469
4	0xbc989088	-0.018623605
5	0x3c06c6bf	0.008226096
6	0x3d52d289	0.051470313
7	0x3e2ff3fc	0.17182916
8	0x3caff538	0.021479234
9	0x3d23cb83	0.039989006
10	0x3d3672b4	0.044542983
11	0x3d43b503	0.047780048
12	0x3ccd33ef	0.025049178
13	0x3d6da149	0.05801514
14	0x3cacc782	0.021091226
15	0x3c0a60ed	0.0084459605
16	0x3cb0a319	0.021562146
17	0x3d1a5904	0.03768255
18	0x3b85b731	0.004080676
19	0x3da8b905	0.08238415
20	0x3cc22c6d	0.023702824
21	0x3da4ba1e	0.080433115
22	0x3aa6b218	0.0012717871
23	0x3d3bb271	0.04582447
24	0x3cd7282d	0.026264274
25	0x3cafe502	0.021471504
26	0x3d85c4d0	0.0653168
27	0x3d37cb61	0.04487169
28	0x3dda9478	0.106728494
29	0x3d2c9343	0.042132627
30	0x3ca3f0b1	0.020012232
31	0x3d07b56e	0.03313201
32	0x3c10860e	0.008821024
33	0x3d734cb6	0.05939933
34	0x3d791dc3	0.0608194
35	0x3d22496d	0.039620806
36	0xbc05ae5a	-0.008159244
37	0xbbf1090f	-0.007355816
38	0x3d243dd1	0.040098015
39	0x3cbb5fd2	0.02287284
40	0x3d4dd685	0.05025341
41	0x3d865d29	0.06560738
42	0xbcf6a492	-0.03010777
43	0x3d2bfea4	0.04199089
44	0x3cf32cd6	0.029684465
45	0x3ceb1173	0.028694844
46	0x3d3eb4b9	0.04655907
47	0x3d2cf39e	0.04222452
48	0x3d0e9d81	0.034818176
49	0xbbb48f4e	-0.0055102473
50	0x3d176731	0.036963645
51	0x3cc621a1	0.024185957
52	0x3d91cdaf	0.07119309
53	0xbba5da92	-0.005061456
54	0x3d4cc268	0.049990088
55	0x3d8bf380	0.06833553
56	0x3c9fc6e1	0.019504013
57	0x3ab21595	0.0013586754
58	0x3d128d21	0.035779122
59	0x3d8d1f62	0.068907514
60	0x3d3321f4	0.043733552
61	0x3d6822fa	0.05667398
62	0x3cbba065	0.02290363
63	0x3d297760	0.04137361
64	0xbcc91d29	-0.024550037
65	0x3d5a11ac	0.05323951
66	0x3ccf9dde	0.025343832
67	0x3d5c98cf	0.053856667
68	0x3c4b3efb	0.012405152
69	0xbc90bf45	-0.01766933
70	0x3d1260a4	0.035736695
71	0xbcc2f286	-0.023797285
72	0x3d0585d5	0.032598335
73	0xbbbeeecf	-0.005826808
74	0x3d8f73e9	0.0700453
75	0xbb94e5eb	-0.00454401
76	0x3d1f4232	0.03888149
77	0x3d9d0e0a	0.07668693
78	0x3cfc38c4	0.030788787
79	0x3d323d45	0.043515462
80	0x3d14a289	0.036287818
81	0x3d4d8c71	0.050182763
82	0x3ca0b811	0.01961902
83	0x3d138501	0.036015514
84	0x3d5b6ef5	0.053572614
85	0x3dcae6a3	0.09907272
86	0x3d51d7ea	0.051231302
87	0x3db20d8f	0.08693992
88	0x3dcaec5b	0.099083625
89	0x3bd4fb5a	0.00649969
90	0x3dad9fe6	0.08477764
91	0xbc7a65f7	-0.015283099
92	0xbc768c44	-0.01504809
93	0x3cc4ccdf	0.024023471
94	0x3d020ab4	0.03174849
95	0x3d9ec661	0.077526815
96	0x3d09059a	0.033452608
97	0x3b3571bf	0.0027686206
98	0x3ded2560	0.11579394
99	0x3d2f533e	0.042803995
100	0x3d4a7f89	0.049438033
101	0x3d52c603	0.05145837
102	0x3d591ca4	0.05300583
103	0x3d3c0423	0.045902383
104	0x3cc5de42	0.024153832
105	0x3d0c717e	0.034287922
106	0x3d9b09e5	0.075702466
107	0x3d80ce3e	0.062893376
108	0x3c003d97	0.007827184
109	0x3d2a547b	0.041584473
110	0x3c8632c4	0.016381629
111	0x3bf2b654	0.007406989
112	0x3d86ffbd	0.06591747
113	0xbbe4a407	-0.0069775614
114	0x3d941543	0.07230618
115	0x3d3b232e	0.045687847
116	0x3d39ef30	0.045394123
117	0x3d11bca1	0.03558028
118	0x3c6dcd27	0.014514244
119	0x3c8a3b4b	0.016873976
120	0x3c207037	0.009792379
121	0x3d4ee4e4	0.050511256
122	0x3d67386d	0.056450296
123	0x3cd84acc	0.026402853
124	0x3d62641e	0.05527126
125	0x3cac52d7	0.021035595
126	0x3c80e86f	0.015735833
127	0x3d25c5e6	0.040471934

network_body._body_endoder.seq_layers.2.weight f4 [128, 128]
0	0xbcecab9b	-0.028890422
1	0xbd0a8773	-0.03382058
2	0x3d5718f2	0.052514024
3	0xbdb13be2	-0.08654
4	0xbd9d1e3a	-0.07671781
5	0xbc25790f	-0.010099663
6	0xbd23b623	-0.03996862
7	0x3c45a7c9	0.012063929
8	0x3d5320ef	0.05154508
9	0xbd0d6ced	-0.034527708
10	0xbda3fc94	-0.0800716
11	0x3c856f8a	0.016288538
12	0xbc0e1a0f	-0.008673205
13	0xbe3ef470	-0.18647933
14	0xbe08fb15	-0.1337703
15	0xbdb346b6	-0.087537214
16	0x3cbd9f0c	0.023147129
17	0x3c4de5df	0.012567013
18	0xbd4f6359	-0.050631855
19	0xbba04399	-0.004890871
20	0x3d2aa937	0.041665282
21	0x3da9ddae	0.08294235
22	0xbba85380	-0.005136907
23	0xbda41d02	-0.08013345
24	0xbcc1b13e	-0.023644086
25	0xbe204807	-0.15652476
26	0x3bce8aad	0.0063031525
27	0x3d66b6f0	0.056326807
28	0x3d768be7	0.060192015
29	0x3dab5e28	0.08367568
30	0x3c1653d6	0.0091752615
31	0x3b8e98ba	0.0043517025
32	0x3d9a0617	0.07520693
33	0xbe137872	-0.14401415
34	0x3dd393d7	0.103309326
35	0x3e649309	0.22321714
36	0xbcae036b	-0.021241864
37	0xbe18da40	-0.14927006
38	0xbe09d702	-0.13460925
39	0xbbccb0c1	-0.0062466566
40	0xbe3b0493	-0.18263464
41	0x3e40e704	0.18838125
42	0x3ccec4ad	0.025240267
43	0xbd9293dd	-0.07157109
44	0x3cd0b64a	0.025477547
45	0xbe0926d6	-0.13393721
46	0x3da10f44	0.0786424
47	0x3df967d4	0.12178007
48	0xbdc10256	-0.09424274
49	0x3d8ed9f7	0.06975167
50	0xbd85cf55	-0.06533686
51	0x3dacab5b	0.08431121
52	0x3de546c2	0.111951366
53	0xbdc7d46e	-0.097573146
54	0xbd16dd0f	-0.03683191
55	0xbac84b37	-0.0015281205
56	0xbde772ac	-0.11301169
57	0xbd5cab3f	-0.05387425
58	0xbdb007b7	-0.085952215
59	0xbe111911	-0.14169718
60	0x3d53bd10	0.051693976
61	0xbda0c7f3	-0.07850637
62	0x3d7b023a	0.06128142
63	0xbdb2deae	-0.08733879
64	0xbc118280	-0.008881211
65	0xbe2dbb8a	-0.16966072
66	0xbccba3ad	-0.02485832
67	0x3ab744f1	0.0013982338
68	0xbdbfa97d	-0.09358499
69	0xbda6d6df	-0.08146452
70	0x3e302033	0.17199783
71	0x3d42cf51	0.047560994
72	0xbd95e09e	-0.07318233
73	0xbe0d5e5a	-0.13805524
74	0xbd070325	-0.032961983
75	0x3d0ca9b3	0.034341525
76	0xbe7e6cd2	-0.24846199
77	0x3df4ec4f	0.11959135
78	0xbe1ee739	-0.15517892
79	0xbe467f28	-0.19384444
80	0xbe053760	-0.13009405
81	0x3e2be2db	0.16785757
82	0x3ddc3d04	0.10753825
83	0xbdacf527	-0.084451966
84	0xbdbd1237	-0.0923199
85	0x3e40f4fe	0.18843457
86	0xbdb2b1d2	-0.08725323
87	0xbe04a367	-0.12952958
88	0x3cf030b6	0.029320102
89	0xbcf698ae	-0.0301021
90	0x3e0fbb42	0.14036277
91	0x3d5d1c8a	0.053982295
92	0x3cbe7cc3	0.02325285
93	0xbdba032e	-0.09082638
94	0x3de25fb0	0.11053407
95	0x3dd61562	0.10453297
96	0x3cc2dace	0.023785975
97	0x3e0580b3	0.13037376
98	0xbdb45d78	-0.0880689
99	0xbd9a1578	-0.07523626
100	0xbb98180a	-0.0046415376
101	0xbce13797	-0.027492328
102	0xbe033de5	-0.1281658
103	0xbde6fd02	-0.11278726
104	0x3d7d8b72	0.061900564
105	0xbe027ebf	-0.12743662
106	0x3d31c1bf	0.04339766
107	0xbc99e548	-0.018786088
108	0xbd12a0f7	-0.03579804
109	0xbc8624bb	-0.016374936
110	0xbe1f62bf	-0.15565012
111	0x3df6c26f	0.12048804
112	0xbdb5c1ad	-0.08874831
113	0x3daece69	0.08535463
114	0x3d85b707	0.0652905
115	0x3d957c35	0.07299081
116	0xbe010fca	-0.1260368
117	0x3e4874c1	0.19575788
118	0xbce4c49b	-0.02792578
119	0x3dba2d19	0.09090633
120	0x3d02a1df	0.031892654
121	0xbdc0ac51	-0.09407867
122	0xbd451d62	-0.048123725
123	0xbc57c87b	-0.013170357
124	0x3d7dc89c	0.061958894
125	0xbdb2f13c	-0.08737418
126	0xbd2c0d6f	-0.042005
127	0x3dea0513	0.11426749
128	0xbe1aa4f1	-0.15101983
129	0x3d5150f6	0.0511026
130	0xbde833ad	-0.113379814
131	0x3d591217	0.052995767
132	0x3d4474a6	0.047962807
133	0x3cab8448	0.0209371
134	0xbdde58cf	-0.10856783
135	0x3d95db9c	0.07317278
136	0x3e20c6b4	0.15700799
137	0x3b7771b6	0.0037756986
138	0x3de02cc0	0.109460354
139	0x3cf79d58	0.030226395
140	0x3e0dfbda	0.13865605
141	0x3d30769f	0.043081876
142	0x3da743d9	0.08167238
143	0xbd1bfdbb	-0.038083773
144	0x3d22cad4	0.039744213
145	0x3d95979f	0.0730431
146	0x3d939353	0.07205834
147	0x3c9dfd29	0.019285755
148	0xbd72caeb	-0.05927555
149	0x3d335456	0.0437816
150	0xbe0ca859	-0.13736095
151	0x3beeef87	0.0072917375
152	0x3d72aa02	0.059244163
153	0xbdce1e7a	-0.10064407
154	0xbe060b0b	-0.1309015
155	0xbdb52c53	-0.08846345
156	0xbe1368b8	-0.14395416
157	0x3d36d839	0.0446398
158	0xbd42dabb	-0.04757188
159	0x3daa63e2	0.083198324
160	0xbd5f92a7	-0.054583218
161	0x3dc526c6	0.09626536
162	0xbcacca69	-0.02109261
163	0x3dbbf2e1	0.09177185
164	0xbd4529fc	-0.048135743
165	0xbbcae4e0	-0.006191835
166	0x3d669681	0.056295875
167	0xbdf127e6	-0.11775188
168	0x3dcf10f5	0.10110656
169	0xbcd62b58	-0.026143715
170	0xbdcbedc6	-0.09957461
171	0xbccab6b4	-0.024745323
172	0x3c2a0d8f	0.010379209
173	0x3dc674cc	0.09690246
174	0xbdcefb00	-0.10106468
175	0xbdf582b9	-0.11987824
176	0x3dd007be	0.10157727
177	0x3e2c6eb0	0.16839099
178	0xbd75a0b5	-0.059967715
179	0x3d81b7d8	0.063338935
180	0xbbcc3c98	-0.0062328093
181	0x3e3e6bae	0.18595764
182	0xbd2441dc	-0.04010187
183	0xbe37e837	-0.17959677
184	0x3c14139c	0.009037878
185	0x3aa739fe	0.0012758372
186	0xbe2160e4	-0.15759617
187	0xbe0ffd46	-0.1406146
188	0x3da4b017	0.08041399
189	0x3e02f155	0.12787373
190	0xbdc8ce57	-0.09804981
191	0xbd80011c	-0.062502116
192	0xbd3f3bc1	-0.046687845
193	0x3cf56fea	0.029960591
194	0x3d3c6ef2	0.046004243
195	0xbe499a36	-0.19687733
196	0x3baaa171	0.0052072336
197	0x3d2c05c3	0.041997682
198	0x3db6d378	0.08927053
199	0x3d3b4413	0.045719218
200	0x3d825917	0.06364649
201	0xbc3dc8af	-0.011583491
202	0x3e69cd98	0.22832334
203	0xbe06d395	-0.1316665
204	0x3df4fead	0.11962638
205	0x3d30b90b	0.04314522
206	0xbb1f47a1	-0.0024304169
207	0x3dc3a9f5	0.09553901
208	0xbd6bfc5d	-0.05761372
209	0x3b702762	0.0036644568
210	0x3d4f2f17	0.050582018
211	0x3cc981cb	0.024598023
212	0x3e807971	0.25092652
213	0x3e444836	0.19168171
214	0xbca56cea	-0.020193536
215	0x3da470e4	0.08029345
216	0x3d9ea2e0	0.0774591
217	0xbd9442f6	-0.07239334
218	0x3dee97c1	0.116500385
219	0xbdc971e0	-0.09836173
220	0x3dcb66fd	0.09931753
221	0x3dcdff6e	0.10058485
222	0x3e101a72	0.14072588
223	0x3d1c60d3	0.038178276
224	0xbd9db6d0	-0.07700884
225	0x3e44705a	0.19183484
226	0x3da32fb7	0.07968085
227	0x3db2898b	0.087176405
228	0x3dc299cf	0.09501993
229	0x3e1bbf81	0.15209772
230	0xbd4761b3	-0.048677158
231	0x3d88fee6	0.06689243
232	0x3d25a0eb	0.040436666
233	0x3e13d552	0.14436844
234	0x3e024b00	0.12723923
235	0x3df512fe	0.11966513
236	0xbd98b616	-0.07456605
237	0xbddd8220	-0.10815835
238	0xbd7e4771	-0.06207985
239	0x3d2ee17f	0.04269552
240	0x3df80cd6	0.12111823
241	0x3bc5f59d	0.0060412423
242	0xbe38c616	-0.18044314
243	0x3da38666	0.07984619
244	0xbda6849b	-0.08130761
245	0xbda5955f	-0.08085131
246	0xbdd89ae6	-0.105764195
247	0x3d25e996	0.040505968
248	0x3e31e220	0.17371416
249	0xbdd7cf61	-0.10537601
250	0xbdc805ef	-0.09766757
251	0xbd985ad3	-0.07439198
252	0x3d0a9f9a	0.033843614
253	0xbe01f2a0	-0.1269021
254	0xbcfe1001	-0.03101349
255	0xbce25c6e	-0.027631965

network_body._body_endoder.seq_layers.2.bias f4 [128]
0	0xbc09d8f2	-0.00841354
1	0x3d27a681	0.040930275
2	0x3bfec730	0.00777521
3	0x3d1414c4	0.036152616
4	0x3d570d4e	0.052502923
5	0x3caf04d5	0.021364609
6	0x3c537277	0.0129057085
7	0x3bfeea28	0.0077793784
8	0x3d56d301	0.052447323
9	0x3d1a4d48	0.037671357
10	0x3d4c70b7	0.04991218
11	0x3ca6223b	0.020279994
12	0x3d8b3fc9	0.067992754
13	0x3d4a309b	0.04936276
14	0xbad9d689	-0.0016619723
15	0xbba4c0fd	-0.005027889
16	0x3d111f36	0.035430156
17	0x3d390fee	0.045181207
18	0x3ce08ed6	0.02741186
19	0x3c0e9390	0.008702174
20	0x3c2ac886	0.010423785
21	0x3cad497a	0.0211532
22	0x3d3176ec	0.043326303
23	0x3d02181b	0.03176127
24	0x3cae43de	0.021272596
25	0x3d7ef74c	0.06224756
26	0x3c831b21	0.016004147
27	0xbadbff5a	-0.0016784475
28	0x3c468d92	0.012118714
29	0x3d2bc981	0.041940216
30	0x3d2bbcdf	0.04192817
31	0x3c5f3542	0.0136235375
32	0x3cd08f41	0.025458934
33	0x3ca0a131	0.019608112
34	0x3b03b6c1	0.0020097943
35	0x3c29bfb9	0.010360652
36	0x380ef89b	3.408697e-05
37	0x3d0559f8	0.032556504
38	0x3d3a60b8	0.045502394
39	0x3d261b0e	0.040553145
40	0x3d592201	0.053010944
41	0x3c3a07ff	0.0113544455
42	0x3d45d581	0.048299316
43	0xbbcedba4	-0.0063128043
44	0xbbb1e75b	-0.005429191
45	0xbbfcb31d	-0.0077117817
46	0xb9624c70	-0.00021581515
47	0x3d5eb48f	0.054371413
48	0xbb810e62	-0.003938482
49	0x3ced5a85	0.028973827
50	0x3bc54f67	0.0060214284
51	0x3cf19344	0.029489167
52	0xbc509e85	-0.0127331065
53	0x3d251bf4	0.04030986
54	0x3d39490c	0.04523568
55	0xbc3b5c42	-0.01143557
56	0x3d11140a	0.0354195
57	0x3cbb5aa5	0.022870371
58	0x3d115b0a	0.035487212
59	0xbb703578	-0.0036652964
60	0x3cd70ead	0.026252115
61	0x3d49a69d	0.04923116
62	0x3cf2184b	0.0295526
63	0x3c173941	0.009229959
64	0xbbcf4d54	-0.006326357
65	0x3cf965fb	0.030444136
66	0x3d79a835	0.06095143
67	0x3ccfec65	0.025381276
68	0x3d38d729	0.045127068
69	0x3d1914e2	0.03737343
70	0x3cfe4fa5	0.031043837
71	0x3cba673c	0.022754304
72	0x3be228eb	0.0069018505
73	0x3b918dc1	0.004441947
74	0x3ca45084	0.020057924
75	0x3d64b87a	0.055839993
76	0x3cafcb43	0.021459227
77	0xbba755cb	-0.005106663
78	0x3cb1f6a9	0.021724062
79	0x3c11578c	0.00887097
80	0x3c8761c3	0.016526109
81	0x3c15f9a5	0.009153758
82	0x3d3719a7	0.0447022
83	0x3c73d8e1	0.014883251
84	0x3d637aeb	0.055537146
85	0x3cbaf2ca	0.022820849
86	0x3cee8f69	0.029121118
87	0xbbd422c5	-0.0064738714
88	0x3ca212e2	0.019784395
89	0x3cc7bf41	0.02438319
90	0x3d0ad92a	0.03389851
91	0x3c6aadbd	0.014323649
92	0x3d106043	0.035248052
93	0xbb4e4e63	-0.0031479828
94	0x3c040b01	0.008059264
95	0xba903779	-0.001100286
96	0xba93e551	-0.0011283552
97	0x3b3a351b	0.0028413
98	0x3d2209ca	0.039560117
99	0x3ca51b53	0.02015463
100	0x3d099e89	0.033598457
101	0x3d439e15	0.04775818
102	0xb98f8e3e	-0.00027381064
103	0x3cb146b6	0.021640163
104	0x3bcfa10a	0.006336336
105	0x3d1c4ab9	0.0381572
106	0x3b260ca8	0.0025337134
107	0x3c9ea051	0.019363554
108	0x3c588367	0.0132149225
109	0x3c4a930b	0.012364159
110	0x3d490dda	0.049085476
111	0x3d0264e4	0.031834498
112	0xb99ad07c	-0.00029528502
113	0xbb823803	-0.0039739623
114	0x3c430940	0.011904061
115	0x3c1341a0	0.008987814
116	0x3c20bbc4	0.009810392
117	0x3c85688a	0.0162852
118	0x3c7d1f62	0.015449377
119	0x3ca3f975	0.020016411
120	0x3d1a29e6	0.037637614
121	0xba47177e	-0.0007594748
122	0x3ca6720d	0.020318056
123	0x3c47508a	0.012165198
124	0x3d43dbb8	0.047816962
125	0xbbc2d878	-0.0059462152
126	0x3d5d2dc6	0.05399873
127	0x3cd1bf83	0.025604015

action_model._discrete_distribution.branches.0.weight f4 [9, 128]
0	0x3c821d7d	0.015883202
1	0x3d6b95fd	0.057516087
2	0xb9862a5e	-0.00025590038
3	0x3d2f7626	0.042837285
4	0xbd1a18b7	-0.037621226
5	0x3ae3c9c2	0.0017378854
6	0x3cca303b	0.024681201
7	0x3c58af34	0.013225365
8	0xbcd2ac63	-0.025716966
9	0xbcf7772e	-0.030208196
10	0xbd831e38	-0.06402248
11	0xbc9a5141	-0.018837573
12	0x3cdce684	0.026965387
13	0xbaed1a27	-0.0018089459
14	0x3bca85c7	0.0061804983
15	0xbb7d0a0f	-0.0038610732
16	0x3d3cd606	0.046102546
17	0xbd307f59	-0.0430902
18	0x3ce02126	0.027359556
19	0x3abf22a5	0.0014582468
20	0x3ba8a560	0.0051466674
21	0x3ca10bd9	0.01965897
22	0xbcd537f3	-0.026027655
23	0xbb11c996	-0.0022245399
24	0x3d06dc79	0.032925103
25	0xbc769fef	-0.01505278
26	0xbb41c564	-0.0029567117
27	0x3c2a25cc	0.010384988
28	0x3cb4e044	0.022079594
29	0xbc2d3b84	-0.010573272
30	0xbc62197b	-0.01380002
31	0x3c44602f	0.011985823
32	0xbcdeffc7	-0.027221574
33	0x3d273304	0.040820137
34	0x3bf698b3	0.0075255274
35	0x3b68f29e	0.0035545002
36	0x3b639a06	0.0034729256
37	0x3cdf5481	0.027261974
38	0xbc9b3190	-0.018944532
39	0x3cd804d6	0.026369493
40	0x3cfc7fb6	0.030822616
41	0xbc161e41	-0.0091624865
42	0xbc1d917b	-0.009617205
43	0xbca8e287	-0.02061583
44	0xbba6c368	-0.005089212
45	0x3bc3482e	0.005959532
46	0x3be09ea4	0.006854849
47	0xbbce2ce8	-0.0062919743
48	0x3c71a831	0.014749573
49	0x3c108eba	0.008823091
50	0x3ca6fb00	0.020383358
51	0x3b659783	0.0035032935
52	0xbae876a3	-0.0017735552
53	0x3d463241	0.04838777
54	0xbc87c8cf	-0.016575245
55	0xbc6b650e	-0.014367355
56	0xbc803bf0	-0.01565358
57	0x3d03b969	0.032159243
58	0x3b2c1ee4	0.002626353
59	0xbade4714	-0.0016958439
60	0x3cb69d3f	0.022291778
61	0xbbbb335a	-0.0057129087
62	0xbcf02407	-0.029314054
63	0x3cb9e201	0.022690775
64	0x3b510c20	0.0031898096
65	0x3c222f5d	0.009898988
66	0x3d87fa62	0.066395536
67	0x3cdad566	0.026713084
68	0xbc305080	-0.01076138
69	0xbc705ef7	-0.014671079
70	0x3ca3a6ed	0.019977057
71	0xbd1878b2	-0.03722448
72	0xbbdfeabe	-0.0068334034
73	0x3c410ed7	0.011783323
74	0x39e3dcf7	0.00043461446
75	0x3c8d61cf	0.017258553
76	0x3c4899ec	0.012243729
77	0x3c218a7a	0.009859676
78	0xbceeba10	-0.029141456
79	0x3d01f5a4	0.0317284
80	0xbbf4ff4d	-0.0074767233
81	0x3cf9946e	0.030466285
82	0x3d19f152	0.037583657
83	0xbbdbb47b	-0.0067048646
84	0xbd3bd1ab	-0.04585425
85	0x3c9cf114	0.019157924
86	0xbbce5d83	-0.0062977686
87	0x3c8bae04	0.01705075
88	0xbc96d37c	-0.01841139
89	0x3c97c81c	0.018528037
90	0xbc3eac0a	-0.011637697
91	0x3b7cdff3	0.0038585633
92	0x3d57eaff	0.052714344
93	0xbc5cbeb6	-0.013473203
94	0xbc2a01db	-0.010376419
95	0x3ca08a47	0.019597186
96	0x3c61d69c	0.013784077
97	0xbb9a66f2	-0.004711979
98	0x3ca1cb76	0.019750338
99	0xbc12c515	-0.008958121
100	0x3d256631	0.04038066
101	0x3ba2c3f0	0.004967205
102	0x3c1b8586	0.009492284
103	0xbc65e41a	-0.014031434
104	0xbbd55939	-0.0065108803
105	0xbcc350a5	-0.023842165
106	0xbd13006e	-0.03588908
107	0x3ca98879	0.020694958
108	0x3d0c3578	0.03423068
109	0x3abe7310	0.0014530141
110	0x3c98b5cc	0.018641375
111	0xbc58a859	-0.013223731
112	0x3c2470b5	0.010036637
113	0xbc5b075a	-0.013368452
114	0x3c5c2653	0.013436872
115	0x3c95565a	0.018229652
116	0xbcb6f3ba	-0.022333015
117	0x3c2d4a71	0.01057683
118	0xbc4e38c0	-0.012586772
119	0xb997ce7b	-0.00028954804
120	0xbd5147e2	-0.051093943
121	0x3b86c197	0.004112433
122	0x3ba98be3	0.0051741465
123	0xbac33e35	-0.0014895858
124	0xbd17ca00	-0.037057877
125	0xbcae6080	-0.02128625
126	0xbce76ab3	-0.02824912
127	0xbc9dccf4	-0.019262768
128	0x3c398281	0.011322618
129	0x3c8d38ea	0.017239053
130	0xbc842627	-0.016131474
131	0x3d1d729b	0.038439374
132	0xbc903351	-0.017602595
133	0xbd0aa33c	-0.03384708
134	0xbce23952	-0.027615223
135	0x3963cb15	0.00021724061
136	0xbc2c59e2	-0.010519477
137	0xbc9c40ee	-0.01907393
138	0xbcb5294b	-0.022114417
139	0x3be96f7d	0.007123886
140	0xbcb5755d	-0.02215069
141	0xbd554e79	-0.05207679
142	0x3a30545d	0.00067264383
143	0x3b9e9a2b	0.0048401556
144	0x3c8fe17d	0.017563576
145	0xbc83473a	-0.016025174
146	0x3ce04240	0.02737534
147	0x3c8424af	0.016130773
148	0xba04507e	-0.00050473947
149	0x3cbcd6a2	0.023051564
150	0xbc33c950	-0.01097329
151	0xbd1646c9	-0.0366886
152	0x3cc672a4	0.024224587
153	0xbd2b5366	-0.04182758
154	0xbc2208cc	-0.009889793
155	0xbc4c0eee	-0.012454731
156	0xba1bf4ea	-0.0005949276
157	0x3b1cf113	0.0023947402
158	0xbd1a1d1e	-0.037625425
159	0x3c4433df	0.011975258
160	0xbbe7955d	-0.007067366
161	0xba98db60	-0.0011662059
162	0x3d1167b5	0.035499293
163	0xbb0acca7	-0.0021179111
164	0x3bfa2dc9	0.0076348525
165	0x3c241a0c	0.010015976
166	0xbbe9a5ca	-0.0071303593
167	0x3d3eae86	0.046553157
168	0xbc1b7890	-0.009489194
169	0xbba79c34	-0.0051150564
170	0x3ce93b44	0.028470643
171	0x3a38609a	0.0007033438
172	0x3c0cb3ec	0.008587819
173	0xbb8ecc8d	-0.0043578804
174	0xbb82dd6c	-0.0039936807
175	0x3b0b8e38	0.0021294486
176	0x3c3c9948	0.0115111545
177	0xbb274517	-0.0025523358
178	0x3c9f458f	0.019442348
179	0x3b88fa38	0.004180219
180	0xbc8809ca	-0.01660623
181	0x39f37447	0.00046435205
182	0xbc0073f6	-0.007840147
183	0x3aa65de8	0.0012692781
184	0xbd004906	-0.03131964
185	0x3d1cf460	0.03831899
186	0xbd1dbb4e	-0.038508706
187	0xbcfffab0	-0.031247467
188	0x3be7ee95	0.0070780017
189	0xbd434f2c	-0.047682926
190	0xbc224dcd	-0.009906244
191	0x3c6e836d	0.014557702
192	0x3cb1fe96	0.021727841
193	0xbd16d66c	-0.036825582
194	0x3c80dc1f	0.015729962
195	0x3c93a6fb	0.018023958
196	0x3c12bb93	0.008955854
197	0xbbb5ecab	-0.0055518947
198	0x3c19adb9	0.009379798
199	0xb98c2dcb	-0.00026737
200	0xbc39e50b	-0.011346112
201	0xbb8510c2	-0.0040608356
202	0x3d1123f9	0.035434697
203	0xbbbd8295	-0.005783389
204	0x3c5aae64	0.013347242
205	0xbc5ec410	-0.01359655
206	0xbc3e0ff5	-0.011600484
207	0x3cb5e7b6	0.022205215
208	0xbc566c04	-0.013087276
209	0x3c929046	0.01789106
210	0xbc30fa47	-0.010801858
211	0xbc996ee9	-0.018729644
212	0xbd1aa786	-0.03775742
213	0xbc1e9af1	-0.009680496
214	0xbbffa150	-0.0078012124
215	0xbbb061ae	-0.005382738
216	0xbcd5fd8e	-0.02612188
217	0x3b99d041	0.0046940153
218	0xbd09760b	-0.03355984
219	0x3c79a529	0.015237131
220	0xbbc02bc3	-0.005864592
221	0xbcb6d804	-0.022319801
222	0x3ba9c8ca	0.0051814066
223	0xb925451a	-0.00015761369
224	0x3c1b0a00	0.009462833
225	0x3ac75e35	0.0015210571
226	0x3d30e22a	0.043184437
227	0xbc17339b	-0.009228612
228	0xbc92537b	-0.017862072
229	0xbcbbfbef	-0.02294728
230	0xbb3a00e6	-0.0028381883
231	0xbc8b09c0	-0.016972423
232	0x3c8ba772	0.017047618
233	0xbcecb218	-0.028893515
234	0x3c5ccfe0	0.013477296
235	0xbbd200d2	-0.006408789
236	0xbbb721e0	-0.005588755
237	0x3a6e9baf	0.0009102178
238	0x3d4c4260	0.049867988
239	0xb7d298a3	-2.5105028e-05
240	0x3cd804c7	0.026369466
241	0x3afbb75f	0.0019204429
242	0x3bed0059	0.0072327075
243	0x3cd2f789	0.0257528
244	0xbc6badba	-0.014384681
245	0x3c7e858d	0.015534771
246	0xbccadf8d	-0.0247648
247	0x3b8f959a	0.0043818476
248	0xbc009b7e	-0.007849572
249	0xbba0a500	-0.004902482
250	0x3c4f69f2	0.012659537
251	0xbc01d21a	-0.007923627
252	0xbcda53dd	-0.026651317
253	0x3c3006ae	0.01074378
254	0xbd197b38	-0.037471026
255	0x3b7eca42	0.003887788

action_model._discrete_distribution.branches.0.bias f4 [9]
0	0x3b76a866	0.0037636994
1	0xbbab21b3	-0.005222523
2	0x3b2c5462	0.0026295413
3	0xbbcf669c	-0.0063293707
4	0xbc78c7d2	-0.01518436
5	0xbb48fba8	-0.0030667577
6	0x3bc711e4	0.006075131
7	0x39c43a10	0.00037427293
8	0x3c1574d1	0.0091220895
