Assets/Environment4/Brains/Env4Behavior2.onnx (onnx, 80415 bytes, 9 tensors)

discrete_act_size_vector f4 [1, 2]
0	0x40400000	3.0
1	0x40400000	3.0

network_body._body_endoder.seq_layers.0.weight f4 [128, 13]
0	0xbeca044a	-0.39456397
1	0xbe4885dc	-0.19582313
2	0x3bb610d0	0.0055562034
3	0x3e272246	0.16321668
4	0x3ea7aa33	0.3274704
5	0xbcfeb18d	-0.031090522
6	0x3ee7fb7b	0.45309052
7	0xbef718c9	-0.48261097
8	0x3c18e8e8	0.009332873
9	0xbea70a39	-0.32624987
10	0xbe915e11	-0.2839208
11	0xbdf22334	-0.11823121
12	0xbc872040	-0.01649487
13	0xbea481fb	-0.32130417
14	0xbe7f803a	-0.24951258
15	0xbe8205e5	-0.25395122
16	0x3e890320	0.26760197
17	0x3ecc2477	0.3987157
18	0xbdbdab0a	-0.09261139
19	0xbe64fd89	-0.22362341
20	0xbef525ac	-0.47880304
21	0x3cb10d12	0.021612678
22	0xbcd48a5b	-0.02594488
23	0xbe16c961	-0.14725257
24	0x3ec7d253	0.39027652
25	0xbebe223b	-0.3713549
26	0xbeaaa2c7	-0.33327314
27	0x3b90245a	0.0043988647
28	0xbe91ffa7	-0.2851536
29	0x3cf7a36e	0.030229297
30	0x3f3f7fcf	0.74804395
31	0xbed19fc0	-0.40942192
32	0xbca36bb8	-0.019948825
33	0xbd608f44	-0.05482413
34	0xbe768a4f	-0.24076198
35	0x3ec4c394	0.38430464
36	0x3e2b19e4	0.16709095
37	0xbeedcd9b	-0.46445927
38	0x3d3932a9	0.04521433
39	0xbdb58988	-0.08864123
40	0x3e1b02e3	0.1513782
41	0x3da6f6a5	0.081525125
42	0x3eb72492	0.35770088
43	0xbda6491d	-0.08119414
44	0xbe54ec15	-0.20793183
45	0x3d0b088e	0.033943705
46	0x3d20d3fc	0.039264664
47	0xbe564805	-0.20925911
48	0xbdc61c28	-0.09673339
49	0xbf2c7119	-0.67360073
50	0xbd6b03c8	-0.057376653
51	0xbe0eff05	-0.1396447
52	0x3dad2e56	0.084561035
53	0xbf109726	-0.56480634
54	0xbe26101a	-0.1621708
55	0x3eae7919	0.34076765
56	0xbca1ff11	-0.019774945
57	0xbe664879	-0.22488584
58	0xbcdfee78	-0.02733539
59	0xbea47b72	-0.3212543
60	0xbd23bafa	-0.039973237
61	0xbdf2595a	-0.11833449
62	0xbee18beb	-0.4405206
63	0x3e6026ab	0.2188975
64	0xbd841d27	-0.06450873
65	0xbea6c203	-0.32569894
66	0xbe46c328	-0.19410384
67	0xbe931287	-0.28725073
68	0x3f402296	0.75052774
69	0xbdfd5706	-0.12370114
70	0x3ddea5da	0.108714774
71	0xbf385fa2	-0.72020924
72	0xbeb55244	-0.35414326
73	0xbd53157f	-0.051534172
74	0x3e18021a	0.14844552
75	0x3e46ef06	0.19427118
76	0x3d4f7638	0.05064985
77	0x3e814098	0.25244594
78	0x3e19f21c	0.15033764
79	0x3ed40cfb	0.41416153
80	0xbd146b51	-0.036235157
81	0x3db0ab39	0.08626408
82	0x3d38d194	0.045121744
83	0x3e4c78a9	0.19967903
84	0xbbda9ffe	-0.0066719046
85	0xbb888b00	-0.0041669607
86	0x3ef32490	0.47488832
87	0xbe9ab863	-0.302188
88	0x3e9f60e4	0.3112861
89	0x3f039a12	0.5140697
90	0xbe7133b1	-0.23554875
91	0x3d964495	0.073373
92	0xbe0432d1	-0.1291001
93	0x3eccdc22	0.40011698
94	0xbf0d7da3	-0.5526983
95	0x3e4465e3	0.19179492
96	0x3e791840	0.24325657
97	0xbda63269	-0.08115084
98	0x3dbb9872	0.09159936
99	0xbeb3133c	-0.34975612
100	0x3ee53b57	0.44771835
101	0x3ebebdf2	0.37254292
102	0x3e92d192	0.28675514
103	0x3d970d3d	0.07375572
104	0x3e27932d	0.16364737
105	0x3c0e952f	0.00870256
106	0xbdb7bd23	-0.08971622
107	0x3e83a3bf	0.25710866
108	0xbcf0c9b6	-0.029393058
109	0xbe24b772	-0.16085604
110	0xbed708e9	-0.41998985
111	0xbe57c2b6	-0.2107037
112	0xbed2fdfe	-0.41209406
113	0x3c494ddf	0.012286632
114	0xbea9a88a	-0.33136398
115	0x3caa8a5f	0.020817934
116	0xbe1217bb	-0.14266865
117	0xbe0779d6	-0.1323007
118	0x3d4ecadc	0.05048643
119	0x3e199cfb	0.1500129
120	0xbe98d422	-0.29849344
121	0xbc0e95c7	-0.008702702
122	0xbe96ace4	-0.2942878
123	0x3eb7ca9c	0.35896766
124	0x3d44addd	0.04801737
125	0xbd99348b	-0.07480725
126	0x3d872e1a	0.0660059
127	0xbe3df246	-0.18549451
128	0x3eb53984	0.35395443
129	0xbe0b2371	-0.13587739
130	0xbe49ab10	-0.19694161
131	0xbe961c34	-0.29318392
132	0xbe84a4a7	-0.2590687
133	0xbf0d5b73	-0.55217665
134	0x3eadbc85	0.3393289
135	0xbe1ec972	-0.15506533
136	0x3edd0753	0.4316965
137	0xbe5a5ea1	-0.2132516
138	0x3f0efda1	0.55855757
139	0x3efcdc79	0.49386957
140	0x3f0765a8	0.5288949
141	0xbf27742c	-0.6541164
142	0x3ed6ec95	0.41977373
143	0x3e24fe06	0.16112527
144	0xbe735701	-0.23763658
145	0xbe355936	-0.17709813
146	0xbe01ac65	-0.1266342
147	0x3de6027f	0.11230945
148	0xbe55ba65	-0.20871885
149	0x3dfa11e5	0.12210444
150	0xbefa67c7	-0.489073
151	0xbe7e029e	-0.24805686
152	0x3e8154c7	0.25259992
153	0xbd36d862	-0.044639952
154	0x3eeab48c	0.4584087
155	0x3eb5e386	0.3552515
156	0x3dd01fbc	0.10162303
157	0xbe92f4bc	-0.28702343
158	0xbedaa0d2	-0.4270082
159	0x3e17c654	0.1482175
160	0xbe43e3dc	-0.1912989
161	0xbdbca92e	-0.09211956
162	0x3dd3766d	0.10325322
163	0x3e4b095a	0.19827786
164	0x3ef57cc9	0.47946766
165	0x3e8aac71	0.27084687
166	0xbd91e434	-0.071236044
167	0xbdd70c84	-0.10500434
168	0xbd228616	-0.039678656
169	0xbbb9de41	-0.0056722467
170	0xbf040a76	-0.5157846
171	0xbe864823	-0.2622691
172	0x3bb5a72d	0.0055436105
173	0xbcd1bfe0	-0.025604188
174	0xbd2d79e9	-0.04235259
175	0x3e1d7202	0.15375522
176	0xbece364c	-0.402758
177	0xbd1bf77f	-0.038077828
178	0xbe433abe	-0.19065377
179	0xbbdebd30	-0.0067974553
180	0x3e915ce6	0.28391188
181	0x3a497afd	0.0007685868
182	0x3f1206bd	0.5704153
183	0x3eaa0337	0.33205578
184	0x3e80f686	0.25188082
185	0xbe1eeeef	-0.15520833
186	0x3ef5bcde	0.47995657
187	0x3d10a0f5	0.03530975
188	0x3d239006	0.039932273
189	0xbd2a472d	-0.041571785
190	0x3dcf4b66	0.10121803
191	0xbea72b37	-0.32650158
192	0xbdd3596c	-0.1031979
193	0x3e61f16c	0.22064751
194	0x3e904fca	0.28185874
195	0xbdaa1c7b	-0.083062135
196	0xbe181187	-0.14850436
197	0xbe9d1c91	-0.30685857
198	0xbe1bda37	-0.15219961
199	0xbedcaf0d	-0.43102303
200	0xbdf0d30c	-0.11759004
201	0xbcf8abec	-0.030355416
202	0x3c608b24	0.013705049
203	0xbe4bbafb	-0.19895546
204	0xbe493f5f	-0.1965308
205	0xbce6eb1d	-0.028188283
206	0x3ecb6699	0.39726713
207	0x3e814c14	0.25253356
208	0x3e8a5dfa	0.27024823
209	0xbdec0e15	-0.115261234
210	0xbe5aedae	-0.2137973
211	0xbf13a0ca	-0.5766722
212	0x3e9e9c37	0.30978557
213	0x3ef90028	0.48632932
214	0xbca19274	-0.019723155
215	0x3e3b7178	0.18305004
216	0x3e1cfbbd	0.15330406
217	0xbe4b8031	-0.1987312
218	0xbe174318	-0.14771688
219	0xbe9bc881	-0.3042641
220	0x3e85f5f1	0.261642
221	0x3c9b1c02	0.018934254
222	0x3f26ba1f	0.6512775
223	0x3ec241a4	0.37940705
224	0xbe32b088	-0.17450154
225	0x3c936a43	0.017995005
226	0xbbbf1e7b	-0.005832491
227	0x3e1253fc	0.1428985
228	0x3e2c37aa	0.16818109
229	0x3e773961	0.24142982
230	0x3e09eceb	0.13469283
231	0x3e4f3e82	0.20238689
232	0xbd9f9090	-0.07791245
233	0x3eab461b	0.33451924
234	0x3e37daff	0.17954634
235	0xbe29fe26	-0.16600856
236	0xbdbbee2e	-0.091762885
237	0xbdbe2175	-0.09283725
238	0xbe680a0b	-0.22660081
239	0xbde972bf	-0.11398839
240	0x3eea6739	0.45781878
241	0x3e47bc50	0.1950543
242	0x3e335bd9	0.17515506
243	0x3e3ab9f3	0.18234996
244	0xbdc2b66d	-0.09507451
245	0x3ecb955b	0.39762387
246	0xbdb1f63a	-0.08689542
247	0xbc4f341e	-0.012646703
248	0xbe00318b	-0.12518899
249	0x3deed67c	0.116620034
250	0xbcc7b12f	-0.02437648
251	0x3e2e3d07	0.17015468
252	0x3dfb5d0e	0.12273608
253	0xbc347985	-0.011015301
254	0xbe9d3048	-0.30700898
255	0x3eca43ef	0.39504954

network_body._body_endoder.seq_layers.0.bias f4 [128]
0	0xbd08789b	-0.033318143
1	0x3d5e317d	0.054246414
2	0xba5f9513	-0.00085289887
3	0x3d0e2fda	0.034713604
4	0xbcdc5941	-0.026898028
5	0x3da159a3	0.07878425
6	0xbc76d0c0	-0.015064418
7	0x3cbf6682	0.02336431
8	0x3c47c635	0.012193252
9	0x3ce9afe5	0.028526256
10	0x3cdbf9c5	0.026852498
11	0x3bbe0472	0.0057988698
12	0xbd243c8e	-0.040096812
13	0x3d289856	0.041160904
14	0x3d7726c1	0.060339693
15	0x3c55c1ae	0.013046665
16	0x3d9412db	0.07230159
17	0x3ceafb85	0.028684387
18	0x3bbc021f	0.0057375575
19	0x3c426d58	0.01186689
20	0x3c72adb2	0.01481192
21	0x3caf84b8	0.02142559
22	0x3b8c3b87	0.004279557
23	0x3d012c06	0.031536125
24	0x3c7802c7	0.015137381
25	0x3c4f1608	0.01263953
26	0xbbca16bf	-0.0061672623
27	0x3d595076	0.05305525
28	0x3d1c6a70	0.038187444
29	0x3ca0ba82	0.019620184
30	0x3c19fc6d	0.009398562
31	0x3b8ce985	0.0043002986
32	0x3cf13a84	0.029446848
33	0xbcda4ec9	-0.026648896
34	0x3d955797	0.07292097
35	0x3d004599	0.031316373
36	0x3d8d96d3	0.06913533
37	0x3daab7d1	0.083358414
38	0xbc8f5377	-0.017495854
39	0x3d1e51cd	0.03865223
40	0x3d58d11f	0.05293381
41	0x3d8b1e9d	0.067929484
42	0x3d24310c	0.040085837
43	0xbbdb1f0c	-0.0066870507
44	0xbc257fc6	-0.010101264
45	0x3cddad46	0.027060162
46	0x3cc07d43	0.02349723
47	0x3cead7fa	0.028667439
48	0x3c4b2fa1	0.012401492
49	0x3cfc0df7	0.030768378
50	0x3c315782	0.010824086
51	0x39f99a0c	0.00047607755
52	0x3c9c84bd	0.019106263
53	0x3cc0117a	0.023445833
54	0x3d21397d	0.039361466
55	0x3ccb4efd	0.024817938
56	0x3cbc141a	0.022958804
57	0x3d7c46b4	0.061590865
58	0x3caa9e03	0.020827299
59	0x3bdb724d	0.0066969753
60	0x3b9919c6	0.004672262
61	0x3d5be6f3	0.053687047
62	0x3cd037f2	0.025417302
63	0x3cb4ee46	0.022086274
64	0x3d2c54f9	0.042073224
65	0x3d0179d6	0.031610332
66	0x3c816fa9	0.015800314
67	0x3d055fdb	0.032562118
68	0xbcfc66e3	-0.030810779
69	0x3d308919	0.043099497
70	0x3c9a5401	0.018838884
71	0x3c5b033d	0.013367471
72	0x3d473075	0.048630197
73	0x3d13598d	0.035974074
74	0x3d22c4c4	0.03973843
75	0x3ca9014a	0.020630497
76	0x3b90ed06	0.0044227866
77	0x3d770de4	0.06031598
78	0x3d5a7835	0.053337295
79	0xbcbb7610	-0.022883445
80	0x3c0cd17c	0.008594867
81	0x3d15d758	0.03658232
82	0x3d042967	0.032266047
83	0xbb5435ad	-0.0032380626
84	0x3d638a48	0.055551797
85	0x3d1bc4b4	0.038029388
86	0x3d307a7d	0.043085564
87	0x3d4bf911	0.049798075
88	0xbce8a135	-0.028397182
89	0x3b0832ee	0.002078231
90	0x3d3d0354	0.046145752
91	0x3d1955b4	0.03743525
92	0x3c7da6dd	0.015481678
93	0xbc28f9b4	-0.01031344
94	0x3d07326d	0.033007074
95	0x3d68f6e9	0.056876097
96	0xbc84f028	-0.016227797
97	0x3d23c9c6	0.039987348
98	0x3ce1ef01	0.027579786
99	0x3d118373	0.03552575
100	0x3cc380ac	0.023865066
101	0xbc560d6a	-0.013064722
102	0xbc974747	-0.018466605
103	0x3d1df353	0.03856213
104	0x3b9fc008	0.004875187
105	0xbc68f850	-0.014219359
106	0x3c27ea80	0.01024878
107	0x3d997027	0.074920945
108	0x3cf56896	0.029957097
109	0x3d04f980	0.032464504
110	0xbba4d34e	-0.0050300723
111	0x3c8dcfcf	0.017311005
112	0x3c23245c	0.009957399
113	0x3c661c49	0.01404483
114	0xbca8fd48	-0.020628586
115	0xbc381491	-0.011235372
116	0x3bcf872b	0.006333252
117	0x3d6e6e7f	0.058210846
118	0x3cb1a581	0.021685364
119	0x39cd617d	0.0003917328
120	0x3d019740	0.031638384
121	0x3ba2adcd	0.0049645663
122	0x3d3f3ce2	0.04668892
123	0x3d9efb19	0.07762737
124	0x3ce19159	0.027535127
125	0x3b10e1c7	0.002210723
126	0x3bf80010	0.007568367
127	0x3d125c0b	0.03573231

network_body._body_endoder.seq_layers.2.weight f4 [128, 128]
0	0xbdf5a772	-0.11994828
1	0x3da8b986	0.08238511
2	0xbcbf1788	-0.02332665
3	0x3e2438a0	0.16037226
4	0xbc9fd543	-0.01951087
5	0x3df4b2d0	0.11948168
6	0xbde0064f	-0.10938703
7	0xbe0221fd	-0.12708278
8	0xbd92c231	-0.07165945
9	0x3d56421f	0.05230915
10	0xbcfe8a60	-0.031071842
11	0xbdd2b39c	-0.10288164
12	0xbd40efb4	-0.0471036
13	0x3cf2c52c	0.029635035
14	0x3d1b70a1	0.03794921
15	0xbdbb125e	-0.09134363
16	0xbca21635	-0.01978598
17	0xbd8d9f6a	-0.069151714
18	0x3c38b933	0.011274624
19	0xbde8e1d9	-0.11371202
20	0x3d289278	0.04115531
21	0xbdec969d	-0.11552165
22	0x3bc489c1	0.005997867
23	0xbdd74cc7	-0.10512691
24	0xbcbe4760	-0.023227394
25	0xbdc15995	-0.094409145
26	0x3e428595	0.1899627
27	0xbd538711	-0.05164248
28	0x3ddb939f	0.10721516
29	0xbd8e38ad	-0.06944404
30	0x3da6eb9a	0.08150406
31	0x3e2815c0	0.16414547
32	0xbd409d0c	-0.04702477
33	0xbcdaeaa3	-0.026723212
34	0xbc9054a8	-0.017618492
35	0xbc02e37b	-0.007988806
36	0xbd90e0e9	-0.07074148
37	0x3d5ac439	0.05340979
38	0xbd46f8d0	-0.04857713
39	0xbd06daa4	-0.032923356
40	0xbd8c61b8	-0.06854576
41	0x3e3fea7e	0.18741795
42	0x3ddb9769	0.107222386
43	0xbc330058	-0.010925375
44	0x3be1210e	0.0068703955
45	0x3e511845	0.20419414
46	0xbd037823	-0.032096993
47	0x3d023f4d	0.03179865
48	0x3de3175d	0.110884406
49	0xbb90c119	-0.0044175503
50	0x3d94d09d	0.07266352
51	0x3cb80ac5	0.022466073
52	0x3dcb6d19	0.09932918
53	0x3e266056	0.16247687
54	0x3d51f401	0.05125809
55	0xbe4d0072	-0.20019701
56	0x3e1ca2e9	0.1529652
57	0x3dc9cba7	0.09853297
58	0x3d750371	0.059817735
59	0x3d007895	0.031364996
60	0xbda9a63e	-0.08283661
61	0x3d3b9d9d	0.04580461
62	0x3dcec297	0.10095709
63	0xbe3f0181	-0.18652917
64	0x3c899eab	0.016799292
65	0xbd92a5cb	-0.07160529
66	0xbd0f32f1	-0.03496069
67	0xbd13c0af	-0.03607243
68	0x3e0f5e78	0.1400088
69	0xbdfccf54	-0.12344232
70	0xbe283296	-0.16425547
71	0x3cd3be4a	0.025847573
72	0x3e3aa83f	0.18228243
73	0x3de20d38	0.110376775
74	0x3ceb3636	0.028712373
75	0x3d168e3c	0.03675674
76	0xbdb2c6b2	-0.087293044
77	0xbc9b9653	-0.018992579
78	0x3cb913d7	0.022592468
79	0x3dcf9c4f	0.101372354
80	0xbdaed82d	-0.08537326
81	0xbdd1b025	-0.10238675
82	0xbdbe0c6e	-0.092797145
83	0x3d3a1899	0.045433614
84	0x3d35c853	0.044380497
85	0x3daae8a7	0.08345156
86	0x3daf20f8	0.0855121
87	0x3cd470e9	0.025932746
88	0xbceae794	-0.028674878
89	0xbc779f80	-0.015113711
90	0x3dace1b4	0.08441487
91	0xbc82d85f	-0.015972314
92	0x3db81b02	0.08989526
93	0xbdc9349b	-0.09824487
94	0xba81645d	-0.000987183
95	0x3a60f09d	0.0008580776
96	0xbcc5b1ed	-0.024132693
97	0xbda915ab	-0.08256086
98	0x3db535fd	0.08848188
99	0x3d2a97a2	0.041648515
100	0xbac65837	-0.0015132491
101	0xbdae14b1	-0.0850004
102	0xbd7ed4ff	-0.062214848
103	0xbe3d11d3	-0.1846383
104	0xbd4b9eae	-0.049711876
105	0x3dea2e84	0.114346534
106	0xbd848dab	-0.064723335
107	0x3c0fff47	0.00878889
108	0xbd3a410d	-0.045472194
109	0x3cf07502	0.029352669
110	0xbc0d8034	-0.008636523
111	0xbe289834	-0.16464311
112	0x3c058c6b	0.008151154
113	0xbd36e8d9	-0.044655655
114	0xbd02d9fe	-0.031946175
115	0x3d3d2b21	0.04618371
116	0xbb52dc08	-0.0032174606
117	0x3e1cc6c7	0.15310203
118	0x3d131a07	0.035913493
119	0x3b164d68	0.0022934321
120	0x3d2729aa	0.04081122
121	0x3bb24291	0.0054400642
122	0xbd93ff44	-0.072264224
123	0xbc86753e	-0.016413327
124	0x3db06503	0.086130165
125	0xbc4d6294	-0.01253571
126	0xbe3a695b	-0.18204252
127	0x3e1a70a9	0.15082039
128	0x3c5bbe00	0.013411999
129	0xbd45c3cf	-0.04828244
130	0x3e3da80a	0.18521133
131	0xbe019584	-0.12654692
132	0xbcf9c832	-0.030490968
133	0x3ce46a93	0.02788285
134	0xbe105148	-0.14093506
135	0x3de5dacd	0.112233736
136	0x3a03c9da	0.00050273316
137	0xbdc22cbf	-0.09481191
138	0x3e32be0d	0.17455311
139	0x3db1a78f	0.086745374
140	0xbde9f451	-0.11423553
141	0x3e014e2a	0.12627473
142	0xbc979992	-0.018505845
143	0x3d994e15	0.07485596
144	0x3c3738b0	0.011182949
145	0x3cb193bc	0.02167689
146	0xbd05cb9d	-0.032664884
147	0x3d530167	0.05151501
148	0x3da7e7dc	0.081985205
149	0xbe1384c7	-0.1440612
150	0xbd22451e	-0.039616697
151	0x3dd31c01	0.10308076
152	0xbdf68fa3	-0.12039115
153	0x3c91e2ab	0.017808279
154	0xbd3d14a3	-0.04616226
155	0x3e0a3a90	0.13498902
156	0xbdedb370	-0.116064906
157	0xbdc876a1	-0.09788252
158	0x3e015673	0.12630634
159	0xbd1fafae	-0.0389859
160	0xbb8ec3b8	-0.0043568276
161	0x3d899a99	0.0671894
162	0x3e489a21	0.19590046
163	0xbd1b71a6	-0.03795018
164	0x3c74d69c	0.014943745
165	0x3cc5c366	0.024141025
166	0xbcc57cf1	-0.024107428
167	0xbdbdb9fd	-0.0926399
168	0x3d7a2aee	0.061076097
169	0xbcf312a3	-0.029671973
170	0xbdd5f79f	-0.104476206
171	0xbdab7ea7	-0.083737664
172	0x3d336de1	0.04380596
173	0xbce38b21	-0.027776303
174	0xbb4ca041	-0.0031223448
175	0x3dcc8c10	0.09987652
176	0x3ab0b27c	0.0013480927
177	0x3d736e95	0.05943163
178	0xbd65b7aa	-0.05608336
179	0x3b86e431	0.004116558
180	0x3e3d5f70	0.18493438
181	0x3d20f05c	0.039291725
182	0x3d47dc9b	0.04879437
183	0xbca1cf5e	-0.0197522
184	0x3dd2f97e	0.10301493
185	0x3da99b39	0.082815595
186	0x3d593755	0.053031284
187	0x3c6b9b4a	0.0143802855
188	0x3d465efe	0.048430435
189	0xbcfd6a0c	-0.030934356
190	0x3d002959	0.031289432
191	0xbbe8d193	-0.0071050613
192	0x3d229f24	0.03970255
193	0x3d7a0e0b	0.06104855
194	0xbdaf387a	-0.08555694
195	0x3cc9cf46	0.024634968
196	0xbdb02b57	-0.086020164
197	0xbd3eb61c	-0.04656039
198	0x3cae88b8	0.021305427
199	0x3c9e7d44	0.01934684
200	0xbcf3a33b	-0.02974092
201	0x3d808ff1	0.06277455
202	0x3e2faeaa	0.17156473
203	0x3df3d5df	0.11906027
204	0x3dffee36	0.12496607
205	0x3e04afb4	0.1295765
206	0xbc83045c	-0.01599329
207	0xbc677f40	-0.01412946
208	0xbd9467d9	-0.0724637
209	0xbe14c1b1	-0.14527012
210	0x3ce5bc9c	0.028044038
211	0xbdb61631	-0.088909514
212	0x3cf2c5b0	0.02963528
213	0x3c8dadf9	0.01729487
214	0xbe5e5990	-0.21713853
215	0xbe084819	-0.13308753
216	0xbd4bb009	-0.049728427
217	0xbcb62ea6	-0.02223904
218	0x3d858a13	0.06520476
219	0xbd3cf4d0	-0.04613191
220	0x3c7b8bf8	0.015353195
221	0x3d4c4ca9	0.049877796
222	0x3defeff4	0.11715689
223	0x3e0a59d7	0.13510834
224	0xbd4e4b04	-0.05036451
225	0x39cff83b	0.00039667063
226	0x3df49391	0.119422086
227	0x3da869c9	0.08223302
228	0xbd416420	-0.047214627
229	0x3de416d6	0.11137168
230	0xbde0050f	-0.10938465
231	0xbcd8d816	-0.026470225
232	0xbe150a3c	-0.14554685
233	0xbd93d2ef	-0.07217967
234	0xbd4f3db7	-0.050595965
235	0x3da9f899	0.08299369
236	0x3de48c4a	0.111595705
237	0x3df9274a	0.12165697
238	0xbd78f6d0	-0.060782254
239	0x3dc8682a	0.09785493
240	0xbe36346c	-0.17793435
241	0x3b04f6a9	0.0020288622
242	0x3d91400a	0.070922926
243	0x3dd1fa25	0.102527894
244	0x3d057c27	0.032589104
245	0x3c9c2249	0.019059317
246	0x3dcd7c6b	0.100334965
247	0x3c9a04b1	0.018801065
248	0xbc5c0182	-0.013428094
249	0x3df35230	0.118809104
250	0xbcab9375	-0.020944336
251	0x3df3b4d9	0.11899728
252	0x3c4b10be	0.012394128
253	0x3b3d3aaa	0.0028874078
254	0xbd36850a	-0.04456047
255	0xbd9468de	-0.07246564

network_body._body_endoder.seq_layers.2.bias f4 [128]
0	0x3cb9a9bf	0.022663949
1	0x3cb972c4	0.022637732
2	0x3b859251	0.00407628
3	0x3c10245c	0.008797731
4	0x3d46e356	0.04855665
5	0x3c827a91	0.015927585
6	0x3ae52718	0.0017482964
7	0x3ac8f6ce	0.0015332343
8	0x3b8225fe	0.003971814
9	0x3d015cb1	0.031582538
10	0x3c048ea9	0.008090653
11	0x39cb823f	0.00038816218
12	0x3bddd0f5	0.0067692944
13	0x3ce06cda	0.027395654
14	0x3ca3a4ae	0.019975986
15	0x3cd09ac4	0.025464423
16	0x3d004b8d	0.03132205
17	0x3c36ea7a	0.011164302
18	0xbc23c9b2	-0.009996818
19	0xbab97fa0	-0.0014152415
20	0x3d01b578	0.031667203
21	0x3c90c7d8	0.017673418
22	0x3c8e50c1	0.01737249
23	0x3cf2b925	0.0296293
24	0x3bc3c532	0.0059744352
25	0xbc9228ff	-0.017841814
26	0x3c9b72a1	0.018975558
27	0x3d7b9b29	0.06142727
28	0xbc9e947a	-0.019357909
29	0x3ca7cf11	0.02048448
30	0x3c8672a7	0.016412092
31	0x3d15d6f2	0.03658194
32	0x3cb5e917	0.022205872
33	0x3cf30ae6	0.029668283
34	0x3c0e0a60	0.008669466
35	0x3cdccae4	0.026952215
36	0x3d949f8d	0.072569944
37	0x3d09aa7c	0.033609852
38	0x3c0d4c8d	0.008624208
39	0x3c98d61d	0.018656785
40	0x3cdf020e	0.02722266
41	0x3d48258a	0.048863925
42	0x3cb1ce62	0.021704856
43	0x3d2c03d1	0.041995827
44	0x3ce90aa8	0.028447464
45	0x3d6655d6	0.056234203
46	0x3c101b1f	0.008795529
47	0x3c0c0d4c	0.008548092
48	0x3d67a1ac	0.056550667
49	0x3cfa466c	0.030551158
50	0x3cb8865e	0.022525009
51	0x3d1f251c	0.03885375
52	0x3c8e7489	0.017389553
53	0x3b71ffe2	0.00369262
54	0xbbf75ef7	-0.0075491625
55	0x3cf10ba7	0.029424502
56	0x3c0103c6	0.007874435
57	0x3d0e00f2	0.03466887
58	0xbcb54b01	-0.022130491
59	0x3ca1c301	0.019746305
60	0x3c81fe90	0.015868455
61	0x3ad7994f	0.0016448888
62	0x3c8413e0	0.016122758
63	0x3bb59408	0.0055413283
64	0x3d1942e2	0.0374173
65	0x3d1af46b	0.03783075
66	0x3cd86d3c	0.026419275
67	0x3ccd0645	0.025027404
68	0x3cfd8ba3	0.030950373
69	0x3d0c5922	0.03426469
70	0x3c9d1729	0.019176083
71	0x3ce9c082	0.028534178
72	0x3d1cc502	0.03827382
73	0x3c653fe0	0.01399228
74	0xbc00087b	-0.007814522
75	0x3c56b4e2	0.013104649
76	0x3cf6495b	0.030064275
77	0x3d1056e9	0.035239134
78	0x3d21f961	0.039544467
79	0x3c675cb7	0.014121226
80	0x3acb916a	0.0015531008
81	0xba87b53a	-0.0010353692
82	0x3cda09ef	0.026616065
83	0x3c8fd9ab	0.017559847
84	0x3c93f2f2	0.018060181
85	0x3d172015	0.03689583
86	0x3c614587	0.013749487
87	0x3cb50c57	0.02210061
88	0x3cf26be4	0.029592462
89	0x3cfcbc12	0.030851398
90	0x3ceb22c2	0.028703097
91	0x3c286fe5	0.010280584
92	0x3ca33172	0.019921038
93	0x3c5f5d12	0.01363303
94	0xba748957	-0.00093283266
95	0x3bc38a74	0.0059674326
96	0x3d454928	0.04816547
97	0x3d08bb01	0.033381466
98	0x3ce58d75	0.028021554
99	0x3d32ce9a	0.04365406
100	0x3caf0e82	0.021369223
101	0x3d01b533	0.031666946
102	0x3cc82c5f	0.02443522
103	0x3bae2172	0.0053140456
104	0x3d216890	0.03940636
105	0x3cdba4ec	0.02681204
106	0x3d1e9461	0.038715724
107	0x3bf68d99	0.007524204
108	0x3d25c860	0.040474296
109	0x3cfed9ef	0.031109778
110	0x3cafd0d4	0.021461882
111	0x3ce29f33	0.027663803
112	0x3d032e36	0.032026492
113	0x3bf96b15	0.007611642
114	0x3bd8aa06	0.0066120652
115	0x3ccdea89	0.02513625
116	0x3d035aea	0.032069124
117	0x3cddbb89	0.027066963
118	0x3c9babb6	0.019002777
119	0xbbecdb49	-0.0072282893
120	0x3d25e120	0.0404979
121	0x3c2d802d	0.0105896415
122	0x3ced10b6	0.028938632
123	0x3d6b81ad	0.057496715
124	0x3c5e0df1	0.013553129
125	0x3ca95898	0.020672128
126	0x3c8046bc	0.015658729
127	0x3cb563ca	0.02214231

action_model._discrete_distribution.branches.0.weight f4 [3, 128]
0	0xbcf14efc	-0.029456608
1	0x3c03c5a0	0.008042723
2	0x39ee4701	0.000454478
3	0xbd2d0814	-0.042244032
4	0xbb8504ea	-0.0040594237
5	0x3d06642e	0.032810383
6	0xbb90fb8e	-0.004424519
7	0x3cc26886	0.023731481
8	0xbd219124	-0.039445058
9	0xbbe8f6d0	-0.0071095005
10	0xbc2fac9a	-0.010722304
11	0x3c3fa3c9	0.011696764
12	0x3cc60adc	0.0241751
13	0x3c29216b	0.010322909
14	0x3a850659	0.0010148986
15	0xbb8b6e7f	-0.0042551155
16	0xba547b24	-0.00081055076
17	0x3c9e73e0	0.019342363
18	0x3b3522b7	0.00276391
19	0xbc994c36	-0.018713098
20	0xbc6643ed	-0.014054281
21	0x3cb9f314	0.022698916
22	0xbc5ee556	-0.013604483
23	0x3cd2174a	0.02564587
24	0xbbfd0273	-0.0077212392
25	0x3b96100e	0.0045795506
26	0x3b823da8	0.003974635
27	0x3c9da208	0.019242302
28	0xbc498ae4	-0.0123011805
29	0x3c0b1fbb	0.008491452
30	0x3d0c59c7	0.034265306
31	0xbd22b012	-0.039718695
32	0x3c489394	0.012242217
33	0xbc852494	-0.016252793
34	0x3cf42f00	0.029807568
35	0xbcc4a63c	-0.024005048
36	0xbd5e3290	-0.05424744
37	0xbd165722	-0.03670419
38	0x3c47f8b5	0.0122052925
39	0xbd0cbc0b	-0.03435902
40	0x3d3e6e5c	0.046491966
41	0x3d4c7297	0.04991397
42	0xbbe9257e	-0.007115065
43	0xbc56874d	-0.013093782
44	0x3cc28954	0.023747124
45	0x3d77c845	0.060493726
46	0xbc21f2f3	-0.009884584
47	0x3ce38bb9	0.027776586
48	0xbce200fa	-0.027588356
49	0xbcca4eb0	-0.024695724
50	0xbc886a99	-0.016652392
51	0x3d2f1a83	0.042749893
52	0x3cb8463a	0.022494424
53	0xbbfa5294	-0.0076392386
54	0xba9c2853	-0.0011913873
55	0x3c48fd3b	0.012267406
56	0x3c36a14d	0.011146856
57	0xbd5a738a	-0.053332843
58	0x39b11e82	0.000337828
59	0xbc76edec	-0.015071373
60	0xbc08ca9a	-0.008349085
61	0x3ca7e961	0.020497026
62	0x3bba0a92	0.0056775296
63	0x3c02545b	0.007954682
64	0x3d02bbc7	0.03191736
65	0xbb321d2f	-0.002717804
66	0x3c7c9580	0.015416503
67	0xbd30b86c	-0.04314463
68	0x3d3c064d	0.045904446
69	0xbc3df221	-0.011593373
70	0x3d04d7a5	0.032432217
71	0x3cb001f1	0.0214853
72	0x3d5f3a6b	0.05449907
73	0xbcc5c001	-0.024139406
74	0xbc27cdd6	-0.010241946
75	0xbc45f0c9	-0.012081333
76	0xbcd0ba37	-0.02547942
77	0xbc98f57f	-0.01867175
78	0xbd69e40f	-0.05710226
79	0x3c8f9246	0.017525803
80	0xbc9b5f3d	-0.018966312
81	0x3bd55ee5	0.0065115565
82	0x3cdac190	0.026703626
83	0x3cf9bd77	0.030485852
84	0xb98f537f	-0.00027337295
85	0x3cf7ee34	0.030264951
86	0xbce79462	-0.028268997
87	0x3c72872e	0.014802737
88	0xbd46e9d9	-0.04856286
89	0xbd2fba20	-0.042902112
90	0xbd269113	-0.040665697
91	0xbc91ae60	-0.017783344
92	0x3d0ab10b	0.033860248
93	0xbc2dfb3f	-0.010618984
94	0x3c2aeede	0.010432927
95	0x3c2a0b45	0.010378663
96	0xbd838989	-0.06422717
97	0x3d1e1b01	0.03859997
98	0x3d16bbb1	0.03680009
99	0xbd6454eb	-0.055745047
100	0x3d0f16aa	0.034933724
101	0xbd0b1c73	-0.03396268
102	0x3d362736	0.04447099
103	0xbccd9a4e	-0.025097992
104	0x3d62a64d	0.055334378
105	0x3b975d84	0.004619302
106	0xbd4e692a	-0.05039326
107	0x3ce002ed	0.027345145
108	0x3d26eb59	0.04075179
109	0xbd6c09f1	-0.05762667
110	0xbc3080ae	-0.010772867
111	0x3c3b4cbf	0.011431872
112	0x3d353ee8	0.044249445
113	0xbc085285	-0.008320455
114	0x3c12cf9c	0.008960631
115	0x3ba62c98	0.005071234
116	0x3cc8a752	0.024493847
117	0xbc054d30	-0.008136079
118	0x3c57a914	0.01316287
119	0x3c81613e	0.015793439
120	0xbcd695c2	-0.026194457
121	0x3c600691	0.013673441
122	0xbd5f961f	-0.054586526
123	0x3cb05c17	0.021528287
124	0x3c18c694	0.009324688
125	0x3d1780c5	0.03698804
126	0xba8011e1	-0.0009770953
127	0xbcacbe91	-0.021086963
128	0x39f66294	0.00046994223
129	0xbcd6a732	-0.026202772
130	0xbc48a36c	-0.012245994
131	0x3b8a874d	0.004227555
132	0xbcaf1da0	-0.021376431
133	0x3ba86ce1	0.0051399325
134	0xbcca2be4	-0.024679132
135	0x3a71bf0b	0.0009221888
136	0xba768bb4	-0.00094049727
137	0x3c06eb22	0.008234771
138	0xbb10e57b	-0.0022109437
139	0x3c03f287	0.0080534285
140	0xb9dcfb60	-0.0004214896
141	0xbc8a0599	-0.016848372
142	0xbc3ec520	-0.011643678
143	0x393bb538	0.00017901219
144	0x3c14e2a3	0.0090872375
145	0xbc45e7af	-0.012079163
146	0x3c01a113	0.007911938
147	0x3a650856	0.0008736899
148	0x3cb1d1d5	0.021706501
149	0x3a03f7ea	0.00050341955
150	0xbbe24b31	-0.006905936
151	0xbbff39f1	-0.0077888896
152	0xbc18b730	-0.009321019
153	0x3a907a2c	0.0011022738
154	0x3b19027d	0.002334743
155	0xbc940e0e	-0.018073108
156	0x3c3fe0f6	0.01171135
157	0xbc8d371f	-0.017238198
158	0xbb7c319c	-0.0038481718
159	0xbb5d70a2	-0.0033789058
160	0x3bdc2eb7	0.006719436
161	0x3a91af33	0.0011114836
162	0xbc23ff29	-0.010009565
163	0x3aeb08c1	0.0017931686
164	0xbc5c8fd3	-0.013462025
165	0xbc216206	-0.009850031
166	0xbc55eef4	-0.013057459
167	0xbbf05109	-0.007333879
168	0xbcc47f12	-0.023986373
169	0x3aa40dba	0.0012516298
170	0xbbeb327f	-0.0071776505
171	0xbc24e576	-0.010064473
172	0x3c820d6e	0.015875544
173	0xbc28ce1a	-0.010303045
174	0x3b4c6b85	0.0031192016
175	0xba5786c1	-0.0008221679
176	0xbbf05203	-0.0073339953
177	0xbbb6ca75	-0.005578334
178	0x3b70075e	0.0036625485
179	0xbbe3a160	-0.0069467276
180	0xbc0114d7	-0.007878504
181	0x3c82cce6	0.015966844
182	0xbaabb0f3	-0.0013099
183	0xbce78ab8	-0.028264388
184	0xbb9bf7fb	-0.004759786
185	0xbb82881d	-0.003983511
186	0x3c968dd8	0.018378183
187	0xbca85dd7	-0.020552559
188	0x3c058128	0.008148469
189	0x3c426f62	0.011867376
190	0xb95b92d4	-0.00020940165
191	0xbbe8734b	-0.007093822
192	0xbb99212c	-0.004673144
193	0xbc3443ea	-0.01100252
194	0xbbe75166	-0.007059264
195	0x3c05b87a	0.008161658
196	0x3b179eb5	0.0023135368
197	0xbc94496e	-0.01810142
198	0x3bc22758	0.0059251003
199	0xbc7ded09	-0.015498408
200	0xbc80b582	-0.01571155
201	0xbc6db6f9	-0.014508956
202	0xb9c03a9d	-0.00036664764
203	0xbc7a3ce7	-0.015273309
204	0x3c87ae63	0.016562646
205	0xbbad7814	-0.0052938554
206	0x3c6d64f5	0.014489402
207	0x3cf7060a	0.030154247
208	0x3a243fe7	0.00062656257
209	0xbb3a3940	-0.0028415471
210	0x39c6a581	0.00037888813
211	0xbc9d68ae	-0.019214954
212	0xbcd730e0	-0.026268423
213	0x3a432f3e	0.00074456993
214	0x3cc46548	0.023974076
215	0xbc1fb51e	-0.009747772
216	0xbc34c442	-0.01103312
217	0xbbbdc851	-0.005791702
218	0x3b9581db	0.004562599
219	0x3c3755ce	0.011189891
220	0xbc70ba74	-0.014692891
221	0x3bc5e567	0.00603931
222	0xbb890cf4	-0.0041824523
223	0xbb91d639	-0.004450586
224	0x3a4f8b59	0.0007917188
225	0xbca94269	-0.02066155
226	0x3a5a6624	0.000833126
227	0xbb122959	-0.0022302477
228	0xbc6e223e	-0.014534531
229	0xbb9db708	-0.004813079
230	0xbc590e69	-0.013248065
231	0xbb5f452d	-0.0034068332
232	0xb92e27dd	-0.00016608783
233	0xbca9a30f	-0.020707635
234	0x3c20ad34	0.00980692
235	0xbcd88d1b	-0.026434472
236	0xbc4b3271	-0.012402163
237	0xbbc0bd27	-0.0058819237
238	0xbc671d70	-0.01410614
239	0x3b050a49	0.002030032
240	0x3b23df46	0.0025004908
241	0xbaaa3db4	-0.001298836
242	0xbc38b79d	-0.011274246
243	0xbc2e812e	-0.010650916
244	0x3a8f7990	0.0010946263
245	0xbb30c480	-0.0026972592
246	0xbc4f040a	-0.01263524
247	0x3caa1f89	0.02076699
248	0xbb3e2292	-0.0029012305
249	0x3bb70637	0.0055854577
250	0xbc6c7712	-0.014432685
251	0xbaa34fe2	-0.001245972
252	0xbbf6c4b6	-0.007530774
253	0xbb413eb7	-0.0029486844
254	0xbc4fbde7	-0.012679554
255	0xbcde173e	-0.027110692

action_model._discrete_distribution.branches.0.bias f4 [3]
0	0x3c53da4c	0.012930464
1	0xbca007c2	-0.01953495
2	0x3c04a5ac	0.00809614

action_model._discrete_distribution.branches.1.weight f4 [3, 128]
0	0xbc579849	-0.013158866
1	0x3bb1fd9a	0.005431843
2	0xbac2674d	-0.0014831811
3	0xbbedb7c5	-0.007254573
4	0x3d7239b9	0.05913708
5	0x3d1aa347	0.03775337
6	0xbb76c48e	-0.0037653777
7	0xbc92f40e	-0.01793864
8	0x3c22d60c	0.009938728
9	0xbd6d6470	-0.057957113
10	0xbd1f6d5c	-0.038922653
11	0xbcb4eea4	-0.022086449
12	0xbc4267a9	-0.011865535
13	0xbd3e261e	-0.04642307
14	0x3d4fd641	0.050741438
15	0x3ce5e386	0.028062593
16	0x3d2d9e53	0.042387318
17	0xbcbab635	-0.022791961
18	0xbb41bfd7	-0.0029563808
19	0xbd115865	-0.03548469
20	0x3d25c617	0.040472116
21	0xbcaade8f	-0.020858077
22	0xbd045be0	-0.03231418
23	0x3d3ef87b	0.04662369
24	0x3c7e492d	0.015520376
25	0x3b12d796	0.0022406331
26	0x3cef7e85	0.029235134
27	0x3d862dd5	0.065517105
28	0xbc84880b	-0.016178152
29	0xbb12b7b5	-0.002238733
30	0xba855321	-0.0010171869
31	0x3cdb919d	0.026802832
32	0x3d06cd88	0.032910854
33	0x3c94fe19	0.01818757
34	0x3c1fabe6	0.009745574
35	0x3d09c0aa	0.033631004
36	0x3d43a216	0.047762
37	0x3d1fafff	0.038986202
38	0xbce17b8a	-0.027524728
39	0xb969fb82	-0.00022314306
40	0xbc00d2ee	-0.00786279
41	0xbc6a0f68	-0.0142859
42	0x3c8abc02	0.016935352
43	0x3b88d8eb	0.0041762493
44	0x3d472e6c	0.048628256
45	0x3c017c64	0.007903192
46	0xbca0d701	-0.019633772
47	0xbce02f0b	-0.027366182
48	0x3d64c998	0.055856317
49	0x3cb75141	0.022377612
50	0xbcf6f3af	-0.030145494
51	0xbc21d2fc	-0.009876963
52	0xbd104e6c	-0.03523104
53	0x3c609967	0.013708449
54	0xbc5b8a23	-0.013399634
55	0xbd08e691	-0.03342301
56	0x38a0c6af	7.666402e-05
57	0x3c1cfe44	0.009582106
58	0x3c40ea76	0.01177465
59	0xbd404d1f	-0.04694855
60	0xbd44f062	-0.04808081
61	0x3b9b475c	0.0047387313
62	0xbcc4162d	-0.023936355
63	0x3bbcc8f8	0.005761262
64	0xbd0b9d73	-0.034085702
65	0xbd110979	-0.035409424
66	0x39983d53	0.0002903739
67	0x3c807590	0.015681058
68	0x3b1d18e6	0.002397114
69	0xbd7bbc98	-0.061459154
70	0xbc16d590	-0.009206191
71	0x3d34b053	0.04411347
72	0x3d6053b0	0.05476731
73	0xbcbb5dd0	-0.022871882
74	0xbc6f0b9b	-0.014590169
75	0x3cebef73	0.028800702
76	0xbcaefaf2	-0.021359894
77	0xba150b1f	-0.0005685556
78	0x3ce2c0a8	0.027679756
79	0x3c9261dd	0.01786893
80	0xbd135513	-0.035969805
81	0x3c5fc1d9	0.013657057
82	0xbc99a962	-0.018757526
83	0x3c568275	0.013092627
84	0x3c2007b3	0.009767461
85	0x3d1d69b8	0.0384309
86	0xbc5cd451	-0.013478355
87	0x3be83dae	0.007087431
88	0x3c483083	0.012218597
89	0x3d2e6035	0.04257222
90	0xbcbda204	-0.023148544
91	0x3c54e329	0.012993612
92	0xbc8e63f0	-0.017381638
93	0xbce9fad8	-0.028561994
94	0x3c7f80fe	0.015594719
95	0xbc7f4c04	-0.015582088
96	0xbc8bdd1d	-0.017073208
97	0xbd212387	-0.039340522
98	0xbaa8d141	-0.0012879745
99	0x3c2f2394	0.010689635
100	0xbd0d6080	-0.034515858
101	0x3cdb6578	0.026781783
102	0xbbda6c19	-0.0066657183
103	0x3c06a341	0.008217634
104	0xbcbfa94a	-0.023396153
105	0xbcc86aaa	-0.024464924
106	0x3cdbdef4	0.02683971
107	0xbb9dce37	-0.0048158425
108	0x3cc0ebeb	0.023549994
109	0xbcad75d4	-0.021174349
110	0x3ced768c	0.028987192
111	0xbd322134	-0.043488696
112	0x3cdcbe04	0.026946075
113	0xb9fbff34	-0.00048064592
114	0xbb780422	-0.003784426
115	0x3cea0e48	0.028571263
116	0x3cddcb81	0.027074577
117	0x3cb3f7f8	0.021968827
118	0xbca52cf4	-0.020163037
119	0xbb35e0bb	-0.0027752358
120	0x3cd9747c	0.026544802
121	0x3c770ba2	0.015078457
122	0x3c314153	0.010818797
123	0xbd578272	-0.052614637
124	0xbd25eafd	-0.040507305
125	0xbcd60639	-0.026126014
126	0x3bfedc98	0.0077777617
127	0x3cff15f1	0.031138392
128	0x3c736b81	0.014857174
129	0xbaa2df97	-0.0012426254
130	0x3c08f25f	0.008358567
131	0x3c41ce5b	0.011828984
132	0xbb087905	-0.0020824086
133	0xb7d5764c	-2.5446665e-05
134	0x3c709fb0	0.01468651
135	0x3c2bda68	0.010489084
136	0xbada0e01	-0.0016636254
137	0xbd208f58	-0.039199203
138	0xbc4ebdc0	-0.012618482
139	0xbc1a7916	-0.009428283
140	0xbbe1527e	-0.006876289
141	0x3955dd22	0.00020395641
142	0xbc91c66f	-0.017794816
143	0xbbdf86e9	-0.0068215025
144	0xbbc50d08	-0.0060135163
145	0x3c55f223	0.013058218
146	0x3c81af1c	0.015830569
147	0xbb52c6a7	-0.0032161863
148	0xba2d74ab	-0.0006616811
149	0xbb5201f3	-0.003204462
150	0xbc08d4b3	-0.008351493
151	0xbb91e0bc	-0.0044518393
152	0x3b133a2e	0.0022465098
153	0x3c829779	0.015941368
154	0x3a277c17	0.0006389035
155	0xbc5cc3d8	-0.013474427
156	0x3c468217	0.012115977
157	0xbb07d8cc	-0.0020728586
158	0xbca6d676	-0.020365935
159	0x3bb87858	0.0056295805
160	0xbc9eb10f	-0.019371537
161	0xbb15681b	-0.0022797647
162	0x3c3050f1	0.010761485
163	0xbc8a14a9	-0.016855555
164	0x3a5901ad	0.0008278143
165	0x3cbe5161	0.023232164
166	0xbad697c1	-0.001637213
167	0x3c3a6818	0.011377357
168	0xbbb02ef0	-0.005376689
169	0xbb696deb	-0.0035618495
170	0xbc27814e	-0.0102237
171	0x3d1efe07	0.038816478
172	0x3bcc0f65	0.006227421
173	0x3bab6370	0.0052303597
174	0x3c6cd4c6	0.014455026
175	0x3c2b361e	0.010449914
176	0xbbb1e22b	-0.0054285727
177	0x3bf11e60	0.0073583573
178	0xbb99d546	-0.0046946136
179	0xbc10a4b0	-0.008828327
180	0xbba37423	-0.00498821
181	0xbcaf2866	-0.021381568
182	0x3c96963f	0.01838219
183	0xbabe7f70	-0.0014533829
184	0xbc3fc6ac	-0.011705082
185	0x3c75a7bd	0.014993605
186	0x3c3d0ab7	0.011538199
187	0xbc1e34e6	-0.009656167
188	0xbb849754	-0.00404636
189	0x3c15fafb	0.009154077
190	0xbc7b94b2	-0.015355276
191	0xbc81fe25	-0.015868256
192	0xba7b5d63	-0.0009588806
193	0xbcae1068	-0.021248057
194	0x3cbb5fc7	0.022872819
195	0x3c440e8f	0.011966362
196	0x3c033dd1	0.008010344
197	0xbbbfad16	-0.005849491
198	0x3c4e89f8	0.0126061365
199	0xbaad0603	-0.0013200644
200	0xbc021075	-0.007938494
201	0xbc391483	-0.011296394
202	0x3c366b94	0.011134047
203	0xbb0efd3b	-0.0021818418
204	0xbc4430f8	-0.011974566
205	0xbc27b3ff	-0.0102357855
206	0x3c543b01	0.012953521
207	0x3b1923db	0.0023367319
208	0x3b942781	0.004521311
209	0xbb988eb2	-0.0046556825
210	0xbcd14ad7	-0.025548382
211	0xbc11d8a7	-0.008901752
212	0x3bbcf2c0	0.0057662427
213	0xbc9f5f4c	-0.01945462
214	0xbbd97933	-0.0066367625
215	0xbb851096	-0.004060815
216	0x3a8b3e30	0.0010623392
217	0xbc026bab	-0.00796024
218	0x3cef4f0c	0.029212497
219	0xbbf03c60	-0.007331416
220	0x3a4803c0	0.00076299533
221	0xbc172387	-0.009224779
222	0x3c3f48a5	0.011675035
223	0x3c95b652	0.018275414
224	0x3c098637	0.008393816
225	0xbc937ca1	-0.018003764
226	0xbc12bd8e	-0.008956326
227	0x3abc5271	0.0014367831
228	0x3be4380d	0.0069646896
229	0x3c2c5dd8	0.010520421
230	0xbb9010ca	-0.0043965327
231	0xbc6cc2aa	-0.014450708
232	0xbb952c4e	-0.0045524007
233	0xbca8a6f6	-0.020587426
234	0xba7d2dbd	-0.00096579996
235	0x3b273d87	0.002551885
236	0x3b0e58a4	0.0021720314
237	0xbd08e3d0	-0.033420384
238	0xb99f31e5	-0.00030364018
239	0xbc4c7ea3	-0.012481364
240	0xbc12f906	-0.008970505
241	0x3a0f18f5	0.0005458736
242	0x3bbbe860	0.0057344884
243	0xbc1924c5	-0.009347145
244	0xbb331463	-0.0027325384
245	0xbaf0bc74	-0.001836671
246	0xbc10c53c	-0.008836087
247	0xbb014592	-0.0019725305
248	0xbba3f170	-0.005003147
249	0xbbf5b9af	-0.007498942
250	0xbc3a2344	-0.011360947
251	0xbcb8d563	-0.022562688
252	0x3bfe7001	0.0077648167
253	0x3905f948	0.00012776733
254	0xbb2e6c65	-0.00266149
255	0xbc37b2b9	-0.011212044

action_model._discrete_distribution.branches.1.bias f4 [3]
0	0x3b6bbfc8	0.0035972465
1	0xbc2d04f3	-0.010560262
2	0x3be59c2f	0.007007144
