Assets/Environment4/Brains/Env4Behavior.onnx (onnx, 80415 bytes, 9 tensors)

discrete_act_size_vector f4 [1, 2]
3.0 3.0
00000000: 0000 4040 0000 4040

network_body._body_endoder.seq_layers.0.weight f4 [128, 13]
0.07344688 -0.021152519 0.08591403 -0.058949918 0.15909965 0.13263722 -0.09789883 -0.4783264
-0.064431295 0.30015174 -0.18351592 -0.15927522 -0.32196665 0.15003511 0.05148254 0.28993174
-0.28667137 0.21875042 -0.2582761 -0.046743043 0.05201141 0.24750707 0.078415625 -0.3302512
0.25289255 0.5511113 -0.14454328 0.21381123 -0.018996518 -0.051138975 0.46975833 -0.5153178
0.203399 0.27208474 0.43095213 0.2439332 -0.1800327 0.14394186 0.18954137 0.29298365
-0.17681707 0.022562781 0.23375812 -0.21635237 0.1976652 0.21902548 0.35159478 0.15832755
-0.0034676597 -0.4011025 -0.2158526 0.1900068 -0.39537746 0.1518289 -0.11921648 0.31935772
0.07069191 0.52551436 0.05398288 0.033235364 -0.05446872 -0.48375735 0.16175334 0.16516466
0.30730304 -0.008699599 -0.041268483 -0.26109874 0.2209927 0.094933935 0.69913465 -0.26608664
-0.18412003 0.43543792 0.039259557 0.10088605 -0.10594737 0.30477142 -0.19257627 -0.056904547
0.4572021 0.0074120234 -0.048164185 -0.024864297 -0.12948225 -0.4687479 0.2769266 -0.5313034
-0.27221417 -0.15741858 -0.13016038 -0.12585658 -0.3591819 0.2919662 0.06600651 -0.14624771
0.44996014 0.5117647 0.06066799 -0.026292486 0.5638629 -0.24579722 0.051563907 0.13472418
-0.3076509 0.27063367 -0.44519848 0.16095775 -0.42438602 -0.15591393 0.28870848 -0.11901234
-0.14080691 -0.42497304 0.027856901 0.44286332 0.05677794 0.18577255 -0.05079093 -0.094338715
-0.41169688 0.78684723 0.56174153 0.17590341 -0.14435187 -0.08217654 0.44425 -0.09823608
-0.023142088 0.41202077 -0.030020457 -0.38261577 -0.14513907 0.786309 -0.10221946 -0.11742976
-0.4157527 0.2981813 -0.016378228 0.21988209 0.3684107 0.31400084 0.3029471 0.100543775
-0.16923666 -0.31074896 -0.24939531 0.044324562 0.39411017 -0.093941994 -0.31459382 0.3342828
0.07702015 0.37479487 -0.20853934 0.61054075 0.06318318 -0.04687899 0.3512538 -0.4747033
-0.7076285 -0.33712587 0.037313096 -0.49970633 0.15419163 0.061099347 0.52093315 0.12819688
0.47463268 0.109872095 0.23872575 0.17333677 -0.15326415 -0.08831329 -0.5597216 -0.12348909
-0.26440087 -0.45032108 0.26112118 0.09281145 0.09261636 0.39250374 0.053875796 -0.45256278
0.5685305 -0.3234571 0.12575705 -0.16275242 0.27001798 -0.117094316 0.11750456 -0.050581317
0.5555829 0.018778306 -0.19876604 0.3756612 -0.05075946 -0.1134674 0.042014513 0.20360085
0.40260637 -0.27276674 0.03748361 -0.15293482 0.5888786 0.28808433 0.2986235 0.36384997
0.005962489 0.007022752 0.18380551 -0.64586425 -0.15054363 -0.28942323 0.52694845 0.13630778
-0.023950083 -0.3140739 -0.12254285 -0.30284125 0.06687739 0.2164159 0.017211594 0.22117573
0.09837328 -0.026499184 0.027387947 -0.5357469 -0.2274913 0.02104074 0.40374687 -0.40292138
-0.19986485 0.057390932 -0.39946347 -0.08202875 -0.09322199 0.28195792 -0.0036918137 -0.4504383
0.030549144 0.07227986 0.18741699 -0.05147435 0.20364642 0.3695737 0.18782729 0.14365622
-0.27043253 -0.3248033 -0.2507079 -0.1611874 0.4955059 -0.4216017 0.24960683 0.07987596
00000000: 516b 963d 0c48 adbc b2f3 af3d 7875 71bd
00000010: 05eb 223e 0dd2 073e 2f7f c8bd 33e7 f4be
00000020: 8ef4 83bd 7dad 993e 99eb 3bbe 0b19 23be
00000030: d0d8 a4be cea2 193e 5bdf 523d ef71 943e
00000040: 97c6 92be 1c00 603e c43c 84be a275 3fbd
00000050: eb09 553d 7e72 7d3e 5f98 a03d af16 a9be
00000060: 227b 813e a115 0d3f 2703 14be 55f1 5a3e
00000070: 969e 9bbc 1a77 51bd 2a84 f03e deeb 03bf
00000080: d447 503e b14e 8b3e c2a5 dc3e a0c9 793e
00000090: 7e5a 38be 7f65 133e 2217 423e f401 963e
000000a0: 890f 35be 95d5 b83c 4a5e 6f3e 7a8b 5dbe
000000b0: bf68 4a3e 3748 603e 3b04 b43e 9e20 223e
000000c0: ad41 63bb 4f5d cdbe 7708 5dbe 2591 423e
000000d0: ea6e cabe 0979 1b3e c527 f4bd db82 a33e
000000e0: ecc6 903d 1c88 063f 271d 5d3d ce21 083d
000000f0: 981a 5fbd 0baf f7be aba2 253e ed20 293e
00000100: d356 9d3e c388 0ebc 2409 29bd bcae 85be
00000110: e94b 623e b96c c23d 7dfa 323f 823c 88be
00000120: f689 3cbe b8f1 de3e a1ce 203d 589d ce3d
00000130: effa d8bd 000b 9c3e b732 45be be14 69bd
00000140: 6516 ea3e 8fe0 f23b cf47 45bd 36b0 cbbc
00000150: ff96 04be baff efbe 53c9 8d3e 8003 08bf
00000160: a85f 8bbe 5632 21be c348 05be 8ce0 00be
00000170: b1e6 b7be 987c 953e 6c2e 873d f6c1 15be
00000180: 2d61 e63e 0303 033f 007f 783d 5763 d7bc
00000190: 5259 103f 44b2 7bbe ad34 533d 23f5 093e
000001a0: 6b84 9dbe 7f90 8a3e 0ef1 e3be 1cd2 243e
000001b0: 2049 d9be e7a7 1fbe 99d1 933e bebc f3bd
000001c0: b02f 10be 1196 d9be 2834 e43c fbbe e23e
000001d0: fc8f 683d 293b 3e3e 260a 50bd a834 c1bd
000001e0: efc9 d2be d26e 493f 4bce 0f3f 0620 343e
000001f0: fad0 13be 2c4c a8bd bc74 e33e ff2f c9bd
00000200: 7a94 bdbc 63f4 d23e 76ed f5bc 37e6 c3be
00000210: 569f 14be 8c4b 493f 7058 d1bd 047f f0bd
00000220: 8add d4be 38ab 983e a22b 86bc c528 613e
00000230: 54a0 bc3e b8c4 a03e e21b 9b3e e5e9 cd3d
00000240: 604c 2dbe 7d1a 9fbe 7c61 7fbe ac8d 353d
00000250: cfc8 c93e a964 c0bd 7112 a1be 1d27 ab3e
00000260: bebc 9d3d 1de5 bf3e 568b 55be 664c 1c3f
00000270: 2f66 813d 2f04 40bd 8ad7 b33e 500c f3be
00000280: 2427 35bf c39b acbe 9ed5 183d 82d9 ffbe
00000290: 69e4 1d3e 4f43 7a3d e05b 053f 0b46 033e
000002a0: 0e03 f33e 9f04 e13d 8674 743e 327f 313e
000002b0: 47f1 1cbe 99dd b4bd ea49 0fbf d9e7 fcbd
000002c0: 8d5f 87be 7c90 e6be adb1 853e ee13 be3d
000002d0: a5ad bd3d 40f6 c83e deac 5c3d 4fb6 e7be
000002e0: 378b 113f 2b9c a5be 75c6 003e 92a8 26be
000002f0: cc3f 8a3e 25cf efbd 3ba6 f03d 5b2e 4fbd
00000300: ae3a 0e3f f6d4 993c 5389 4bbe aa56 c03e
00000310: 27e9 4fbd 9961 e8bd 6917 2c3d be7c 503e
00000320: 6c22 ce3e 15a8 8bbe 6a88 193d f29a 1cbe
00000330: bfc0 163f ca7f 933e 2ee5 983e 8b4a ba3e
00000340: fc60 c33b 1d1f e63b 8337 3c3e 5c57 25bf
00000350: 1c28 1abe 482f 94be 18e6 063f 4494 0b3e
00000360: f732 c4bc 4bce a0be bff7 fabd 020e 9bbe
00000370: 03f7 883d 219c 5d3e 54ff 8c3c e47b 623e
00000380: ee77 c93d d114 d9bc b05c e03c b526 09bf
00000390: 7bf3 68be a15d ac3c e9b7 ce3e b64b cebe
000003a0: 5fa9 4cbe c112 6b3d 7a86 ccbe b0fe a7bd
000003b0: 2ceb bebd ca5c 903e 5bf2 71bb d99f e6be
000003c0: 3342 fa3c 7707 943d 3dea 3f3e c5d6 52bd
000003d0: b088 503e c438 bd3e cc55 403e 9e1a 133e
000003e0: 2276 8abe 9e4c a6be c95c 80be 4f0e 25be
000003f0: f3b2 fd3e 2edc d7be ef98 7f3e 0296 a33d

network_body._body_endoder.seq_layers.0.bias f4 [128]
0.03247053 0.03780177 0.033532716 -0.0075307665 0.06250118 -0.00478399 0.050959792 -0.018883022
0.027123204 0.076473795 0.07554559 0.046259336 0.07162472 0.035951976 0.07648409 0.021323675
0.06757941 0.032303855 0.052710533 0.06580284 0.024267644 0.034729302 0.039649047 0.03246936
0.02315301 0.069460794 0.048198316 0.06484375 0.04430253 0.0400577 0.03253298 0.008327328
0.004588153 0.04215668 0.05626785 0.07962618 0.046362303 0.05443106 0.04090202 0.053855594
0.03959299 0.004128165 0.03261812 0.029804207 0.08967758 0.06904353 0.045729745 0.09144075
0.046177376 0.012755699 0.010034683 0.08295 0.061549794 0.05885583 0.051817976 0.009616122
0.024920093 0.02136952 0.03934606 0.044877674 0.024420513 0.003746705 0.0262126 0.051406078
0.051412083 0.047863 0.07453801 0.074444376 0.06907078 0.06457843 -0.002010471 -0.05804035
0.08616005 0.013520762 0.03313408 0.08703338 0.04627681 0.045422994 0.030838752 0.04101885
-0.017247941 -0.001542774 0.09572868 0.01031652 0.018104116 0.092864364 0.007205056 0.09120526
0.048939493 0.038210843 -0.0070483 0.0847207 0.07843309 0.07755831 0.014084217 0.052133933
0.06707684 0.057423864 -0.0014824902 0.04344287 0.034499 0.004375301 0.029689856 0.0962159
0.0660655 -0.0011603876 0.06634193 0.0777099 0.106944665 -0.0033228544 0.06620638 0.04477557
0.046266623 0.04101412 0.012322013 0.08026714 0.040517624 0.06001577 -0.02239269 0.030372934
0.06933367 0.035751984 -0.017856551 0.01595809 0.04382967 -0.054233674 0.055493686 0.062593184
00000000: d2ff 043d 07d6 1a3d 9a59 093d a6c4 f6bb
00000010: 9e00 803d 04c3 9cbb 37bb 503d 91b0 9abc
00000020: 7b31 de3c 4b9e 9c3d a5b7 9a3d 6e7a 3d3d
00000030: fbaf 923d 6142 133d b1a3 9c3d fdae ae3c
00000040: 1367 8a3d 0c51 043d 00e7 573d a4c3 863d
00000050: f0cc c63c 5040 0e3d 0a67 223d 97fe 043d
00000060: 62ab bd3c 7641 8e3d 996b 453d cdcc 843d
00000070: 9276 353d 8b13 243d 4d41 053d 586f 083c
00000080: 3858 963b 7cac 2c3d 1e79 663d 0d13 a33d
00000090: 66e6 3d3d 1af3 5e3d e088 273d af97 5c3d
000000a0: 422c 223d 8f45 873b 949a 053d f427 f43c
000000b0: e1a8 b73d b266 8d3d 1d4f 3b3d 4a45 bb3d
000000c0: 7d24 3d3d 48fd 503c 8368 243c b1e1 a93d
000000d0: a31b 7c3d d012 713d 163f 543d f08c 1d3c
000000e0: 3925 cc3c 220f af3c 5629 213d a7d1 373d
000000f0: 870d c83c 478b 753b cebb d63c 2e8f 523d
00000100: 7a95 523d fe0b 443d 62a7 983d 4b76 983d
00000110: fb74 8d3d b241 843d 1bc2 03bb b8bb 6dbd
00000120: ae74 b03d 3086 5d3c 9ab7 073d 8f3e b23d
00000130: c18c 3d3d 760d 3a3d 8da1 fc3c 6203 283d
00000140: 8e4b 8dbc e836 caba 660d c43d 9f06 293c
00000150: 154f 943c ac2f be3d 6418 ec3b d3c9 ba3d
00000160: c774 483d f982 1c3d 6df5 e6bb 0c82 ad3d
00000170: 87a1 a03d e4d6 9e3d 7dc1 663c 648a 553d
00000180: 955f 893d 4935 6b3d 1e50 c2ba 27f1 313d
00000190: d34e 0d3d af5e 8f3b 2438 f33c d70c c53d
000001a0: 594d 873d 2618 98ba 47de 873d 5e26 9f3d
000001b0: ce05 db3d 3fc4 59bb 3697 873d 9766 373d
000001c0: 1282 3d3d 6cfe 273d 45e2 493c 1963 a43d
000001d0: cff5 253d 19d3 753d e070 b7bc a9d0 f83c
000001e0: d0fe 8d3d ac70 123d e747 92bc 8aba 823c
000001f0: bd86 333d 2124 5ebd 594d 633d db30 803d

network_body._body_endoder.seq_layers.2.weight f4 [128, 128]
-0.0021250602 0.08207976 -0.04081697 -0.01637515 -0.0421515 0.16336243 0.12862366 -0.017872283
-0.06291962 0.1822457 -0.10984889 0.044806194 0.016215699 -0.01980285 0.02804371 -0.023435825
-0.13632026 0.07889911 0.011602165 0.05028927 0.05257572 -0.08330436 -0.00866112 0.048068
-0.084776044 0.059558567 0.1357775 0.030925049 0.0938451 0.052416936 -0.03512693 -0.10691305
-0.09445043 -0.031854555 0.0684355 -0.1183772 0.05834654 -0.003603498 -0.029118486 -0.012941968
-0.05400079 0.03954159 0.043402843 0.067271106 -0.06742224 -0.19076301 0.024856852 -0.011447408
-0.12190627 0.0008199545 0.15416788 0.10142719 -0.039976895 -0.06275941 0.112995826 -0.0729757
-0.15244038 -0.20832191 0.034822267 3.5412028e-05 -0.05602696 0.010234332 0.067247614 -0.057013493
-0.06424741 -0.06954888 -0.16351488 0.037456654 -0.035332344 -0.082591675 -0.01677761 -0.06615664
0.14306168 0.09068658 -0.023527484 0.07775375 0.019861914 0.019980608 0.008468555 -0.0178349
-0.014444354 -0.058111865 0.05917818 0.046367913 -0.051753525 0.07117547 -0.13938612 0.013155079
-0.10092741 0.004025854 0.059524514 0.026903974 -0.031542327 0.17147914 -0.19485678 -0.027275028
-0.04338519 0.057649493 0.13122782 0.10546526 0.09512874 -0.059636094 0.030392755 0.070023015
-0.024340611 -0.017727267 -0.052629072 -0.01584989 -0.027678248 -0.13568322 -0.052196484 -0.14269653
-0.107473664 0.030651985 0.109230295 -0.09050831 -0.19363232 -0.255585 0.057844542 0.1744618
0.09100177 0.2242513 -0.08266077 -0.06802288 -0.04524256 -0.05534436 -0.018733794 0.1842705
0.13567796 0.050646733 0.07432296 0.056116402 -0.012101769 0.051003497 -0.006770644 0.063410245
-0.061609 -0.12385331 0.06274864 -0.0042117075 -0.014894062 -0.04240562 0.00955823 -0.12834118
-0.14474867 0.061289303 0.08665434 0.08960285 0.08916038 -0.118715435 0.016720545 -0.11046861
-0.02446088 0.12392105 0.13210557 -0.07838787 -0.00018584469 0.10155215 -0.059223697 0.032876447
0.12601514 0.08307961 0.052824963 -0.0030248738 -0.056203395 0.01583994 0.016350418 -0.011682456
-0.014756701 0.06046071 0.14251554 -0.06808828 -0.054739628 0.08562998 0.20894806 0.03515913
-0.07802658 -0.046699293 0.009598191 0.086354196 0.03516793 0.043546136 0.1311386 0.12330494
0.058794282 -0.08756539 0.028950522 -0.028758347 -0.14726141 0.083561234 -0.031062756 0.03883366
-0.029920826 -0.09221395 -0.0009266286 0.04360825 -0.031353865 0.14505312 0.05604779 0.07391079
0.13603188 0.23800269 -0.14168353 -0.084031634 -0.08549615 -0.22232167 0.0008137431 0.0202341
0.07391087 -0.026520967 -0.1478614 -0.09197362 0.034374 -0.07211492 0.078198105 -0.026253758
0.0524997 0.03366962 0.088661246 0.029047566 0.04561432 0.06574264 0.0018644646 0.069468774
0.142567 0.018742753 -0.032203667 -0.14258291 -0.14596476 0.071576945 0.019731324 0.09868456
-0.022341477 -0.079163454 -0.034967892 -0.10746094 0.046134394 -0.08841416 0.1121438 -0.063191496
-0.055016957 0.048907764 0.0038078674 0.18936296 4.521891e-05 0.06998277 0.17038274 -0.05941132
-0.100772716 -0.07127295 0.17571455 -0.058970775 -0.080893986 0.102795094 -0.10932569 0.094723046
00000000: 9844 0bbb 6f19 a83d b22f 27bd 2e25 86bc
00000010: 0da7 2cbd 7b48 273e ecb5 033e e568 92bc
00000020: 00dc 80bd 9e9e 3a3e 74f8 e0bd b386 373d
00000030: c9d6 843c 9639 a2bc ecbb e53c 7dfc bfbc
00000040: 8a97 0bbe db95 a13d 0217 3e3c 1ffc 4d3d
00000050: a359 573d 7a9b aabd 5fe7 0dbc f3e2 443d
00000060: 109f adbd aff3 733d 4209 0b3e 8756 fd3c
00000070: dc31 c03d 24b3 563d 41e1 0fbd 3bf5 dabd
00000080: 3a6f c1bd ec79 02bd e927 8c3d bf6f f2bd
00000090: c8fc 6e3d aa28 6cbb e489 eebc 8c0a 54bc
000000a0: ef2f 5dbd 5df6 213d 2ec7 313d 6fc5 893d
000000b0: ac14 8abd 6157 43be 99a0 cb3c e98d 3bbc
000000c0: ffa9 f9bd 37f2 563a 2fde 1d3e 0fb9 cf3d
000000d0: d0be 23bd 0188 80bd 5b6a e73d 4974 95bd
000000e0: 5519 1cbe 5752 55be cba1 0e3d 6087 1438
000000f0: 877c 65bd e6ad 273c 1eb9 893d fb86 69bd
00000100: 2594 83bd a56f 8ebd 7270 27be 266c 193d
00000110: a6b8 10bd d325 a9bd 3371 89bc 227d 87bd
00000120: c37e 123e e3b9 b93d b6bc c0bc 5c3d 9f3d
00000130: 74b5 a23c 5fae a33c b2bf 0a3c 7f1a 92bc
00000140: 03a8 6cbc b506 6ebd d264 723d 48ec 3d3d
00000150: 81fb 53bd 72c4 913d 3cbb 0ebe 6788 573c
00000160: 08b3 cebd 50eb 833b facf 733d b965 dc3c
00000170: 8732 01bd 3a98 2f3e 8988 47be e16f dfbc
00000180: abb4 31bd e021 6c3d 9660 063e 2cfe d73d
00000190: dbd2 c23d fa44 74bd 3afa f83c 3a68 8f3d
000001a0: f665 c7bc c638 91bc 9591 57bd a1d7 81bc
000001b0: 7ebd e2bc 8bf0 0abe fbcb 55bd 0a1f 12be
000001c0: 271b dcbd df19 fb3c 22b4 df3d 6c5c b9bd
000001d0: 8d47 46be 0adc 82be 66ee 6c3d 1da6 323e
000001e0: 235f ba3d 22a2 653e 0d4a a9bd 944f 8bbd
000001f0: 4350 39bd c5b0 62bd 9d77 99bc 68b1 3c3e
00000200: 2aef 0a3e f372 4f3d a336 983d 50da 653d
00000210: 8046 46bc 0be9 503d 47dc ddbb 3bdd 813d
00000220: b859 7cbd cea6 fdbd 5c82 803d 5d02 8abb
00000230: 3906 74bc 84b1 2dbd 1f9a 1c3c df6b 03be
00000240: ff38 14be 7e0a 7b3d d577 b13d b381 b73d
00000250: b899 b63d 1421 f3bd 86f9 883c 5e3d e2bd
00000260: 2f62 c8bc 52ca fd3d af46 073e d289 a0bd
00000270: 4edf 42b9 93fa cf3d 8c94 72bd 74a9 063d
00000280: 1d0a 013e a425 aa3d fd5e 583d f63c 46bb
00000290: 8835 66bd c3c2 813c 50f1 853c c667 3fbc
000002a0: 17c6 71bc a6a5 773d 98ef 113e de71 8bbd
000002b0: a936 60bd c55e af3d 7bf6 553e 0503 103d
000002c0: 66cc 9fbd c247 3fbd bb41 1d3c 78da b03d
000002d0: 3f0c 103d 6f5d 323d 3249 063e 4d87 fc3d
000002e0: 46d2 703d 7c55 b3bd a529 ed3c a096 ebbc
000002f0: b2cb 16be 2722 ab3d 5277 febc 0b10 1f3d
00000300: 851c f5bc abda bcbd fee8 72ba 909e 323d
00000310: e96c 00bd ce88 143e 5e92 653d 8a5e 973d
00000320: f14b 0b3e fab6 733e 7d15 11be c718 acbd
00000330: 9b18 afbd 4ba8 63be 6051 553a fcc1 a53c
00000340: 955e 973d 8042 d9bc fb68 17be aa5c bcbd
00000350: c0cb 0c3d fdb0 93bd 5426 a03d 1f12 d7bc
00000360: ed09 573d 28e9 093d 0794 b53d 29f5 ed3c
00000370: 15d6 3a3d 14a4 863d 0d61 f43a a545 8e3d
00000380: 15fd 113e 678a 993c fee7 03bd 4101 12be
00000390: c977 15be ef96 923d 96a3 a13c 211b ca3d
000003a0: 7905 b7bc 7320 a2bd 7e3a 0fbd 7b14 dcbd
000003b0: 6bf7 3c3d 7c12 b5bd a6ab e53d 8b6a 81bd
000003c0: 7659 61bd 8253 483d 6a8d 793b 5de8 413e
000003d0: 6fa9 3d38 2053 8f3d d078 2e3e 4959 73bd
000003e0: ed61 cebd 8df7 91bd 84ee 333e 578b 71bd
000003f0: bfab a5bd 3c86 d23d 26e6 dfbd 28fe c13d

network_body._body_endoder.seq_layers.2.bias f4 [128]
0.004612195 0.031422023 0.030153275 0.033606853 0.009302621 0.0089095365 0.019164639 0.016102541
0.023123285 0.04057507 0.021510957 0.056591835 0.023463719 0.009836207 0.04793449 0.04858577
0.03467793 0.020947086 -0.011499882 -0.0063149272 0.021524612 0.0632024 0.036904737 -0.006235475
0.040186156 0.040696774 0.07801774 0.044151265 0.043296378 0.07247584 0.03169066 0.072002605
-0.0035652313 0.02358068 0.028771305 0.053891987 0.018116094 0.051005445 0.06327911 0.041857973
0.035093322 0.04372334 -0.022850825 0.017827202 0.023315283 0.021006567 0.02516847 0.065963306
0.047086276 0.0381918 -0.0048104273 0.06521576 0.027013313 0.036668167 0.047698252 -0.014613718
-0.013283744 0.03118236 0.022331687 0.003536082 0.03667079 0.005438113 0.012888142 0.024708023
0.071896404 0.040747736 0.054040898 -0.02126258 0.037085548 0.06815879 0.02937071 0.018647527
0.050562035 0.051480055 0.06354963 0.04438322 0.03501103 0.031755157 0.044592466 0.00031468237
0.06820063 0.07694525 0.06140593 0.008795151 0.0010374933 -0.010493112 0.024816848 0.027508719
0.05839517 0.02362984 0.04080416 0.008770889 0.037576385 0.047458883 0.011997854 0.008863349
-0.014098878 0.053404342 0.017593924 0.05807342 0.04791309 0.026140517 0.023469301 0.057928268
0.03335028 0.014131099 0.051822033 0.025524557 0.006199884 0.01805603 0.0033740795 -0.010270182
0.044465408 0.020311326 0.021382675 0.05204158 0.03177435 0.052408807 0.05576809 0.046013452
-0.008763827 -0.0031673627 0.015544949 -0.013064857 0.035567705 0.054197762 0.019031558 0.015850116
00000000: e521 973b 61b4 003d 0004 f73c 57a7 093d
00000010: 056a 183c 4ef9 113c 29ff 9c3c 7ae9 833c
00000020: 0b6d bd3c 0b32 263d bf37 b03c d7cc 673d
00000030: fc36 c03c 0b28 213c f556 443d df01 473d
00000040: 720a 0e3d 3999 ab3c 006a 3cbc 73ed cebb
00000050: 6254 b03c 4370 813d 6c29 173d f552 ccbb
00000060: 3d9a 243d a9b1 263d c4c7 9f3d f5d7 343d
00000070: 8b57 313d 376e 943d 11ce 013d 1a76 933d
00000080: a8a6 69bb 452c c13c cdb1 eb3c d8bd 5c3d
00000090: 3468 943c 16eb 503d 7a98 813d 4473 2b3d
000000a0: 04be 0f3d 3f17 333d a731 bbbc 5a0a 923c
000000b0: b1ff be3c f715 ac3c 1b2e ce3c c517 873d
000000c0: 8add 403d 016f 1c3d caa0 9dbb d78f 853d
000000d0: 064b dd3c 5c31 163d 3e5f 433d 606e 6fbc
000000e0: 10a4 59bc 2672 ff3c f1f0 b63c 9dbd 673b
000000f0: 1c34 163d 3332 b23b c928 533c 7b68 ca3c
00000100: 6c3e 933d 19e7 263d fd59 5d3d dd2e aebc
00000110: 04e7 173d d696 8b3d d89a f03c b3c2 983c
00000120: 231a 4f3d c0dc 523d 4f26 823d 2ecb 353d
00000130: ba67 0f3d b211 023d 97a6 363d f4fb a439
00000140: c6ac 8b3d 7995 9d3d c984 7b3d 8919 103c
00000150: 80fc 873a 4deb 2bbc b44c cb3c f759 e13c
00000160: c62f 6f3d 5e93 c13c 4322 273d c6b3 0f3c
00000170: b2e9 193d 3f64 423d a692 443c 9537 113c
00000180: fbfe 66bc 83be 5a3d 2221 903c 65de 6d3d
00000190: 8440 443d a324 d63c b142 c03c 3146 6d3d
000001a0: 4e9a 083d 2086 673c 5743 543d e018 d13c
000001b0: 6628 cb3b 3dea 933c a91f 5d3b 4444 28bc
000001c0: 5c21 363d f063 a63c b82a af3c 8d29 553d
000001d0: d225 023d 9eaa 563d 156d 643d 9a78 3c3d
000001e0: 2896 0fbc 8793 4fbb 3eb0 7e3c fb0d 56bc
000001f0: 71af 113d 79fe 5d3d 12e8 9b3c 1ad8 813c

action_model._discrete_distribution.branches.0.weight f4 [3, 128]
0.038822778 -0.04397147 0.009154301 -0.037277613 0.014343137 0.03220896 -0.025057204 0.047019497
0.023502467 -0.04746445 0.030210998 -0.01247446 -0.022386447 -0.02474008 -0.037542574 0.022292992
0.013137665 0.020626545 0.0025079877 -0.009144026 0.026077576 -0.05082175 -0.054159388 -0.01260219
0.053938244 0.00424054 0.0097021125 0.052525602 -0.039967928 -0.049082257 0.030417372 -0.038235918
0.01981191 0.039106056 -0.047940157 0.013389281 0.042087145 0.0552235 0.015581724 0.062856704
0.026711449 0.001238926 0.009361474 0.010186752 0.024485825 -0.032975636 0.045461576 -0.025648845
0.049411472 0.0310358 -0.019502157 -0.072943926 -0.018681586 -0.004436317 -0.0198094 0.00040385048
0.007985814 0.005461238 -0.047580384 -0.00068232615 -0.027948156 -0.018238375 0.007251338 0.024390489
-0.041786615 0.057181552 0.06890693 0.013901333 0.048394073 -0.016443226 -0.012855302 -0.01931346
-0.063404515 -0.012187667 0.034473147 -0.03205064 0.045710795 0.019937431 0.053902183 -0.016483303
-0.03678529 -0.08165857 0.008957649 0.0032159064 0.007359463 -0.0114515 0.011772681 0.064382784
-0.08663333 0.02335642 0.0044314824 0.03216225 0.03776477 -0.016058803 0.017870443 0.021381939
0.006681833 0.028238071 -0.0045159874 -0.05664004 -0.027813753 -0.01666065 0.023530077 -0.044018243
-0.0085622445 0.014287532 -0.034996357 -0.021735186 0.0148196155 0.039734807 0.03576966 -0.02440818
0.068809405 -0.00012770244 0.024643298 -0.013930727 -0.01995099 -0.0140194185 -0.053375874 -0.023649642
-0.010165197 0.005989594 0.036585018 0.023996137 -0.040562604 0.053943742 -0.03955323 -0.00018488632
0.0065777213 0.001067587 0.0031815253 0.00032297682 -0.003401174 -0.008848267 0.0053977286 0.031356044
0.009562035 0.014260359 0.006823565 0.0075815255 -0.0061025345 0.024000647 -0.010547835 0.0056520966
0.010733614 -0.010247067 0.024918223 -0.0038693263 0.0006322668 -0.025483074 -0.019089092 0.016824463
-0.009121792 -0.0065954616 0.0014305084 0.0073218904 0.0048515857 -0.01718801 -0.00060771324 -0.022496993
-0.0042637405 -0.013390596 0.005067741 -0.022357663 0.022057671 -0.01177107 -0.016836748 0.028993268
-0.0048302193 0.004171674 0.03721867 0.004931105 0.0144305015 -0.00811069 -0.0017366122 -0.014168073
-0.010126833 -0.0060260296 0.025061382 0.009258602 0.0030255322 -0.0016301782 -0.0014634166 0.005326407
0.026709737 -0.014209593 -0.0058920574 0.0407886 -0.011425989 0.011320756 -0.015105422 0.0021385504
-0.0025260935 0.003928623 -0.0020982756 0.012529091 -0.02061164 -0.010466261 0.0126166055 -0.00040834263
-0.0132211065 0.0025231023 -0.0077639553 -0.0059365314 -0.0004152752 -0.0044716136 0.009195378 -0.007638129
-0.04344974 -0.010362776 -0.014957775 -0.013795486 -0.009876313 0.011796286 -0.0030062192 0.0042767865
0.008915605 0.00422125 -0.0010375942 0.0042452267 -0.012210021 -0.0068230727 7.870439e-05 0.00035943085
0.017964603 -0.018189298 -0.014587053 -0.006972434 -0.013466373 0.0034445322 -0.009813642 0.0024951196
-0.024915451 0.00471336 -0.017685354 -0.0011072479 -0.011679145 -0.017615607 -0.0025363541 0.026264297
-0.0077745323 -0.021090083 0.006344172 -0.01483002 0.0058669294 -0.015147593 -0.01971151 -0.0033487105
0.0022603585 0.0029488974 0.0060499473 -0.00073929405 -0.016801657 -0.007919016 -0.0015656649 -0.010815059
00000000: a204 1f3d 6e1b 34bd ecfb 153c 69b0 18bd
00000010: 7aff 6a3c 8bed 033d c444 cdbc 8497 403d
00000020: 3f88 c03c 156a 42bd 0e7d f73c ad61 4cbc
00000030: c863 b7bc b5ab cabc 3ec6 19bd cb9f b63c
00000040: 5c3f 573c 00f9 a83c 0d5d 243b d3d0 15bc
00000050: a4a0 d53c 782a 50bd 3cd6 5dbd 6a79 4ebc
00000060: 59ee 5c3d 3af4 8a3b 9cf5 1e3c 1625 573d
00000070: 69b5 23bd 7a0a 49bd da2d f93c 449d 1cbd
00000080: 964c a23c ac2d 203d e65c 44bd b75e 5b3c
00000090: 9263 2c3d 0932 623d 7d4a 7f3c 04bb 803d
000000a0: f8d1 da3c 7563 a23a de60 193c 56e6 263c
000000b0: 7f96 c83c 7611 07bd eb35 3a3d 871d d2bc
000000c0: af63 4a3d ca3e fe3c fdc2 9fbc a063 95bd
000000d0: 200a 99bc 865e 91bb 5347 a2bc e5bb d339
000000e0: eed6 023c 2ff4 b23b a6e3 42bd 22de 32ba
000000f0: 88f3 e4bc a568 95bc a29c ed3b 90ce c73c
00000100: 7128 2bbd 3437 6a3d 141f 8d3d 6bc2 633c
00000110: dd38 463d f2b3 86bc 0b9f 52bc 4337 9ebc
00000120: 3ada 81bd c8ae 47bc b733 0d3d 8847 03bd
00000130: 3e3b 3b3d d353 a33c 89c8 5c3d fe07 87bc
00000140: 2cac 16bd 9c3c a7bd 1ac3 123c f5c1 523b
00000150: a627 f13b 129f 3bbc 34e2 403c 1fdb 833d
00000160: d16c b1bd f755 bf3c f835 913b 90bc 033d
00000170: 3baf 1a3d c08d 83bc 0965 923c 2d29 af3c
00000180: 47f3 da3b 8753 e73c d9fa 93bb 63ff 67bd
00000190: abd9 e3bc ea7b 88bc 26c2 c03c 794c 34bd
000001a0: a848 0cbc 4116 6a3c 5758 0fbd fd0d b2bc
000001b0: f9cd 723c f7c0 223d 3583 123d aaf3 c7bc
000001c0: f2eb 8c3d dde7 05b9 bee0 c93c b43d 64bc
000001d0: 4270 a3bc b4b1 65bc a9a0 5abd e5bc c1bc
000001e0: ed8b 26bc 5b44 c43b 2cda 153d 8c93 c43c
000001f0: f924 26bd 1df4 5c3d 9102 22bd 0bde 41b9
00000200: ed89 d73b 47ee 8b3a 2381 503b 3755 a939
00000210: 3be6 5ebb 52f8 10bc 6edf b03b 326f 003d
00000220: 15aa 1c3c 48a4 693c 3698 df3b 726e f83b
00000230: c5f7 c7bb 019d c43c d4d0 2cbc 3935 b93b
00000240: 0adc 2f3c 50e3 27bc 4d21 cc3c 8694 7dbb
00000250: b5be 253a e1c1 d0bc ba60 9cbc 75d3 893c
00000260: 9273 15bc be1e d8bb e67f bb3a 78ec ef3b
00000270: 0dfa 9e3b dfcd 8cbc f24e 1fba 9d4b b8bc
00000280: d9b6 8bbb 3b64 5bbc 4b0f a63b 6b27 b7bc
00000290: 4ab2 b43c 72db 40bc 38ed 89bc 4a83 ed3c
000002a0: d146 9ebb 8ab2 883b 9b72 183d 1b95 a13b
000002b0: e96d 6c3c b3e2 04bc 099f e3ba 3521 68bc
000002c0: 04eb 25bc 0076 c5bb 874d cd3c 64b1 173c
000002d0: 0248 463b b4ab d5ba 1dd0 bfba 2489 ae3b
000002e0: 61ce da3c 5acf 68bc 2912 c1bb f211 273d
000002f0: 1234 3bbc b17a 393c bb7c 77bc ec26 0c3b
00000300: d18c 25bb aebb 803b 3983 09bb d146 4d3c
00000310: bed9 a8bc ae7a 2bbc e1b5 4e3c d216 d6b9
00000320: 579d 58bc a25a 253b c768 febb 3c87 c2bb
00000330: 4bb9 d9b9 9d86 92bb 36a8 163c 4549 fabb
00000340: 5bf8 31bd a2c8 29bc 7511 75bc 7606 62bc
00000350: 42d0 21bc 3645 413c fd03 45bb 4924 8c3b
00000360: c212 123c 6952 8a3b e2ff 87ba 8b1b 8b3b
00000370: 8a0c 48bc 1594 dfbb 190e a538 fe71 bc39
00000380: 812a 933c b901 95bc 89fe 6ebc 0479 e4bb
00000390: 10a2 5cbc a9bd 613b 66c9 20bc 2985 233b
000003a0: 7d1b ccbc 8872 9a3b e0e0 90bc 1321 91ba
000003b0: e259 3fbc 9b4e 90bc f638 26bb 3928 d73c
000003c0: 81c1 febb 1cc5 acbc c6e2 cf3b 9df9 72bc
000003d0: 5f3f c03b 9c2d 78bc 087a a1bc 0a76 5bbb
000003e0: 8622 143b 4a42 413b a33e c63b 2fcd 41ba
000003f0: a1a3 89bc c3be 01bc ff36 cdba a531 31bc

action_model._discrete_distribution.branches.0.bias f4 [3]
0.0011255866 -0.021210577 0.01899389
00000000: 6b88 933a cec1 adbc 1399 9b3c

action_model._discrete_distribution.branches.1.weight f4 [3, 128]
-0.018880269 -0.010616229 -0.023092423 0.04541326 0.010121008 -0.013275807 -0.027118498 -0.02861972
0.05029166 0.063747175 -0.046874385 -0.06929713 0.009103464 -0.029442742 0.06185928 -0.050331946
0.052484408 -0.031760935 -0.046304278 0.004381975 0.044494748 -0.032769404 0.025674557 0.009425937
-0.02626501 -0.040926874 -0.07322746 0.06327486 0.04674332 0.052507285 0.055621885 0.022433704
-0.0037974045 0.020610562 0.017126411 0.06900476 -0.023920078 0.054469705 0.060210247 0.026571661
0.014865217 0.058090925 -0.015599177 -0.027522633 -0.022129534 0.04748655 0.0037804113 -0.040624112
0.023400294 0.05693429 -0.0202837 0.0059852116 0.023100536 -0.03719539 -0.059283756 0.02685731
-0.0010579856 0.020221485 0.016321812 0.03273952 0.03392877 -0.017709116 0.024992257 0.030668058
-0.053934075 -0.017635094 0.04746824 -0.0042590355 0.03329725 -0.085074544 0.023458386 -0.018632725
0.017861204 0.061123077 -0.03839426 0.032767378 0.027468013 -0.044989537 -0.039252594 -0.015551748
0.019141736 -0.038258445 0.059105422 -0.009923249 0.011945031 0.009621629 -0.04091114 0.010558435
-0.044312786 -0.0017336127 0.061935306 -0.023999987 -0.017283147 -0.029819947 0.032911938 -0.020742876
0.020198673 0.05131322 0.0011897326 0.034380592 -0.006230384 -0.02688594 -0.013613709 0.025308223
-0.017960036 -0.012455752 0.013216828 -0.0065019233 -0.0028134969 0.017322391 -0.011151762 0.025471233
0.0111572845 0.042108808 -0.047909673 -0.04951849 0.016432978 -0.051731493 0.019496448 0.043363664
-0.022666108 0.022316149 0.013477608 -0.00203243 0.030802384 -0.02951981 0.011667635 -0.036896646
-0.023902664 -0.001185381 -0.02100978 0.0050022933 -0.0017834684 0.00092904165 -0.0014661477 -0.01099748
-0.0037820896 -0.012908998 -0.0057326877 -0.026226688 -0.0052436893 -0.0040448774 -0.0059935586 -0.014162943
-0.02563725 0.0029824274 0.031715598 0.013400964 -0.0067122043 -0.0100908745 -0.000587084 -0.014291797
0.022425408 -0.00561053 -0.023484945 -0.022292804 -0.038104337 -0.009663648 -0.018784016 -0.0075899535
-0.0036372654 -0.0034901996 0.019908791 -0.023664296 -0.004941154 -0.03128758 -0.005300479 -0.016700072
-0.025434928 -0.003483855 0.037954453 0.01293482 -0.007880884 -0.0013930167 0.011109897 -0.014486339
-0.0031962462 -0.007584021 0.026716486 0.012841761 -0.002401673 0.003909097 -0.01934562 0.0010947849
0.035820227 -0.0035819495 0.00287723 -0.002717154 -0.035727024 -0.0052005937 -0.014651469 0.01222935
-0.0134147145 0.0076413103 -0.026053302 0.0072875046 -0.012909577 -0.010107966 -0.004972628 -0.026108807
-0.0028757518 -0.0047665816 -0.02781986 -0.015213942 -0.001341978 -0.016933408 0.006241123 0.0036636395
-0.038346693 -0.005443879 0.0075197895 0.0088118985 0.010860702 0.017201705 -0.0012963403 -0.008017082
0.006331581 -0.016225696 -0.003058795 -0.018371962 0.000888685 -0.01187453 -0.015335126 0.0037719228
0.009225305 -0.017676039 -0.011894399 -0.0076386356 0.010030299 -0.0018007628 0.006688635 -0.0016889086
0.00091744546 -0.012463176 -0.012719325 -0.017269025 -0.012599082 0.0009094951 0.008241751 0.0105336895
-0.03869674 -0.012281908 -0.014060268 -0.019303069 -0.020598272 -0.01441078 -0.010319788 -0.0013445193
0.0040604654 -0.0009309478 -0.0019666841 0.0058643576 -0.008390541 -0.012445146 -0.007396182 -0.0009636023
00000000: cbaa 9abc b1ef 2dbc 522c bdbc 4103 3a3d
00000010: 96d2 253c c582 59bc 9d27 debc e773 eabc
00000020: a1fe 4d3d e18d 823d 5bff 3fbd a7eb 8dbd
00000030: b226 153c e831 f1bc 2860 7d3d df28 4ebd
00000040: e4f9 563d c117 02bd 8ea9 3dbd ac96 8f3b
00000050: 2040 363d 3639 06bd 7353 d23c 3f6f 1a3c
00000060: b829 d7bc f0a2 27bd 47f8 95bd 4096 813d
00000070: ec75 3f3d e111 573d c6d3 633d e3c6 b73c
00000080: e0dd 78bb 7bd7 a83c b04c 8c3c 5e52 8d3d
00000090: 0af4 c3bc a01b 5f3d 059f 763d d0ac d93c
000000a0: 3d8d 733c c0f0 6d3d b193 7fbc 2577 e1bc
000000b0: ff48 b5bc 4281 423d c7c0 773b 7865 26bd
000000c0: f9b1 bf3c ee33 693d 012a a6bc 981f c43b
000000d0: 563d bd3c 315a 18bd 86d3 72bd dd03 dc3c
000000e0: 1bac 8aba 87a7 a53c 52b5 853c e019 063d
000000f0: e5f8 0a3d b512 91bc 90bc cc3c 943b fb3c
00000100: fae9 5cbd 7977 90bc 0f6e 423d 618f 8bbb
00000110: b262 083d 903b aebd cd2b c03c a8a3 98bc
00000120: a951 923c 315c 7a3d 4d43 1dbd 1637 063d
00000130: 9904 e13c f346 38bd 54c7 20bd c2cc 7ebc
00000140: 21cf 9c3c e3b4 1cbd 8718 723d 1f95 22bc
00000150: 17b5 433c 09a4 1d3c 7192 27bd 49fd 2c3c
00000160: 5381 35bd 643a e3ba e0af 7d3d 9f9b c4bc
00000170: 6395 8dbc f648 f4bc abce 063d f7ec a9bc
00000180: b077 a53c d02d 523d cdf0 9b3a aad2 0c3d
00000190: 4028 ccbb e73f dcbc 090c 5fbc 3153 cf3c
000001a0: ed20 93bc 3613 4cbc 658b 583c 160e d5bb
000001b0: a562 38bb b0e7 8d3c e1b5 36bc 0ca9 d03c
000001c0: 0bcd 363c 497a 2c3d ef3c 44bd e6d3 4abd
000001d0: 749e 863c 67e4 53bd 04b7 9f3c 199e 313d
000001e0: 46ae b9bc 5bd0 b63c 2fd1 5c3c 8432 05bb
000001f0: 4855 fc3c 87d3 f1bc 9c29 3f3c f020 17bd
00000200: 85cf c3bc c95e 9bba b41c acbc 47ea a33b
00000210: 45c3 e9ba ee8a 733a c12b c0ba c62e 34bc
00000220: efdc 77bb 4380 53bc 45d9 bbbb 5ad9 d6bc
00000230: 41d3 abbb e48a 84bb 9d65 c4bb b00b 68bc
00000240: 3605 d2bc d474 433b 37e8 013d b88f 5b3c
00000250: 0df2 dbbb 3254 25bc 8ae6 19ba 2428 6abc
00000260: 7db5 b73c 89d8 b7bb 8063 c0bc 669f b6bc
00000270: 4b13 1cbd 4754 1ebc f0e0 99bc 25b5 f8bb
00000280: 305f 6ebb d5bb 64bb c317 a33c a0db c1bc
00000290: 67e9 a1bb 6827 00bd a4af adbb 97ce 88bc
000002a0: e95c d0bc 6351 64bb 2176 1b3d 91ec 533c
000002b0: d31e 01bc e295 b6ba 4906 363c 1c58 6dbc
000002c0: 1d78 51bb 6183 f8bb 88dc da3c 4066 523c
000002d0: 6365 1dbb e217 803b b57a 9ebc e37e 8f3a
000002e0: 3bb8 123d 24bf 6abb e98f 3c3b 4812 32bb
000002f0: 8056 12bd be69 aabb b70c 70bc 9d5d 483c
00000300: 64c9 5bbc f563 fa3b bc6d d5bc 05cc ee3b
00000310: b182 53bc e29b 25bc 6df1 a2bb 23e2 d5bc
00000320: 1c77 3cbb fc30 9cbb 7ae6 e3bc e643 79bc
00000330: 4fe5 afba eeb7 8abc 5682 cc3b ac19 703b
00000340: 6c11 1dbd 9162 b2bb 9168 f63b c85f 103c
00000350: 16f1 313c 97ea 8c3c f6e9 a9ba 145a 03bc
00000360: 2779 cf3b c0eb 84bc 1076 48bb cc80 96bc
00000370: a4f6 683a 648d 42bc 2e40 7bbc 5d32 773b
00000380: bc25 173c 57cd 90bc bae0 42bc 854d fabb
00000390: 2056 243c 9307 ecba 562c db3b 5e5e ddba
000003a0: b980 703a 5932 4cbc b764 50bc c577 8dbc
000003b0: 616c 4ebc 2f6b 6e3a 6908 073c 7f95 2c3c
000003c0: 7980 1ebd 0e3a 49bc 0a5d 66bc 7821 9ebc
000003d0: b5bd a8bc 311b 6cbc 5414 29bc 953a b0ba
000003e0: a70d 853b d90a 74ba 7ce3 00bb cc29 c03b
000003f0: 7b78 09bc bae6 4bbc ac5b f2bb 419a 7cba

action_model._discrete_distribution.branches.1.bias f4 [3]
0.010774758 -0.02802639 0.015228365
00000000: 9c88 303c 9a97 e5bc 6480 793c
