Assets/Env5/BrainsOld/MoveUp.onnx (onnx, 151894 bytes, 8 tensors)

network_body._body_endoder.seq_layers.0.weight f4 [128, 6]
000000 09 85 b4 be 81 e1 58 be 1e 2a db 3e d4 03 25 3f
       -0.35257748 -0.21179773 0.4280557 0.64458966
000010 32 99 4a 3e e1 54 47 bd 72 df 46 3f 7e a4 cf 3d
       0.19785002 -0.04866493 0.776847 0.10138796
000020 bc 23 0d bf 2a 39 ba 3d 26 9b a2 3d 42 ad fa 3d
       -0.5513265 0.090929344 0.079397485 0.122400776
000030 57 9f a1 be 04 62 28 3e fe 3e 58 3f 44 d6 24 3f
       -0.3156688 0.1644364 0.8447112 0.64389443
000040 6b 63 e1 3c 93 57 dc 3d 3c 7e 61 3e 34 c6 11 bf
       0.027513226 0.10758891 0.22020811 -0.5694306
000050 c0 cc 9b 3e 31 e2 5b be b9 30 b7 bd 51 70 1e bf
       0.3042965 -0.21473004 -0.0894484 -0.6189013
000060 fb 63 51 3d 65 b2 69 3f 6c 23 09 bf 98 ad 6e 3e
       0.05112074 0.91287833 -0.53569674 0.23308408
000070 f6 ee ab bd 83 83 2f 3f e5 f3 1b bf 62 fc 2f be
       -0.083951876 0.68560046 -0.6091903 -0.1718612
000080 2a c0 87 bd fc 09 20 bf cb 10 78 be 56 2d a5 be
       -0.06628449 -0.62515235 -0.24225156 -0.3226115
000090 81 08 2c be 7e 65 dc be f8 ea 47 3e 0b 91 ae 3e
       -0.16800119 -0.43046182 0.19523227 0.34095034
0000a0 76 be 11 bf 59 73 93 be f8 e5 a9 3d 18 7c e0 be
       -0.56931245 -0.2879894 0.08295816 -0.43844676
0000b0 c8 48 b3 3e f0 0e e4 be 64 15 37 3e a7 df f6 bc
       0.35016465 -0.44542646 0.17879254 -0.030135943
0000c0 6f ec 2f bf 71 bb d0 be 1b 92 16 be 6a 6c 2b 3f
       -0.68720144 -0.40768006 -0.14704172 0.669623
0000d0 03 d3 67 be b4 87 d7 3e 20 67 53 bf 02 03 c1 3e
       -0.22639088 0.4209572 -0.8257923 0.37697607
0000e0 02 17 29 bd 95 4f 87 3e af 13 11 bd ee 07 dc be
       -0.041281708 0.26427904 -0.035419162 -0.429748
0000f0 5f 78 20 3f 08 3a 3d be 71 a7 4b 3e f6 e1 8a 3e
       0.6268367 -0.18479168 0.19888093 0.2712552
000100 54 fa d7 bd d9 1c fc 3d e2 67 30 3f e5 23 83 3f
       -0.10545793 0.1231019 0.6890851 1.0245329
000110 03 f4 20 3c 29 c9 6a 3d 86 87 b0 3e 40 98 81 3e
       0.009823802 0.057320748 0.34478396 0.2531147
000120 f9 05 b4 3a 19 1c 1c 3f c3 b2 db 3d 98 e1 65 be
       0.001373469 0.60980374 0.107274555 -0.22449338
000130 65 d9 a7 3e 89 be 88 be af 8f 92 bd 3b e8 5a be
       0.32783046 -0.26707867 -0.07156312 -0.21377651
000140 09 ca 2d be 7e fd fb be 5c 6f e5 be 04 97 c4 3d
       -0.16971602 -0.49216837 -0.44811523 0.095991164
000150 95 c1 b4 be 11 4e d7 3e db 88 61 bf 9d 3f 09 bf
       -0.3530394 0.42051747 -0.8809945 -0.5361269
000160 db 16 cd bd 3a b8 43 be 5c 5a 51 3e be ea be ba
       -0.10014125 -0.19113246 0.20444626 -0.0014565808
000170 58 9f 22 3e fb 2d a5 be 44 6d 33 3f 47 73 b0 be
       0.15881097 -0.32261643 0.700886 -0.3446295
000180 07 96 3a 3d cf 08 69 be 43 17 df 3e 7c 82 01 3f
       0.045553233 -0.22757266 0.43572435 0.5058973
000190 49 8c ff be ea 37 2d be 5a 3b ee be df e3 e8 3e
       -0.49911717 -0.16915861 -0.46529657 0.45486352
0001a0 82 f9 e6 3e 0e 6d 99 bd b9 18 8f bd 38 fc b0 be
       0.45112234 -0.07491504 -0.06987137 -0.34567428
0001b0 3c fb af 3d b7 82 db bd ea c4 95 3e a3 96 c5 3d
       0.08592841 -0.10718291 0.29251796 0.09647872
0001c0 9a b9 e4 3d f3 8e d0 be 37 cf 00 3f 04 c1 75 be
       0.11168213 -0.40734062 0.50316185 -0.23999411
0001d0 b5 a6 2c bf be 88 70 3e 7b 64 93 3e 5b ce 8f 3d
       -0.67441875 0.23489663 0.28787598 0.07021781
0001e0 66 fa d8 3d 46 99 0e bf 50 ca 97 3d 6d 29 ba 3e
       0.10594635 -0.55702627 0.07411635 0.3635973
0001f0 c9 79 ab be 94 ba a4 be e9 75 20 3c eb a9 7d 3d
       -0.33491352 -0.32173598 0.009793737 0.061929625
000200 13 93 a9 3e 80 f3 29 bf c8 5e 72 3e 96 d7 27 3f
       0.3312002 -0.66387177 0.23668969 0.65563333
000210 19 b5 05 3d ea 85 b1 be 1b 41 af be f6 45 24 bf
       0.03264341 -0.3467248 -0.3422936 -0.6416925
000220 76 ea 3e 3e 31 fc 1a bc 85 62 e4 bc ef 0e fe 3c
       0.18644127 -0.009459541 -0.027879009 0.03101298
000230 c2 09 96 bf 18 f1 c1 3d 3e cf 03 3f 3f f2 25 be
       -1.1721728 0.09469813 0.514881 -0.16205691
000240 ff 33 64 bf a1 b7 1d bf eb 8c 1c 3f 6c b9 ed bd
       -0.8914184 -0.6160832 0.61152524 -0.11607632
000250 5e 55 34 3d aa 04 b2 3d 72 5a d0 3b 52 6f f7 3e
       0.044026725 0.08692296 0.006358438 0.48327118
000260 59 d5 ab be 17 50 2d be e5 55 b5 3e 04 90 e7 be
       -0.3356121 -0.16925083 0.35417095 -0.45227063
000270 01 c5 63 be 07 a3 6d 3e a2 e7 0f be 6d c5 f1 be
       -0.2224312 0.23206721 -0.14053205 -0.47220936
000280 52 ba 0c 3f b3 7c 29 3f e2 50 6d bf 19 21 10 3f
       0.549718 0.662059 -0.9270154 0.56300503
000290 6f b9 98 3e 90 09 c3 3e 4c a3 72 bf e2 78 40 bd
       0.29828975 0.38093233 -0.9478042 -0.046990283
0002a0 08 22 35 3c de 64 0e 3f 4b a8 09 3d 00 7a a5 be
       0.011055477 0.5562266 0.033607762 -0.3231964
0002b0 12 52 03 3e 5c 80 ce be 25 ef 0e 3f f1 4e 1d bf
       0.12824276 -0.40332305 0.55833656 -0.6144858
0002c0 66 09 e5 bd 89 51 fe 3d d4 0d 60 be d2 e5 ac be
       -0.11183433 0.12417895 -0.21880275 -0.3376909
0002d0 be 36 67 3f de 8a d7 be 32 24 22 bf 41 88 40 3e
       0.90317905 -0.42098135 -0.6333648 0.18801977
0002e0 1d ef b6 be 42 aa 42 3d cf a7 47 3f 82 40 18 bf
       -0.35729304 0.04752565 0.7799043 -0.5947343
0002f0 cb 32 96 3e 96 64 00 bf f2 8e 0a bf f3 89 22 be
       0.29335627 -0.5015348 -0.5412437 -0.15872936
000300 53 83 c2 be f2 50 e4 be 09 fe 71 3e 2c 85 22 3e
       -0.37990817 -0.44593006 0.23632063 0.15871114
000310 12 0d 6e bf f5 62 92 bd 2b 4e 7b 3c 57 03 2a be
       -0.92988694 -0.07147781 0.015338461 -0.16602837
000320 72 8a 0d bf 34 c3 0b bd f5 c9 3e 3e 6a a2 02 3e
       -0.55289376 -0.034121707 0.18631728 0.12757269
000330 c8 25 ad 3e 07 b6 10 be 87 03 bb be f4 65 01 3e
       0.33817887 -0.14131938 -0.3652613 0.12636548
000340 42 67 5a 3f fd 36 53 be 98 ac 0d bf fb 5e c0 be
       0.8531381 -0.20626445 -0.5534148 -0.37572464
000350 3b 6b ba bb 7f 7f 09 3d cb 14 9e be b9 90 fc 3d
       -0.0056890524 0.033568855 -0.3087524 0.12332291
000360 e1 43 33 3f 89 4b d6 bd e6 77 74 3e 05 36 05 3e
       0.7002545 -0.10463626 0.23873863 0.13008888
000370 9a 67 8d 3e 4d d8 e1 3e 27 c5 1c 3e 26 dc 5c be
       0.27618104 0.44110337 0.15309583 -0.21568355
000380 e3 e4 63 be 66 79 3b be 48 24 2e be 74 38 44 be
       -0.22255282 -0.18308029 -0.17006028 -0.1916216
000390 72 a9 21 bf 07 52 dc be 0a c9 e1 be 31 47 70 be
       -0.6314918 -0.43031332 -0.44098693 -0.23464657
0003a0 78 0f 3c 3e 11 4b f4 bd a0 14 35 3e 8a 92 32 3e
       0.18365276 -0.1192838 0.17683649 0.17438713
0003b0 a5 83 0c bf 15 d9 bd 3e 5b c6 cc be 2b b1 24 3e
       -0.54888374 0.37079683 -0.39995083 0.16083209
0003c0 05 0e 7a be 6d 1c e5 3d 02 16 3d bf 19 98 92 bd
       -0.2441941 0.111870624 -0.73861706 -0.071579166
0003d0 2d 49 0b 3f 7b 32 1a be ab 16 db be c6 1f 0a be
       0.5440853 -0.1505832 -0.42790732 -0.13488683
0003e0 b1 cf f5 3e 14 e1 7c 3d b2 81 d5 3d c9 7e e1 3d
       0.48010018 0.06173809 0.10425128 0.110105105
0003f0 d6 f1 36 3e d0 7f 56 bf 37 d6 21 3f fe b0 8f 3c
       0.1786569 -0.83788776 0.6321749 0.017540451

network_body._body_endoder.seq_layers.0.bias f4 [128]
000000 2b 57 99 bd b4 fb b9 3d 6f c3 ff 3c e3 ca e1 bd
       -0.07487329 0.09081212 0.03122112 -0.11025026
000010 a5 10 f0 3d 92 5f db 3d 99 56 ff bd 21 04 dd 3d
       0.11721925 0.10711588 -0.12467689 0.10791803
000020 e3 8a 00 3e 04 20 e4 3d 5b f2 f4 bd 10 1d 12 3e
       0.12552981 0.11138919 -0.11960288 0.14268899
000030 75 3a fe 3d 42 32 fb 3d 37 6e d1 3d 14 10 e5 3d
       0.124134935 0.12265445 0.102261 0.11184707
000040 83 13 b0 bd 52 6f 1c 3b 88 a0 c4 bd d5 9f cf 3d
       -0.085974716 0.0023870063 -0.096009314 0.101379074
000050 1f e4 00 be bc 78 00 3e 0f 7b b0 3d 29 2d d5 3d
       -0.12587021 0.12546057 0.086172216 0.10409004
000060 73 c6 01 bd 84 96 fc 3d 12 f6 ed 3d de a7 49 3c
       -0.031683397 0.12333396 0.116192 0.012308089
000070 73 a7 fa 3d 40 d2 bc bd 6d ae 81 3c e8 07 f3 bd
       0.1223897 -0.092197895 0.015830243 -0.11866742
000080 c9 36 ec bd 17 a3 aa 3d cf d0 d1 3d b8 a5 07 be
       -0.11533887 0.08331888 0.10244905 -0.1324681
000090 77 2f cb 3d 49 3b 00 3e 6e 72 6a bd 37 76 f5 3d
       0.099211626 0.12522615 -0.057238035 0.11985438
0000a0 c7 6d d5 3d 56 fe 9f 3c fe 66 e2 bd 56 12 e0 3d
       0.10421329 0.019530457 -0.110548005 0.10940997
0000b0 6c 6e e1 3d dc f0 cc 3d 97 f8 01 3e 42 27 c0 3d
       0.110073894 0.10006878 0.12692486 0.09382488
0000c0 81 dc 9d 3d 2d 6e b9 3d 1a 1c e6 3d 23 6f d2 3d
       0.077080734 0.090542175 0.11235829 0.10275104
0000d0 75 a1 7c bd d1 a2 03 3e b5 e5 c0 bd 8a bc 0c 3e
       -0.061677415 0.12855078 -0.09418813 0.13743797
0000e0 4d c9 05 3e 4b de b5 bd 1a e9 f9 3d cf 48 89 bd
       0.13065071 -0.0888029 0.12202664 -0.0670334
0000f0 d1 08 e1 bd 7f 57 0b 3e 84 c8 14 3d 3f 18 bc 3c
       -0.1098801 0.13607596 0.03632404 0.02296078
000100 50 4f 05 be bf 6d a6 bc 83 f7 fa bd e7 b8 d4 bd
       -0.13018537 -0.020316003 -0.1225424 -0.1038683
000110 05 4c fe 3d 2d e1 02 3e 54 67 14 be 45 3b ce 3d
       0.12416843 0.1278121 -0.14492542 0.100698985
000120 2a 76 31 3d 1d eb a5 bd 85 20 09 bd 53 db 5d 3d
       0.04332558 -0.08101485 -0.03347828 0.054164242
000130 d8 a5 ef 3d af 42 f1 3d fd ea f1 3d e8 38 cd 3d
       0.11701554 0.11780297 0.118123986 0.1002062
000140 e4 16 0f bd b4 38 ce bd 72 9d ff 3d 74 18 fc 3d
       -0.03493394 -0.10069409 0.12481202 0.123093516
000150 ff f2 7f 3d a7 5c f5 3d 25 7a cc 3d 8c e2 11 3e
       0.0624876 0.11980563 0.09984235 0.14246577
000160 8e 55 c7 3d 90 5d 13 3e 40 2b 03 be e7 2c 04 3e
       0.09733115 0.1439116 -0.12809467 0.12907754
000170 5e 44 f2 3d c4 21 d8 bd e8 ce 99 bd bd c6 e4 3d
       0.11829446 -0.10553315 -0.07510167 0.11170719
000180 39 33 6b 3d ea 35 fb 3c 46 68 b2 3d 90 2e fe 3c
       0.057421897 0.030665357 0.08711295 0.031028062
000190 a6 8d f3 bd f3 1f e8 bc 03 bc 73 3d 08 12 f1 bd
       -0.11892252 -0.028335547 0.059505474 -0.11771017
0001a0 b7 b2 09 be 71 d2 02 3e cf 14 f3 3d 71 26 0a 3e
       -0.1344708 0.1277559 0.11869203 0.13491227
0001b0 7e 37 b8 3d 86 e1 0d 3e 21 b3 38 3d 02 97 f0 bc
       0.08994959 0.13855562 0.045092706 -0.029368881
0001c0 20 a4 e4 3d 73 14 07 3e 3d cd c6 3d b6 0a 2a 3d
       0.11164117 0.13191395 0.09707115 0.04151412
0001d0 62 3c 7d 3d f4 ac 80 3d a3 aa cb bd 94 39 95 3d
       0.061825164 0.06282988 -0.09944656 0.07286373
0001e0 37 83 d0 bd b4 df 85 bd e2 70 0a 3e bd 9f 81 3d
       -0.10181277 -0.065368086 0.13519624 0.06329296
0001f0 7c 16 de 3d fa b8 07 3e 3c d1 cc bd 14 33 d9 3d
       0.10844132 0.13254157 -0.10000846 0.106054455

network_body._body_endoder.seq_layers.2.weight f4 [128, 128]
000000 14 21 17 3d e3 75 a1 bc f5 81 49 3e 69 80 21 3c
       0.03689678 -0.019709533 0.19678481 0.0098572755
000010 5a 60 c1 3d e2 ae 86 bd 56 29 85 3b 59 60 b2 3d
       0.09442206 -0.06576325 0.0040637655 0.08709783
000020 88 1c 14 3d 32 4f 44 bd b4 7e b6 bd 9b bd 01 3e
       0.036160022 -0.04792709 -0.089108855 0.12669985
000030 49 e8 3c 3e b5 99 43 3d ef 50 b9 3d 9e 2f 15 bc
       0.18447985 0.04775401 0.0904864 -0.009105591
000040 dd 7d c1 3d 6d 59 23 3e 87 3e a1 3c 64 c7 db 3d
       0.09447835 0.15952082 0.019683136 0.1073139
000050 1c d2 ce 3c 44 c1 13 3e c4 68 db bd 61 c3 d3 3d
       0.025246672 0.14429194 -0.10713342 0.1034
000060 b7 27 3e bd 95 0e 05 3e eb 8e 38 3d 92 f5 af 3d
       -0.046424594 0.12993844 0.045058172 0.08591761
000070 19 95 95 bd 1e bd 17 be ec 82 e7 3c 17 77 d7 3d
       -0.07303829 -0.14818236 0.02826067 0.105207615
000080 37 15 d7 bc 4b b4 4d 3e 5b 5a 8d bd f7 59 09 be
       -0.026255233 0.20088308 -0.069019996 -0.13413225
000090 a9 bb 8c bd 30 2d c8 3c b3 3e 1a be 72 44 32 3d
       -0.06871731 0.02443561 -0.1506298 0.043522306
0000a0 62 91 90 bd 85 8e 75 3b 8c 3f 94 3d a0 bc fd bc
       -0.070589796 0.0037468981 0.07238683 -0.030973732
0000b0 14 9f 76 3d 20 60 e5 bd 56 32 2d 3d 30 4b 70 bd
       0.060210302 -0.11199975 0.042284332 -0.058665454
0000c0 da 48 45 be d3 1b 87 3d 7c d4 41 3d eb bf 99 bc
       -0.19266072 0.06597104 0.04732178 -0.018768271
0000d0 78 e2 a2 3d 54 45 b2 bd 91 32 c3 bd 4a 76 c6 bb
       0.07953352 -0.087046295 -0.09531129 -0.0060565816
0000e0 f9 bb 16 3d 71 26 c6 bd 42 53 87 bd db 17 3f be
       0.03680036 -0.09675301 -0.06607677 -0.18661444
0000f0 61 c9 15 ba f6 5f 40 3e 03 10 53 bd fa df a5 3d
       -0.0005713907 0.18786606 -0.05152894 0.08099361
000100 3a ed dc bd 64 6e e2 bc 71 ca f2 bd 93 d8 c5 bd
       -0.10787435 -0.027640529 -0.11855019 -0.09660449
000110 c6 9e b3 3d 71 2f 9c bb 68 8a 25 be 01 64 e3 3b
       0.08770518 -0.0047663976 -0.16166079 0.0069394116
000120 9c 4d 8f 3b 50 a9 13 3e a0 57 fc bd 5b 1a 14 bc
       0.0043732654 0.14420056 -0.12321401 -0.009039487
000130 38 7e db bb dd 61 1a 3d 9a 1a 89 bc 59 d0 85 3d
       -0.006698396 0.037690986 -0.016736317 0.0653388
000140 b1 ba 20 3e 3a bd bd bd 3f 68 a0 3d e2 a7 30 bd
       0.15696217 -0.09264608 0.07832383 -0.043128856
000150 67 ca 0b 3a d0 62 19 be 12 60 22 3d b2 10 20 3e
       0.00053325895 -0.149791 0.0396424 0.15631369
000160 86 5c 58 bd 13 a5 1f 3e 13 fd 09 be 83 3f 89 3e
       -0.052822612 0.15590315 -0.13475446 0.26806268
000170 21 78 1a be 2e 5a 0a 3a d7 42 94 3d ad 1e 05 be
       -0.15084888 0.000527772 0.07239311 -0.12999983
000180 ef e6 55 bd 0c 16 f2 3d 27 61 3d be 23 78 8b 3a
       -0.05222219 0.11820611 -0.18494092 0.0010640662
000190 85 c8 8d bd 02 f1 d2 bb 1e 9d 1d 3e 27 97 cd 3d
       -0.06923012 -0.006437422 0.15391967 0.10038596
0001a0 f1 ff 14 be 4c c1 29 3c a4 8c 34 3c 82 53 8f ba
       -0.14550759 0.010361027 0.011019859 -0.0010934921
0001b0 43 ab 8a 3d 5e 9f ef 3d e6 1e 84 3d 1f d9 90 3d
       0.06770947 0.11700319 0.06451206 0.070726626
0001c0 77 25 4a bd 61 e2 45 3e 6d be 13 3e be 30 5c 3e
       -0.049352136 0.19324638 0.1442811 0.21502969
0001d0 1a 6b 82 3d ac d4 ba 3d 08 83 9f 3d da 33 fc 3d
       0.06368084 0.09122595 0.07788664 0.123145774
0001e0 04 95 b1 bc 45 37 0e 3c 29 9a 8d bb 03 d0 80 3d
       -0.021677501 0.0086801695 -0.004321356 0.06289675
0001f0 73 7e dc 3d 04 8b 7e 3c d2 38 d8 bc 38 a2 dd 3d
       0.10766306 0.015536074 -0.026394282 0.108219564
000200 d2 45 f7 3d 1b 3a 3c bd 1b 2c d8 bd a0 73 c5 3d
       0.12073864 -0.04595385 -0.105552875 0.09641194
000210 1d 9c ea 3d ac f3 4e bd 03 ed 11 3e 40 8e e3 bc
       0.114555575 -0.050525352 0.14250569 -0.027777791
000220 aa 3f 02 bd 6a dd a6 3d 82 24 34 3b 86 7f fd bd
       -0.031798996 0.081477 0.002748758 -0.12377839
000230 60 9e 13 bd fd 54 0a bc 14 92 87 bc 6e e1 16 be
       -0.03603971 -0.008443114 -0.016549148 -0.14734432
000240 cd 07 98 3d 9b c5 21 bd fd f1 be bc 37 c4 3c 3c
       0.07423363 -0.039495092 -0.023308748 0.011521391
000250 4b ee d0 3d 54 68 0f be 65 d4 13 3e 33 a7 37 3d
       0.10201701 -0.14004642 0.14436491 0.044837188
000260 c5 56 0f be b5 66 11 bd 42 e7 bb bd 54 b1 0f 3e
       -0.13997944 -0.03549834 -0.09174968 0.14032489
000270 e5 25 54 3b 25 19 f4 b8 f4 e2 47 bc c9 d6 76 3d
       0.003237122 -0.0001163951 -0.012200106 0.06026343
000280 38 29 08 3e e8 97 84 3d ef 5a 02 be fb 94 7a 3d
       0.13296974 0.06474286 -0.12730001 0.061177235
000290 09 04 03 3a 7a 44 a6 3c bd 1d e8 bd 41 ae 17 be
       0.00049978547 0.020296324 -0.11333797 -0.14812566
0002a0 12 2a a1 bc b9 d5 e8 3d 19 b6 98 3c da de 43 3d
       -0.019673381 0.11368889 0.018641518 0.04781995
0002b0 0b 35 40 3d f3 9e 84 bb 1a 3b 03 39 0c 13 a9 bd
       0.046925586 -0.0040472685 0.0001251515 -0.08255586
0002c0 13 2b 8a 3c b6 79 78 bd 43 c2 3e 3d 8a 33 a2 bb
       0.016866243 -0.060662948 0.04657198 -0.0049499916
0002d0 38 5b 41 3d b4 7e 95 bd 9d aa 65 3d 75 c8 4e 3b
       0.047206134 -0.07299557 0.056070913 0.0031552587
0002e0 db e3 4c 3b 3c 69 aa 3b 89 ba f7 bd 3c d2 ff bc
       0.0031263742 0.005200533 -0.12096126 -0.031228177
0002f0 81 37 e0 bd 91 58 0b 3e d9 61 15 be ec 8e 71 3e
       -0.109480865 0.13608004 -0.14588107 0.23589677
000300 a7 81 5c 3d 7c ac b1 3c 52 b6 2d bd 63 9a f4 3d
       0.053834584 0.021688692 -0.042410202 0.119435094
000310 15 93 99 3c ca 64 27 bd 46 c1 d4 bd 00 66 c1 bd
       0.018746892 -0.040867604 -0.103884265 -0.09443283
000320 ed f4 6e 3d bf 75 f4 3d 9d de 80 3c 48 02 69 3d
       0.05833905 0.11936521 0.01573115 0.05688694
000330 11 e9 4f bd a8 b7 8c bc 21 2e c9 3d 3a 48 04 be
       -0.05075938 -0.017177418 0.098232515 -0.12918177
000340 7b 2a 23 bd 82 e4 00 be f8 db 3c bd 11 70 35 bd
       -0.039835434 -0.12587169 -0.046108216 -0.044296328
000350 c9 ab 1d bd 75 40 34 3c b9 94 18 3e b7 59 c5 3d
       -0.038493905 0.011001696 0.14900483 0.096362524
000360 b8 e6 b5 bb 2b d2 aa bc 0f 8d 1f be 14 db 6e bd
       -0.0055511855 -0.020852169 -0.15581153 -0.058314398
000370 ec 58 11 bc fa 38 e7 3b 73 18 f9 3d 53 ee 5e be
       -0.008871298 0.0070563527 0.121628664 -0.21770601
000380 5e a2 7a be 65 a3 41 3d 61 ca f2 bd 45 d1 f5 3d
       -0.24476 0.047274966 -0.11855007 0.120028056
000390 bb 36 a3 bd 6e 6a 11 3d 06 fc 4e bd 33 ca d9 bd
       -0.079694234 0.03550189 -0.050533317 -0.106342696
0003a0 18 5f 5a be ef 23 5e 3d 96 98 21 bd 5d 11 ab bd
       -0.21325338 0.054233488 -0.039452158 -0.08352921
0003b0 62 12 41 bc 4f 47 88 3d 50 5b 40 bc 67 11 bd 3c
       -0.011784168 0.06654226 -0.011740521 0.023079587
0003c0 66 23 e6 bd 08 ef 46 3e c8 ff c0 3c 16 1c 31 bc
       -0.112372205 0.1942712 0.023559466 -0.010809919
0003d0 cc b3 e6 3d bc f3 bf 3a 3a f0 9f 3c 7c 79 38 bd
       0.11264762 0.0014644782 0.019523729 -0.04503773
0003e0 d4 0a f4 3d bf 84 0e 3e d3 e4 1f bd d9 0f e3 3d
       0.11916128 0.13917826 -0.039036583 0.11087007
0003f0 29 6c e0 bd 05 1c c5 3d 4c c8 12 bd a9 af 8d bb
       -0.1095813 0.09624485 -0.03583555 -0.004323919

network_body._body_endoder.seq_layers.2.bias f4 [128]
000000 1e 18 ae 3d f9 63 91 bb f5 82 c6 bd 81 dc 84 bd
       0.08500694 -0.0044369665 -0.09692947 -0.0648737
000010 60 29 6f 3d 9c b7 a8 bd 33 dc b3 3d ad df aa 3d
       0.058389068 -0.08238146 0.08782234 0.08343444
000020 44 08 da 3d 88 49 cd bd ce 23 a5 3d 7c d1 f5 bd
       0.10646108 -0.100237906 0.0806347 -0.120028466
000030 1f 6a cf bd 86 41 4f bd 0d 7b d2 3d 48 2d ed 3d
       -0.10127663 -0.050599597 0.10277376 0.11580902
000040 c3 d5 a0 bd a1 ed e7 bd d5 f5 43 3b c4 db 86 3d
       -0.07853272 -0.11324621 0.0029901166 0.06584886
000050 60 5e 83 3d 57 2f db bd de 41 bd bd c6 67 d4 3d
       0.06414485 -0.10702389 -0.09241079 0.10371356
000060 24 eb 80 bd 03 55 a5 bd fe 9f d6 3d cf 00 c4 bd
       -0.062948495 -0.08072855 0.10479735 -0.09570467
000070 d7 ac 55 3d 55 e9 f3 3d 24 52 fd bd 0c be 33 bd
       0.052166786 0.11909739 -0.12369183 -0.043882415
000080 b7 92 0d 3d 4e f8 f3 bd b3 89 4b bd b9 ac f6 3d
       0.034563746 -0.11912595 -0.049691867 0.12044663
000090 dc cb e7 3d e2 90 d7 3d 22 bd d8 3d 4e 4d f7 bd
       0.1131818 0.10525681 0.10582949 -0.120752916
0000a0 25 dc e7 3d 96 1e b1 3d 61 86 d3 3d bd b4 eb 3d
       0.11321286 0.08648412 0.10328365 0.115090825
0000b0 75 9e f1 bd 0c 0f a5 3d 87 52 e6 bd 86 1a d6 bd
       -0.117978014 0.080595106 -0.112462096 -0.10454278
0000c0 66 0d ed 3d e0 01 f0 bd 4b a9 d0 bd 8a 6c 9a 3d
       0.11574821 -0.11719108 -0.1018854 0.075402334
0000d0 e4 dc cf 3d d0 a6 f3 3d 99 c2 e2 bd 41 73 fc bd
       0.101495534 0.11897051 -0.11072273 -0.123266704
0000e0 1d c5 18 bd 25 34 e0 bd 7b 22 97 bc 2e 28 cb 3d
       -0.037297357 -0.10947446 -0.018449059 0.09919773
0000f0 05 37 e2 3d 0f 6c cb 3d a6 a2 ea 3d 23 7c cf bd
       0.110456504 0.0993272 0.11456804 -0.10131099
000100 82 39 ef bd ea c9 e9 3d 69 ec 3b 3c b2 72 01 be
       -0.116808906 0.11415465 0.011469939 -0.12641409
000110 e1 5d a1 bd 2e 76 fa 3d 95 47 eb 3d 52 34 5d 3d
       -0.07879234 0.12229572 0.114882626 0.054004975
000120 d4 2d 00 be 36 68 a7 3d dd 81 d4 bd a4 bb e7 bd
       -0.12517482 0.081741735 -0.10376332 -0.113150865
000130 e3 0e bb bd cf 3c 64 3d c1 93 eb 3d e1 9a 4f bc
       -0.09133699 0.055722054 0.11502791 -0.012671203
000140 eb 89 ab 3d f7 37 cd 3d 69 c5 bb bd ba ad e1 bd
       0.08375915 0.1002044 -0.091685124 -0.11019464
000150 f3 6b b5 3d 81 76 f8 bd 32 66 a5 3d 1d 38 e3 3d
       0.0885848 -0.12131978 0.08076133 0.11094687
000160 7c 20 fe bd da 71 fa bd 1e cf f9 bd ee d2 f9 bd
       -0.1240854 -0.12228747 -0.121977076 -0.12198435
000170 7d 4a 63 bd 97 5e ba 3d 09 13 e5 bd 28 52 f7 bd
       -0.05549096 0.09100073 -0.11185271 -0.12076217
000180 35 63 d5 bd 26 ea b7 bd 6c 92 b5 3d f1 5f cd 3d
       -0.10419313 -0.08980207 0.088658184 0.10028065
000190 48 c2 d4 3d 7d b3 a8 3d 87 81 ee bd a6 89 e8 bd
       0.10388619 0.0823736 -0.11645799 -0.11354379
0001a0 f4 b2 f7 3d 2b ac ae bd d7 66 b1 3d 73 97 e9 bd
       0.120946795 -0.08528932 0.08662193 -0.1140584
0001b0 0d f1 e7 bd e4 b3 84 bd 18 24 b6 3d a0 f4 e0 bd
       -0.11325274 -0.06479624 0.08893603 -0.109841585
0001c0 09 1d ba 3d f5 9f e9 bd f8 8c a7 3d 39 6e e1 3d
       0.09087569 -0.114074625 0.081811845 0.110073514
0001d0 6f ea ba 3d f9 46 f0 bd f0 80 b1 3d 9a 5f 81 bd
       0.09126746 -0.11732287 0.08667171 -0.06317063
0001e0 43 79 8d 3d 67 2c a6 3d 7b fc ba bd 90 a8 f2 bd
       0.069078945 0.08113938 -0.09130188 -0.11848557
0001f0 76 17 b9 3d 02 f2 f6 bd e2 5a c4 3d 73 5b df bd
       0.09037678 -0.12057878 0.09587647 -0.109061144

network_body._body_endoder.seq_layers.4.weight f4 [128, 128]
000000 e8 74 b4 bd 41 d1 81 3d c0 62 76 3d cb f4 10 bb
       -0.088113606 0.0633874 0.06015277 -0.0022118564
000010 5a 26 99 bd 0c a9 e5 3d b8 83 39 3c 2d 80 01 be
       -0.07478018 0.11213884 0.011322908 -0.12646551
000020 e2 34 1b bd 8c c6 87 3d 81 81 43 be fd d5 af bd
       -0.03789223 0.06629667 -0.1909237 -0.08585737
000030 ec 3a 51 bd 72 38 02 be f2 40 e1 bd 00 ee be bd
       -0.051081583 -0.12716845 -0.109987155 -0.09322739
000040 d8 b9 3b 3e ad 57 2d bd 36 56 5f bd e3 50 f5 bd
       0.18332613 -0.042319942 -0.054525577 -0.119783185
000050 67 dc 77 bc 45 0b 0c bd 64 bf 04 3e 9c 16 21 be
       -0.015128232 -0.034190435 0.12963635 -0.15731281
000060 ac c8 de 3d ad 46 89 3d 66 7d d9 bd 9a 30 a0 3c
       0.10878119 0.067029335 -0.10619621 0.019554425
000070 b1 90 05 be 82 92 eb bd af 5d 03 3e 44 38 ee 3d
       -0.13043477 -0.115025535 0.12828706 0.116318256
000080 4a eb 10 3e ba 88 e7 3a 6a 58 24 bd 5c d9 3f be
       0.14152256 0.0017664649 -0.04012338 -0.1873526
000090 35 49 0c 3d 08 10 42 bd c2 1a 2d 3d 10 c5 8d 3d
       0.034249503 -0.04737857 0.042261846 0.06922352
0000a0 60 4c c7 3c f5 2f 9a 3b e0 df 11 be 66 71 62 bd
       0.02432841 0.004705424 -0.14245558 -0.055283926
0000b0 5f 1d 84 3e f1 d5 79 3d 0f bb 9d 3c 5e 08 b0 3d
       0.25803658 0.060995046 0.019254236 0.08595346
0000c0 32 cb 8e bd 1a 91 bc 3d 64 a5 71 3d 42 c9 d4 bd
       -0.0697235 0.092073634 0.05899562 -0.103899494
0000d0 24 a2 ec 3c ca 7d 07 be fa a4 89 bd b9 11 af 3d
       0.028885908 -0.13231578 -0.0672092 0.08548302
0000e0 a4 e8 b6 3d a0 64 ff 3d 9b e6 ec bc db bb 05 bd
       0.089310914 0.124703646 -0.028918555 -0.032649856
0000f0 79 5a 35 bd 6b 3a bc bd 33 ec 2b be 34 ba 02 3e
       -0.044275735 -0.0919083 -0.16789322 0.12766343
000100 da 7a 82 bd 0e 17 cb bd e3 a3 5a bd 01 10 93 3c
       -0.06371088 -0.09916507 -0.05337895 0.017951967
000110 f0 a1 0b be 3d 7f 6b bd 61 bc 6a bd 81 ff 83 bd
       -0.13635993 -0.05749439 -0.05730856 -0.06445218
000120 f8 72 66 3d a5 ce a4 3d 8a a5 5b 3d ba 5a 2a bd
       0.056261986 0.08047227 0.053624667 -0.04159043
000130 e3 53 c7 bc 8a 97 70 3c 05 f2 48 bd e9 f2 ad bb
       -0.024331992 0.014684567 -0.049058933 -0.005308498
000140 00 04 99 3d 40 8d 28 bc 78 58 09 be ae dd 9d 3d
       0.07471466 -0.010287583 -0.13412654 0.07708298
000150 48 e8 fe bb f7 10 1b 3e 94 11 02 bd 00 70 3e be
       -0.007779155 0.1514319 -0.031755045 -0.18597412
000160 e5 0c ce 3d 40 54 2b 3e 50 2b a5 3d b8 51 d2 bd
       0.10061053 0.16731358 0.08064902 -0.10269493
000170 00 ba eb bd c3 c5 cf bd 24 be e1 bd 0f 19 42 bd
       -0.11510086 -0.10145142 -0.110225946 -0.04738718
000180 c3 ca 44 bd 2a f7 21 3e d5 fa 5a 3d dc b7 19 be
       -0.04804493 0.15816942 0.05346187 -0.15011543
000190 95 f1 39 3a 44 2f 36 bd 3a ce 3c 3d 6f 19 2f 3d
       0.00070931885 -0.04447867 0.04609511 0.042748865
0001a0 e5 ac 5a be 5e fb d6 3d 14 52 21 be 25 e4 31 3e
       -0.21355017 0.10497163 -0.15753967 0.17372186
0001b0 ca 3c 57 3d 8a 54 04 3d 2a 0d 84 be 08 f5 69 3c
       0.052548207 0.032307185 -0.25791293 0.014279611
0001c0 81 fb ca bd 34 f9 04 bd 08 81 c2 3d 0d 5e 1b be
       -0.09911252 -0.03246422 0.09497267 -0.15172596
0001d0 05 ff 40 bd 34 54 b4 3c 73 c0 81 bd 3d 8f 43 3b
       -0.047118206 0.022012807 -0.06335535 0.0029840015
0001e0 3f ea 24 be 0c 10 0f bd b9 5c 48 3e 46 82 44 3d
       -0.16104983 -0.034927413 0.19566621 0.0479758
0001f0 ca 03 71 be 8a 9c 0e 3e 36 d1 28 3d c6 4c 92 3c
       -0.23536602 0.13926902 0.041215144 0.017858874
000200 4a c4 c2 bd 89 48 be 3c eb 66 09 3d 48 b6 87 3d
       -0.095100954 0.023227947 0.033545416 0.06626564
000210 f6 bf be bd eb 7d 86 3d f0 96 c2 bd 86 23 2a 3e
       -0.093139574 0.06566986 -0.09501445 0.16615114
000220 ef 3c 9b 3d bb f0 cd bd 68 6e 26 3e 48 5c ed bc
       0.075799815 -0.10055681 0.16253054 -0.028974667
000230 0e c7 6a 3d 00 2c 91 bb 20 60 ef 3d 95 f4 3c bd
       0.05731874 -0.004430294 0.11688256 -0.04613169
000240 fb 9f 26 be 91 bb 61 be d0 ec 91 bd 19 c6 08 be
       -0.16271965 -0.22044207 -0.071252465 -0.13356818
000250 9a 0a 8e bd 86 a8 f8 3b 1e f3 3a 3c c0 24 70 3e
       -0.06935616 0.007588449 0.011410503 0.23451519
000260 0e d3 5e bc eb a3 29 be 68 96 54 3e 27 53 4e be
       -0.013600124 -0.16566436 0.207605 -0.20148908
000270 da 0a ae 3d d2 65 d5 3d e9 2a 32 be 45 fd c1 bd
       0.084981635 0.10419811 -0.17399181 -0.094721355
000280 3a 41 6a 3d 24 6e 10 be f9 87 56 3d 74 57 52 3e
       0.05719111 -0.14104515 0.052375767 0.20541173
000290 ca 43 d6 3d 5b ef 03 3e c8 c2 15 3d 3b 59 f9 bc
       0.104621485 0.12884276 0.03656271 -0.030438056
0002a0 89 f2 17 3d bc 18 4a 3e d7 46 a3 bc 75 52 d9 3d
       0.037096534 0.19735998 -0.01993124 0.106114306
0002b0 ba cb dc bd 59 1e 1a 3e 97 86 ff bd e6 4a 34 bd
       -0.10781045 0.15050639 -0.12476843 -0.04401674
0002c0 17 bf a4 3c 09 ee 69 3c 7d 62 d0 bd ab ae 44 3e
       0.02011065 0.014277943 -0.10175035 0.19207256
0002d0 54 71 8a 39 6f 35 1c bd ce f5 1b be 51 4d 99 bd
       0.00026405847 -0.038136896 -0.15230486 -0.0748545
0002e0 a4 7a 9b bd fa 0c 16 be 1a 85 0b bc e9 33 3a 3e
       -0.07591751 -0.14653388 -0.008515621 0.18183865
0002f0 c6 55 9b 3d b7 f4 4b 3e f0 cb 04 3e 35 39 2d bd
       0.07584719 0.1991757 0.12968421 -0.042290885
000300 6d 58 83 bd 35 9f 09 3d 1a 6b 04 be 4b 82 83 3b
       -0.0641335 0.033599097 -0.12931481 0.004013335
000310 56 13 b6 3d e6 99 f0 3d ee c7 85 3c 67 5b 03 3e
       0.08890407 0.11748104 0.016330685 0.12827836
000320 f8 24 d2 bd 54 78 aa 3c 06 d8 a0 bd 05 d3 b8 bd
       -0.102609575 0.02080933 -0.07853703 -0.09024624
000330 1c 3c 3b bd d8 ae 14 3d ca 46 15 3e 87 96 d0 bc
       -0.04571162 0.036299556 0.14577785 -0.025462402
000340 8b be 34 3d 49 0d b7 3d 01 60 03 be 7f 97 5b 3b
       0.04412703 0.08938081 -0.12829591 0.0033507047
000350 0a 75 a8 3c 33 7a c9 bd 66 a7 f1 3d 9c 70 85 3d
       0.020563621 -0.09837761 0.11799507 0.06515619
000360 ba 65 d8 bc 27 af 1b be c8 3d 2f be 40 5f 12 be
       -0.026415695 -0.15203534 -0.17113411 -0.14294147
000370 0e 55 ed 3c b9 da bd bc a0 58 15 3c ed 02 84 bd
       0.028971221 -0.023175584 0.009115368 -0.064458705
000380 d0 5a 41 bd eb 73 6e bd 3d 2c f0 bd ae ac e2 3c
       -0.047205746 -0.058216017 -0.11727188 0.02767023
000390 59 ae ae 3d 88 45 a7 3c 18 98 39 3d 4a 2c 54 be
       0.08529348 0.020418897 0.045311064 -0.2072002
0003a0 ec ff 2c 3d d8 bf 5c be 5a 61 99 bd b1 0a 5e be
       0.042236254 -0.21557558 -0.074892715 -0.21683766
0003b0 15 cb 81 bd 68 84 63 bd 7b 9d 3a 3e e6 de c9 bd
       -0.06337563 -0.055546194 0.18224137 -0.09856968
0003c0 89 99 0c 3d fd ec 3f bd fc 90 55 bd 91 35 f9 3c
       0.03432611 -0.04685687 -0.05214022 0.03042105
0003d0 52 95 f5 bd d4 f8 bd bd 37 52 39 3e ea 27 f6 bd
       -0.11991371 -0.09275976 0.18097769 -0.12019332
0003e0 fa 06 85 bc 96 ec fb 3d 8e 4c 36 be be e7 5d be
       -0.016238678 0.123009846 -0.17802641 -0.21670434
0003f0 a0 0e 13 3c 45 76 5c be 29 b1 ef 3c 43 5b aa bd
       0.008975655 -0.21529491 0.029259281 -0.08318188

network_body._body_endoder.seq_layers.4.bias f4 [128]
000000 cd 55 98 bd 9c 05 bc 3d a9 8c aa 3d fa 6c a1 3d
       -0.0743824 0.091807574 0.0832761 0.07882114
000010 6b 28 a1 3d 17 4b 9f bd 2f ac af 3d 3d 3e 9f bd
       0.07869037 -0.07777994 0.08577763 -0.07775543
000020 e6 d0 e0 3d 79 5b 55 3d 7b b6 c0 3d 4f 8f a9 3d
       0.10977344 0.05208919 0.094098054 0.08279287
000030 79 4e e1 ba b3 de 75 3d a2 df 94 bd 46 32 1e bd
       -0.0017189524 0.060026836 -0.07269217 -0.038622163
000040 f4 c4 98 bd fe a0 88 bd a7 8a 44 bc 22 12 4b bd
       -0.07459441 -0.06671332 -0.011995948 -0.04957784
000050 84 ea c6 3d 1e 97 81 3d f2 39 8e bd a6 14 b6 3d
       0.09712699 0.063276514 -0.06944646 0.08890657
000060 45 f3 4d bd e3 c0 95 bd 1b 2a 1f bd d4 b7 c8 3d
       -0.050280828 -0.07312181 -0.038858514 0.098006874
000070 cb d6 a8 bd 31 97 82 bd e9 90 a5 bd 6e 78 8d bd
       -0.082440935 -0.06376494 -0.0808428 -0.06907736
000080 b8 0f 3f 3d 51 49 3e 3d e8 17 86 bd 7e f3 9b 3d
       0.04664585 0.04645664 -0.065475285 0.07614802
000090 78 3a 79 3d 40 4b 21 3d 8c 48 b4 3d ac ff 73 bd
       0.060846776 0.039378405 0.088029 -0.05957
0000a0 d5 6a 72 bd bb 85 20 bd 9f f7 c0 3d 6a 58 b8 3d
       -0.059183914 -0.039190035 0.0942223 0.09001239
0000b0 33 64 31 bd 05 bd 81 bd 21 ab fb bc c3 35 66 bd
       -0.043308448 -0.06334881 -0.030721249 -0.056203615
0000c0 a4 1b d2 3d 33 5b b9 3d f8 71 9f bd db a8 a7 3d
       0.10259178 0.09050598 -0.0778541 0.081865035
0000d0 11 88 a3 bd 76 e8 c3 3d c1 ea 91 bd f5 79 2d 3d
       -0.07984937 0.09565823 -0.07124854 0.042352635
0000e0 6f 51 bf 3d b4 85 69 bd 16 4f a8 bd ea 92 55 bd
       0.09341704 -0.057012275 -0.082182094 -0.05214206
0000f0 4d 8d 80 bc 30 a5 99 3d 05 70 ad 3d 4d c8 d2 3d
       -0.015692377 0.0750221 0.08468632 0.102921106
000100 42 6a 9f 3d 22 2b 69 3d 59 31 8a 3d 80 3c a5 3d
       0.07783939 0.0569259 0.067476936 0.0806818
000110 4e d8 9c 3d e8 16 c9 3d cc 3d 95 bd 5b 74 d5 3d
       0.07658444 0.09818822 -0.072871774 0.10422584
000120 b6 fc 16 3d aa 70 52 bd 2f 57 43 bd 9e 36 80 3d
       0.036862098 -0.051376976 -0.047690567 0.062604174
000130 e5 ac 9e 3d 0c 10 9c bd 5b 82 04 3d bc e8 6c 3d
       0.07747821 -0.07620248 0.03235088 0.05783914
000140 de 49 37 bd 5d dc 30 bc 8a d7 53 3c 77 18 c2 3d
       -0.04474818 -0.010794726 0.0129298065 0.094773225
000150 39 c0 fc bc 75 3c 5f 3d cf d8 b6 3d a3 31 40 3d
       -0.030853378 0.054501016 0.08928072 0.046922337
000160 0c 55 56 3d a7 d8 8c 3d 7d 98 33 bd 20 58 21 bd
       0.0523272 0.06877261 -0.043846596 -0.039390683
000170 a7 d0 8c bd 60 45 db bc db 72 ab 3d 36 c3 8f 3d
       -0.06875735 -0.026766479 0.08371516 0.070196554
000180 6d 33 7d bd e3 a1 9c 3d 13 e1 6f bd 8b 59 e6 bc
       -0.06181662 0.07648065 -0.058564257 -0.02811887
000190 48 2a b0 3d e5 44 76 3d 3b 74 23 3d b6 c7 91 3d
       0.086018145 0.060124297 0.039905768 0.0711817
0001a0 fe 06 9f 3d 41 cb 6a bd 4f 5d 7c bd 7e e9 9f bd
       0.077650055 -0.057322744 -0.061612424 -0.07808207
0001b0 ce 57 97 3d c7 02 c9 3d 54 50 c5 3d 49 b5 91 bd
       0.07389794 0.09814983 0.09634462 -0.071146555
0001c0 8f 14 35 bd 69 30 bd 3d eb 2c 9d bc 33 19 cd 3d
       -0.04420906 0.09237749 -0.019186458 0.10014572
0001d0 4b 9f 92 bd 71 de 97 bd b1 e6 89 3d fb 4e b6 3d
       -0.07159289 -0.07415474 0.06733454 0.08901783
0001e0 39 4d 93 bd 3b b3 4a bd 34 b2 88 bd ec 97 30 bd
       -0.071924634 -0.049487334 -0.066746145 -0.043113634
0001f0 9e ad 2e bd 1f 7f 59 3d 39 b5 b3 3d 39 42 21 3d
       -0.042646043 0.053099748 0.087748 0.039369795

action_model._discrete_distribution.branches.0.weight f4 [25, 128]
000000 8c 56 60 bd 8c bb f4 3c 87 0b ae 3b 85 e5 f6 3c
       -0.054770038 0.029874586 0.0053114328 0.03013874
000010 7f ac e1 3c 78 b8 4a bd da 61 7f 3c 90 e6 70 bd
       0.027548073 -0.04949233 0.0155872945 -0.05881363
000020 7b 11 1e 3d 96 11 e2 3c ec c5 09 3d 15 c5 2b 3d
       0.03859089 0.027596276 0.03363602 0.041936
000030 39 f3 0a bb 4c 9f f7 3c d5 59 4c bd 71 82 1b bd
       -0.00212021 0.030227326 -0.049890358 -0.037966195
000040 ed 67 9e bd 7c cf 00 bd 76 b9 76 bb ec 47 4e bc
       -0.07734666 -0.031447873 -0.0037647164 -0.01259039
000050 a2 38 eb 3c 6d bc 77 3c a7 79 57 bd ba 1a 00 3d
       0.028713528 0.015120608 -0.05260625 0.03127549
000060 76 e7 f5 bc 30 52 40 bd 2e 65 b7 bc 28 fc c1 3c
       -0.030017596 -0.04695338 -0.022387113 0.023679808
000070 bf 91 75 bd 48 6c 40 bd 0c 6c 86 bd 27 42 5e bd
       -0.059953447 -0.046978265 -0.06563577 -0.054262307
000080 5d 0a 09 3d 23 56 33 3c ae 0b 24 bd 4d 2e ba 3c
       0.03345715 0.01094583 -0.0400502 0.022727156
000090 ec 90 ab 3c 4b c4 30 3b 16 f5 a6 3c 05 86 18 bd
       0.020943128 0.0026972468 0.020380538 -0.037237186
0000a0 6c 60 0f bd e1 1c 1f bc be dd 21 3d 68 a8 3e 3c
       -0.035004064 -0.009711475 0.03951811 0.011636831
0000b0 3c f9 d8 bc e2 28 15 bd 69 32 b7 bc f5 94 2a bd
       -0.026486032 -0.036415942 -0.022362905 -0.041645963
0000c0 55 70 52 3d 39 cd 24 3d 3e 6b cb bc 0e a8 dd 3c
       0.05137666 0.040234778 -0.02483141 0.027057674
0000d0 d3 a1 8a bd 38 a9 15 3d fc 86 53 bd d2 c3 e6 3b
       -0.06769147 0.036538333 -0.051642403 0.0070423866
0000e0 2e 3b 8c 3d 94 cc 04 bd 77 2f 8a bd 6d aa f7 bb
       0.06847225 -0.032421663 -0.067473345 -0.007558158
0000f0 d6 40 7a 3c 33 a8 dc 3b 8a 65 03 3d dd 98 69 3d
       0.015274247 0.006733918 0.032079257 0.057030547
000100 89 dd 9f 3c 62 b8 d0 3c 51 54 43 3c 5d 76 10 3c
       0.019514816 0.025478546 0.011921958 0.0088172825
000110 36 a9 06 3d 3e 75 46 3d 5b 55 4d bd c0 14 e9 3c
       0.032876216 0.048451655 -0.05013023 0.028452277
000120 b5 e7 08 3c 46 d4 0c bd db 4f 34 bd 4e 89 03 3d
       0.0083560245 -0.034382127 -0.04402147 0.032113366
000130 bc 47 aa 3c ac bc 4e bd a7 14 09 3b db 57 5c 3c
       0.020786159 -0.0504729 0.002091685 0.013448681
000140 b9 0a 6d bc 49 30 14 ba 51 72 c0 bb 2a 9e c2 3c
       -0.0144678885 -0.0005652947 -0.0058730026 0.02375706
000150 8b d6 92 bb 7a f4 35 3c 11 62 91 3c 79 0c f5 3c
       -0.004481142 0.011105651 0.017746957 0.029913174
000160 21 0f a7 3c 4e 8e 2c 3d 71 9f e4 bc 45 1e cf bc
       0.020392956 0.0421279 -0.027908059 -0.025282988
000170 8c 27 af bd 99 aa a1 bc 5f 8f 5c 3c 3f 48 1a 3d
       -0.08552465 -0.019734668 0.013461917 0.037666555
000180 c8 2a 14 bd eb 63 d6 3b fd 74 b9 bc f1 b6 af bb
       -0.036173612 0.006542673 -0.022638792 -0.0053623845
000190 89 11 01 3d d9 29 b2 3b 4e 39 8b 3b 8e 19 8e 3c
       0.031510863 0.0054371175 0.0042487746 0.01734617
0001a0 ba ee 36 3d 58 c4 1c bd c9 e3 0b bd 14 fc 7b bd
       0.04466126 -0.038273185 -0.03415278 -0.061519697
0001b0 b1 cc 46 3c 91 ca 43 3d d6 30 ef 3c 5a 8c 7f bd
       0.012133763 0.047800604 0.029198091 -0.06238971
0001c0 4a 0c d3 bb d0 ad c6 3c 59 52 1f bb 20 b8 42 3d
       -0.006440674 0.024252802 -0.0024310558 0.047538877
0001d0 32 97 72 bd 95 e2 86 bd 70 13 8b 3c 99 7c 06 3d
       -0.059226222 -0.06586186 0.016977042 0.03283367
0001e0 af 62 70 bd f8 cc 0f bd f9 0a 40 bd 9b 2e be bc
       -0.058687862 -0.035107583 -0.046885464 -0.023215583
0001f0 24 2f 2c bb e7 06 41 3c 7d 4c 05 3d d0 9f 89 3b
       -0.0026273215 0.011781431 0.032543648 0.0041999593
000200 4c 1b 4d bc 01 ff 7d 3c ee f5 60 3b 5f 43 b1 3c
       -0.012518715 0.015502692 0.0034326273 0.02163857
000210 da 13 d7 3c 43 06 ac bc b7 67 ba 3c 35 e3 b2 bc
       0.026254583 -0.02099908 0.022754533 -0.021836856
000220 35 50 c3 3c b2 5d 61 3c 3d 3a 72 3c 62 f8 d7 3c
       0.023841957 0.013755249 0.014784393 0.026363555
000230 1a b9 0c 3d fd 2d 2e bb 18 69 1b bc 62 31 22 b9
       0.034356214 -0.0026577704 -0.0094855055 -0.0001546792
000240 4d e6 cf bc 09 64 f8 bc 9a 6f 5b 3a 57 76 dc bb
       -0.02537837 -0.030321138 0.0008370817 -0.0067279744
000250 94 f1 01 3d c5 9d f7 3b 40 0b b7 bc d3 88 8a 3c
       0.031724527 0.0075566494 -0.022344232 0.016910946
000260 72 c6 07 bc 0c 11 71 bc 34 49 01 bd 19 c3 a2 3c
       -0.008287059 -0.014713537 -0.031563953 0.01986842
000270 f5 8e 39 bc e2 50 30 bb 19 03 c8 bc a3 19 70 bc
       -0.0113255875 -0.0026903679 -0.02441554 -0.01465455
000280 19 a9 a3 bc 06 f0 b4 3c 34 23 70 bc a9 ed e8 3c
       -0.019978093 0.022087108 -0.014656831 0.028433638
000290 5b 94 2a 3d 65 b6 a3 3c 1c 32 af 3c ca 06 85 bc
       0.04164539 0.019984433 0.021386199 -0.016238589
0002a0 00 1b f4 bb ef 7e 26 bc 1f cf 14 3d e0 b2 58 3c
       -0.0074495077 -0.010162099 0.03633034 0.013226241
0002b0 f8 b5 ad bb 5d 39 c7 bc d3 bd 6f 3b a1 d2 1e bb
       -0.0053012334 -0.024319345 0.003658165 -0.0024234431
0002c0 9e 92 ed 3b 2d 5f 20 3b 64 88 33 bc fe 6f db 3c
       0.007250144 0.0024470792 -0.010957811 0.0267868
0002d0 3b b4 cf bc 9a 88 b6 3c 2a 39 84 bb dd fb 95 3c
       -0.025354495 0.022281934 -0.004035135 0.018308574
0002e0 f1 60 5f ba 02 37 92 bc 23 72 98 bc 57 88 ad 3b
       -0.00085212203 -0.017848495 -0.018609112 0.005295794
0002f0 fc 58 b3 bb 6c d1 c9 3c 3d 49 e9 3c e1 6d 92 3c
       -0.0054732542 0.024635993 0.028477306 0.01787466
000300 e4 c9 89 3b bb 72 35 bc 55 d8 05 3d 65 d6 bc 3c
       0.0042049754 -0.011074717 0.032677013 0.02305145
000310 35 81 d1 bb 9a 77 7f 3a 55 cd f1 bb ea 0e aa 3c
       -0.0063935765 0.00097453 -0.007379214 0.020759065
000320 b2 c3 ba 3c 32 93 b9 bc ed 15 9c bc 9d 11 56 bc
       0.022798393 -0.022653196 -0.019053424 -0.013065723
000330 f2 c4 02 3d ee 45 55 bc 0e 89 d8 3c 9d 9c ee 3c
       0.031926103 -0.013017161 0.02643254 0.029127413
000340 0e af e2 bc de 99 a3 bb eb 0a 2f 3c 93 db 1f 3d
       -0.027671363 -0.0049927076 0.010683755 0.03902776
000350 8c 41 5a bc 20 f5 18 3d ed b8 8a 3b d9 7a 6a bc
       -0.013321292 0.037343144 0.0042334707 -0.014311516
000360 83 1d b3 3c 4f 67 68 3c 9c 92 2b 3c b7 88 73 bc
       0.021864658 0.014184787 0.010471966 -0.014864138
000370 0d d4 9d bc 9d 11 d4 3c 98 a5 7a 3c e3 89 d4 3c
       -0.019266153 0.025887305 0.01529827 0.025944656
000380 90 7b c7 bc d7 c6 fb 3c e7 c9 8b bc d2 a1 82 bb
       -0.024350911 0.030734463 -0.017064048 -0.0039865756
000390 47 0c c7 3c 12 34 30 3c 0a 26 19 3c 60 bc 32 3d
       0.024297846 0.010754602 0.009347448 0.04363668
0003a0 82 cb d3 3b bf 13 d9 bc 40 f2 a7 bc 72 1f af bc
       0.006463469 -0.026498673 -0.020501256 -0.021377299
0003b0 a2 4f fd 3c 7b ec 19 3d 05 77 6a 3c 7d d8 5c bc
       0.030921761 0.03757904 0.014310603 -0.013479349
0003c0 95 e4 1d 3b a5 29 9b 3c 88 51 85 bc 3f f4 d3 3c
       0.0024092544 0.018940756 -0.016274229 0.025873302
0003d0 fd ff 1d bd 6b b9 db bc 13 21 67 3c ca d9 42 3c
       -0.038574208 -0.026821813 0.014107007 0.011892745
0003e0 8d f3 a2 bc 36 5b 39 bc cb 6b da bc af d1 38 3b
       -0.019891525 -0.01131325 -0.026662728 0.0028201153
0003f0 b7 e3 8d bc b4 51 88 3c 03 60 96 3c fa 90 60 3c
       -0.017320497 0.016640522 0.018356329 0.01370644

action_model._discrete_distribution.branches.0.bias f4 [25]
000000 cd 12 69 3d 37 53 c4 3c 48 9b 32 bc 09 15 58 bc
       0.056902695 0.023965461 -0.01090128 -0.013188609
000010 c8 3d f3 bb cc 28 56 3d 37 df a1 3c 61 0d c7 3a
       -0.0074231364 0.052285 0.019759757 0.0015186482
000020 9c 22 78 bc e2 1b 56 bc 6f 71 3d 3d 96 ff 29 3b
       -0.01514497 -0.013068171 0.046250757 0.0025939695
000030 72 d2 13 bc 2d a3 dd bc 0b 4a f9 bc 6f ea 0d 3d
       -0.009022342 -0.027055347 -0.030430814 0.0346474
000040 bc 6f d9 b9 ce ca d3 bc 4e a1 2e bd a1 64 15 bd
       -0.00041472714 -0.02585354 -0.0426343 -0.03647292
000050 a4 9f 9d 3c e0 42 c6 bb 78 41 e6 bc ca aa 08 bd
       0.019241162 -0.0060504526 -0.02810739 -0.033366002
000060 ec 98 3f bd
       -0.046776697
