Assets/Env5/BrainsOld/MoveToTrigger2.onnx (onnx, 154966 bytes, 8 tensors)

network_body._body_endoder.seq_layers.0.weight f4 [128, 12]
000000 76 da f9 be b6 1f 07 be 1b 0c e7 3d bf 09 a4 3e
       -0.48799485 -0.1319569 0.11281606 0.32038686
000010 33 39 04 bf 78 e1 fd be 57 42 9c 3e b2 45 52 3e
       -0.5164978 -0.49586082 0.30519363 0.20534399
000020 bf a9 94 be 47 94 df 3d 5d a8 ca be 9a 5e 88 3e
       -0.29035756 0.109169535 -0.39581576 0.26634675
000030 99 f6 07 be c8 6c c3 be 6d 6a b5 bb cf 53 c8 be
       -0.13277663 -0.3816893 -0.0055363686 -0.3912644
000040 9d 82 13 be 71 3b 26 bd f2 8c 06 bf 6b 41 42 3f
       -0.14405294 -0.04058403 -0.52558815 0.7588107
000050 d2 90 69 be a7 79 03 be 92 50 10 bf 23 15 6c be
       -0.22809151 -0.12839375 -0.5637294 -0.23054938
000060 d1 43 f7 be 6b f7 54 3e 0a 1b 93 bd 36 bb 7f bd
       -0.48293927 0.20797507 -0.07182892 -0.062434398
000070 c5 96 90 be a3 7d 2e 3e bb f7 6c 3e cc c4 88 be
       -0.28240028 0.17040114 0.23141377 -0.26712644
000080 6d 06 b6 3d 2f 6d e9 bd 4e e7 e8 3c 6f fd b7 3e
       0.08887944 -0.11397778 0.028430607 0.35935542
000090 a2 e9 81 be 45 70 c0 be 34 16 05 bd 3b be 02 3f
       -0.2537356 -0.37585655 -0.032491878 0.5107152
0000a0 27 3a ff be 9e 8e 15 bf 85 41 72 bd e9 30 8c 3e
       -0.49849054 -0.5842074 -0.059144516 0.27381065
0000b0 7a 1a f4 bd a4 f3 7c be 06 24 0b 3e b9 06 07 3d
       -0.119191125 -0.24702317 0.1358796 0.032965396
0000c0 e1 67 8d 3e 95 32 32 bf a5 56 16 bd 91 0c 8f 3d
       0.27618316 -0.6960843 -0.036703724 0.06984819
0000d0 8a aa 04 be aa 9d 10 bf c5 ea c8 bd af d6 4d 3e
       -0.1295568 -0.56490576 -0.09810404 0.20101427
0000e0 45 0b 71 bd aa 39 ee be 74 b3 0f be 51 0e a3 3e
       -0.058848638 -0.4652837 -0.140333 0.3184686
0000f0 01 97 02 bd 3f f0 cd 3e bb 8e 8a 3e 50 e2 08 3f
       -0.03188229 0.40222356 0.2706202 0.53470325
000100 5c f8 cd be 8c aa 37 3f 83 57 14 be fd d2 5f be
       -0.40228546 0.7174461 -0.14486508 -0.2185783
000110 85 86 a9 bc 3b ae 6d be 33 48 c7 be 67 c1 32 bc
       -0.020694027 -0.23210995 -0.3892227 -0.0109103685
000120 49 c9 eb 3d da ba 54 3e 83 7c 67 bd 5b eb a4 3e
       0.115130015 0.20774403 -0.056515228 0.32210812
000130 df 47 11 3e 1b ac 6e 3d e1 29 14 3f 8e 18 93 3d
       0.14187573 0.0582696 0.578764 0.07182418
000140 fe 1b 54 be 9b a9 11 3d 39 95 32 3e d7 4f bc bc
       -0.20713803 0.03556214 0.17439736 -0.02298729
000150 2f 7b 0e 3f 98 dc 2a be 7c 75 50 3e b7 44 2f 3e
       0.55656713 -0.16685712 0.20357317 0.17116056
000160 5a 59 40 3f 64 7c 09 3e fe 7b 00 3f 08 ef a9 3e
       0.7513634 0.13426358 0.501892 0.3319018
000170 d7 81 28 bf 18 48 f1 bc 59 3a ef bc ec ad a3 be
       -0.6582312 -0.029453322 -0.029202627 -0.3196863
000180 0f 33 47 3f 49 de 37 be f3 e1 63 3d 23 ad b5 bd
       0.77812284 -0.17955889 0.055635404 -0.08870914
000190 09 fc 1b 3e 5c 2c 86 3e ca bc 2e bd 97 ac a2 be
       0.15232863 0.2620572 -0.042660512 -0.317723
0001a0 75 4b 3d bd 40 cf 58 bc d5 26 8b 3e 34 9b d6 be
       -0.04621454 -0.013233006 0.27178064 -0.41915286
0001b0 52 60 3e 3e 7e b9 53 bf cf 1e c6 3e ad a0 19 3f
       0.18591431 -0.82704914 0.3869538 0.60010797
0001c0 7d e5 01 be cd e0 3d bd 21 9a 1c 3f a4 5e 51 3d
       -0.12685199 -0.046356965 0.6117268 0.051115647
0001d0 bc dc 39 3e d3 1c 2f be 03 fe 4f 3e 58 fd 16 be
       0.1815061 -0.1710084 0.20311742 -0.1474508
0001e0 58 5d b6 3d f6 a1 73 3e 30 95 72 be af 35 ad bd
       0.08904523 0.23792252 -0.23689723 -0.08457505
0001f0 04 bd a3 3e 62 4b c8 3e c2 de db be 5f 42 d8 3d
       0.31980145 0.39120013 -0.42943388 0.10559534
000200 9f 2f 01 bd cc 82 6d bd d6 54 06 3d e9 ad 00 3c
       -0.031539556 -0.057986066 0.03279575 0.007853963
000210 7d e8 b9 be 90 4b 3f be bc 15 cd bb e3 de 58 ba
       -0.36310187 -0.18681169 -0.0062586945 -0.0008272959
000220 44 aa 3d be c5 68 82 be 52 62 77 3e 4c 2b 96 3d
       -0.18521982 -0.25470558 0.241586 0.07332477
000230 1e 29 96 bd 32 57 a9 3e cf 81 ba 3e 43 51 39 3d
       -0.07332061 0.33074337 0.3642716 0.045243513
000240 99 dc 2a bd 75 e2 bb 3d 7b a5 7a be 28 18 97 3e
       -0.041714285 0.091740526 -0.24477188 0.29510617
000250 36 4e 11 3e bb 53 89 3e 0f 35 1a 3e 4b 81 af 3d
       0.14189991 0.26821694 0.15059303 0.085695826
000260 aa ce dc 3e 09 d4 21 be 55 0a a6 be b0 3a 47 be
       0.43126422 -0.15803541 -0.32429758 -0.19455981
000270 15 9f 4d 3e 92 1f 51 3e c3 fd c4 3e 8d 1f 73 3e
       0.20080216 0.204222 0.38474855 0.23742504
000280 50 ba 94 be 69 5e 33 3f c0 4f 05 bf 3c ac 31 3e
       -0.29048395 0.70065933 -0.52074814 0.17350858
000290 f7 a3 b3 3e 8f c1 32 be 4c 44 9f 3c 89 e5 4f 3e
       0.35086033 -0.17456649 0.019441746 0.20302404
0002a0 18 e2 94 be 46 cf b3 bd cb c4 50 bd c2 f1 51 3c
       -0.29078746 -0.08779769 -0.050968926 0.012813987
0002b0 00 36 4f bf 7e b8 94 3d eb 28 f4 bc aa cd b1 be
       -0.8094177 0.072617516 -0.029804667 -0.34727222
0002c0 d0 a5 43 3e 1d f9 8c 3d 74 f9 44 be 97 00 f5 bc
       0.19106221 0.06883452 -0.19235784 -0.029907508
0002d0 59 b0 3e be ab 75 36 3e 34 68 a3 be ea db c2 3d
       -0.18621959 0.17818324 -0.31915438 0.095146015
0002e0 77 87 35 be 90 cc 09 3f b2 ef 4d be b5 75 80 3e
       -0.17727457 0.5382776 -0.20110968 0.25089803
0002f0 6b 94 e5 bd 4b 1a 96 3e c5 32 08 3d cf 49 6f 3d
       -0.11209949 0.29316935 0.033251543 0.05842
000300 76 7c 35 3e 7b 44 83 be e7 79 a1 3e d1 10 d6 bd
       0.1772326 -0.25638184 0.31538317 -0.10452426
000310 16 02 b0 3e a7 3e 09 3f 8c b3 e8 bd 84 24 ae 3d
       0.3437659 0.53611225 -0.11362371 0.085030586
000320 6b 07 8d be a8 5d 85 3d d5 b1 41 3e 65 8f 03 3d
       -0.27544722 0.06512004 0.18915494 0.032119174
000330 6f ee 94 be 69 ab bd be f2 65 86 3d 51 c5 d4 3e
       -0.2908816 -0.37044838 0.06562413 0.4155679
000340 d7 aa e7 bd ca 0c bd be 70 80 71 be 4a bd f1 3e
       -0.11311882 -0.3692382 -0.23584151 0.4721473
000350 d0 a5 0a bf a8 d5 91 3e b2 21 5a bd 99 7d b6 3e
       -0.5415926 0.2848332 -0.05325479 0.35642698
000360 ea c6 da 3e 8b 92 ef be 15 27 0d 3f 95 ae 9e 3e
       0.42729884 -0.4679149 0.5513776 0.3099257
000370 97 5e 35 3e d3 22 ad be 73 fc ca bd d1 c3 bb be
       0.17711864 -0.3381563 -0.09911432 -0.36672834
000380 19 d7 29 3c 7c 5d 9a 3d 70 08 19 3d b4 b0 5d 3e
       0.010366225 0.07537362 0.037361562 0.21649438
000390 c3 eb 9c 3e df 48 8d 3e 72 65 f8 3e d3 4e 79 bd
       0.30648622 0.2759466 0.48514897 -0.06086619
0003a0 7c d4 3e 3e 7f d2 a5 be 2f 65 d0 bd e8 46 80 3d
       0.18635744 -0.32387158 -0.10175549 0.06263524
0003b0 d3 3b 23 be 82 5e 16 be 03 34 bf 3e 5b 06 cb 3e
       -0.1594079 -0.1468449 0.3734437 0.39653286
0003c0 bc cd b6 3e e3 16 1c 3e 24 63 20 3e cf 51 86 3d
       0.35703838 0.15243106 0.15662819 0.065585725
0003d0 cd ce 2e be 2e fb 19 3f a6 74 b7 be 6c f8 a7 bd
       -0.17071076 0.60148895 -0.35831183 -0.082016796
0003e0 a7 72 00 be e5 4d 4a be 13 a5 63 bd cf 5a 19 3f
       -0.12543736 -0.19756277 -0.05557735 0.5990419
0003f0 ce a8 95 bc d6 cd 51 3e 35 ed c7 bd 12 f2 ce be
       -0.018268969 0.20488676 -0.097620405 -0.4041906

network_body._body_endoder.seq_layers.0.bias f4 [128]
000000 b7 32 b1 3c 10 f3 84 3d c9 52 83 bc de f8 07 3d
       0.021630628 0.06491673 -0.016030686 0.033196323
000010 86 36 7e 3d 3f 49 1c 3c f4 12 65 bd 60 a1 d7 bc
       0.062063716 0.009538948 -0.05592628 -0.026322067
000020 34 df 92 3c b1 06 4f bd 57 da 8d 3d b7 56 f3 bc
       0.017928697 -0.05054349 0.06926411 -0.029704435
000030 35 12 19 bc ff 3f 73 3d 29 df 40 bd 45 02 cb 3c
       -0.00934272 0.059387203 -0.047087822 0.024781356
000040 6d 2e e6 3c 91 bc b9 3c e8 cc 1f 3d 38 6c 08 3d
       0.02809831 0.022672923 0.039013773 0.03330633
000050 da eb e4 3c ca 41 16 bc bd dc 14 3d 47 e9 16 3d
       0.027944494 -0.009170959 0.036343325 0.036843564
000060 bb 86 8b 3d 6d 64 cf 3d 55 6d 9d 3b 37 aa dc 3d
       0.06812807 0.101265766 0.004804293 0.107746534
000070 d7 93 7a 3d a7 51 52 3d 97 15 12 3d 4d 4f 18 3d
       0.061176147 0.0513474 0.03566512 0.037185002
000080 50 db f7 3c 3f 1e fa 3c ca 79 5d bb d8 a5 5a 3d
       0.030255944 0.030532 -0.0033794516 0.053380817
000090 41 9a 6e bd 2f da 1f 3d ce 29 99 3d ca 28 d8 bb
       -0.058252577 0.039026435 0.07478677 -0.0065966593
0000a0 a3 74 c0 3c ba 1c 2b bd d5 a6 62 3c cc 8a ef ba
       0.023493117 -0.041775443 0.013833721 -0.0018275618
0000b0 7d 0f 64 3d e6 d7 9c bc a9 23 36 3d c5 99 76 bb
       0.055678833 -0.019145917 0.044467602 -0.0037628275
0000c0 5c 48 01 3d e7 f9 10 bd 4f 47 9c bd 93 2a 94 3d
       0.031563148 -0.035394575 -0.076307885 0.07234683
0000d0 b7 d4 dd 3c 75 58 f9 3c 53 16 fc 3c d9 f5 db 3c
       0.02707897 0.030437687 0.030772364 0.026850628
0000e0 ed c8 4c 3d fa 51 2c 3c e2 26 ef 3d ac 19 9b 3c
       0.049996305 0.010517592 0.11677338 0.01893314
0000f0 c2 c7 2c bb a9 e7 d5 bc 6b e9 ee bd cc bb 2d 3d
       -0.0026364182 -0.02611144 -0.11665615 0.042415425
000100 bc c6 93 3b dc f8 36 3d e3 e6 4d 3d ea e8 5e 3d
       0.004509775 0.044670925 0.05026902 0.054421343
000110 9e cf 9f 3d 57 96 46 3c 53 cb b3 bd bc 1e b0 bc
       0.07803272 0.012120805 -0.087790154 -0.02149903
000120 eb d5 32 bc d4 41 fd 3c 64 3f 25 bd 4f 68 f1 bb
       -0.01091526 0.030915178 -0.040343657 -0.007367171
000130 92 c8 84 3d e7 1f 68 3d 81 30 04 3d aa ed 18 3d
       0.06483568 0.05667105 0.03227282 0.03733603
000140 8c 55 3f 3d 79 7a 80 3d 83 d5 17 bd 49 05 69 3b
       0.046712443 0.0627336 -0.037068855 0.0035556129
000150 27 59 5b 3d d3 33 e8 3c 27 59 5a 3d 07 c2 59 3d
       0.05355182 0.028345024 0.05330768 0.053163555
000160 fa f3 7e 3c 1f d2 5c bb 0c 09 af 3c 4c cf 73 bc
       0.015561098 -0.0033694578 0.021366619 -0.014880966
000170 82 b1 a4 3c ff 0e 96 3c 8d cd 08 3d c8 ae d4 3b
       0.020104174 0.018317698 0.033399154 0.006490562
000180 ba 6f ce 3d ad bc 85 3d ca 9b dd 3c 41 a3 89 3d
       0.10079904 0.06530128 0.027051825 0.06720591
000190 84 79 c3 bc ec 2a 25 3d 1b d7 aa 3c 43 ae 43 3c
       -0.023861654 0.040324137 0.020854523 0.011943403
0001a0 43 a1 38 3d 81 dc 6d bc 95 27 27 3d 82 ad 79 bd
       0.045075666 -0.014517904 0.040809233 -0.060956486
0001b0 57 e8 9a 3c 40 d4 ac 3d b3 94 cb bb 21 de a6 3b
       0.018909616 0.08438921 -0.0062127947 0.005092398
0001c0 50 a0 59 3c 89 a8 77 3d e2 5c 94 3d f7 d8 92 3d
       0.01328285 0.060463462 0.072442785 0.07170289
0001d0 b5 c7 5f 3d 0e 59 03 3d c3 77 56 3d 21 0f 22 3d
       0.054633815 0.03206735 0.052360307 0.03956521
0001e0 05 3d 09 3d 6b 5a 1d bd c3 3f fc 3c b6 ac df 3b
       0.03350546 -0.038416307 0.030792123 0.0068260087
0001f0 21 2d b3 bb 25 cd fc 3b 11 04 7d 3c 06 59 a5 3b
       -0.0054680263 0.007714885 0.015442864 0.005046013

network_body._body_endoder.seq_layers.2.weight f4 [128, 128]
000000 6e 35 7e 3e e5 2c 28 be 69 ff bf bd 4a 26 14 3b
       0.2482507 -0.16423376 -0.093748875 0.002260583
000010 2b 4c e1 3d b8 ce e3 bd 8a a7 39 3e 76 7d 3a be
       0.11000856 -0.11123413 0.18130317 -0.18211922
000020 a9 2f 07 b9 ce f8 4a bd 80 ee f7 bc c4 71 ff 3c
       -0.00012892358 -0.049553685 -0.030265093 0.031182177
000030 3d 4b d9 bc b7 93 8d be d5 43 fe ba f8 3e 39 be
       -0.026525134 -0.2765176 -0.0019398878 -0.18090427
000040 2c 69 5c be 19 9f 3f 3d 2e ff ff 3d 49 37 9f 3d
       -0.21524495 0.046782587 0.124998435 0.07774217
000050 71 dd de 3c 23 ac 1d be b8 47 76 bc 9e f1 45 3d
       0.0272052 -0.15397696 -0.0150317475 0.048326127
000060 39 3f 1a 3e ae f4 0c 3d de f6 3d 3d bc 36 4b 3d
       0.1506318 0.034413032 0.04637801 0.049612746
000070 0a fb 0a 3e 66 60 2a 3e 7a 8c 3d bd 26 35 0a bd
       0.13572326 0.16638336 -0.046276547 -0.033742093
000080 2c 2f 30 3d e7 83 3a 3d 0c 9b bc 3a 65 1c 71 3c
       0.043013737 0.045535948 0.0014389469 0.014716242
000090 99 5d 78 3d e1 32 83 bc 96 b3 3a 3e 85 4e 9d 3d
       0.060636137 -0.016015472 0.18232569 0.07680992
0000a0 3e 21 23 3d af 8a 5b 3d f9 c8 e7 3d c4 0c 97 bd
       0.039826624 0.053599056 0.11317629 -0.07375482
0000b0 f7 c1 ab 3d 07 57 56 bd e7 70 39 bd b4 28 2d bd
       0.08386605 -0.05232909 -0.045273688 -0.042275146
0000c0 2f aa 62 be b8 95 03 3d 1f 38 2f be 65 c3 18 3e
       -0.22135232 0.032125205 -0.17111252 0.14918287
0000d0 b3 c7 07 bd 6f 6d 19 3e 86 b4 f7 bc 50 a7 14 3c
       -0.033149432 0.14983152 -0.030237447 0.0090730935
0000e0 24 0a 8c bd 89 8d 1c 3e 4b df 7d 3c 03 9a 0d be
       -0.06837872 0.15288366 0.015495132 -0.13828282
0000f0 55 36 59 3d e0 6a 12 3c 0b de 76 be 1d 7c 3c 3e
       0.05303033 0.008936614 -0.2410814 0.1840672
000100 e0 8a 1e be fb 0f e1 3d 5b fe 67 bd 13 d9 24 3e
       -0.15482664 0.10989376 -0.056639057 0.16098432
000110 ff 17 c5 3d 05 49 3a be ea c4 d4 bd bc ab 3b bd
       0.096237175 -0.18191917 -0.10389121 -0.045818076
000120 ed e9 2d 3d 2e c6 b0 bd 2c 35 54 ba 7b 72 8d 3e
       0.042459417 -0.0863155 -0.00080950814 0.27626404
000130 28 af 9b 3d f9 65 62 3d 02 97 63 be 8f 62 1b be
       0.07601768 0.05527303 -0.22225574 -0.15174316
000140 21 d8 c0 3d 87 95 ff 3d 4a 89 98 bd ac ae d1 bd
       0.09416223 0.12479692 -0.07448061 -0.10238394
000150 47 3c 04 3d ad ae 9b 3d f5 c8 00 3e 4a 2a ad 3a
       0.032284047 0.07601676 0.12576659 0.0013211456
000160 21 16 99 3c 12 ed 6f 3d 45 17 18 be e5 11 17 be
       0.01868731 0.058575697 -0.14852627 -0.1475292
000170 13 69 1d 3d c7 b7 36 3e e0 00 c6 3d d2 c5 57 be
       0.038430285 0.17843543 0.09668136 -0.21071556
000180 c7 28 ee 3d a2 c1 90 3e 8b a2 c3 bc 43 df 47 3e
       0.116288714 0.2827273 -0.023881217 0.19518761
000190 17 16 dc 3b 34 9e 0c 3e d7 fc 31 3e 73 9b 1c 3e
       0.0067165005 0.13732225 0.17381607 0.15293674
0001a0 8b 2b c6 3d ec 9c 0c be f3 c6 84 bc 1f d6 fa 3d
       0.09676274 -0.13731736 -0.016208148 0.122478716
0001b0 65 41 5f bd 21 d8 0b 3c e3 f6 a3 3d a7 21 84 bd
       -0.054505724 0.008535416 0.08006074 -0.06451731
0001c0 7c 1b 25 3d 69 0e d1 bd 62 c3 5e 3d bc 8b 81 3c
       0.040309414 -0.10207827 0.05438555 0.0158137
0001d0 10 99 53 3e 55 04 d0 3d a9 c0 f9 bb c4 eb 38 bd
       0.20663857 0.10157076 -0.007621844 -0.04514672
0001e0 d5 69 34 3d 45 90 2a 3e 3c 40 11 3e bc a7 45 3d
       0.04404624 0.16656597 0.1418466 0.048255667
0001f0 c5 9e ed 3d 67 b3 39 bd d6 79 9c bc ac 7f 5a 3c
       0.116025485 -0.045337107 -0.019101065 0.013336103
000200 7c 52 e1 bd c9 bc ec 3c aa 4b ef bd 46 f8 8f 3b
       -0.11002061 0.028898614 -0.11684354 0.00439361
000210 b9 6b 2d bd 9f 54 12 3e 37 a8 90 bc 18 40 84 3d
       -0.04233906 0.14290093 -0.017658336 0.064575374
000220 75 ec 8d bc 95 a0 6a bd 7f fb aa 3d af a4 4b 3e
       -0.017324666 -0.05728205 0.0834875 0.1988704
000230 57 00 17 bd 5e e1 7c 3e 52 35 2c 3e dd 97 8d 3d
       -0.03686556 0.24695346 0.16817215 0.06913731
000240 e3 84 ce 3d a8 48 44 be 1a 8d 1b be a5 01 d7 bd
       0.1008394 -0.19168341 -0.15190545 -0.104983605
000250 4d 12 62 3e 82 fd 8d 3d 8c 94 97 bd 76 f4 7c bd
       0.22077294 0.069331184 -0.0740138 -0.061756574
000260 1e ca 27 3c 4f 18 ad bc 2e e3 fb 3d 41 89 09 3e
       0.01024106 -0.021129755 0.122991905 0.13431264
000270 4d 3d 77 be 54 a8 74 bd 4a c7 8e 3d a5 be 2a 3e
       -0.24144478 -0.059730843 0.06971605 0.16674288
000280 d7 f4 04 be 94 3b 28 bd 05 3f e0 3d 2a ac 13 3e
       -0.12984024 -0.041072443 0.1094952 0.14421144
000290 13 10 ce bc ff 38 9f bd cd 18 cb bd d1 8c 0c 3e
       -0.02515415 -0.07774543 -0.0991684 0.13725592
0002a0 6e c8 ff bd fa 24 ec bc 22 ba 57 3c 48 8c 7a bd
       -0.12489401 -0.028826226 0.013166936 -0.06116894
0002b0 ca 34 6a 3d 60 2a c3 3d 43 93 59 3c c0 74 8a bb
       0.05717925 0.09529567 0.013279739 -0.0042253435
0002c0 cf 01 9b bd 90 7c da 3d e0 08 c7 3d e4 55 fa bd
       -0.07568704 0.1066829 0.0971849 -0.122234136
0002d0 65 c7 ff 3d 40 23 c3 bd f2 92 c7 3c 9f 3e dc 3b
       0.12489203 -0.09528208 0.024362061 0.006721332
0002e0 40 c7 20 3d 13 c3 e7 bd 28 f9 4e 3d bc fc e5 3d
       0.03925252 -0.11316504 0.050530583 0.11229846
0002f0 68 7d 79 bc 0f d4 05 bb c8 b7 63 bd 2b 8b de bd
       -0.015227653 -0.0020420586 -0.05559519 -0.10866388
000300 91 60 f4 3d 48 2f 3a be 20 ca 2e be 3e 34 87 be
       0.11932481 -0.18182099 -0.17069292 -0.26407045
000310 5b 89 9e 3d 4d 79 03 3e 10 a8 a4 3d 21 9c c2 bd
       0.07741042 0.12839241 0.08039868 -0.095024355
000320 27 34 b8 bb ed a8 fc bd 71 2d c1 bd 09 38 05 bd
       -0.0056214514 -0.123369075 -0.094324954 -0.032524142
000330 c9 19 45 bd 10 85 a0 bd 93 e1 6a 3c 8d ae 1e 3e
       -0.048120294 -0.0783788 0.014336008 0.15496273
000340 ca 03 6b bc 5b 83 85 3d 5c 39 69 3e ed 09 ab 3c
       -0.014344165 0.06519195 0.22775787 0.020878756
000350 ee be 36 bd 39 ba 60 be 8c a6 d5 bd 42 67 e6 3c
       -0.04461568 -0.21946038 -0.10432157 0.028125409
000360 39 85 10 3e a6 a5 53 bd 19 0c 3b bd d6 75 49 bd
       0.1411332 -0.051671647 -0.045665834 -0.049184643
000370 af d1 4a 3c b6 64 e3 bb 5b 43 07 bd 97 d1 b2 3d
       0.012379094 -0.006939496 -0.03302322 0.08731382
000380 fc 77 86 3d 6a ae e3 3c b9 97 34 bb b3 2a 8f bd
       0.06565854 0.027793128 -0.0027556254 -0.06990566
000390 5e e3 3e 3d 24 a5 6e 3d e0 4c 4e bd 5f cc 14 be
       0.046603553 0.05826296 -0.050366282 -0.14531086
0003a0 4a eb 5e bd 26 44 27 bd e7 82 15 3e dd 3d 41 bc
       -0.054423608 -0.040836476 0.14600717 -0.0117945345
0003b0 9c e4 23 3e 59 dd 05 3e 43 ff f4 ba 4f c0 a1 3d
       0.16005176 0.13072719 -0.0018691797 0.07898008
0003c0 46 a7 ef 3d 29 f3 bd 3c 87 22 63 3d 98 00 99 3d
       0.11701827 0.023187237 0.05545285 0.074708164
0003d0 f2 1f 3a bd 8f 5a 2c be f2 4c 87 bd 7c 25 28 3e
       -0.04544062 -0.1683142 -0.06606473 0.16420549
0003e0 20 a6 72 bd 16 6a cc bd 99 f7 f0 3d 7f b3 97 3d
       -0.05924046 -0.09981172 0.117659755 0.07407283
0003f0 6c 05 a4 bd 0d ba 3e 3e db e1 88 3d f7 0f 7d bd
       -0.08008847 0.1862566 0.066837035 -0.061782803

network_body._body_endoder.seq_layers.2.bias f4 [128]
000000 e1 8d 4b 3d 21 09 20 3d 9f 03 63 3c 58 3d 29 3d
       0.049695853 0.039071206 0.013855844 0.041318268
000010 f3 f0 8f 3d ca 9e e3 3c 71 9f d0 bc 23 4a 3b 3d
       0.07028379 0.027785677 -0.025466653 0.045725
000020 61 dd 46 3d fd 7b ad 3c 13 65 a8 3d 9e 6d eb 3c
       0.048550967 0.021177286 0.082224034 0.028738793
000030 f4 e8 c8 3d ba 47 32 bc 10 e6 32 3d 73 37 67 3d
       0.09810057 -0.010881359 0.043676436 0.056449365
000040 b9 b8 9b 3d 60 67 0c 3d 74 fb 87 3d 0f 7c 1a 3d
       0.076035924 0.034278274 0.06639758 0.037715968
000050 18 93 61 3d ea b6 28 3d 67 f6 b9 bc fa 17 84 3d
       0.05507192 0.041190065 -0.022700502 0.06449886
000060 90 e4 2d 3d 87 71 7f 3d aa 0a 8b 3d 40 99 25 bd
       0.042454302 0.062364127 0.067891434 -0.040429354
000070 c9 a1 5d 3d f6 0f 12 3d a3 93 0a 3d 56 84 85 3d
       0.05410937 0.035659753 0.033832204 0.06519382
000080 d9 a4 5e 3d e4 60 82 3d d2 da 40 3d a2 02 82 3d
       0.05435643 0.06366137 0.047083683 0.063481584
000090 59 84 41 bd 1d f8 3f bd 0b ba 62 3d 78 52 69 bc
       -0.047245357 -0.04686748 0.055353206 -0.0142408535
0000a0 3a 89 b2 3d c9 1d 9e 3d 6c e8 a8 3c 89 b0 80 3d
       0.0871758 0.07720525 0.02061864 0.062836714
0000b0 6b 1f 0f bb d1 c4 c6 3b 74 9e 90 3d 86 21 46 3c
       -0.0021838795 0.006065943 0.070614725 0.012092954
0000c0 b2 64 45 3d 11 f0 96 3d 53 a9 33 3c 60 d5 aa 3d
       0.048191734 0.07370008 0.010965663 0.08341479
0000d0 5b 01 06 3e 9a 62 83 3d 77 e2 9d 3c 86 79 2c 3d
       0.13086455 0.06415291 0.019273026 0.04210808
0000e0 e9 3d 9d 3b b6 2a 0f 3c a5 ab 69 3d 7e 16 9a 3d
       0.00479864 0.00873821 0.05704846 0.07523821
0000f0 a2 75 d4 3c e2 b3 bf 3d ba 9a 9a bd 52 6f 89 3b
       0.025934998 0.09360482 -0.07549043 0.0041941786
000100 39 16 85 3d b8 b8 2e bd de 99 01 3d 5c 0e c0 3c
       0.06498379 -0.04265663 0.03164088 0.023444347
000110 cb 21 21 3d 86 78 74 3d da 3a 00 3b c3 01 81 3d
       0.039338868 0.059685253 0.0019566328 0.06299164
000120 c9 e3 e5 bb 72 f5 a0 3c c7 e9 0d 3d a5 5b c1 3c
       -0.0070156795 0.019648287 0.034646776 0.02360327
000130 b7 47 8b 3b e0 21 07 3d 21 04 4c 3d da 30 48 3d
       0.0042504924 0.03299129 0.049808625 0.048874713
000140 bd 7e 2e 3d 30 fd a2 3c 74 d8 df bb 8c db 38 3d
       0.042601336 0.01989612 -0.006831223 0.04513125
000150 e5 50 4d 3d da 55 21 3d b8 ec 2c 3d 17 df 83 3d
       0.050125975 0.039388515 0.04221794 0.064390354
000160 5e 62 45 3d bf 42 20 bc 71 b1 74 3d ec 60 4a 3c
       0.048189513 -0.0097815385 0.059739534 0.01235221
000170 2f 09 7a bb e9 40 03 3d d8 72 f7 3c d5 d6 02 3d
       -0.0038152447 0.032044325 0.030206129 0.03194316
000180 7b 42 8b 3d fa c2 1a 3d 76 d4 2d 3d 1e ff a8 3d
       0.067997895 0.0377836 0.042438947 0.08251785
000190 11 9c 3d 3d e7 8a 31 3d 5e c3 5c bd ca 0d 31 3d
       0.046291415 0.04334536 -0.053897254 0.04322604
0001a0 84 d7 1f 3d 24 19 a7 3d 46 66 2c 3d 0d 21 38 3d
       0.03902389 0.08159092 0.042089723 0.044953395
0001b0 b8 0a 32 3d 1d 95 09 bc a1 bd 36 3d 8d d5 0c bd
       0.043467253 -0.008397368 0.044614438 -0.034383345
0001c0 51 7b 2b 3d 00 d9 10 3d a0 2f ba 3d 67 52 36 3d
       0.04186565 0.035363197 0.09091115 0.04451218
0001d0 39 19 c2 3c 7b 2f 12 bc 99 4b 75 3d 47 1d 88 3d
       0.023693668 -0.008922453 0.05988655 0.06646209
0001e0 81 ba 91 3b 96 88 15 3d a5 97 fd bc ef d2 b8 3c
       0.004447282 0.03650721 -0.030956099 0.022561518
0001f0 06 44 d8 3c 24 3d 67 3d fc e1 88 3d ba 6a 54 bd
       0.026399624 0.056454793 0.06683728 -0.051859595

network_body._body_endoder.seq_layers.4.weight f4 [128, 128]
000000 9e dd 64 39 5b 2d 0b bd c9 62 fd bd b2 c9 3e b9
       0.00021826333 -0.0339788 -0.123723574 -0.0001819495
000010 10 42 d0 3d 19 40 03 bd 36 8c 56 be d9 f6 57 3e
       0.101688504 -0.03204355 -0.20951924 0.21090259
000020 9d f8 12 3e 81 e0 33 3e 82 7f 1b 3d 79 68 48 3c
       0.14352651 0.1756611 0.037963398 0.0122319395
000030 c2 4f 9c 3d a2 8c d7 3c f4 9a 52 3d c4 f3 2b 3e
       0.076324 0.026312176 0.051417306 0.16792208
000040 b2 cc 89 3d 88 81 9e 3c e5 6f f3 bd df 9a 19 3e
       0.06728496 0.019348875 -0.118865766 0.15000485
000050 2a dd 1f 3e 46 ef e3 bc 6e 72 e1 bd b7 29 ac bd
       0.15611711 -0.027824055 -0.11008154 -0.08406394
000060 58 ea 0f 3e b8 5d 16 be 41 e3 51 3e ae d3 49 bc
       0.14054239 -0.14684188 0.20496847 -0.012318535
000070 29 ac 19 3e d1 8b ad bc 09 9b b7 3c 12 ef 9d 3d
       0.1500708 -0.021184834 0.022412794 0.07711615
000080 03 23 b5 bd 5c 1f 85 3c 89 ee 24 3d 17 07 89 3d
       -0.088445686 0.016250305 0.040266547 0.066908054
000090 0e a8 a4 3c 7e 75 b2 bc 91 d6 4e 3e 35 6b 0b be
       0.020099666 -0.02178454 0.20199038 -0.13615115
0000a0 77 ea 03 3e a4 b0 68 3e ef c2 ad 3c 56 63 c9 3d
       0.1288241 0.22723633 0.021211116 0.098334
0000b0 48 4e 08 be 44 c3 22 3d 9a dc 1a 3d ec 98 a2 3d
       -0.13311112 0.039737 0.03780804 0.07939324
0000c0 8f 28 47 3e 01 a0 93 3c 9b 00 a2 3d 40 c2 9d bc
       0.19449066 0.018020632 0.07910272 -0.019257665
0000d0 15 39 8c 3d 1e cc 84 3b c8 a3 b2 3d da 6d 8f 3c
       0.06846825 0.004052653 0.08722645 0.017508436
0000e0 8e 45 47 be 97 bc 38 bd 32 4c 7a bc 05 3b 0c be
       -0.19460127 -0.04510173 -0.015276955 -0.13694389
0000f0 2c a7 87 3c c7 85 5b 3e 81 7a 21 be 28 73 12 bd
       0.016559206 0.21437751 -0.15769388 -0.035754353
000100 3e 24 f8 3c 7e 5f 0c be 5b db 9b bd 6f 49 da bc
       0.03029072 -0.13708302 -0.07610198 -0.026646344
000110 55 c9 8d 3e 0f a2 b0 bc e2 ea 23 be 22 b0 14 39
       0.27692667 -0.02156165 -0.1600757 0.00014179994
000120 9e 6b 14 3d da e2 05 3d 15 b1 fa 3d be ba 19 be
       0.036235444 0.032687046 0.12240807 -0.15012643
000130 b1 fa 03 be fc 2b 34 be eb 29 47 3e a6 ff dd 3d
       -0.128886 -0.17594904 0.19449584 0.10839777
000140 73 13 02 be c1 28 18 be a8 7f 06 3e 96 7a 8a 3c
       -0.12702732 -0.14859296 0.13134634 0.016904157
000150 44 2b 48 bd 03 b9 17 3c e7 66 74 bc 5f 35 a1 3c
       -0.048869386 0.009260419 -0.014917112 0.01967877
000160 eb 8b ef 3d 63 3c 09 be a2 f8 12 3d 4e 7a 3c be
       0.11696609 -0.13401942 0.035881646 -0.1840603
000170 6f 66 15 be 96 f6 ed 3c b2 df 89 bd cc fa 4a bd
       -0.14589857 0.029048245 -0.067321196 -0.049555585
000180 aa 77 41 3e eb 40 da bd 0b be ef 3c 64 c7 0a 3e
       0.18893304 -0.10656913 0.029265424 0.13552624
000190 3e 1e c4 3c c2 e1 09 bd 66 0c 97 be e5 3c a0 bc
       0.023940202 -0.033662565 -0.29501647 -0.019560287
0001a0 f2 da dd 3c 80 4e d1 3b 94 33 67 3e c0 15 04 3e
       0.02708194 0.0063875318 0.22578269 0.12898922
0001b0 41 af 11 3e 7d 90 73 bd 2b bc 03 be c8 c7 fd 3d
       0.1422701 -0.059463967 -0.12864749 0.12391621
0001c0 85 4b 94 3d c4 bd 1a be e8 bf 77 3e 65 70 90 3d
       0.07240967 -0.15111452 0.241943 0.070526876
0001d0 c1 e7 c6 3d 2e 48 3b 3c e8 48 03 3c 15 f0 71 3d
       0.09712172 0.011430783 0.008012988 0.05906685
0001e0 c9 72 13 be 90 c1 26 3d 8a 88 e5 3b d6 d3 98 3d
       -0.14399256 0.04071194 0.007004802 0.074622795
0001f0 d7 82 d1 bd 01 37 e3 bb ae 22 7d bb 7a 73 22 be
       -0.10230034 -0.006934047 -0.0038625407 -0.15864363
000200 f7 54 ed bb ab e5 2e 3e e5 06 84 3d db 90 82 3c
       -0.0072427946 0.17079799 0.064466275 0.015938213
000210 52 e3 81 3e 97 77 b5 3d 57 ec c6 bc 94 fd c1 bd
       0.25368744 0.088607006 -0.024282617 -0.09472194
000220 a2 26 ec bc bf b6 35 3d 2a 57 63 3b 4d b2 c8 3c
       -0.028827015 0.044363733 0.0034689405 0.024499083
000230 26 c1 a8 3d 24 3a 9b 3d a9 ec 43 be c6 6f 5c 3e
       0.08239965 0.07579449 -0.19133247 0.21527013
000240 90 5d c7 3c 8e 94 8e 3d 87 a5 2b 3e 72 a5 13 3c
       0.024336606 0.06961928 0.16762362 0.009011613
000250 f4 e4 9c be 2f af 6d bb e1 12 9d bd 43 8d 32 bd
       -0.30643427 -0.0036267748 -0.076696165 -0.04359175
000260 62 53 97 bd 94 06 0b be 0d 3a 19 bc 38 8d f0 bd
       -0.07388951 -0.13576728 -0.009352219 -0.11745685
000270 49 a7 0b 3e 14 65 e6 bd 87 ca 0a 3d 78 2a e1 3d
       0.13638033 -0.11249748 0.03388455 0.109944284
000280 c0 63 b2 3e 94 ee b1 bb 6d 22 19 3d fd 6b 99 bd
       0.34841728 -0.005430052 0.037386347 -0.074913
000290 c5 b3 80 3d 2a 40 18 be a7 ef 00 3e 12 40 14 be
       0.06284288 -0.14868227 0.1259142 -0.14477566
0002a0 1b 15 88 bc 6a e4 0d 3e dd 67 13 bc 70 e6 62 bc
       -0.016611626 0.13856664 -0.008996931 -0.013848886
0002b0 f7 59 33 3c 3d 93 76 bd a4 9b 7e 3e ac ac f8 3d
       0.010946742 -0.06019901 0.2486406 0.121423095
0002c0 eb 47 fc 3d c8 d8 96 3c f2 e3 f6 bd 1f 81 2d 3e
       0.12318405 0.018413916 -0.12055196 0.16943787
0002d0 8b 92 e2 3d 51 e6 97 bd 73 30 1b 3e a5 54 89 bd
       0.11063107 -0.07416976 0.151552 -0.06705598
0002e0 90 b0 07 3e 22 ea bf bc b6 96 94 bd b2 8d ce 3d
       0.13250947 -0.023427073 -0.07255308 0.1008562
0002f0 25 74 be 3d a2 c9 48 bd a5 e0 4e bc 3e 89 1b bd
       0.092994966 -0.049020417 -0.012626802 -0.03797268
000300 85 aa e0 bd 88 3a 6f be db 77 3f 3e 4b 0b 71 3d
       -0.10970024 -0.23362172 0.18698065 0.05884866
000310 c0 5c 24 be af fe 80 b9 17 d3 d1 bb 52 3e 81 3d
       -0.16051006 -0.00024603817 -0.0064033377 0.06310715
000320 36 14 e5 3c 52 61 a8 be 43 cf 47 bd ba ff dc 3b
       0.027963739 -0.3288675 -0.048781645 0.006744352
000330 68 b1 ae 3d a2 94 b6 bd 75 6b f4 3d 42 91 ec bc
       0.08529931 -0.08915068 0.11934558 -0.028877858
000340 5a 28 30 3e 81 35 ce 3d c1 ba 8e bb 4b 4b 11 bc
       0.17202893 0.10068799 -0.004355759 -0.008868049
000350 09 a9 25 be db 2b 3b 3d 46 10 37 bc 2b a7 9e 3c
       -0.16177763 0.04569612 -0.0111733135 0.019366821
000360 08 92 93 3d 3d b4 52 3d d7 5f 4b 3d 30 e2 83 3c
       0.072055876 0.05144142 0.049651947 0.016099066
000370 41 1b 36 bd b9 8b e1 bd 6a 1a 36 3c 62 41 e8 3d
       -0.044459585 -0.11012978 0.011114696 0.11340596
000380 a7 65 95 3a c7 be 13 3e 2a ca 0c 3e ba 18 43 3d
       0.0011398093 0.14428245 0.13748994 0.047631003
000390 91 0f a1 3d 06 60 da 3c 2e 81 f0 bd a4 2b 8f 3d
       0.07864297 0.026657116 -0.11743389 0.06990746
0003a0 1f 67 30 3e c5 c7 a5 3d 2f 47 ab 3d 12 a3 fc bc
       0.17226838 0.08094744 0.083631866 -0.030839477
0003b0 5b c1 d4 bc a1 ec df bd 0b d4 a9 bd bc a7 f6 3d
       -0.025971105 -0.10933805 -0.08292397 0.120437115
0003c0 fe 68 a1 bd af de 18 bd 78 d5 a1 3e 77 1f cb bd
       -0.07881354 -0.037321743 0.31608176 -0.09918111
0003d0 7a 76 50 bd 22 32 df 3d f1 19 41 3d e3 ee ea 3d
       -0.050894238 0.10898234 0.04714388 0.11471345
0003e0 27 c6 3e be dd c3 10 be 93 09 d3 3c c4 14 4c 3e
       -0.18630277 -0.14137216 0.025761401 0.19929796
0003f0 54 15 58 3e a4 34 1d be bf 11 22 be ba 37 3a bd
       0.21101886 -0.15352112 -0.15827082 -0.0454633

network_body._body_endoder.seq_layers.4.bias f4 [128]
000000 45 ac 48 3d 98 e9 15 3d ea 7f 21 3d bd 26 53 3d
       0.048992414 0.036599725 0.03942863 0.051550616
000010 d2 bd 6a 3d 38 bc 08 3d b6 73 49 3d 7c 2d 81 3d
       0.057309933 0.033382624 0.049182616 0.063075036
000020 8b b5 fd 3c 98 94 58 3d 99 93 58 3d 68 e4 84 3c
       0.030970355 0.052876085 0.052875135 0.016222194
000030 43 49 43 3d 48 29 1b 3d 05 c0 6e 3d 69 b2 60 3d
       0.04767729 0.037881166 0.058288593 0.054857645
000040 0d 4b 75 3d 15 47 37 3d ce aa 23 3d 13 7c 3b 3d
       0.059886027 0.044745523 0.039957814 0.045772623
000050 4f 2c 09 3d 75 aa 6b 3d 35 87 14 3d 3f fd 1e 3d
       0.03348952 0.057535607 0.036261756 0.038815733
000060 fa 6d 2d 3d 2c d1 36 3d 93 73 66 3d 7f a0 2c 3d
       0.04234121 0.044633076 0.056262564 0.04214525
000070 33 cb 8e 3d 34 18 29 3d e5 b6 9f 3c 8e df 34 3c
       0.06972351 0.041282848 0.01949639 0.011039628
000080 9f 65 34 3d 85 65 c0 3b 2f 07 8c 3d 95 dd 1a 3d
       0.044042226 0.005871477 0.06837308 0.037808973
000090 4d c6 66 3d 8b 7c 0e 3d 39 48 89 3d de d4 df 3c
       0.056341458 0.034786742 0.067032285 0.027323183
0000a0 93 ae de 3c 96 ae 24 3d cb a0 16 3d b9 0b 8f 3d
       0.027182853 0.04020556 0.036774438 0.06984658
0000b0 c6 62 62 3d a2 36 3e 3d d5 88 b0 3c d0 5f 1f 3d
       0.05526998 0.04643882 0.021549622 0.038909733
0000c0 7b 11 5e 3d 61 b4 15 3d f7 0b e1 3c 10 ff 23 3d
       0.05421589 0.036548976 0.027471526 0.04003817
0000d0 7c 19 97 3d 6c 63 4c 3d fa fb 1e 3d 7d c7 30 3d
       0.07377908 0.049899504 0.038814522 0.043158997
0000e0 df 00 57 3d d4 f7 02 3d 3d 08 6c 3d f3 03 2e 3d
       0.052491065 0.03197463 0.057625044 0.042484235
0000f0 49 14 53 3d ec d1 55 3d ad 06 49 3d f5 6a cd 3c
       0.051533017 0.05220215 0.049078632 0.025075415
000100 df f8 0c 3d 52 15 53 3d a7 e9 34 3d 62 2a 4c 3d
       0.03441703 0.051534005 0.04416814 0.049845107
000110 86 2e 78 3d d4 ab 48 3d 29 d8 25 3d 4a c3 f1 3c
       0.060591243 0.048991993 0.04048935 0.029512066
000120 6d ea bf 3c 86 c4 46 3d ef 2b 0e 3b cf 35 ee 3c
       0.023427213 0.048527263 0.0021693667 0.029078392
000130 0f 99 2d 3d 90 14 1a 3d bf 49 5b 3d 2b 6f 5b 3d
       0.042382296 0.037617266 0.053537127 0.053572815
000140 58 d2 64 3d 0e 73 d5 3c ee 2c 83 3d 53 23 8f 3d
       0.055864662 0.026055839 0.06405054 0.069891594
000150 78 f1 4b 3d 7e a8 39 3d 91 8c 4d 3d 61 0c 14 3d
       0.04979083 0.045326702 0.050182883 0.036144618
000160 69 44 38 3c f0 27 00 3c b7 fe 52 3d 2d fa 83 3c
       0.011246779 0.007822022 0.051512446 0.016110504
000170 d6 97 3d 3d 33 71 74 3d fa 0c 70 3d 7f 35 f8 3c
       0.04628738 0.059678268 0.058606125 0.030298946
000180 33 3a 9c 3d c2 a2 5f 3d 26 cd 69 3d b8 27 91 3d
       0.07628288 0.054598577 0.05708041 0.07087654
000190 50 b0 39 3d c2 6b 80 3d e4 80 9b 3c d9 bf 03 3d
       0.04533416 0.06270553 0.018982358 0.032165382
0001a0 b7 b0 34 3d ad 9b 6a 3c 33 9d 31 3d da a3 05 3d
       0.04411384 0.014319343 0.043362807 0.032626964
0001b0 75 31 41 3d 6b ab 1f 3d 27 fa 4e 3d 7f ad fe 3c
       0.047166307 0.038981836 0.050531533 0.031088589
0001c0 b7 d5 08 3d 3c dd 1d 3d a2 be 60 3d cd 62 e4 3c
       0.03340694 0.038541064 0.0548693 0.027879143
0001d0 79 82 4d 3d 6c dd cb ba f1 c0 3a 3d bd aa 68 3d
       0.050173257 -0.001555366 0.04559416 0.056803454
0001e0 51 f1 5e 3c 5c ea 54 3d 69 d9 73 3d 1a 15 47 3d
       0.013607339 0.051981315 0.05953351 0.04860411
0001f0 3d ed 77 3d cd 23 fc 3c 30 ce ae 3b e4 df 3d 3d
       0.060528982 0.03077879 0.005334638 0.046356097

action_model._discrete_distribution.branches.0.weight f4 [25, 128]
000000 7a 87 3c 3d 23 89 ad bb 5d 9b 2f 3d 5b 53 46 3d
       0.046027638 -0.005295889 0.042872775 0.048419338
000010 1a 39 65 3d 72 86 0b bd 20 1e a1 bd ad ed 1d 3d
       0.05596266 -0.034063764 -0.07867074 0.038556743
000020 79 10 ff 3c 5e a7 cf ba cb fd 18 3d 17 99 61 bd
       0.031135784 -0.0015842726 0.03735141 -0.05507764
000030 87 a5 85 3d ca 1e 41 bd 65 f6 da 3c b2 57 82 3d
       0.065257125 -0.047148503 0.026728818 0.06364383
000040 cf bb 96 3d dd 83 6b 3d 6a 1e 26 3d 13 f6 92 bc
       0.073600404 0.0574988 0.04055635 -0.017939603
000050 f3 82 d3 3c a7 53 6c 3d a7 68 33 3d ec 3f 11 3d
       0.025819277 0.057696965 0.043800976 0.03546135
000060 d9 d0 4e 3d b1 4c 00 bd 34 d9 74 bd 1b a9 59 bc
       0.05049214 -0.03132314 -0.059777454 -0.013284947
000070 d6 a7 46 3d f9 1a d1 3c f6 fb 0f bd 71 4a 46 bd
       0.048499905 0.025525557 -0.035152398 -0.048410837
000080 0e af d4 3c e8 53 0f bc a0 24 cd 3c 3f 59 45 3c
       0.025962379 -0.008748032 0.025041878 0.012045204
000090 f6 84 53 bd fa 6a 41 bd 0d f6 af bd 87 16 38 bc
       -0.051640473 -0.04722116 -0.08591852 -0.01123584
0000a0 91 c4 e0 bc 50 cc 4e 3d a9 36 30 bd 06 25 32 3d
       -0.02743748 0.050487816 -0.043020878 0.04349234
0000b0 2a 26 78 3d a8 76 38 3d 3b 3b 14 bd ac ba ef 3c
       0.06058327 0.045035034 -0.0361893 0.029263817
0000c0 37 f5 49 3d 75 84 51 3d bc f4 3b bd 8a f9 c4 3c
       0.04930612 0.05115171 -0.045887694 0.02404477
0000d0 be e4 a0 3d 47 4b 0d 3d 94 5c 2c bd 74 c5 66 bd
       0.07856129 0.03449562 -0.042080477 -0.05634065
0000e0 6b 32 85 bb df 88 1d bd e1 83 3e 3d 36 7c 71 3d
       -0.004064848 -0.03846061 0.04651249 0.058956347
0000f0 74 25 7d bd d2 f2 a2 bd 39 5a 0b 3d 0d 1e 5b bd
       -0.061803296 -0.079564705 0.03402159 -0.053495456
000100 61 be 76 bd 8e a6 e3 3c 05 3c 59 3d be 94 7f bd
       -0.060240153 0.02778938 0.053035755 -0.06239771
000110 d9 69 45 3d 0f 0a 9d bc b0 f1 3e 3d 53 50 15 bd
       0.048196647 -0.019169835 0.04661721 -0.036453556
000120 ce 12 77 bd 4a 71 2f bd fe f8 c7 bc 25 ca 16 bd
       -0.060320668 -0.04283265 -0.02441072 -0.036813874
000130 77 20 b6 3c ec 5e 83 bd bd 55 91 3c d5 bb 4c 3d
       0.022232277 -0.06414589 0.017741079 0.049983818
000140 45 67 a1 bd 4e 6b 4a 3d 0e 20 3f bd fd 11 52 bd
       -0.07881025 0.04941874 -0.04666143 -0.051286686
000150 09 29 96 3d 25 f9 22 3d 84 02 0c 3d 3a d9 c2 3c
       0.073320456 0.039788384 0.034182087 0.023785222
000160 fa 99 70 bd 55 d7 37 bd a9 97 77 3d ed 0f e3 bc
       -0.058740593 -0.04488309 0.06044737 -0.027717555
000170 f9 42 8b bc cf ae 0c 3d ca 8f 84 3d d6 2e 7a bd
       -0.016999708 0.034346398 0.06472738 -0.061079822
000180 19 fa 9f 3d e7 b0 fa 3c 4d b7 eb bc b4 1d 0a bd
       0.07811374 0.030601932 -0.028773928 -0.033719733
000190 24 c3 62 bd a3 21 14 3d e3 bd 72 bd 34 f8 11 3d
       -0.05536188 0.03616489 -0.05926312 0.035637096
0001a0 cb d5 36 bd f2 63 a0 bd 70 cf 90 3d b8 4e 94 bc
       -0.044637483 -0.07831563 0.070708156 -0.018103942
0001b0 f3 40 62 3b 76 43 48 3d 46 ef 70 bd b6 10 4d bd
       0.0034523576 0.04889246 -0.05882194 -0.050064765
0001c0 bb 2f 15 bd cf 9f 3f bd 73 a2 9b 3d e5 f1 14 bd
       -0.036422472 -0.046783265 0.07599344 -0.0363635
0001d0 a3 1e 10 3d ae a7 16 bd e4 28 65 3d 9b 77 2d 3d
       0.035185467 -0.036781006 0.0559472 0.042350393
0001e0 1c c6 8c bd bd 60 84 3d 9c 57 35 3d 7d 0d 2d bd
       -0.06873724 0.06463764 0.044273004 -0.04224919
0001f0 63 df 1b 3d d3 24 21 bd 7d db 1a bd 0e 2e 54 3d
       0.038054835 -0.03934176 -0.037806977 0.051801734
000200 7e 03 5f 3c 1d bf 66 bd fb 2f fb 3c 65 87 1b 3d
       0.013611672 -0.056334604 0.030662527 0.03797092
000210 92 81 71 3c 08 38 c1 bc 57 e8 84 bd f2 62 11 3d
       0.014740365 -0.023586288 -0.06489628 0.035494752
000220 60 79 a3 3c ec 6d 66 bd 22 7f ce 3c 02 bc 8d bc
       0.019955337 -0.056257173 0.025207106 -0.017301563
000230 03 56 f7 3c c3 70 aa bc f2 49 3e 3d b6 d7 4e 3d
       0.03019238 -0.020805722 0.04645724 0.050498687
000240 cf 03 1e 3d 51 0c 19 3c 95 36 fb 3b 11 50 02 bd
       0.03857785 0.009341315 0.007666419 -0.03181464
000250 d9 6b 91 3c e5 f9 dc 3c 66 39 bf 3c 77 a7 ad 3c
       0.017751621 0.026974628 0.0233428 0.021198018
000260 13 ab 16 3d f6 7c 5b bd 8d dc 8f bd d6 a3 08 3d
       0.036784243 -0.05358597 -0.070244886 0.03335937
000270 b6 f2 6c 3d cf 99 99 bb 41 f8 1f bc d3 64 66 bd
       0.057848655 -0.004687525 -0.009763778 -0.056248497
000280 d6 b4 ff 3b fe 2b f9 bb 44 32 32 3d 7e 8a df bc
       0.0078035397 -0.007604121 0.04350497 -0.027287718
000290 8f bc 96 bd b9 bc 2e bd 2f 91 cc bd f8 99 70 3b
       -0.073601834 -0.04266045 -0.09988629 0.0036712866
0002a0 22 29 8f bb c1 e2 73 3c c1 78 18 bc e4 3e 59 3d
       -0.004368917 0.014885605 -0.009306134 0.053038493
0002b0 50 db 05 3d 40 7e 44 3d 67 07 de bc 8c 28 8c bb
       0.032679856 0.047971964 -0.02710314 -0.0042772945
0002c0 4f 42 19 bb 36 94 93 3c 31 e4 c0 bc 92 09 47 bc
       -0.002338547 0.018015008 -0.02354631 -0.012148278
0002d0 55 5b 46 3d 61 e7 92 bc 2f d0 8f bd de 53 99 bd
       0.048426945 -0.017932596 -0.0702213 -0.074866995
0002e0 28 18 1d bd ae 16 18 bd 29 73 29 3d b4 2a e8 3c
       -0.038353115 -0.037131004 0.04136959 0.028340675
0002f0 ac 09 7d bd de 8f 99 bd 03 d5 0d 3d 10 b3 ca bc
       -0.061776802 -0.074981436 0.034626972 -0.024743587
000300 5a 3d 9f bd 22 80 1a 3d fa 73 65 3d e5 ee 8e bd
       -0.07775374 0.037719853 0.056018807 -0.06979159
000310 a3 ac 1c 3d 4c b6 2f bd 18 b6 ac 3b 08 8d 6b bd
       0.038250577 -0.04289846 0.0052707307 -0.057507545
000320 57 39 26 bd 26 01 a8 bc 2e 58 ca bc 4e 86 66 bd
       -0.040582027 -0.02050836 -0.02470025 -0.056280427
000330 bd 88 4d bc 6f d3 49 bd 3b 72 9c 3a e5 2d c3 3c
       -0.012544808 -0.049273904 0.0011935899 0.023825595
000340 48 dd 96 bd fc 46 34 3d 24 d5 a7 bd 02 ee 89 bd
       -0.07366425 0.04401301 -0.0819495 -0.067348495
000350 75 d8 75 3d 19 d5 ba 3c e1 1f 3c bc a5 3c 08 3c
       0.060020883 0.022806691 -0.01148221 0.00831524
000360 0e 0f 62 bd 7f 39 de bc 04 7c 2a 3d ee 57 ee bc
       -0.05519014 -0.027127026 0.041622177 -0.029094663
000370 0e a8 7c bd ad b8 48 3d ef 76 29 3d 5a af 18 bd
       -0.061683707 0.049004246 0.04137319 -0.037276603
000380 6c 08 67 3d c2 fd c0 3c 23 86 9c bd 5d 0a a1 bd
       0.056404516 0.023558501 -0.07642772 -0.07863305
000390 2c 76 61 bd 5d 1b 38 3d af 18 03 bd 28 0d 21 3d
       -0.055044338 0.04494797 -0.032005962 0.039319187
0003a0 38 e2 75 bd 1b e0 44 bd 57 f1 b6 3c d8 ea b9 bc
       -0.060030192 -0.048065286 0.022331877 -0.02269499
0003b0 61 50 07 bd b4 a6 31 3c 68 94 b6 bd 48 1b 4e bd
       -0.03303564 0.010842968 -0.08915025 -0.050318986
0003c0 df b3 1b bd b4 25 90 bc da f9 13 3d f4 46 fb bc
       -0.038013335 -0.017596103 0.03612695 -0.030673482
0003d0 9a 42 93 3b c6 7d c2 bc 5c d9 94 3c 4f 9d f7 ba
       0.0044940235 -0.023741614 0.018170051 -0.0018891486
0003e0 42 7e 0c bd 4a 32 1c 3d e2 04 78 3d 4b 60 62 bd
       -0.034300096 0.038133897 0.06055153 -0.055267613
0003f0 2a a6 44 3d dc f7 b8 bc 75 b7 c5 bc b4 cf e1 3c
       0.04801003 -0.022579126 -0.02413533 0.02756486

action_model._discrete_distribution.branches.0.bias f4 [25]
000000 c5 83 bb 3c 2f 74 a7 3b 8c 57 0f 3c 62 11 a7 bc
       0.022889981 0.0051102857 0.0087489 -0.020394031
000010 10 58 9a 3c 2e 94 67 3b 3b 39 05 bc 23 99 f7 bb
       0.01884082 0.0035336125 -0.008131321 -0.007556097
000020 74 1f 9e bc ca 74 bd 3a 3f ce 18 3c 0f 52 8c ba
       -0.019302107 0.0014454362 0.009326517 -0.0010705608
000030 31 d6 03 bc 1d 2e 17 bc c3 b9 0c 3b 70 e9 a1 bb
       -0.008046673 -0.009227303 0.0021473027 -0.004941158
000040 85 39 d5 bb 5e fd 1a bb b8 56 4b bb ba 4d 5b 3c
       -0.006507101 -0.0023649554 -0.003102703 0.013385231
000050 90 3c bb 3c 1b 2c f9 ba 87 63 c7 bb 82 db 39 bc
       0.022856027 -0.0019010337 -0.0060848626 -0.011343839
000060 c9 3b 20 bc
       -0.009779879
