Assets/Env5/BrainsOld/MoveToButton1.onnx (onnx, 153430 bytes, 8 tensors)

network_body._body_endoder.seq_layers.0.weight f4 [128, 9]
-0.60781306 0.82790494 0.18959771 -0.33019745 0.564095 -0.048103243 -0.28801733 -0.11591371
0.22382665 -0.27863455 -0.44193798 0.65575343 -0.15462762 -0.14750795 -0.24867569 0.1602445
-0.43342036 0.21105395 0.31928492 -0.43036506 0.008671559 -0.30543408 0.5270982 0.3171048
0.29239792 -0.3788602 0.36292163 0.0060814503 0.045165163 0.22239187 -0.33393574 0.4500038
0.48851553 -0.07223815 0.2812846 -0.16735828 0.41399866 -0.36445656 0.26557806 0.15436903
-0.23615634 0.94175225 0.09932446 0.28937668 -0.07024654 0.43398827 0.009677322 0.22520374
-0.19866934 -0.04540689 -0.6488734 0.0049317703 0.8155118 -0.045553118 0.22609328 0.067976445
-0.08263467 0.10632885 0.29387206 -0.33091235 0.104116715 -0.1576912 -0.21525553 0.2961837
0.16994423 0.52277577 0.38901672 -0.05614989 -0.14064944 -0.112696745 -0.055728354 0.31041634
-0.3404759 0.47865117 -0.43866852 -0.5117937 -0.11193505 -0.068686046 0.2995117 -0.5499034
0.0024978642 0.21532679 0.079759106 -0.028773319 -0.018054076 0.037620787 0.2123043 -0.46212533
0.9580022 0.5570694 0.12564273 -0.36233968 0.083982915 0.17306386 -0.25309592 0.32754228
-0.19534275 -0.46275845 -0.45756155 -0.22430275 0.20438533 0.4993707 -0.10011235 0.16926524
0.16746965 0.03609786 0.09792787 0.2847124 0.17375493 0.27896154 -0.31379718 -0.37089378
0.6774155 0.37693712 0.4833043 -0.1912679 0.57313293 -0.43151027 -0.69264764 -0.4376793
0.08895515 0.006220349 -0.40118733 0.23927823 -0.0004967311 -0.63933307 0.08491878 -0.32840636
-0.78410524 -0.22585166 -0.56838727 0.14414097 0.016586754 -0.18589811 -0.15951987 -0.67966557
-0.30578643 0.6702123 -0.16506787 0.102718025 -0.09713595 -0.04186037 0.15673834 -0.20262466
0.5304678 0.073202126 0.46297827 0.14456427 -0.19494104 0.8419443 0.13156421 -0.31651142
-0.1863401 -0.87820035 -0.89721054 0.8020796 0.18242688 0.051703047 0.94216657 0.31660417
0.42229253 -0.38160324 -0.1654134 0.51592195 -0.43531805 -0.60591847 -0.42850968 0.029867873
-0.06831932 0.22900802 0.44009486 0.2174492 -0.47903267 0.6384876 -0.11265726 0.6363953
-0.42979392 -0.1734109 -0.104454525 0.35803616 0.5680682 -0.25182292 -0.017993383 0.056968004
1.2269182 -0.3061864 -0.5197401 -0.02063136 -0.19465326 0.57987684 -0.59296954 0.104121074
-0.072515294 0.7927915 0.21300274 -0.08388116 0.09184486 -0.13587257 0.6761544 -0.2724357
-0.23445041 0.5555065 -0.20133054 -0.07278131 0.36795318 -0.19625612 -0.24841113 0.42816645
0.0472494 -0.043223683 0.77811146 0.11910718 -0.32925192 0.12148598 -0.19094191 -0.023749504
-0.012344198 0.075647496 -0.18611068 -0.04995126 0.34608987 -0.5285419 -0.10881685 0.002545437
-0.27999228 0.022305224 -0.33564317 0.061480857 0.10027773 -0.05510862 -0.4457114 0.4219644
-0.46692175 0.46191612 0.5553544 0.5510958 0.49687213 0.40924263 -0.13272408 -0.23420095
0.02569709 -0.6044974 0.051870447 -0.207617 0.519732 -0.19483799 1.034066 0.040949438
0.29353902 0.14450876 -0.37111706 0.26880023 0.4387431 0.11187166 0.58243823 -0.49839148
00000000: a399 1bbf 94f1 533f e725 423e a40f a9be
00000010: 8868 103f e807 45bd 0277 93be 2b64 edbd
00000020: d032 653e 30a9 8ebe b245 e2be 75df 273f
00000030: b456 1ebe 530c 17be d7a4 7ebe 2217 243e
00000040: 46e9 ddbe 871e 583e 5079 a33e cf58 dcbe
00000050: 2813 0e3c db61 9cbe e8ef 063f 8f5b a23e
00000060: 2eb5 953e f7f9 c1be ddd0 b93e e746 c73b
00000070: 1bff 383d b2ba 633e a0f9 aabe e666 e63e
00000080: b51e fa3e 98f1 93bd 8904 903e f85f 2bbe
00000090: a2f7 d33e 0d9a babe d9f9 873e ea12 1e3e
000000a0: f8d2 71be ad16 713f 9f6a cb3d 2e29 943e
000000b0: 6bdd 8fbd b633 de3e a18d 1e3c cf9b 663e
000000c0: fa6f 4bbe 93fc 39bd 911c 26bf b09a a13b
000000d0: 62c5 503f e895 3abd ff84 673e 3c37 8b3d
000000e0: 5e3c a9bd f1c2 d93d 6676 963e 586d a9be
000000f0: 253b d53d cd79 21be f26b 5cbe 64a5 973e
00000100: dc05 2e3e a2d4 053f 332d c73e 6dfd 65bd
00000110: 6806 10be 8dcd e6bd 6a43 64bd e4ee 9e3e
00000120: db52 aebe c411 f53e 2999 e0be e904 03bf
00000130: 343e e5bd 45ab 8cbd 9959 993e 78c6 0cbf
00000140: 35b3 233b a07e 5c3e be58 a33d 06b6 ebbc
00000150: 24e6 93bc 4118 1a3d 4c66 593e b19b ecbe
00000160: a23f 753f 1a9c 0e3f 7da8 003e 9684 b9be
00000170: 3cff ab3d a737 313e ca95 81be 9fb3 a73e
00000180: ee07 48be adee ecbe 8245 eabe 9faf 65be
00000190: 634a 513e 84ad ff3e b407 cdbd de53 2d3e
000001a0: 2a7d 2b3e 5adb 133d 688e c83d d3c5 913e
000001b0: d0ec 313e 0cd4 8e3e 06aa a0be cae5 bdbe
000001c0: 1a6b 2d3f e7fd c03e a973 f73e bbdb 43be
000001d0: d7b8 123f eaee dcbe 5b51 31bf 8017 e0be
000001e0: 1e2e b63d 12d4 cb3b 6d68 cdbe 5a05 753e
000001f0: 0f37 02ba 55ab 23bf e6e9 ad3d e124 a8be
00000200: 1fbb 48bf a845 67be d481 11bf b199 133e
00000210: f2e0 873c 135c 3ebe 2d59 23be 90fe 2dbf
00000220: 0a90 9cbe 0993 2b3f 8d07 29be d45d d23d
00000230: 37ef c6bd c875 2bbd 0480 203e d77c 4fbe
00000240: bdcc 073f ffea 953d 7d0b ed3e a808 143e
00000250: a09e 47be a989 573f c5b8 063e c90d a2be
00000260: f0cf 3ebe bdd1 60bf 97af 65bf 1755 4d3f
00000270: 1dce 3a3e 93c6 533d d431 713f f119 a23e
00000280: ba36 d83e 8061 c3be 2162 29be 7613 043f
00000290: 02e2 debe 791d 1bbf 9f65 dbbe 78ad f43c
000002a0: 00eb 8bbd 1481 6a3e 1d54 e13e 01ab 5e3e
000002b0: c543 f5be ec73 233f d9b8 e6bd cdea 223f
000002c0: f30d dcbe a192 31be 41ec d5bd 8450 b73e
000002d0: eb6c 113f efee 80be dc66 93bc 4857 693d
000002e0: a80b 9d3f 77c4 9cbe b00d 05bf 1903 a9bc
000002f0: 2f53 47be cf72 143f dacc 17bf 6e3d d53d
00000300: e682 94bd 62f4 4a3f 641d 5a3e e3c9 abbd
00000310: 2819 bc3d 2e22 0bbe 7418 2d3f b17c 8bbe
00000320: c513 70be ad35 0e3f 9829 4ebe 5e0e 95bd
00000330: 5c64 bc3e 5df7 48be 7d5f 7ebe a238 db3e
00000340: 9688 413d 510b 31bd 5032 473f 77ee f33d
00000350: b593 a8be a4cd f83d 4786 43be 528e c2bc
00000360: 523f 4abc 13ed 9a3d cc93 3ebe b199 4cbd
00000370: b132 b13e 864e 07bf 5edb debd 59d1 263b
00000380: 265b 8fbe 72b9 b63c 6cd9 abbe 5ad3 7b3d
00000390: 695e cd3d 94b9 61bd 4934 e4be b80b d83e
000003a0: 5e10 efbe 4580 ec3e b52b 0e3f 9d14 0d3f
000003b0: 0666 fe3e 4088 d13e d2e8 07be 60d2 6fbe
000003c0: b482 d23c 57c0 1abf 1b76 543d 8d99 54be
000003d0: 280d 053f 9c83 47be 465c 843f 99ba 273d
000003e0: bf4a 963e 1bfa 133e 0e03 bebe 2fa0 893e
000003f0: f0a2 e03e f81c e53d ac1a 153f 2b2d ffbe

network_body._body_endoder.seq_layers.0.bias f4 [128]
0.055605114 0.028309308 -0.042881407 0.003450892 0.035285406 0.006404934 -0.006076443 -0.0047344286
0.051522087 -0.006554072 -0.03171495 0.026717389 0.026775802 0.017991716 0.023880677 0.009032085
0.011592071 0.026331518 0.030202836 0.01744328 -0.09904866 -0.06265592 -0.022807362 -0.025016878
0.010325981 0.027554866 -0.0095202755 0.050146148 -0.0055619893 0.03672162 -0.029927623 0.037941802
0.03235561 0.06330782 0.069275424 -0.06640771 0.014053594 0.028252792 0.0034257397 -0.033126265
-0.04946653 -0.03210937 -0.005589983 -0.006650892 0.007984389 -0.060561977 -0.020145914 0.03530624
0.005248023 0.03974773 0.013959073 0.0047485842 0.0044566435 0.003645426 0.057942625 -0.031345185
0.025682168 0.025237469 -0.08793139 0.02543491 0.013367405 -0.02932415 -0.018924976 -0.08480745
0.062905654 0.059062336 -0.008917904 -0.07290332 0.014755623 0.038516972 -0.09773972 0.074911796
-0.02086054 0.056584198 0.020459928 0.04527922 0.020738639 -0.023798557 -0.017712876 -0.0019400017
-0.0047861803 0.0099805575 -0.006018267 0.0155797675 0.02060376 -0.0032116706 0.012207105 0.03106542
0.02824967 -0.04151338 0.04281299 0.074337065 0.041852444 0.044665877 0.048588727 0.026878178
-0.048667856 0.021773102 0.03584524 0.038866114 0.04277391 0.002464597 0.026624173 0.058914267
0.0030871166 0.037910588 0.012060194 0.038205072 -0.030306693 0.011830273 0.017320214 -0.017089708
0.013223794 0.019524736 -0.07910398 -0.024231067 0.014814511 0.019555213 0.021625426 -0.08581799
-0.004399648 0.013144787 0.0074232114 0.039864656 0.062958315 0.046805218 0.02960891 -0.038055453
00000000: 30c2 633d ece8 e73c 6aa4 2fbd 5c28 623b
00000010: 6e87 103d 7be0 d13b e61c c7bb 4423 9bbb
00000020: d308 533d 8ac3 d6bb 89e7 01bd 6dde da3c
00000030: ed58 db3c 5d63 933c 69a1 c33c 4ffb 133c
00000040: abec 3d3c 32b5 d73c f06b f73c 36e5 8e3c
00000050: 06da cabd bf51 80bd 81d6 babc 32f0 ccbc
00000060: 4e2e 293c beba e13c eefa 1bbc 0c66 4d3d
00000070: 5941 b6bb 6969 163d c62a f5bc dd68 1b3d
00000080: 5187 043d 88a7 813d 46e0 8d3d c400 88bd
00000090: 0c41 663c 6672 e73c 6082 603b 68af 07bd
000000a0: 6b9d 4abd 1d85 03bd 2d2c b7bb baef d9bb
000000b0: f4d0 023c d60f 78bd 0b09 a5bc 479d 103d
000000c0: 9cf7 ab3b 84ce 223d 99b4 643c 039a 9b3b
000000d0: 0909 923b 19e8 6e3b 3f55 6d3d cf63 00bd
000000e0: 6963 d23c cfbe ce3c 5f15 b4bd df5c d03c
000000f0: f602 5b3c 3339 f0bc 8d08 9bbc 87af adbd
00000100: aed4 803d 59eb 713d 671c 12bc 564e 95bd
00000110: 92c1 713c f9c3 1d3d c32b c8bd 5b6b 993d
00000120: b9e3 aabc d5c4 673d 949b a73c b476 393d
00000130: 14e4 a93c 31f5 c2bc 981a 91bc a847 feba
00000140: 64d5 9cbb 7e85 233c e234 c5bb 4842 7f3c
00000150: 37c9 a83c e47a 52bb 4f00 483c e87c fe3c
00000160: da6b e73c ef09 2abd ac5c 2f3d 083e 983d
00000170: 786d 2b3d 91f3 363d f904 473d a02f dc3c
00000180: f257 47bd 815d b23c 75d2 123d 1332 1f3d
00000190: b233 2f3d 1485 213b f01a da3c 1650 713d
000001a0: 3951 4a3b 2248 1b3d 1f98 453c ec7c 1c3d
000001b0: be45 f8bc c3d3 413c 1fe3 8d3c b7ff 8bbc
000001c0: 9da8 583c 57f2 9f3c 4401 a2bd 3b80 c6bc
000001d0: 90b8 723c 4132 a03c ce27 b13c 58c1 afbd
000001e0: ec2a 90bb 3c5d 573c 693e f33b 1f49 233d
000001f0: 4af0 803d d4b6 3f3d 638e f23c 09e0 1bbd

network_body._body_endoder.seq_layers.2.weight f4 [128, 128]
-0.07205254 -0.087219805 0.04720611 0.10534338 0.13654615 0.037568863 0.064555794 0.10491929
-0.13167086 -0.029019566 -0.037955966 -0.15781519 -0.09664494 0.005085872 -0.1602956 -0.09570675
0.11844456 0.059441898 -0.09913948 -0.057510495 -0.14340852 0.06687689 -0.0007415151 -0.020321444
0.04629442 -0.07193819 -0.103296965 0.050594315 0.054433707 0.1895033 0.10889678 -0.00211259
-0.19093017 -0.054656833 -0.06875315 0.16438554 0.19444701 -0.03335928 0.082323425 0.15813257
0.06791911 0.09588725 0.20016982 0.16112514 0.064974464 -0.08270622 -0.040901843 -0.19814834
-0.005465594 -0.020618448 -0.10127855 0.008241141 -0.06155958 0.13886072 0.10750997 0.019572685
0.026996426 0.16602926 0.08052707 -0.21926425 -0.120817065 -0.011396732 -0.012536991 0.08940467
0.09048925 0.07729699 -0.048505694 0.00019601257 -0.09105533 -0.03425786 0.09403216 -0.06809501
-0.07111534 0.13803343 -0.13007453 -0.027532376 0.2498244 -0.0040376065 0.02062681 -0.04455529
-0.06488913 0.0035533176 -0.042945012 0.07024449 -0.055762876 0.124139935 -0.20312423 -0.07332448
0.061188504 -0.023608249 0.02235034 -0.08489851 0.0011243694 -0.021099163 -0.08435626 -0.08541398
0.18384485 0.05885122 -0.05720377 -0.029847944 -0.17912374 0.05452712 0.045251574 0.02009921
0.040649842 0.12335169 0.1056062 0.1522756 -0.025766596 -0.09632773 -0.12789224 0.10448079
0.10896587 -0.09023345 0.016185619 0.1309775 0.05048122 0.19762672 -0.12628119 0.06085522
0.0109764 0.13923192 -0.07000249 0.07087098 -0.050905973 -0.14773303 0.07550134 -0.0016298068
0.046370298 -0.064920746 -0.1061331 -0.2235684 -0.13079171 -0.026350327 0.016146282 -0.10137485
-0.0073072845 -0.09953742 -0.22332017 0.15131015 0.0047599413 -0.07665412 0.027973646 0.0095402645
-0.10845007 -0.03525861 0.13919973 0.012907474 -0.021380855 0.030375997 0.021145139 0.00017552283
0.117674574 0.057088956 0.015832208 -0.0052066953 0.030260995 0.028764576 0.022374459 0.05043201
0.11878063 0.14470348 -0.12702921 0.08437473 0.025592271 -0.12966527 0.09853999 0.011211054
0.019545795 0.05338734 -0.023987547 0.1747713 -0.052897837 -0.11512263 -0.05147582 0.08827821
-0.021250654 -0.08148922 -0.08413186 0.05971602 -0.13695283 -0.3511364 0.028129293 -0.10764769
-0.045140922 0.12550016 -0.01150046 -0.29299212 -0.122646116 -0.0275097 -0.01623655 -0.071088865
0.026188996 0.10204987 -0.14748234 0.012815745 -0.012933033 -0.04213299 0.044153694 0.046451714
0.22343878 0.030406604 0.046044573 0.046767272 -0.10440386 0.17905632 0.0053625824 -0.043552615
-0.08771788 0.0554804 0.018613646 0.018497426 -0.041834705 0.011912177 0.101744674 -0.1777587
-0.021370294 -0.0911291 -0.020278106 0.024904735 0.032086533 0.009763679 -0.27100825 -0.08660432
0.10261725 -0.069867104 -0.20198752 -0.100309126 0.060599603 0.054937385 0.04609137 0.06318983
0.23699002 -0.01945612 -0.035786312 -0.078043394 -0.062103644 -0.037456404 0.24588053 0.026417384
-0.12508461 -0.07618061 -0.08525201 -0.12329211 0.15754955 0.24086553 0.048129946 -0.0063782013
0.10957262 0.033743333 0.15176213 0.10237456 0.2069113 -0.09219991 -0.13021839 -0.17758076
00000000: 4890 93bd 4ca0 b2bd 325b 413d 45be d73d
00000010: c1d2 0b3e cfe1 193d d435 843d eddf d63d
00000020: bad4 06be 71ba edbc b777 1bbd 4e9a 21be
00000030: c8ed c5bd 63a7 a63b 8824 24be e701 c4bd
00000040: 1093 f23d 5979 733d a409 cbbd 2090 6bbd
00000050: afd9 12be c0f6 883d 3c62 42ba 2879 a6bc
00000060: 389f 3d3d 5454 93bd 5c8d d3bd fc3b 4f3d
00000070: e1f5 5e3d 270d 423e 4605 df3d 6173 0abb
00000080: 3383 43be d8df 5fbd 74ce 8cbd af54 283e
00000090: 1e1d 473e bea3 08bd 2f99 a83d 81ed 213e
000000a0: 2d19 8b3d 8960 c43d 51f9 4c3e fdfd 243e
000000b0: 5511 853d e161 a9bd b188 27bd 66e7 4abe
000000c0: ba18 b3bb 05e8 a8bc 216b cfbd da05 073c
000000d0: e625 7cbd 8131 0e3e 302e dc3d e556 a03c
000000e0: 9c27 dd3c 9303 2a3e 60eb a43d cf86 60be
000000f0: f06e f7bd 5cb9 3abc f467 4dbc cc19 b73d
00000100: 6e52 b93d e24d 9e3d e8ad 46bd b988 4d39
00000110: 387b babd f851 0cbd ef93 c03d 6675 8bbd
00000120: eba4 91bd a358 0d3e 4232 05be 948b e1bc
00000130: f8d1 7f3e e64d 84bb 8ef9 a83c 9c7f 36bd
00000140: 98e4 84bd c7de 683b 1ce7 2fbd 58dc 8f3d
00000150: 9d67 64bd 143d fe3d ccff 4fbe 252b 96bd
00000160: cca0 7a3d 1666 c1bc 0f18 b73c 45df adbd
00000170: 945f 933a 27d8 acbc fac2 acbd 86ed aebd
00000180: d341 3c3e fa0d 713d 804e 6abd ad83 f4bc
00000190: 376c 37be d457 5f3d b759 393d 19a7 a43c
000001a0: 7380 263d d09f fc3d 1048 d83d 23ee 1b3e
000001b0: 7814 d3bc 7947 c5bd 2ff6 02be 06fa d53d
000001c0: 8029 df3d 51cc b8bd b497 843c f71e 063e
000001d0: 65c5 4e3d a95e 4a3e db4f 01be 5343 793d
000001e0: 5cd6 333c d092 0e3e 775d 8fbd ce24 913d
000001f0: c882 50bd 5447 17be 72a0 9a3d 3e9f d5ba
00000200: c8ee 3d3d 2bf5 84bd 505c d9bd 1def 64be
00000210: 43ee 05be a4dc d7bc 3545 843c 9e9d cfbd
00000220: f271 efbb 46da cbbd 0bae 64be 0cf1 1a3e
00000230: 48f9 9b3b d6fc 9cbd fd28 e53c c54e 1c3c
00000240: 121b debd 556b 10bd 608a 0e3e df79 533c
00000250: e726 afbc 15d7 f83c 9238 ad3c 8d0c 3839
00000260: 5eff f03d 1cd6 693d 8cb2 813c ed9c aabb
00000270: e8e5 f73c b0a3 eb3c a44a b73c cc91 4e3d
00000280: 4243 f33d 262d 143e f213 02be a9cc ac3d
00000290: e2a6 d13c f9c6 04be 56cf c93d 92ae 373c
000002a0: 811e a03c afac 5a3d 8881 c4bc 3ff7 323e
000002b0: 67ab 58bd 6ac5 ebbd 4fd8 52bd 35cb b43d
000002c0: da15 aebc d2e3 a6bd 534d acbd c998 743d
000002d0: 5d3d 0cbe 26c8 b3be 676f e63c 6476 dcbd
000002e0: b0e5 38bd 1d83 003e 6d6c 3cbc 1003 96be
000002f0: e32d fbbd 065c e1bc 8302 85bc 0a97 91bd
00000300: 4e8a d63c 86ff d03d 9c05 17be 21f9 513c
00000310: 12e5 53bc a493 2cbd 81da 343d 2744 3e3d
00000320: 23cd 643e 4517 f93c 3c99 3c3d 0a8f 3f3d
00000330: b1d1 d5bd 8a5a 373e 9ab8 af3b 3a64 32bd
00000340: 6fa5 b3bd 6a3f 633d a57b 983c ea87 973c
00000350: de5a 2bbd 4b2b 433c 835f d03d 6006 36be
00000360: c110 afbc e5a1 babd 451e a6bc 0405 cc3c
00000370: 2b6d 033d d6f7 1f3c 98c1 8abe 9b5d b1bd
00000380: fe28 d23d 7c16 8fbd d1d5 4ebe df6e cdbd
00000390: 4a37 783d 0606 613d 4eca 3c3d ab69 813d
000003a0: 83ad 723e 7162 9fbc ab94 12bd 37d5 9fbd
000003b0: 6460 7ebd e36b 19bd 1bc8 7b3e 4569 d83c
000003c0: 2e16 00be 9404 9cbd 9b98 aebd 9380 fcbd
000003d0: ab54 213e 74a5 763e e823 453d 3b00 d1bb
000003e0: 9c67 e03d 7336 0a3d 8867 1b3e c1a9 d13d
000003f0: 8ee0 533e 4ed3 bcbd f857 05be bbd7 35be

network_body._body_endoder.seq_layers.2.bias f4 [128]
-0.047013536 -0.0049162447 0.040562157 0.024776425 0.008872934 0.028895086 0.011290474 -0.060517553
0.018207472 0.01435389 0.0035802482 -0.033808082 0.042938966 -0.03712164 0.024119858 -0.043530736
0.041768596 0.02232885 -0.053890083 0.0016293408 0.027472386 0.009439552 0.013420213 0.046683725
0.03926248 -0.0027952078 0.038362186 -0.025847863 -0.02995718 -0.010354299 0.031733353 0.07173237
0.04251071 0.08405629 0.015967475 0.007844958 -0.00068656 -0.004064138 0.016224252 -0.0032675802
0.01799659 0.012859984 0.027130624 0.027232617 -0.0476397 0.013212228 0.014710397 0.020352805
-0.035049118 -0.030862544 -0.013837292 0.07803671 0.016091222 0.015364318 0.039184414 -0.012632267
-0.010919404 0.051206116 -0.019985713 -0.011898278 0.061459213 0.018105984 0.033668716 0.01953951
-0.064073 0.047981925 -0.04640922 -0.029094853 0.07727466 0.016199773 0.004088118 0.033826414
-0.067997806 0.028653052 0.019277198 -0.026059046 0.029742906 -0.0029364966 -0.006068405 -0.035783097
-0.038882915 0.048460614 -0.004196063 0.027062623 0.027701613 0.028879376 0.042879187 0.0242399
0.023880316 0.03458756 0.019897578 0.020104213 0.005328352 0.00807787 0.0490735 0.029415669
0.07535004 0.008869887 -0.048758384 0.010491574 -0.07691231 -0.035337616 0.0053485385 -0.0009469429
0.045797955 -0.044899113 0.018452521 0.0025218623 0.075782076 0.031886373 0.03146966 0.028846847
0.023951776 0.0111554535 -0.047862858 0.023906628 0.028806308 0.0015634334 0.022061564 0.03136939
-0.037346672 -0.0642786 0.031801812 0.012436228 0.0055609634 0.035834588 0.02509544 0.02653825
00000000: 4491 40bd 7318 a1bb 8124 263d eef7 ca3c
00000010: c85f 113c 63b5 ec3c aefb 383c 41e1 77bd
00000020: d627 953c 942c 6b3c 99a2 6a3b 587a 0abd
00000030: c5e0 2f3d dc0c 18bd 0297 c53c 494d 32bd
00000040: 8c15 2b3d feea b63c d9bb 5cbd 9b8f d53a
00000050: c50d e13c 5aa8 1a3c 74e0 5b3c 6f37 3f3d
00000060: b2d1 203d ce2f 37bb ab21 1d3d e6be d3bc
00000070: c368 f5bc 14a5 29bc d5fa 013d 6ce8 923d
00000080: b61f 2e3d b425 ac3d 39ce 823c 2488 003c
00000090: 43fa 33ba 762c 85bb b9e8 843c e624 56bb
000000a0: 966d 933c afb2 523c 0b41 de3c f016 df3c
000000b0: d921 43bd 1a78 583c e103 713c edba a63c
000000c0: aa8f 0fbd 72d3 fcbc cfb5 62bc b6d1 9f3d
000000d0: bdd1 833c 9fba 7b3c d67f 203d 91f7 4ebc
000000e0: 4de7 32bc 81bd 513d 14b9 a3bc fff0 42bc
000000f0: a8bc 7b3d 0053 943c 35e8 093d 5311 a03c
00000100: b438 83bd b288 443d 9817 3ebd 5458 eebc
00000110: 2d42 9e3d 63b5 843c 9ff5 853b 918d 0a3d
00000120: 6f42 8bbd ceb9 ea3c 37eb 9d3c c879 d5bc
00000130: 65a7 f33c 3d72 40bb 79d9 c6bb 4c91 12bd
00000140: b143 1fbd a37e 463d 217f 89bb 6fb2 dd3c
00000150: 7eee e23c 7194 ec3c 16a2 2f3d c192 c63c
00000160: a7a0 c33c afab 0d3d 3f00 a33c 97b1 a43c
00000170: 7599 ae3b 0b59 043c 4b01 493d 21f9 f03c
00000180: 1f51 9a3d 0153 113c dfb6 47bd dae4 2b3c
00000190: 3484 9dbd 2dbe 10bd cb42 af3b 433c 78ba
000001a0: a396 3b3d 22e8 37bd be29 973c d445 253b
000001b0: a233 9b3d 499b 023d 55e6 003d 3950 ec3c
000001c0: 8436 c43c 5dc5 363c d80b 44bd d5d7 c33c
000001d0: 35fb eb3c 1fec cc3a 74ba b43c 317d 003d
000001e0: d3f8 18bd 80a4 83bd 9e42 023d 52c1 4b3c
000001f0: be38 b63b 4ac7 123d f494 cd3c be66 d93c

network_body._body_endoder.seq_layers.4.weight f4 [128, 128]
0.053408407 0.012156053 -0.09315916 0.07845949 -0.27810097 -0.19178797 0.11123972 0.14974353
-0.06405263 -0.064440385 -0.17535546 -0.114442416 0.052766465 0.07690714 0.19954889 0.09458749
0.27590075 0.06253297 0.13771899 -0.02839649 0.03510409 -0.11409708 0.022392457 -0.08159357
0.12226414 -0.019148761 0.15975213 0.0011445598 -0.01978545 -0.11615625 -0.034717105 0.091194734
0.22770736 0.026121195 -0.13648166 -0.16632184 0.07222749 -0.005224145 -0.039969597 0.14422499
-0.22176205 -0.18619467 0.1756388 -0.051982716 -0.18741457 0.08598098 0.15115155 -0.09791905
0.023580693 -0.15965441 -0.12411365 0.15444691 0.06995227 0.0017120896 -0.2733208 0.016335772
0.166697 0.06777796 -0.012508016 -0.16187133 -0.052303314 -0.030065767 0.01398368 0.04615741
-0.17337775 -0.092860445 0.010934614 -0.21731779 -0.031195104 -0.11541764 0.07597674 0.096824646
-0.22135794 0.0005544441 0.05726536 -0.0068056853 0.026695635 0.014258793 -0.16421588 -0.2329115
-0.008147305 -0.01163366 -0.1378331 0.14164871 -0.076568775 0.04003571 0.17548719 0.069568954
0.004792784 0.18725157 -0.06233937 -0.041945998 -0.1634015 0.05941547 -0.048816342 0.22820142
0.059940696 -0.055898342 -0.038784172 -0.15313333 -0.10620669 -0.10811889 0.07171524 0.017196707
0.12582296 0.008809605 0.15669277 0.24201213 0.09667769 0.032963328 0.03566676 -0.084834434
0.07445465 -0.13207865 0.029190386 -0.020518433 0.16894317 -0.038992163 -0.031989947 -0.02122742
0.12006091 0.033920962 -0.015529907 0.08406295 0.120881155 -0.030138634 0.025690045 -0.02082268
0.13374694 -0.14516698 -0.14121255 0.007231802 -0.10794782 -0.2563835 0.104026705 -0.030547762
-0.06863336 -0.23397997 -0.22346343 -0.01943483 -0.023290271 0.05492322 0.0915601 -0.2224507
0.16631754 0.05259925 -0.036958415 0.05196269 0.037494272 -0.0058759367 0.0341029 0.127382
0.13552229 -0.098651014 0.07818889 0.048392285 -0.07254927 0.048366897 -0.048072595 -0.009195605
0.061569244 0.17332467 0.14755869 0.084931426 0.055511855 -0.17872652 0.019029735 0.19740793
-0.0952951 -0.1707155 0.044050384 -0.0015405226 0.041961215 0.036860127 -0.102281645 0.1834275
-0.017242162 0.1603603 0.105096824 0.053313836 0.19952899 0.071596675 -0.14016317 -0.07430056
-0.026546301 -0.10062371 -0.0578703 0.005739755 0.082678705 -0.042513452 -0.0338975 0.17326672
0.010834736 -0.03524503 -0.07227468 -0.11603546 0.08740486 -0.059836756 -0.06253396 0.15703489
-0.06676622 0.1984228 -0.060176224 -0.07757463 0.16539514 0.11203053 0.038142372 0.09585036
0.027193049 -0.209777 -0.19216989 -0.07586366 0.11574148 -0.03793647 0.2314932 -0.07822387
-0.03509463 -0.025520068 0.08136131 -0.17793675 -0.2044153 -0.10286209 -0.012411157 0.113662854
-0.07774067 0.14170122 0.021167021 0.09505524 -0.08139181 -0.082285106 -0.058719937 0.13920504
0.086542316 0.12751622 0.1927564 -0.029155303 -0.04868899 0.07714857 -0.1581225 0.07398808
-0.11605562 -0.087562904 -0.04091394 -0.033564955 0.12366687 -0.007155055 0.1414841 0.052868284
0.1479373 -0.077573985 0.06823437 0.055194113 0.02144928 -0.13520236 0.101863146 -0.08070192
00000000: c6c2 5a3d 2f2a 473c 3bca bebd 5eaf a03d
00000010: 4063 8ebe 1164 44be a6d1 e33d 5e56 193e
00000020: 062e 83bd 52f9 83bd 6290 33be c960 eabd
00000030: a621 583d 7e81 9d3d 8b56 4c3e 16b7 c13d
00000040: dd42 8d3e 4911 803d 3506 0d3e c19f e8bc
00000050: 4ec9 0f3d bbab e9bd 6370 b73c 881a a7bd
00000060: 9f65 fa3d dddd 9cbc 1096 233e 0e05 963a
00000070: 1915 a2bc 54e3 edbd 8633 0ebd 4ec4 ba3d
00000080: 1e2c 693e 1efc d53c d9c1 0bbe 4650 2abe
00000090: 02ec 933d 4e2f abbb 29b7 23bd b7af 133e
000000a0: 9715 63be d1a9 3ebe a8da 333e d4eb 54bd
000000b0: 9be9 3fbe cc16 b03d 79c7 1a3e c889 c8bd
000000c0: 4c2c c13c 727c 23be 4c2f febd 5527 1e3e
000000d0: 2343 8f3d 3268 e03a b4f0 8bbe 99d2 853c
000000e0: 9eb2 2a3e 2ccf 8a3d 6cee 4cbc 99c1 25be
000000f0: 003c 56bd 7c4c f6bc ce1b 653c 8d0f 3d3d
00000100: f089 31be 9e2d bebd 1827 333c 8e88 5ebe
00000110: e08c ffbc 1560 ecbd b199 9b3d 004c c63d
00000120: a8ab 62be 1d58 113a 158f 6a3d 3a02 dfbb
00000130: ceb0 da3c b69d 693c 3528 28be 5a80 6ebe
00000140: 467c 05bc 1b9b 3ebc 1f24 0dbe 5c0c 113e
00000150: 17d0 9cbd 7cfc 233d eab2 333e 2b7a 8e3d
00000160: c90c 9d3b e0be 3f3e 9157 7fbd 91cf 2bbd
00000170: b952 27be a35d 733d a5f3 47bd a2ad 693e
00000180: 6084 753d a9f5 64bd 27dc 1ebd fcce 1cbe
00000190: e582 d9bd 706d ddbd 71df 923d 1ce0 8c3c
000001a0: bcd7 003e 2956 103c 1274 203e 07d2 773e
000001b0: f4fe c53d 8e04 073d 4f17 123d adbd adbd
000001c0: ae7b 983d a03f 07be ad20 ef3c 4616 a8bc
000001d0: 70ff 2c3e 3fb6 1fbd e407 03bd 20e5 adbc
000001e0: 7fe2 f53d b5f0 0a3d 2771 7ebc 3229 ac3d
000001f0: 8a90 f73d 4ce5 f6bc ee73 d23c 5394 aabc
00000200: f5f4 083e a7a6 14be 069a 10be c1f8 ec3b
00000210: bf13 ddbd b344 83be f40b d53d 4d3f fabc
00000220: a68f 8cbd 7298 6fbe 99d3 64be cb35 9fbc
00000230: 3dcb bebc 2cf7 603d dd83 bb3d 1eca 63be
00000240: 254f 2a3e 5072 573d b561 17bd d4d6 543d
00000250: 9893 193d ee8a c0bb 7caf 0b3d 6d70 023e
00000260: 5bc6 0a3e 8b09 cabd 7f21 a03d fd36 463d
00000270: b694 94bd 5e1c 463d c5e7 44bd 2aa9 16bc
00000280: 0830 7c3d 067c 313e a019 173e 87f0 ad3d
00000290: 6660 633d 1604 37be 3fe4 9b3c 4e25 4a3e
000002a0: 142a c3bd 0bd0 2ebe 2d6e 343d 5ceb c9ba
000002b0: 86df 2b3d a5fa 163d 0a79 d1bd 6bd4 3b3e
000002c0: 6f3f 8dbc 7e35 243e 013d d73d 9c5f 5a3d
000002d0: 5451 4c3e 47a1 923d ef86 0fbe e42a 98bd
000002e0: a177 d9bc ce13 cebd 6809 6dbd 8e14 bc3b
000002f0: 7453 a93d 9622 2ebd 1bd8 0abd d56c 313e
00000300: 2d84 313c 185d 10bd bf04 94bd 00a4 edbd
00000310: 5201 b33d 6317 75bd ce11 80bd c1cd 203e
00000320: babc 88bd 592f 4b3e 587b 76bd 73df 9ebd
00000330: 585d 293e 4370 e53d 2d3b 1c3d 324d c43d
00000340: f5c3 de3c c8cf 56be 2fc8 44be 685e 9bbd
00000350: de09 ed3d 4663 1bbd 8e0c 6d3e d633 a0bd
00000360: 63bf 0fbd 760f d1bc c2a0 a63d 0d35 36be
00000370: 3f52 51be 5ca9 d2bd 2a58 4bbc 12c8 e83d
00000380: 8036 9fbd 201a 113e 7666 ad3c 52ac c23d
00000390: c0b0 a6bd 1885 a8bd 5184 70bd c48b 0e3e
000003a0: 193d b13d 9d93 023e ef61 453e 1ad7 eebc
000003b0: 1b6e 47bd 1200 9e3d ddea 21be 1087 973d
000003c0: 92ae edbd 2e54 b3bd 6095 27bd 687b 09bd
000003d0: 0e45 fd3d f474 eabb 35e1 103e 6a8c 583d
000003e0: e07c 173e 1cdf 9ebd 76be 8b3d 3913 623d
000003f0: 67b6 af3c 7d72 0abe a09d d03d 0c47 a5bd

network_body._body_endoder.seq_layers.4.bias f4 [128]
0.035058394 0.008744891 -0.01247856 0.05825165 0.0367387 0.039281055 0.03423719 0.029730404
0.039512143 0.027053783 0.031430133 0.02465554 0.025392259 0.038230892 0.05354384 -0.0134904
0.00054440775 0.028081888 -0.004954663 -0.0027537923 -0.039519463 0.006206917 -0.012770615 0.039532986
-0.025010236 -0.0034268063 0.059221398 -0.0055866814 0.025561934 0.026600754 0.025196366 0.039536722
0.0037062918 0.036827814 -0.0048166006 0.041703615 0.013092496 0.032385435 0.028151797 0.030488104
0.04415789 0.052163556 0.02601365 0.030623231 0.04068917 -0.045509577 -0.008789343 0.016737668
0.033246025 0.03647652 0.040044293 -0.020741938 0.03206921 -0.021620208 -0.0099584395 0.04189273
0.03026267 0.014865711 0.036696833 0.04816997 -0.02262321 0.042079408 0.019275641 -0.020215066
0.04597892 0.021893118 0.025182368 0.035825152 0.011183368 -0.031540193 0.015988361 0.032878913
0.013270148 -0.032487467 0.002111277 0.024187727 0.0077888533 0.040320255 0.01378049 0.007160701
0.008199861 0.039025348 0.0009216735 0.0067918934 0.01049316 0.03942413 0.044788186 0.025695764
0.021653254 0.022240864 0.03342144 0.034809552 0.024641437 0.004186449 0.04204025 0.0303766
-0.00935884 0.035793297 0.024137914 -0.014200611 0.023093475 0.048962347 0.025671517 -0.013668467
0.027154101 -0.018677363 -0.030786786 0.03673839 -0.010200258 0.043861017 0.029693792 0.027967984
0.031892974 0.0065460717 0.03327462 0.038150076 -0.021719258 0.037332024 -0.024379557 -0.00094180147
0.021297753 0.018209463 -0.021486657 0.042689733 0.037591625 -0.020092634 -0.0038282908 0.018352287
00000000: 6499 0f3d bb46 0f3c e072 4cbc 4899 6e3d
00000010: 527b 163d 2ce5 203d 4c3c 0c3d 2d8d f33c
00000020: 7cd7 213d e59f dd3c e2bc 003d 6afa c93c
00000030: 6d03 d03c ff97 1c3d c950 5b3d d706 5dbc
00000040: 96b6 0e3a fd0b e63c ba5a a2bb f878 34bb
00000050: 29df 21bd 6563 cb3b d73b 51bc 57ed 213d
00000060: 44e2 ccbc 4594 60bb 2392 723d 7b10 b7bb
00000070: 4367 d13c d3e9 d93c 9c68 ce3c 42f1 213d
00000080: 42e5 723b c3d8 163d 93d4 9dbb 69d1 2a3d
00000090: e981 563c 97a6 043d 999e e63c 30c2 f93c
000000a0: e7de 343d 74a9 553d 941a d53c 92dd fa3c
000000b0: b0a9 263d 4068 3abd 2d01 10bc 6f1d 893c
000000c0: fc2c 083d 6768 153d 7c05 243d ffea a9bc
000000d0: 015b 033d dd1c b1bc b928 23bc b697 2b3d
000000e0: 6be9 f73c 508f 733c 6b4f 163d e04d 453d
000000f0: 4f54 b9bc 755b 2c3d f3e7 9d3c 119a a5bc
00000100: 6454 3c3d 3259 b33c 414b ce3c 65bd 123d
00000110: 723a 373c 4a30 01bd 06fa 823c 0aac 063d
00000120: 096b 593c 9411 05bd 5a5d 0a3b 5725 c63c
00000130: a339 ff3b da26 253d 90c7 613c 50a4 ea3b
00000140: b658 063c 0bd9 1f3d 769c 713a 888e de3b
00000150: 81eb 2b3c 327b 213d d173 373d ec7f d23c
00000160: 2a62 b13c 7932 b63c ebe4 083d 7694 0e3d
00000170: d7dc c93c 7b2e 893b 6632 2c3d 59d8 f83c
00000180: d255 19bc fe9b 123d e0bc c53c aea9 68bc
00000190: 872e bd3c be8c 483d 134d d23c b5f1 5fbc
000001a0: 4772 de3c 4501 99bc 9234 fcbc fe7a 163d
000001b0: fc1e 27bc 9ca7 333d 6540 f33c 1d1d e53c
000001c0: 35a2 023d 6e80 d63b f84a 083d 4143 1c3d
000001d0: 96ec b1bc 77e9 183d a3b7 c7bc 3ae3 76ba
000001e0: a078 ae3c 032c 953c c904 b0bc 6edb 2e3d
000001f0: adf9 193d 4f99 a4bc 10e4 7abb 8957 963c

action_model._discrete_distribution.branches.0.weight f4 [25, 128]
-0.02440353 -0.07001569 0.0035764552 0.062420953 -0.0028052444 -0.024510326 -0.04730278 0.050496284
0.05774844 0.04062172 0.05004902 0.036864873 -0.046623826 -0.03221093 0.051402804 -0.016878828
-0.009232177 -0.0006999574 0.029221153 0.017010007 -0.013991834 -0.06483607 0.01197628 -0.019886065
-0.006043425 -0.046783216 0.0157466 0.015424414 0.045301646 -0.024961907 -0.03018704 -0.04945874
0.014325233 -0.05177355 0.0127055105 -0.01698812 0.033729646 -0.030720867 -0.016241876 -0.027081333
0.004427136 -0.0026100937 0.037367888 -0.028401162 0.06346727 -0.02141983 0.0020273754 0.046384983
-0.0018659721 0.0526443 0.049183156 -0.010247085 -0.031224776 -0.035380617 0.011875905 0.06212696
-0.066561244 -0.054331478 -0.0023315363 0.04864712 -0.028484637 -0.009857823 -0.063292064 -0.004717496
0.05719419 0.04735197 -0.042748846 0.00072501437 0.032292675 -0.012423294 -0.05405416 -0.011788178
0.04066561 -0.022775944 0.014187601 0.03597997 0.04804823 0.050557487 0.026567498 0.027582975
0.032330003 0.044899024 0.0066721295 0.031379808 0.028661147 0.043169666 0.02634277 -0.052632093
-0.061784208 -0.038018767 0.031559743 0.0015660446 0.02590785 0.0009658834 0.04815905 0.043087855
-0.014564931 -0.021797102 0.049789663 -0.024862776 -0.01951236 0.036644112 -0.016613102 -0.032740295
-0.066529274 0.0038874839 -0.040812906 0.04552417 -0.047139272 0.052555118 0.041235622 -0.015663538
0.042029995 -0.089894794 0.029242054 0.02511506 -0.0071655656 -0.04656407 -0.036655437 0.02811343
0.04712024 -0.039607752 -0.023852255 -0.021267822 0.03956154 -0.01777668 0.006942106 0.04276694
-0.03421251 -0.071065634 0.0034579912 0.059089072 -0.02358748 -0.034090582 -0.034747258 0.04894398
0.051057417 0.036185473 0.040322352 0.029529843 -0.057944767 -0.04062986 0.04824325 -0.018806558
0.006130704 -0.02781169 0.028802069 0.046359766 -0.009537282 -0.06905566 0.014381291 -0.026202532
-0.007990329 -0.031065902 0.017000088 0.012094091 0.016992109 -0.031212933 -0.039749943 -0.04621204
0.021995604 -0.05615548 0.037872467 -0.022366287 0.033350393 -0.047690503 -0.023846712 -0.045578446
0.010096632 -0.024578722 0.043632492 -0.051911578 0.04144124 -0.023515899 0.03949914 0.045490827
-0.020732885 0.03159853 0.048931792 0.0054559745 -0.016699817 -0.030293861 0.026360251 0.036872763
-0.052437585 -0.0395442 -0.0007456582 0.034000713 -0.033424977 -0.015846826 -0.0531621 0.008625262
0.04189814 0.037067357 -0.0390583 -0.013163217 0.03261374 -0.003549374 -0.057985876 -0.030958356
0.030030675 -0.015143386 0.011518986 0.031890333 0.03990624 0.03089078 0.035235405 0.019348996
0.027382161 0.03860654 0.022512777 0.004748476 0.023677647 0.04863538 0.005496253 -0.036494773
-0.056475665 -0.037668765 0.021751314 -0.0061361575 0.046894018 -0.008747035 0.05154346 0.03522086
-0.03253146 -0.034068614 0.016791783 -0.02085994 -0.023372885 0.044137888 -0.03398362 -0.016543057
-0.06622381 0.0028405995 -0.023207009 0.04600875 -0.04442972 0.04784097 0.037270583 -0.037084553
0.029927397 -0.06306636 0.0055267867 0.020886568 -0.022743898 -0.05093885 -0.02896372 0.033651356
0.028998645 -0.05917141 -0.02628944 -0.028500691 0.04074645 -0.027497185 0.019759664 0.04715114
00000000: e9e9 c7bc 6364 8fbd f662 6a3b 1dad 7f3d
00000010: 31d8 37bb e1c9 c8bc 8fc0 41bd 31d5 4e3d
00000020: a189 6c3d f662 263d 3400 4d3d 9fff 163d
00000030: a0f8 3ebd 9cef 03bd bf8b 523d 7845 8abc
00000040: 8f42 17bc 597d 37ba 3361 ef3c 9258 8b3c
00000050: 013e 65bc c6c8 84bd 2938 443c 1ae8 a2bc
00000060: ec07 c6bb c29f 3fbd 04ff 803c aeb6 7c3c
00000070: 388e 393d ea7c ccbc d04a f7bc 3f95 4abd
00000080: 62b4 6a3c 8110 54bd c62a 503c ab2a 8bbc
00000090: 1928 0a3d 54aa fbbc af0d 85bc acd9 ddbc
000000a0: 8211 913b 1b0e 2bbb 120f 193d 8ea9 e8bc
000000b0: 21fb 813d a478 afbc b7dd 043b 2efe 3d3d
000000c0: a293 f4ba 8da1 573d 4774 493d 64e3 27bc
000000d0: 1acb ffbc 44eb 10bd 2893 423c d778 7e3d
000000e0: 4351 88bd af8a 5ebd b0cc 18bb 3442 473d
000000f0: 9d58 e9bc b582 21bc 459f 81bd 3a95 9abb
00000100: 7444 6a3d 24f4 413d 6a19 2fbd e40e 3e3a
00000110: 5345 043d 128b 4bbc e567 5dbd 3423 41bc
00000120: fc90 263d 9e94 babc 1d73 683c bc5f 133d
00000130: 39ce 443d 5e15 4f3d 15a4 d93c b1f5 e13c
00000140: 776c 043d 0ae8 373d e1a1 da3b 1d88 003d
00000150: c8ca ea3c add2 303d cbcc d73c c094 57bd
00000160: 7011 7dbd 91b9 1bbd ca44 013d bd43 cd3a
00000170: b33c d43c 5633 7d3a 6d42 453d e47c 303d
00000180: c0a1 6ebc d68f b2bc 3ff0 4b3d 05ad cbbc
00000190: 63d8 9fbc 2318 163d 3318 88bc b01a 06bd
000001a0: 8040 88bd 28c5 7e3b 6f2b 27bd 8d77 3a3d
000001b0: 1c15 41bd 0944 573d afe6 283d d250 80bc
000001c0: a527 2c3d c31a b8bd 088d ef3c 19be cd3c
000001d0: 1fcd eabb f7b9 3ebd 0324 16bd 234e e63c
000001e0: 2701 413d bd3b 22bd ce65 c3bc db39 aebc
000001f0: 480b 223d 66a0 91bc 9b7a e33b 632c 2f3d
00000200: 6b22 0cbd dc8a 91bd 779f 623b 6207 723d
00000210: 883a c1bc 91a2 0bbd 2453 0ebd 7c79 483d
00000220: 9521 513d 3837 143d 0d29 253d 92e8 f13c
00000230: 7e57 6dbd 7f6b 26bd b79a 453d 3610 9abc
00000240: 13e4 c83b 57d5 e3bc 51f2 eb3c bde3 3d3d
00000250: 4342 1cbc 0e6d 8dbd 829f 6b3c b1a6 d6bc
00000260: dee9 02bc eb7d febc c543 8b3c 4b26 463c
00000270: 0933 8b3c 44b2 ffbc d6d0 22bd d648 3dbd
00000280: 2030 b43c 4a03 66bd 2920 1b3d 8139 b7bc
00000290: 6c9a 083d 1e57 43bd 2e5a c3bc 77b0 3abd
000002a0: 586c 253c 5159 c9bc fcb7 323d 3ca1 54bd
000002b0: 4abe 293d 6aa4 c0bc dac9 213d 9754 3a3d
000002c0: 03d8 a9bc 766d 013d b46c 483d 08c8 b23b
000002d0: 0ece 88bc d52a f8bc 74f1 d73c e507 173d
000002e0: cbc8 56bd 19f9 21bd 4678 43ba 5544 0b3d
000002f0: a1e8 08bd 34d1 81bc 81c0 59bd f950 0d3c
00000300: 629d 2b3d f1d3 173d 99fb 1fbd 89aa 57bc
00000310: fc95 053d 9d9c 68bb 9982 6dbd 619c fdbc
00000320: e402 f63c f71b 78bc 21ba 3c3c 709f 023d
00000330: ba74 233d a90e fd3c 0053 103d c981 9e3c
00000340: 8e50 e03c e421 1e3d b76c b83c 1b99 9b3b
00000350: a0f7 c13c e435 473d e919 b43b 8b7b 15bd
00000360: 0753 67bd 904a 1abd d02f b23c d211 c9bb
00000370: f113 403d b94f 0fbc 3c1f 533d c043 103d
00000380: b53f 05bd 888b 0bbd ec8e 893c 77e2 aabc
00000390: 7e78 bfbc eec9 343d 6932 0bbd 4e85 87bc
000003a0: 59a0 87bd 5a29 3a3b a01c bebc ac73 3c3d
000003b0: f0fb 35bd e5f4 433d 0aa9 183d f9e5 17bd
000003c0: 4d2a f53c f028 81bd 0c1a b53b 4f1a ab3c
000003d0: 6951 babc 41a5 50bd 5345 edbc 01d6 093d
000003e0: 918e ed3c b85d 72bd f45c d7bc 487a e9bc
000003f0: c0e5 263d c741 e1bc 05df a13c 8e21 413d

action_model._discrete_distribution.branches.0.bias f4 [25]
0.022577114 0.014184639 0.001748402 -0.01177262 -0.0294709 0.024652556 0.0065718587 -0.00609056
-0.0022672843 -0.00919362 0.012971863 -0.014682719 -0.004208731 -0.009926373 -0.018403389 0.012461115
-0.0020401755 0.011177039 -0.007544436 -0.021573862 0.01241567 0.013029291 0.015906869 0.0070199273
-0.022941729
00000000: a4f3 b83c b066 683c a32a e53a f2e1 40bc
00000010: f56c f1bc 28f4 c93c bf58 d73b 5293 c7bb
00000020: b896 14bb d6a0 16bc f087 543c c98f 70bc
00000030: 65e9 89bb 3aa2 22bc b4c2 96bc b429 4c3c
00000040: 77b4 05bb e61f 373c 5137 f7bb abbb b0bc
00000050: 186b 4b3c cf78 553c 1f4f 823c 6b07 e63b
00000060: 4bf0 bbbc
