Assets/Env5/BrainsOld/MoveOverBridge.onnx (onnx, 154966 bytes, 8 tensors)

network_body._body_endoder.seq_layers.0.weight f4 [128, 12]
00000000: 7cb5 d03e 798d 463f d49a 23bd 6a02 353e
00000010: 0cfc 043d e653 3a3e 35d3 13bf 1c16 31be
00000020: 0d1c 0f3e 90cc 37be 0f4e ea3d 02ed a1be
00000030: 43cc 6e3e e963 4d3e 9c5b 04bd 851f 3f3f
00000040: 49ef 223e 6452 953e 3c94 87bc 8e58 fc3e
00000050: 17ae 383f d3a0 023f c45e 2b3e d43d 9f3e
00000060: 919d 0dbe cf4b af3e d4f3 d0be 9aab 42be
00000070: 7203 0a3d ab42 8b3e 8da6 a83d 0065 0f3f
00000080: c31f 9f3e 32ee e33d bbfe 4dbe fc11 07be
00000090: 4441 603b fa1b e3be 9a25 0b3d 167c 323d
000000a0: 70d5 eb3e bbd2 bf3d 383c 893d 077c 973d
000000b0: e4a4 78be cd5a 7ebe 8649 8b3e 8440 debe
000000c0: b3a3 0e3e f210 bcbd a0ce 01bb 046f 1a3f
000000d0: b1ef 0bbf 050c e13d 8595 e83d 0de4 063e
000000e0: eec6 ea3e fce1 95be b1b4 a83e 7e9b e93e
000000f0: 8033 183e 9a6b 003f 8135 613e 3072 8d3e
00000100: 2514 273e c102 5fbd a963 e3be e891 9f3e
00000110: 2be4 4fbd 5e67 043f cb6b 23bf cd53 a8be
00000120: 89fe 343e 101c 6d3e 3cb6 5ebe 0f7e 5bbe
00000130: bade 7d3d 28ae a33e 7fc3 bb3d e970 5f3e
00000140: 7885 8fbe de59 20be 72df 87be 0846 c4be
00000150: 2890 e1be e162 22bd 67e1 1dbe 327c 083f
00000160: 6b87 a73e e467 1e3f 56bb fc3d e68b 14bd
00000170: c635 edbe c68e 16be 8995 793d 5eef 0c3e
00000180: a369 d4bd 14ff 67be d973 8fbe 521b 17be
00000190: 627e 19be 749c 7e3e bf13 37be 8b77 54bd
000001a0: 7640 2bbf 9c1a 0f3e 0057 16bf 36a7 d03c
000001b0: a688 a1bc 0aa3 043e a159 2dbe 7b56 91be
000001c0: 8da8 d53e e195 b83e 89bc 0f3e eed3 b4be
000001d0: 1323 e73b 1298 563d 71f5 d73d df08 9a3e
000001e0: 1ed1 a4be 7475 a0bc ce0f 01be 6234 cdbe
000001f0: 1273 b73e 883f 5dbd f7e0 80be 682c 16bf
00000200: eb5d 9b3d 71f3 6bbc ed3c 04bd 33d6 0e3d
00000210: 1e11 ccbd 9765 903d 5403 9a3e ddb2 483d
00000220: 9e1d a03e 7e65 223e dc8a 473e 0fb5 633e
00000230: de4d 6a3d 763d bfbe d9be a0be e9f9 73bf
00000240: 761f 58bd 4b24 18be 806b cebe 94fb 1f3d
00000250: 0b34 1a3f 59a7 debd 7a6e d5be 929b 3b3e
00000260: 394e 5d3d a691 143e e309 85bd e018 10bb
00000270: 7f07 813d e9e9 753d 13bb 11be 252b b03e
00000280: d9ae 8bbe 782b 4ebe 681d b7be 742f 6dbe
00000290: 235d 223e ff67 2fbe de9a 803e d9ac bf3c
000002a0: a1a9 403e 3bbf fe3e d9b9 253f 5603 ccbd
000002b0: b2cf 7fbe 922e aabe 013e 273e 9f5d 503e
000002c0: 808e c63d cdca 473f 654f 56bd 7ca0 b23d
000002d0: 1d4b 423e cef3 ad3d 7891 f2bc 4fc2 763e
000002e0: 9240 1f3d 6e21 f6be 4db8 fd3c 8b8e ffbc
000002f0: fa6a 7bbc fcfe afbd 9f42 3abe 37de b33d
00000300: 57bb 18bf 7fb1 8bbe 7d0b 0c3e 9b2b b6be
00000310: 43d2 043d b852 023e 3364 95be bce9 eabc
00000320: 0f78 b8bd 88e2 fc3d be30 84bd d510 1d3d
00000330: f3d3 ec3d 5a3f eebd 2fde f9bd bd5a 1e3d
00000340: 27b0 70be b222 9bbe 1290 143d 5903 143d
00000350: 260f d73d 0ed5 26bd ccec 13bf 4381 643d
00000360: 0fd0 1dbd e5e8 5dbe 092c e4bd 60b9 ba3c
00000370: 1acc 0a3e e0df 763e 431d 4d3e 3e59 13bd
00000380: db17 9a3e 1fd9 183e 7fa9 9bbe 30f4 143e
00000390: 306f c9bd 8731 c03e e672 7ebe 3462 8abd
000003a0: 1d31 883d f3c7 fdbe 85e3 38be 9c59 e13d
000003b0: cde1 9abc f401 3abe 135c 4f3c b0fe 6dbe
000003c0: 688c 6cbe e741 103e 260f e13e 6c24 063e
000003d0: 4900 09bd b48d 433f 6fca 47bf 751f 13bd
000003e0: 4b04 a9bd 79eb a0be 15ef c8bd b1cc 0a3d
000003f0: 6394 97be a9ba 0bbe 5954 5e3e 7f19 b0be
0.40763462 0.7755962 -0.039942577 0.17676702 0.032466933 0.18196067 -0.5774415 -0.1729359
0.13975544 -0.17949128 0.1144067 -0.31626135 0.23320107 0.20057644 -0.032313928 0.7465747
0.15911593 0.29164422 -0.016550176 0.49286312 0.7214064 0.5102665 0.16735369 0.3110186
-0.13829638 0.34237525 -0.40811026 -0.19010773 0.033694692 0.271993 0.08234892 0.5601349
0.3107892 0.111294165 -0.20116703 -0.13190454 0.003421859 -0.44357282 0.033971407 0.04357537
0.46061277 0.093663655 0.06700939 0.07396703 -0.24281651 -0.24839325 0.2720453 -0.43408597
0.13929634 -0.091829196 -0.0019806996 0.60325646 -0.54662615 0.10988621 0.113566436 0.13172932
0.45854896 -0.29273975 0.32950357 0.45626444 0.14863396 0.50164187 0.21993066 0.2762618
0.16316278 -0.054445986 -0.44411972 0.31166005 -0.050754707 0.51720226 -0.63836354 -0.32876435
0.17675222 0.23155236 -0.21749204 -0.21434806 0.061979987 0.31968808 0.09168147 0.21820416
-0.28031516 -0.15659282 -0.26537663 -0.3833468 -0.44055295 -0.03964508 -0.15418015 0.53314507
0.32720503 0.61877275 0.12340419 -0.03626623 -0.46330088 -0.14702901 0.060933623 0.13763186
-0.10371711 -0.22655898 -0.28018072 -0.14756516 -0.14989617 0.2486437 -0.17878626 -0.051871818
-0.66895235 0.13974994 -0.587265 0.025470357 -0.01971848 0.1295282 -0.16928722 -0.28386292
0.41730157 0.3605185 0.14036764 -0.3531794 0.0070537417 0.05239112 0.10544861 0.30084893
-0.32190794 -0.019587256 -0.12603685 -0.40079027 0.3582998 -0.054015666 -0.25171635 -0.5866151
0.07586273 -0.014401303 -0.032284666 0.034872245 -0.09964202 0.07050627 0.30080664 0.048998702
0.31272596 0.15859029 0.19486564 0.22237037 0.057203166 -0.37351578 -0.31395605 -0.9530321
-0.05276438 -0.14857595 -0.4031639 0.039058283 0.6023566 -0.10871763 -0.4168585 0.18321064
0.054029677 0.14508685 -0.06496026 -0.0021987483 0.06300258 0.060037527 -0.1423152 0.34407917
-0.27281836 -0.2013377 -0.35764623 -0.23162633 0.15855841 -0.17129515 0.25118154 0.02339785
0.18814708 0.49755272 0.64736706 -0.09961574 -0.24981573 -0.33238655 0.16332246 0.20348214
0.096951485 0.78043824 -0.05232181 0.08722016 0.18973966 0.08493768 -0.02961038 0.2409756
0.03887994 -0.4807238 0.03097167 -0.0311959 -0.015345329 -0.08593556 -0.18189476 0.087826185
-0.5966086 -0.27283856 0.13676257 -0.35580143 0.032427084 0.12726867 -0.29178008 -0.028675906
-0.09007274 0.12347895 -0.06454609 0.03834613 0.115638636 -0.11633177 -0.12200581 0.038660754
-0.23504697 -0.30299908 0.03627021 0.036136005 0.10500936 -0.04073053 -0.577832 0.055787336
-0.0385285 -0.21670873 -0.111412115 0.022793472 0.13554421 0.24108839 0.20030694 -0.03597378
0.30096325 0.14926575 -0.30402753 0.14546275 -0.098356605 0.37537786 -0.24848518 -0.06757012
0.066499926 -0.49566612 -0.18055542 0.1100342 -0.018906498 -0.18164808 0.01265623 -0.23241687
-0.23100436 0.1408764 0.4395687 0.13099831 -0.033447538 0.76388097 -0.78043264 -0.03591867
-0.08252772 -0.3142965 -0.09811226 0.033886615 -0.29605398 -0.13645424 0.21711864 -0.34394452

network_body._body_endoder.seq_layers.0.bias f4 [128]
00000000: 9a4e 033d 3046 eb3c f0b1 d6bc 9117 a4bc
00000010: da65 d83c ceae f43c 78b6 d1bc d200 cf3c
00000020: 84cf f5bc ce07 fcbc d37f f4bc e5c2 07bd
00000030: f7df 973c d0db 043d 4e0e 0e3d 0f52 0d3d
00000040: c3fe aebc 4e4b ecbc 0c89 e6bc a66f f63c
00000050: a874 103d 07e7 02bd aef6 0cbd 3775 e43c
00000060: 34a1 013d a9a0 fc3c 05a9 eb3c e433 e6bc
00000070: 7a44 ee3c c049 af3c 791e e1bc 52e9 0f3d
00000080: d91d 56bc 293b ee3c bfb4 093d 1d53 cabc
00000090: d313 e5bc 976d 06bd cbb9 01bd 3eed 02bd
000000a0: 4af9 dd3c a6c8 033d a5f6 9bbc 88cf f83c
000000b0: 70e2 07bd 73aa 0fbd 392e 1cbd 56d1 00bd
000000c0: 858b 733c 398d a23c a304 073d 531b 123d
000000d0: 55d8 083d 50af adbc 0fc6 efbc f7d4 833b
000000e0: a4af e8bc 5c90 c63c 7a98 0abd bdf2 a6bc
000000f0: ba73 09bd 3be6 dbbc 6d78 76bc 72a3 b8bc
00000100: 09dc ccbc 73a3 0fbd 4b5f 4f3c 722f 06bd
00000110: e704 e83c 3d74 eebc 69f1 0dbd 091c 093d
00000120: 7c9b 10bd 4ced b8bc 4e99 143d 0578 0bbd
00000130: 0d15 ebbc 16f3 233c ce87 bbbc 38dd 953c
00000140: 69ed 02bd 1eb9 053d 41e1 203d 5306 893c
00000150: 9bb6 ea3c 241a e83c 2481 053d 135d d8bc
00000160: 14ca 0cbd 286e 4abc 6c0b 083d fd02 87bc
00000170: 053e 06bd 7541 9bbb 217c a6bc 9e65 f03c
00000180: b0c5 0bbd 0804 08bd dec9 f6bc 3a94 cabc
00000190: 3a96 10bd e2cf fc3c 85bf c2bc 303e dcbc
000001a0: 9da1 0cbd a8dc e3bc 5793 0d3d 7ef8 1bbc
000001b0: b6ca 13bd 5b6c e8bc 33b6 e3bc 006a a0bc
000001c0: 6018 e0bc 3060 093d 3f5e f3bc 10e4 20bc
000001d0: 02d8 103d e872 ffbc 33e9 013d a932 bd3c
000001e0: 092a e93c 33fa 91bc 9ec4 cebc b34e d63c
000001f0: 6b65 fabc 9bbb 0a3d a5c8 013d dd07 0bbd
0.032057382 0.028719991 -0.026207894 -0.020030769 0.026415754 0.02986851 -0.025599703 0.025268946
-0.030006178 -0.03076544 -0.029846108 -0.03314485 0.018539412 0.032436192 0.03468161 0.034502085
-0.021361714 -0.028844502 -0.02814152 0.030082535 0.035267502 -0.031958606 -0.03441494 0.027887924
0.031647876 0.030838327 0.028767118 -0.028100915 0.029085387 0.021397471 -0.02748035 0.03513462
-0.01306864 0.029080944 0.03361964 -0.024697835 -0.027963554 -0.032819357 -0.031671327 -0.031964533
0.02709641 0.032173775 -0.019038508 0.030372396 -0.033174932 -0.035074662 -0.03813002 -0.03144964
0.014864807 0.01984273 0.032963406 0.03567059 0.033409435 -0.02120176 -0.029269246 0.00402319
-0.028404064 0.024238758 -0.03383682 -0.020379419 -0.03355763 -0.02684318 -0.01504336 -0.022538874
-0.025007265 -0.035067987 0.012656997 -0.03276009 0.02832265 -0.029108161 -0.034654055 0.033474002
-0.03530453 -0.02257409 0.036279015 -0.034050006 -0.028696561 0.010006687 -0.022891905 0.018293962
-0.031964693 0.032647245 0.03927732 0.016726648 0.028651526 0.028332777 0.03259386 -0.026411569
-0.034372404 -0.012355365 0.033214018 -0.016480917 -0.03277399 -0.0047380277 -0.020322861 0.02934533
-0.034124076 -0.03320697 -0.030125555 -0.024728883 -0.035299517 0.030860845 -0.023772964 -0.026885122
-0.034333814 -0.027815178 0.034564342 -0.009519694 -0.036081992 -0.02837198 -0.02779684 -0.019581795
-0.027355373 0.033538997 -0.029708026 -0.009819999 0.03536225 -0.031182721 0.031716537 0.023095446
0.028462427 -0.0178195 -0.025240239 0.026160574 -0.030565938 0.03387032 0.03168549 -0.033943046

network_body._body_endoder.seq_layers.2.weight f4 [128, 128]
00000000: 9797 4dbd 419d 703d 5d4d 303e 2270 fdbc
00000010: 04ed 38bd 68e9 a3bd 0009 00bc cf31 37bc
00000020: 10a0 d23b a62a ec3d 54c6 ecbc 57bb da3d
00000030: 8517 9a3a e808 cdbd 90e6 1c3c 7e2c 6cbd
00000040: 081e 1fbd e301 76bd c5b7 77bd 3b84 a73d
00000050: 7c85 33be 87cf a83d 92d4 943e 8d6e e03c
00000060: b944 14bd cb48 b1bd d61d 423d a49c dfbd
00000070: 7365 ccbd f815 333c a620 39bd d0f1 1dbe
00000080: 5239 423c d308 4e3d 2349 cbbc 38ab f13d
00000090: 72b2 f13c 9868 b83c a7f2 0f3d 4a4c 433c
000000a0: c8ca c3bd f40f fc3d c189 7a3d 2e13 c2bd
000000b0: f8ec b53d 0580 c13c bf22 083e 5cfe ae3c
000000c0: 3613 1cbd 97f8 74be 693e 15be c3d4 a8bd
000000d0: be26 c1ba 0787 adbd a09c 083d fba8 423e
000000e0: 13cb e43d debb 8dbd b443 8dbd 501c 2b3b
000000f0: 493d 1b3e 9c3c 8cbb 7d1a a63d 18ce 31be
00000100: 0fa6 8abc 09cc e1bd 494e e3bd d67d cc3d
00000110: 6204 3f3d 5dac 7cbd 84cf 8abc 5813 383d
00000120: a88a 613d 6a1f b6bd 3dd9 7bbe 4051 3bbd
00000130: 212f 44bd 2a80 c0bd bcdc 913d 0492 883c
00000140: 938f 0b3e 585b b2bd 78b5 02ba 9cf3 cc3b
00000150: 5b87 093e 3002 98be 5519 ce3c 3cdc 3dbb
00000160: b618 95bd 9c30 31bd 7469 85bd 43ae a4bc
00000170: 7656 723c 5eb1 8c3d ad75 533d 7b0d 1d3e
00000180: 2588 d8bd c123 243e 453e 0a3e 4fa6 38be
00000190: d4bd 00bd 21b0 853a 93e8 08be 6056 fe3c
000001a0: 817a 013c 9313 b0bd 2880 103d 438c 36bb
000001b0: 611e bcbc ab18 6ebe f1b7 e53c 6e03 a8bd
000001c0: d4cf 5e3d 7480 e8bb 1f3f 8dba f8cb 103e
000001d0: 0236 d4bd c794 e03a 1d2e 4e3d a5bf 29bd
000001e0: 4486 bf3d 1b09 153e a741 5b3e 4c1a debd
000001f0: d8da eb3c dffb ddbc d50a 89bd 1f6d ca3d
00000200: 96fa 153e 6461 a73d 16f3 5cbd c8da 80bc
00000210: 68bf c43d 2b9b 4f3d e494 bc3d 2c9b d93d
00000220: bb04 773d 4700 c3bc d9b6 5abd 1cc6 07bc
00000230: d594 e83c e715 163e ae4e debb 3be3 ac3d
00000240: 7326 c03d 055d 0abe 8b54 e43b de83 5d3d
00000250: cd73 58bd 92dd d33d 9808 b1bd 01d9 fb3c
00000260: f863 813c 8a42 093d d5a9 073e 29b7 38bc
00000270: 4e77 94bd 006a 4e3d d896 323d 8f05 b8bc
00000280: dd22 10be 20f2 3b3e 3f59 09bc bb0a 74bd
00000290: bc86 e23d 084f 91bb 47ce cebd 58c1 28be
000002a0: 0c04 e33d 1b3d 9abc 134a d7bd dcd8 8e3c
000002b0: 94e5 943c ce25 ea3d 39d8 e6bb bd66 5a3c
000002c0: 533d d3bd 6efe a83d ed2b 20be 8b8d 023c
000002d0: e6be d6bb a04a 053d 60b9 e5bc bf73 adbd
000002e0: 3c3e 323d 0f3f 733d 1637 1cbd 00e9 eebc
000002f0: 73b6 80be 5331 ddbd 8179 55bd 96a8 9b3d
00000300: 32b3 793d 3012 a6bc 2627 d13c 7e9b 64bd
00000310: 9ed2 383e ec41 e13c 3dd8 af3d 8518 a6bd
00000320: 4176 17bd 9bae 803d 4ae5 29bc ebcb ed3b
00000330: 8a99 52be 9068 aa3d e588 333e 8067 64bd
00000340: 007f bdbc 78f4 043e ebf8 9fbd eb63 a3bd
00000350: 1ed0 373d 5c35 583d e4f3 713d ae82 1c3e
00000360: 3f11 073d 4b90 7b3d c57f 243d ac9e a13d
00000370: 8feb bbbd e2b3 eebc f2d4 793a 6fc5 093e
00000380: d395 21be 2145 1bbe f0f1 583d c362 023d
00000390: 08ea f73c ad4d 0bbe 8bb7 ed3d f071 07be
000003a0: 62f4 03be be3d aebd 9f7b 673d 30fa 43bc
000003b0: 79cd 88bc 1dd2 cfbd 5355 4ebe d615 1bbd
000003c0: e9ac 86bd 3d94 bcbc 4ebd aebd 6f47 12be
000003d0: 6a23 ea3d e038 60bc 9693 7cbd 85ff 9ebd
000003e0: ebf6 033e 6bdb 3abe eb3c 7a3d 3d05 c9bc
000003f0: a3b4 c5bd f768 03bd a169 253c c7bc f1bd
-0.050193395 0.05874372 0.17217012 -0.030937258 -0.04514791 -0.08003503 -0.007814646 -0.011181309
0.0064277723 0.11531572 -0.028903164 0.106802635 0.0011756277 -0.10011464 0.009576455 -0.05765962
-0.038847 -0.060060393 -0.06047799 0.08179518 -0.17531389 0.08242708 0.29068428 0.027396465
-0.03619835 -0.08656462 0.047391735 -0.10918549 -0.099802874 0.010930531 -0.04519715 -0.15424275
0.011854487 0.050301384 -0.024815148 0.118002355 0.029504035 0.022510812 0.03514352 0.011920044
-0.09560162 0.1230773 0.06116653 -0.094763145 0.08883089 0.023620615 0.13294505 0.021361522
-0.03810426 -0.23922954 -0.14574589 -0.08243706 -0.0014736278 -0.0847302 0.033352494 0.19009773
0.11171546 -0.069205984 -0.06897679 0.0026109405 0.15160097 -0.004279686 0.08110521 -0.17363775
-0.016924886 -0.11025245 -0.11098916 0.09984939 0.04663504 -0.061687816 -0.016944654 0.044940323
0.055063874 -0.088927105 -0.24594589 -0.045731783 -0.047896508 -0.09399445 0.0712218 0.016671188
0.13628988 -0.08708829 -0.00049861474 0.0062546264 0.1343054 -0.2968917 0.025158564 -0.0028970381
-0.07280104 -0.04325925 -0.06514254 -0.020102626 0.014791122 0.068697676 0.051625896 0.15337174
-0.105728425 0.16029264 0.13500316 -0.18032192 -0.031431034 0.0010199585 -0.1336997 0.031047046
0.007902742 -0.085974835 0.03527847 -0.0027854599 -0.022963705 -0.23251598 0.028041812 -0.08203779
0.05439742 -0.007095391 -0.0010776258 0.14140308 -0.10361864 0.0017134183 0.050336946 -0.041442532
0.09351781 0.14554255 0.21411763 -0.108448595 0.028790876 -0.02709764 -0.06691519 0.098840944
0.14646372 0.08172873 -0.053942762 -0.015729323 0.0960682 0.05068509 0.09208086 0.106253
0.060307246 -0.023803843 -0.053397033 -0.008286979 0.028391281 0.14656793 -0.0067842817 0.08441778
0.093823336 -0.13512047 0.006968086 0.054080836 -0.05284481 0.103449956 -0.08644217 0.030743124
0.01579474 0.033510722 0.1324838 -0.0112741375 -0.07249318 0.05039406 0.043600887 -0.022463588
-0.140758 0.18354082 -0.008383094 -0.059580546 0.11060855 -0.00443447 -0.10097938 -0.16480005
0.11084756 -0.018827965 -0.105121754 0.017437391 0.018175878 0.11432992 -0.0070448187 0.013330159
-0.10314431 0.082516536 -0.15641756 0.007968317 -0.0065535186 0.03254187 -0.028042495 -0.084693424
0.043516383 0.05938631 -0.03813847 -0.029163837 -0.25139198 -0.108004235 -0.05211783 0.076005146
0.06096191 -0.020272344 0.025531363 -0.05581235 0.18049094 0.027497254 0.08586166 -0.081101455
-0.03697801 0.06283303 -0.010369608 0.007256975 -0.20566383 0.08320725 0.1753269 -0.055762768
-0.023131847 0.12983882 -0.07811149 -0.07978042 0.04487621 0.052785262 0.059070483 0.15284225
0.03297543 0.061416905 0.040160913 0.078915924 -0.091757886 -0.02913851 0.00095303275 0.13454221
-0.1577981 -0.1516309 0.052965105 0.031832468 0.030262962 -0.1360385 0.11607274 -0.13227057
-0.12886193 -0.0850787 0.05651438 -0.011961505 -0.01669954 -0.10147498 -0.20149736 -0.03786262
-0.06575949 -0.023019904 -0.08532201 -0.14285062 0.11432536 -0.013685435 -0.061664186 -0.0776358
0.1288716 -0.18247764 0.061093252 -0.02453863 -0.09653594 -0.032082524 0.010095985 -0.118035845

network_body._body_endoder.seq_layers.2.bias f4 [128]
00000000: 8b11 f5bc a2d2 d03c bbf2 eebc e371 eabc
00000010: e57f 073d 4d1b ffbc dc3a 0d3d c1cf 9e3b
00000020: b6b3 89bc fa89 08bd 1d4e dd3c fdf6 083d
00000030: 0920 e5bc 9ee6 ec3c d27a e1bc 5bc4 10bd
00000040: cb4b 0f3d 9c78 fc3c cf3c f73c 57fb 663c
00000050: cbd7 e7bc 8afb e6bc 3a10 c33c a715 083d
00000060: 714b f9bc 1a36 06bd 0e94 b6bc 271f ff3c
00000070: d12b c6bc 3a92 083d bff2 043d 0a1e 0b3d
00000080: 4fba 643c 5aad f5bc 8f26 a7bc ecfe a3bc
00000090: 5b5c e23c 4f8b dabc 8e8b eabb feb1 a8bc
000000a0: 417d 063d e526 e9bc 118c e4bc 592c a6bc
000000b0: fa83 013d f922 fa3c c16e e3bc c7c0 0bbd
000000c0: 9e03 0dbd 45b3 ed3c 4a28 ffbc 5858 e53c
000000d0: 03a6 eabc 4abe e53c 4e67 07bd daa6 01bd
000000e0: d93d 703a bf84 623c 828d 07bd 8d23 f5bc
000000f0: 4c5b 81bc f5ad 083d 466d 3a3b 6288 023d
00000100: 21a7 b1bc bb22 94bc 4bd5 bebc 2d1f f7bc
00000110: 1b40 0ebd 2b81 0f3d 83f7 033d e8f4 05bd
00000120: 7417 0e3d e4cf 033d 90e7 e13c a377 0b3d
00000130: d663 9ebc 3ef7 fcbc f12b 06bd 8261 dcbc
00000140: d483 d4bc bc66 063d 47eb f33c 7786 83bc
00000150: 8eae dabc eff5 ca3c 51ef ce3c ccd2 cb3c
00000160: 1729 c63c 6641 0abd 7944 003d d1bc 013d
00000170: e826 e6bc 1196 e33c 0a76 873c 0e15 993c
00000180: 8afa fdbc 37bb 033d ab3e 9bbc d1c3 e8bc
00000190: 1714 88bc bff6 ec3c dbc4 fb3c 3f3c 93bc
000001a0: 2a00 d7bc a253 283c 1a24 d03c 6335 223c
000001b0: 20e5 0b3d 8270 efbc 0135 bc3c bea0 b13c
000001c0: 063f fbbc 474e 053d b860 033d 6d12 d4bc
000001d0: f90a e03c e26d 08bd 4363 053d 2cbd f1bc
000001e0: 3d4b eabc 632b 483c 56d2 fdbc f6f0 a53c
000001f0: 1dfd febc e4a3 063d b130 093d c907 d73c
-0.029915592 0.025491063 -0.029168477 -0.028618759 0.033080954 -0.031140948 0.03447996 0.0048465435
-0.016809326 -0.03333471 0.027014786 0.03343867 -0.027969377 0.02891856 -0.027524386 -0.03534351
0.03498439 0.03081923 0.030180363 0.01409801 -0.02830114 -0.028196115 0.023811448 0.033223774
-0.030431481 -0.03276644 -0.022287395 0.031142784 -0.024190815 0.033342578 0.032458063 0.033964194
0.013960435 -0.029989887 -0.020404128 -0.020019017 0.02763193 -0.026677756 -0.0071577495 -0.020592686
0.032834295 -0.02846093 -0.02789882 -0.020284818 0.031620003 0.030534254 -0.027762773 -0.034119394
-0.034427278 0.029016146 -0.031147141 0.027996227 -0.028643614 0.028044838 -0.033057503 -0.031653263
0.00091644895 0.013825594 -0.033093937 -0.029924178 -0.015790604 0.033369023 0.002844648 0.031868346
-0.021686139 -0.018082967 -0.023295065 -0.030166233 -0.034729104 0.035035294 0.032218467 -0.032704264
0.034690335 0.03218068 0.027576238 0.03404964 -0.019334715 -0.030879613 -0.03275675 -0.026901964
-0.025941767 0.03281282 0.029775275 -0.016055329 -0.026694562 0.024775473 0.0252606 0.02488079
0.024189515 -0.033753775 0.0313153 0.03167421 -0.028094724 0.027781518 0.016535778 0.018686797
-0.031003255 0.032160964 -0.01895078 -0.028413685 -0.016611142 0.028926251 0.030733516 -0.017973064
-0.026245195 0.010273846 0.02540784 0.009900424 0.034154058 -0.029228453 0.022974493 0.021683093
-0.0306697 0.032545354 0.03207466 -0.025887692 0.027348982 -0.033307917 0.032565366 -0.02950915
-0.02860033 0.012217375 -0.030984085 0.0202565 -0.031126553 0.032871142 0.0334937 0.02624883

network_body._body_endoder.seq_layers.4.weight f4 [128, 128]
00000000: f3db afbd 2015 003c 7604 bdbc 1260 f13c
00000010: 4641 d63b 8118 08be f7e9 73bc a41c 253c
00000020: c750 debd 1e63 04be aa63 143e 242c 12bd
00000030: e27f bcbd 45e0 e9bb af8f 9abd 45bd e13c
00000040: 3926 e53c 8507 59bc 364a 4a3d f651 163e
00000050: 591d 0ebd b57b c4bd 2405 bb3d 4e1a 313e
00000060: 7e56 13be 7d24 3ebe 335f e9bc 2fba bb3c
00000070: 18d1 d8bd 3dcd f33d e259 8d3c bdab ebbc
00000080: 5122 213e b005 81bd 3faf a63c 7209 00be
00000090: 1406 c8bd cff2 d73d 5a97 0c3a ff05 adbd
000000a0: 91ac babd 6453 efbc 6c7a a8bd 5ba1 86be
000000b0: f948 d23d 0d37 2d3e 631b bebd 6feb ef3d
000000c0: b5d6 bb3c 168e c8bc 2ea3 13be 1280 213e
000000d0: be50 17be b7eb 173d 2763 51bd 0703 83bd
000000e0: 7303 30bd 6da2 7ebd 2235 7fbc e162 523d
000000f0: 97d2 09bd 71bb b63d a153 e83d cdd6 afbd
00000100: fea8 653d e6f5 69bd b2b7 43bd 10ed 77bd
00000110: 8ee3 cbbd b370 f73d de32 26be 4607 48bd
00000120: 356c c63d e131 d63d bb1c 223e fe20 953c
00000130: 6353 8abb 7d59 d8bd f170 a6bd 35d1 1ebe
00000140: f49f 9fbc c597 99ba 1cf7 a13c c7d9 babd
00000150: 222c 3cbe 2376 283e 5e5b 103e d0de f33d
00000160: e592 993c 0e88 88bd 62b3 ca3d ae73 1a3e
00000170: cd06 493d b319 923d cede 26bd 3b9b f53d
00000180: af71 64bc 2bf2 b73c 1111 f5bd 227d f1bc
00000190: 34f2 5c3e 8700 f23d adbb 873b 733a 50bd
000001a0: 45c1 a0bc 1026 25be 6748 543d 268f 0c3d
000001b0: 8b15 88bd 5e56 21be 8341 933d e571 24be
000001c0: 3b19 34bc a6be 1b3e e61b 423e 58bb 0cbe
000001d0: 3de6 6fbd 7f8a 10be c68b ea3d 52e0 28be
000001e0: ff0e a93d 34d6 8bbd 13d4 3dbe e6fe d1bd
000001f0: 8a5c cfbc 6c9b 1c3e d23f e23d 2073 01be
00000200: 526c c33a e954 e63c 0358 5ebd bbad 04be
00000210: e258 62bb 5ba4 ed3d c7e3 e83b 32ca 61bd
00000220: e6e2 edbb d322 0c3e 1fce 05be 4bcc 4dbd
00000230: f8a6 a23d 643e 8ebb 4183 bc3d 3f72 0e3c
00000240: b57a 14be 9e19 85bc c965 3ebb c5a8 34bd
00000250: af40 46bc 8929 383d cb39 7c3d de05 25be
00000260: 7f79 2f3c ab2a 173e b1ff a03d 88ac 06bc
00000270: 93c7 82bd 56ad f03b 9563 cf3d 0d15 283b
00000280: aa16 32bc 9fcf df3d 65d5 d13d 9b8d 943d
00000290: e908 383c c8a8 ef3d dbbc 9c3c e833 b03d
000002a0: 482c c73d abc1 72bd b001 7d3d b987 9e3d
000002b0: 48a4 e43d 34bb cf3c f6d2 4e3d e798 f63d
000002c0: e975 c63d 832e cabc 8a40 bc3d 24b2 ae3d
000002d0: bd4f 67bc 2898 ecbd 6a5d b23d 8e30 4e3c
000002e0: 3716 11bd eb4d 7a3d 1f47 eb3d 74e7 0b3e
000002f0: 6911 ffbb e07d fdbc f1c7 ed3d 36ec 8ebd
00000300: ad14 013e 6a34 143e daa4 aabc 87e7 90bc
00000310: 3597 5b3e 648b bc3c c07c 343c 7e3d 1e3e
00000320: 6e54 d1bc e24e dbbd f990 2cbe 8367 ce3c
00000330: 3314 bf3c f9d0 45bc a03e b3bb e41d b9bd
00000340: 553e 3a3d e20f 113d a2fd 06be 7bb2 e93d
00000350: c6b4 143e 396a 653d 657a 82bd 7e1f 5b3d
00000360: 3c1e 0abe 988b 1c3e 7a25 a23d d143 d6bd
00000370: 1b65 e73d 7349 473c dd1b 22bd b864 0d3b
00000380: 4530 26bc 4892 a4bd baaa 76bd 52da 783e
00000390: 6824 48bc 42f7 c9bd 5983 5bbe a37b 3ebc
000003a0: abb2 c63c ae32 9a3d b641 753d 3c81 bb3d
000003b0: 1fc3 37be 156e ed3b e67f 61be 2601 84bc
000003c0: a68c 9a3d fd44 6ebc 59f2 6bbe 9813 fc3d
000003d0: a027 04be 8897 a23d a01a 1e3d 526f 34bd
000003e0: 5eb3 ba3d c921 813d 7bab 46bd f724 303d
000003f0: 00de b1bd b77f 36be 3959 723d 863a f1bd
-0.08586874 0.007817537 -0.023073416 0.029464755 0.006538543 -0.13290597 -0.014887325 0.010077629
-0.10855251 -0.12928435 0.14491144 -0.035686627 -0.09204079 -0.0071373307 -0.07546937 0.027556071
0.027972328 -0.013246422 0.04938718 0.14679703 -0.034695957 -0.09593908 0.0913184 0.1729519
-0.14388463 -0.18568607 -0.028487777 0.022915928 -0.105867565 0.119043805 0.017254774 -0.028768415
0.15735747 -0.06299913 0.020347236 -0.12503603 -0.09766784 0.10544359 0.00053631293 -0.08448409
-0.09114946 -0.029214568 -0.08226475 -0.2629498 0.10267825 0.16915531 -0.09282567 0.11714827
0.022929529 -0.024481814 -0.14417717 0.15771511 -0.14776894 0.03709003 -0.05111995 -0.06397062
-0.04297204 -0.06216662 -0.015576633 0.05136383 -0.0336481 0.0892247 0.11344076 -0.08585892
0.056069367 -0.057119273 -0.047782607 -0.060528815 -0.09955512 0.120820425 -0.16230342 -0.04883506
0.096886076 0.104587324 0.15831272 0.018204208 -0.0042213663 -0.105639435 -0.081270106 -0.15509494
-0.019485451 -0.0011718204 0.019771151 -0.09123569 -0.1837621 0.16451316 0.14097354 0.119077325
0.018746803 -0.06666575 0.09897496 0.15083191 0.04907875 0.07133808 -0.040739827 0.119924985
-0.01394312 0.022454342 -0.11966146 -0.029478613 0.21576768 0.11816507 0.0041422457 -0.05083699
-0.019623408 -0.16127801 0.05182686 0.034316204 -0.06644734 -0.15755603 0.0719023 -0.16059072
-0.010992344 0.15209445 0.18955955 -0.13743341 -0.05856918 -0.14115332 0.11452441 -0.16491821
0.082548134 -0.068279654 -0.18537931 -0.10253696 -0.02531268 0.15293664 0.11047329 -0.12641573
0.0014909601 0.02811666 -0.054283153 -0.12956898 -0.0034537842 0.11603614 0.0071072313 -0.05512447
-0.0072597144 0.1368516 -0.1306691 -0.050243657 0.07942003 -0.0043409336 0.09204722 0.008694231
-0.14499934 -0.016247567 -0.0029052368 -0.044106264 -0.012100383 0.044961486 0.061578553 -0.1611552
0.010710119 0.1476237 0.07861269 -0.008219846 -0.06385722 0.007344882 0.10126416 0.0025647313
-0.010869661 0.109282725 0.1024578 0.072535716 0.011232593 0.11702114 0.019133022 0.0860365
0.09725243 -0.059266727 0.061769187 0.07740731 0.11164147 0.02535782 0.050494157 0.120408826
0.09690458 -0.024680382 0.09191997 0.085300714 -0.014118132 -0.11552459 0.087092236 0.0125848185
-0.035421576 0.061109465 0.11488175 0.13662511 -0.007784058 -0.030943811 0.116104014 -0.069786474
0.12605543 0.1447312 -0.02083056 -0.017688526 0.214444 0.023015685 0.011016071 0.15453145
-0.025552955 -0.10708405 -0.16852178 0.025195843 0.023325061 -0.012073749 -0.005470112 -0.09038904
0.0454696 0.035415538 -0.1318269 0.114109956 0.14522085 0.056009505 -0.06371001 0.05349683
-0.13488096 0.15287626 0.07917304 -0.10462154 0.11298581 0.012163508 -0.039577354 0.0021574926
-0.010143344 -0.080357134 -0.06022141 0.24302033 -0.012215711 -0.09861614 -0.21436824 -0.011626157
0.024255117 0.07529198 0.05987712 0.09155509 -0.17945527 0.007245789 -0.22021446 -0.016113829
0.07546358 -0.014542815 -0.23041667 0.12308425 -0.1290574 0.079390585 0.03859961 -0.044051476
0.09116243 0.06305272 -0.04850338 0.043004002 -0.08684921 -0.17822157 0.05916712 -0.117787406

network_body._body_endoder.seq_layers.4.bias f4 [128]
00000000: b1f9 eb3c adbf f2bc b891 f23c bd2a e63c
00000010: e877 a4bc 349d b4bc 410c bdbc 3f2a d8bc
00000020: 0981 8d3c f434 723c d0f6 aa3c 487b ce3c
00000030: 668b d03c 8906 bd3c 5b51 a3bc 153f ecbc
00000040: 564d e4bc f88d a83c 1989 e0bc b3fc c3bc
00000050: 8192 f43c df27 ed3c af97 d1bc ca87 cbbc
00000060: a47f f73c 2c8f ba3c 2caf dd3c 21b7 eb3c
00000070: 8333 c23c 49ac bcbc 2116 dc3c c7c3 d93c
00000080: 4ee3 4fbc 0429 ea3b 63e1 c3bc 2e2b d83c
00000090: 133e e8bc 2fe5 a43c c3dd fdbc 2b13 cf3c
000000a0: baa3 f1bc 76b1 d83c 9b4b d1bc 55fb e23c
000000b0: 6bb3 82bc 712d f53c a7a1 cfbc d282 e13c
000000c0: e26c b4bc e918 043d 566e f13c 71df e8bc
000000d0: de50 cabc 5264 a5bc 20a4 963c c962 983c
000000e0: 51d3 f13c fb3c 0b3d 6f2e b6bc 9c78 fd3c
000000f0: c390 ba3c 72ba dfbc dc79 01bc 35cc be3c
00000100: ec6d ec3c fe30 38bc abba cc3c acda a8bc
00000110: a325 f93c 50e1 233c 0528 eabc 2678 c63c
00000120: 4f8b 0a3d 491c e2bc bf6d 093d 7984 f73c
00000130: b407 ec3c 7f14 f3bc 2400 093d 429f c4bc
00000140: 6a87 d1bc 0f98 fcba 861d ddbc 87d1 f63c
00000150: f63e 053d 6b8b d2bc 0a42 cebc 81d1 e1bc
00000160: 0138 d2bc 404e e1bc 6455 db3c 397d 323c
00000170: a38b e13c c661 bf3c 9211 b5bc af10 efbc
00000180: 7f78 a33b 92c4 f43c 4738 74bc 4b24 e6bc
00000190: 2d76 e5bc d826 f9bc d5e4 f53c ecd9 863c
000001a0: a7b9 d8bc d806 f7bc 6446 a8bc f714 a53c
000001b0: c5f8 ff3c e5a8 a83c f8f3 86bc dfbe dcbc
000001c0: 983a f53c 8a8c cebc a296 b5bc 248c a53c
000001d0: a5e8 aabc 5fe5 e7bc bc43 0e3d 86f8 86bc
000001e0: 2c62 a23c 94dc c0bc 9a6f f93c fc07 a13c
000001f0: f753 cbbc 8e47 f2bc c620 ca3c 5f36 f73c
0.028805586 -0.029632414 0.0296105 0.028096551 -0.020076707 -0.022047617 -0.023077132 -0.026387332
0.017273443 0.014783133 0.020869642 0.02520527 0.025457095 0.023074405 -0.019936254 -0.028838674
-0.027868908 0.020575508 -0.027409123 -0.023924207 0.029855015 0.028949676 -0.025585024 -0.024845023
0.030212231 0.022773348 0.027061068 0.028773846 0.023706203 -0.02303137 0.02686602 0.026582612
-0.012688471 0.0071460027 -0.023911184 0.026387777 -0.028349912 0.020128815 -0.030989533 0.025277695
-0.029497016 0.026451807 -0.025548747 0.027707735 -0.015954694 0.029928895 -0.025345637 0.0275282
-0.022024576 0.03225032 0.029471558 -0.028426858 -0.024696764 -0.020189438 0.018388808 0.018601792
0.029519709 0.033993702 -0.022238938 0.0309413 0.022774106 -0.027310584 -0.007902589 0.023290733
0.028861009 -0.011242149 0.024991354 -0.020612083 0.030413454 0.010002449 -0.028583536 0.024227213
0.03382426 -0.027601378 0.033551928 0.030214535 0.028812267 -0.02967286 0.0334474 -0.024001721
-0.025577266 -0.0019271391 -0.026991617 0.030129207 0.032530747 -0.025701245 -0.025177974 -0.02756572
-0.02566147 -0.027503133 0.026774116 0.010894113 0.027532404 0.023362052 -0.022103105 -0.02918276
0.0049887295 0.029878888 -0.014905996 -0.028093478 -0.028010452 -0.03041403 0.030016342 0.016461335
-0.026455713 -0.03015463 -0.020541377 0.020151598 0.031246552 0.020588348 -0.016473755 -0.026946483
0.029935166 -0.025213499 -0.022166554 0.020208426 -0.020862887 -0.028307615 0.034732565 -0.016475927
0.019822203 -0.02354268 0.030448724 0.019657128 -0.024820311 -0.029575136 0.02467383 0.030177293

action_model._discrete_distribution.branches.0.weight f4 [25, 128]
00000000: 9788 19bd 6f86 ad3c 13f3 36bd 3df1 a1bc
00000010: aa63 dc3c 77cc 9c3c 0f59 c83c b261 103d
00000020: e26f debc 2cdd d1bb 8493 94bc 325a d9bc
00000030: 737a b6bc 7f2f b0bc 1244 a73b 8105 f23c
00000040: 5e75 e83c 73a2 99bc df4f 073d 0731 e63c
00000050: 42dc 15bd 6f1a 16bd 7f78 0f3d e05c 913c
00000060: 3ec5 f2bc b3d7 aabb 6afd bebc 97fb c7bc
00000070: 76c9 dfbc a8b2 cb3c 17c8 0bbd 08a4 b6bc
00000080: 0083 24bb 1398 8cbc 9cb0 c73c 6a39 b5ba
00000090: 00e2 3a3d 3bbb 3abc faca fd3c 5892 61bc
000000a0: 0ff3 ff3c e18c 0cbd ee1e 733c f613 27bd
000000b0: afc8 6039 d081 00bd c290 1e3d dab1 29bd
000000c0: 3421 d13c 5013 1fbc f1ae 09bd 3596 ee3c
000000d0: 7146 b63c 6336 e33b 7740 9dbc 8f97 4ebc
000000e0: fcda 09bd 19fb 13bd f6b9 763c 83d7 dfbc
000000f0: 0b99 adbc 76db 173d 6b3c 853c c160 bf3b
00000100: f808 18bd 8574 c73c 1e67 f7bc 8aaa 833c
00000110: fefc 4bbc 4fff 05bc 5a8a 153d f181 c4bc
00000120: ccb4 25bd c6d3 173d 421e f4bc 8ef1 a1bc
00000130: f675 24bd 28ff 223d 82f3 dabc 6467 b23c
00000140: cb06 f53c afd2 d8bc cffd 253d bd8a 23bd
00000150: a3d8 dcbc 5159 c73c 2ecf f13c 4c74 db3c
00000160: c266 e13c 8a9b aa3c f488 cdbc e831 c5bb
00000170: 53d5 69bc b0a9 0abc 641e b43c 4a90 c13c
00000180: 0276 bbbc 180f 7fbc e0f2 143c 69ae 2b3d
00000190: e020 073d a136 fa3c c7d6 7abc c67f afbb
000001a0: b9e6 0a3d 798a 023d 7a31 813c 628f cbbb
000001b0: 543c 38bd 9dc6 2abc 0b14 33bc 2b76 173d
000001c0: 9393 60bc cecb 003d 57a2 8e3c 692c f4bb
000001d0: 9000 bf3c c398 5b3c 1e39 edbc b38c 9b3c
000001e0: 7b1a a4bc 712c 893c 42f7 9ebc 8e96 d3bc
000001f0: 9c31 a53c 19ec 223d a009 b9bc ec8e d4bc
00000200: 9d67 b8bc 561c ab3c 1f4c 02bd 2dd1 82bc
00000210: 32bf db3b fb7b 063d e158 2f3c 5c53 863c
00000220: d33a 96bc 07cc 4ebc 52ed 35bc 5304 00bc
00000230: 82e8 07bc a707 d6bb 4f28 4c3c 632e b23c
00000240: ba6f 773c e568 34bc c2cb 163d e374 d23c
00000250: ed08 14bb de0a efbc 1e69 cf3c bad4 ed3c
00000260: e432 25bc f448 e2bc 6ca4 50bb 3230 d0bc
00000270: d20b 6bbc e729 cf3c 4d0f e0bc 29b6 56bc
00000280: 9532 f73b 867b 55bc 7a65 bd3c 168c 9abc
00000290: b018 a43c 1297 10bd c1c3 ef3c 37e2 70bc
000002a0: 69cf a73c 903d 1bbc e412 8a3c 5658 9abc
000002b0: f299 c83c 23c2 f5bc ee39 a93c 7559 73bc
000002c0: 0473 4e3c 89b5 9dbc 3de5 c0bc 0e5b 093c
000002d0: d038 823c 9c2a 5c3b 40fc 4abc cd82 67bc
000002e0: dc34 b8bc cb4c 8eba c114 843c d91d 83bc
000002f0: 58ce c7bc 3572 f23b 5ccc 1a3c c44e a6bc
00000300: 0b21 88bc 70f0 063c 0bfe 77bc 32e9 083b
00000310: 857b 06bc 425d 45bc 4722 063d a148 dcbc
00000320: da45 15bd 7ac4 193d d3a3 b7bc 7a9c e4bc
00000330: 4c80 e4bc c3f4 5a3c 2351 2dbc 646e a83c
00000340: 4ec4 b23c 2345 963c 1ff2 013c cec7 07bd
00000350: 2c28 b8bc 0814 2b3c 9ffa e33c 60e9 c73c
00000360: e865 2f3c 045a 723c 856d 8dbc cae6 82bc
00000370: 16b6 64bc f692 02bd efa1 e43c 05ed 603c
00000380: af78 60bc 34cc 57bc 9813 933c 3543 513c
00000390: e951 b93c 786e 913c 9fea cdbc d3b1 6dbc
000003a0: 357c b23c dda3 a83c fd31 6d3c d6c0 62bc
000003b0: e5b7 68bc a405 c0bc 1878 b63c 9e43 fd3c
000003c0: 48cc d1bc 4cbd 9a3c 01c3 4c3c 3188 95bc
000003d0: 319c 103d e99d dd3c c46f 8bbb 5c3c 9f3c
000003e0: ea55 a5bc cb82 4d3c c884 8ebc 3ba8 97bc
000003f0: cb47 2c3c 1b68 033d 681f 40bc b4b5 bdbc
-0.037483778 0.021182267 -0.044665407 -0.019768352 0.026902992 0.019140465 0.024456529 0.03524942
-0.02715296 -0.0064045396 -0.018136747 -0.026532266 -0.022275185 -0.021507023 0.00510455 0.02954364
0.028376278 -0.01875422 0.033035155 0.02809955 -0.036587007 -0.036646303 0.035027023 0.017744482
-0.029635068 -0.0052137016 -0.023314197 -0.02441196 -0.027317744 0.024865463 -0.034126367 -0.022295013
-0.0025102496 -0.017162358 0.024376206 -0.0013826315 0.045625687 -0.011397178 0.030980576 -0.013767801
0.031243829 -0.03431404 0.014838917 -0.04079052 0.00021437065 -0.0313738 0.03871227 -0.041429378
0.025528528 -0.009709194 -0.033614103 0.029124359 0.022250386 0.0069339736 -0.019195778 -0.012609377
-0.033656105 -0.036128137 0.015058985 -0.027324444 -0.02119114 0.03707453 0.016264161 0.0058403914
-0.03711793 0.024347553 -0.030200537 0.01607253 -0.012450455 -0.008178546 0.036508895 -0.023987742
-0.040455624 0.037067197 -0.029799584 -0.019768503 -0.04015156 0.039794117 -0.026727442 0.021777816
0.029910466 -0.02646765 0.040525254 -0.039927233 -0.02695877 0.024334582 0.029517736 0.026788853
0.027514819 0.02082612 -0.025089718 -0.006017912 -0.014272052 -0.008463308 0.021987148 0.023628373
-0.022883419 -0.0155675635 0.009091109 0.041914377 0.032990336 0.030543627 -0.015309996 -0.005355808
0.03391144 0.03187034 0.015770663 -0.006212161 -0.04497941 -0.01042333 -0.010930072 0.036977928
-0.013707059 0.031444363 0.017411394 -0.007451583 0.023315698 0.01340312 -0.0289579 0.018987989
-0.020032158 0.016744824 -0.019405011 -0.025828626 0.020165257 0.03977594 -0.022587597 -0.025947057
-0.022510344 0.020887535 -0.031810876 -0.015968883 0.006706142 0.03283308 0.010702343 0.01639717
-0.018338596 -0.012621886 -0.011103945 -0.007813531 -0.00829518 -0.006531674 0.012460782 0.021750635
0.015102321 -0.011011337 0.036815412 0.025690502 -0.0022588328 -0.029179987 0.025318678 0.0290321
-0.010082934 -0.027622677 -0.0031836284 -0.025413606 -0.01434608 0.025288535 -0.027351046 -0.013104954
0.0075438716 -0.013029939 0.023119677 -0.018865626 0.020031303 -0.035300322 0.029268147 -0.014702371
0.020484643 -0.009475127 0.01685471 -0.01884095 0.02448747 -0.029999798 0.020657506 -0.014852871
0.012600664 -0.019251602 -0.02354681 0.008383526 0.015896231 0.0033594733 -0.012389243 -0.014130306
-0.022486143 -0.0010856626 0.016123177 -0.016005443 -0.024390385 0.0073988684 0.009448137 -0.02030123
-0.016617319 0.008236036 -0.015136252 0.0020890948 -0.00820816 -0.01204616 0.032747533 -0.0268901
-0.03644357 0.03754089 -0.022416985 -0.027906645 -0.027893208 0.01336402 -0.0105784265 0.02056045
0.021822121 0.018343514 0.007931261 -0.033149533 -0.022480093 0.010441788 0.027829466 0.024403274
0.010705449 0.014791969 -0.017264137 -0.01597919 -0.013959428 -0.031878434 0.027909247 0.013728385
-0.013700648 -0.013171244 0.017953679 0.012772371 0.022622066 0.01775287 -0.02513629 -0.014507729
0.021787742 0.020585949 0.01447725 -0.013839921 -0.014204 -0.02344019 0.022274062 0.030916031
-0.025610104 0.018889092 0.012497664 -0.018253418 0.035305206 0.027052836 -0.004255267 0.019437961
-0.020182569 0.0125433905 -0.0173973 -0.018512836 0.010515164 0.032081705 -0.011726238 -0.023157932

action_model._discrete_distribution.branches.0.bias f4 [25]
00000000: 3415 b0bc bac3 91bc b1aa 0dbc 4b62 cf3b
00000010: 20ea 8c3c 5127 9abc 7b99 4bbc 41a8 983b
00000020: cff8 973c 5dd3 d43c 909d afbc 59f0 36bc
00000030: c9ef 843a f6d6 a43c 7495 ca3c 10bb aabc
00000040: c4e2 7fbc 0b8c d6bb cf98 4e3c d138 bb3c
00000050: bf9b c0bc e26e 85bc 169b 0cbc b246 063c
00000060: d037 913c
-0.021494485 -0.017793525 -0.008646653 0.006328856 0.017201483 -0.018817576 -0.012426729 0.0046587293
0.018551258 0.025979692 -0.021437436 -0.011165702 0.0010142262 0.020122033 0.024729468 -0.020841151
-0.01561803 -0.006547456 0.012609675 0.02285424 -0.023511766 -0.016288225 -0.008581897 0.008195566
0.017726809
