Assets/Env5/Brains/MoveToTrigger1.onnx (onnx, 153942 bytes, 8 tensors)

network_body._body_endoder.seq_layers.0.weight f4 [128, 10]
00000000: 623e a0bd 2c1c 883e d5d3 cdbe 755b 223f
00000010: 666a 2bbf 584c 0b3f 344b 103f a5d5 dbbe
00000020: c04e 033f 495c 47be e458 273e 06f9 ba3d
00000030: 1c3f 003e 285e 4cbe 3fd2 36be a21d f93e
00000040: b2ef dabd fed5 09bf 887e 803c 0bf9 863e
00000050: 48fd 94be e5b3 edbd 20ce 563e 2dfa dcbe
00000060: af1b 1f3e e90f 8bbb c7a8 8f3e b990 4abf
00000070: bb7f b7be 00f1 373e a35c 433f 889b b3be
00000080: 627e a83e 3e95 a7bb f9c0 c83e a7b1 2f3f
00000090: a50a dfbe d747 c9bd 965b e3bd 42f6 dc3d
000000a0: 36aa 073e cf33 0fbf 5d84 a7be d69b c0bd
000000b0: e85d 3cbe f536 0e3f 6383 8abe 4874 363e
000000c0: 996f 843d e862 113f b7ef 753c 83a7 c73e
000000d0: 1fa7 6ebc e804 cebe 82fb 9f3e 159a 523f
000000e0: a4bd c93e 88f8 d7be a61e b3be 203c eb3e
000000f0: 30c0 37bd dc95 403e ba0c 863e a4a1 0d3f
00000100: 812a 20be f3e9 02be 14ac f13e 59ee 9c3e
00000110: 2102 9cbd a6c2 903e 9202 03bd 5af8 973e
00000120: 99cb b13b f16a 53bf fb5d 63be c1b5 26bf
00000130: fb68 a63e 6ede 18be c4ef f93e 9316 183e
00000140: 402a b6be c2f8 7e3e 2800 1ebe 4e3f 393d
00000150: c5d3 123f 760c eb3e d559 c93e aa89 25bf
00000160: 2b13 00be 755d df3e 2bce 10bf 6b69 953c
00000170: 06cb 053d eb26 c9be 2083 e6be 7c22 aebe
00000180: 2e18 53be 0e08 6b3e d773 0dbe 4c09 edbd
00000190: b264 30bd c9dd dbbd f0e5 3ebf 83f6 683e
000001a0: f8c7 06bf aa4c 4e3e a321 22be a383 cc3d
000001b0: 337c a13e 580e b3bd 7fea 99bd b2ba 383f
000001c0: 1085 e43e 4322 57be 93f0 5bbe fcf0 04bd
000001d0: d4a1 cfbe fb34 e6be 8d89 53be 97fc 85bc
000001e0: 4d00 283e bd1f a6be 00d3 a3bd e600 0b3f
000001f0: 0f12 78bf 99c4 4ebd 6c82 eebd 1963 d73d
00000200: 65e2 b7be b6f4 d3be a0f1 3cbe 67c9 8f3e
00000210: 47c1 06bf 8f60 6db9 4a1a 033e 838c ed3e
00000220: c9c2 743e 040c 833e d6f0 4a3e fed4 123e
00000230: b93f bc3d 9e61 50be 2ea4 07be 5ed3 363f
00000240: b6c2 09be f3fd 563d d249 56be a7be 023f
00000250: 5991 a7be 7cea 633e d7f0 773e 331c dbbe
00000260: c71b 003f e56c 74bf 7bb1 7c3e 2905 123e
00000270: c3ee a43c 724b 24be 65e5 5f3e cdf8 35bf
00000280: 9845 ae3d f31d e53e d4d7 083f 9c42 603f
00000290: 1633 c73e 03d0 e73e f2d6 9c3d 0650 ca3c
000002a0: 0ffb d83d ab75 dd3d e88a b73e 694c c13e
000002b0: bfec b8bd c020 bf3d 72c4 04bf 3249 abbe
000002c0: c768 553e b8df dfbe d17b 073f e475 ae3d
000002d0: 5267 8f3d ce83 823d 65ec 473e 0bf3 bdbd
000002e0: 2e45 9c3d 114e 47be 27db 2dbf 3649 8ebd
000002f0: be52 36be 68b0 13be e711 ecbe 65bb a9bd
00000300: 66eb 12be 5cd7 3e3f 9556 d1bd 79e0 8ebf
00000310: 02ef 263e 98b5 38be cb07 db3b 90d3 3cbe
00000320: d2c3 03bb 91d3 bb3d 8d70 dbbe 8650 cbbe
00000330: 71e9 193f de96 1bbf 708a 273e 86b9 b9bd
00000340: 833b 683e dc89 413e c7ee 243f 0e09 08bf
00000350: f8e7 d5be 8208 3b3f 4654 a2be f27b 643e
00000360: c720 9ebe df96 87be 36a0 983e d8d7 70bd
00000370: 938f b3be f780 89bc b37c d33d 6046 a2bd
00000380: 1715 223e 97dc 6cbf 4e66 ad3c 9b6d e1bc
00000390: 4af8 723c 88ac 283e 80a6 4fbd d07a 603e
000003a0: d79a 48be a43d fc3e 068c afbd d2e7 ccbe
000003b0: 3607 d5be ae62 733e f20b dcbe 5664 f83e
000003c0: 9e66 b5be 11fe 09bf 8109 dc3d bd9e d3be
000003d0: 9a68 03be 487a 0f3e c49f 3c3f 056b 59bd
000003e0: 9743 08bd 2feb a7be 9703 85be d4d4 00be
000003f0: 0d11 d0be 030e 0e3f 4f00 7e3d 2bd1 dc3d
-0.078243986 0.26583993 -0.40200678 0.634208 -0.66959226 0.54413366 0.5636475 -0.42936435
0.5129204 -0.19468798 0.16342503 0.09129529 0.12524074 -0.19957793 -0.1785364 0.4865542
-0.106902495 -0.5384215 0.015685335 0.2636188 -0.29099488 -0.11606578 0.20977068 -0.4315962
0.15537904 -0.00424384 0.28058454 -0.7912708 -0.35839638 0.17963028 0.7631323 -0.35079598
0.32908922 -0.0051142266 0.39209726 0.6863045 -0.4356281 -0.098281555 -0.11101453 0.107891575
0.13248524 -0.5593843 -0.32718173 -0.09404723 -0.18395197 0.5555261 -0.27053365 0.17817795
0.06466598 0.56791544 0.015010766 0.3899499 -0.014566212 -0.40238118 0.31246573 0.8226636
0.39402497 -0.42181802 -0.3498432 0.4594431 -0.04486102 0.18807167 0.26181585 0.5532477
-0.15641214 -0.12784557 0.47201598 0.30650595 -0.076175936 0.28273505 -0.031984873 0.29681665
0.005425882 -0.82585055 -0.2220382 -0.65121084 0.3250197 -0.149286 0.4881574 0.14852361
-0.3557911 0.24899581 -0.15429747 0.045226388 0.57354385 0.45907944 0.3932635 -0.64663184
-0.12507312 0.4362599 -0.5656459 0.018238744 0.03266432 -0.39287505 -0.45021915 -0.34010684
-0.20614693 0.22952291 -0.1381372 -0.11574039 -0.04306478 -0.107356615 -0.74569607 0.22750287
-0.5264888 0.20146433 -0.15833144 0.09986045 0.3154007 -0.0874297 -0.0751543 0.72159874
0.4463277 -0.21009164 -0.2147849 -0.032456383 -0.40553153 -0.44962296 -0.2065794 -0.016355796
0.16406365 -0.3244609 -0.079992294 0.54298246 -0.96902555 -0.05048046 -0.1164597 0.10516948
-0.35914913 -0.41397637 -0.18451548 0.28083345 -0.5263867 -0.00022638052 0.12802997 0.46396264
0.2390243 0.25595105 0.19818434 0.14339063 0.09191842 -0.20349738 -0.13246223 0.7141627
-0.13453183 0.05248828 -0.20926598 0.5107216 -0.3272808 0.22257417 0.24212967 -0.42794952
0.50042385 -0.9547866 0.24677078 0.14259781 0.020133382 -0.16044405 0.21864851 -0.71082765
0.08509368 0.44749412 0.5345433 0.8760164 0.38906163 0.45275888 0.07658185 0.024696361
0.105947606 0.10813459 0.35848165 0.3775361 -0.09029531 0.093324184 -0.5186225 -0.3345428
0.2084075 -0.4372537 0.52923304 0.085185796 0.07002129 0.06372796 0.19523771 -0.092748724
0.076303825 -0.19463374 -0.67912525 -0.06947558 -0.17805001 -0.14422762 -0.46107408 -0.08287696
-0.1434761 0.7454736 -0.10221592 -1.1162254 0.16302112 -0.18038023 0.0066842786 -0.1844008
-0.0020105732 0.091712125 -0.42859307 -0.39709872 0.6012183 -0.6077708 0.16361403 -0.09068589
0.22678952 0.18900245 0.64426845 -0.53138816 -0.4177854 0.73059857 -0.3170492 0.22312906
-0.30884382 -0.26482293 0.2980973 -0.058799595 -0.35070476 -0.016785128 0.10326519 -0.07923579
0.15828358 -0.92524093 0.021166947 -0.027518084 0.014829705 0.16472065 -0.050695896 0.21921849
-0.19590317 0.49265778 -0.08571629 -0.40020615 -0.41607064 0.23768112 -0.42977864 0.4851405
-0.35429853 -0.539033 0.10744 -0.41332045 -0.12832871 0.1401149 0.73681283 -0.053080577
-0.033267584 -0.32796618 -0.259793 -0.12581187 -0.4063801 0.5549013 0.062012013 0.10782083

network_body._body_endoder.seq_layers.0.bias f4 [128]
00000000: c42c dd3c 7a31 8a3d 2f2a 333e 0c05 163d
00000010: 5e3e 493d 9501 943d d734 963d 15ca 6f3d
00000020: 970e 533c d944 183c b85f ed3b c551 013e
00000030: 52b0 763c 03e4 1d3d 7f28 693c 50c3 233d
00000040: aaaf e03c 0f6e 803d d6aa 4f3d 4c95 0f3d
00000050: ec1c 8e3d 3cd0 bb3c b908 bfbb 916a 1a3d
00000060: 3b55 93bd cc7e ab3d c105 6c3d 71d6 93bd
00000070: 4ce7 bb3d 23fd 76bc ca74 423d 2244 ae3d
00000080: f244 543d 6176 363d 0902 c8bc aaae 873d
00000090: 40c3 0f3d 045f 9b3d d3c6 fabb f144 e53c
000000a0: 6bd6 583d c417 ab3d 6cce 3b3d ace2 2abc
000000b0: ea80 aebc e322 eb3a 979a 973d d5ca ecbd
000000c0: 5014 233d dc71 093e 6054 0d3d d44e 623d
000000d0: 4f0e 523c 49d1 a03d 1055 a23d ef92 3339
000000e0: efec 0f3d e3a6 813d 3e11 84bd 9cb3 163d
000000f0: 0415 043e 173b 89bc b4ce e43d ab5a 75ba
00000100: 9d92 853d 7d2b f1ba e7a7 87bc 4af7 5dbd
00000110: f9cc 973c 24b5 23bc e0f1 09bd 21ce 763d
00000120: 4285 963d 9b4c 18bd 2a6b f73c fdea eb3d
00000130: 7529 9bbc cfaf 883d 05fa 5e3c f129 c8bc
00000140: 4966 b63d 8338 9ebc 567b d23d d38c 543d
00000150: 8db8 953d a925 703d c5fe 933c d160 013e
00000160: b49b 853d 6658 8f3d 3cc7 6c3d 52d1 2a3b
00000170: f079 773d f5ff 533d 00c6 6d3d d5bb a6bb
00000180: 1047 103b 80f2 0b3d 13de 5d3d 2c5b 1b3e
00000190: ce15 75bd c0fe 1a3d 660a 8ebb ef08 733d
000001a0: 98da 833d 3129 473d 8b19 a63d 7025 173d
000001b0: 6640 9c3d f6a2 7e3c ebb3 113d 7dc6 4a3e
000001c0: daa8 9b3d 8ed4 2f3d 33f6 58bb 822d 50bc
000001d0: d686 f3bc 016b dd3d 10cf 663d 7d50 b93d
000001e0: 5158 ba3d 3184 a53d 096e c93d 2c3d 093d
000001f0: ef90 073d 9bc5 533d d242 6abb 12d9 403d
0.026998885 0.06747718 0.1749656 0.036625907 0.049131744 0.07226864 0.07334297 0.05854233
0.012881896 0.009293758 0.0072440766 0.12628849 0.0150566865 0.038547527 0.014230846 0.039981186
0.027427513 0.06270992 0.05070003 0.03505449 0.0693911 0.022926442 -0.0058298972 0.037699286
-0.07193991 0.08373794 0.057622675 -0.07218636 0.09174976 -0.015075001 0.04747466 0.08509089
0.051823564 0.04454649 -0.024415033 0.066251114 0.035098314 0.07586482 -0.007653096 0.027986975
0.05293886 0.08354142 0.045851156 -0.010430019 -0.021301705 0.0017939474 0.074025325 -0.11562125
0.039814293 0.1342234 0.034504294 0.055250958 0.012820794 0.07852418 0.07926381 0.00017125507
0.035138067 0.06330659 -0.06448601 0.036792383 0.12898642 -0.016751809 0.11172238 -0.0009359519
0.06522105 -0.0018399801 -0.016559554 -0.05419091 0.018530356 -0.009991918 -0.033677936 0.060255174
0.07349636 -0.03718243 0.030202467 0.1151943 -0.018940667 0.06674158 0.013609414 -0.024434062
0.08906228 -0.019314056 0.10277431 0.051892113 0.07310591 0.058629666 0.01806582 0.12634589
0.06523839 0.069992825 0.057807192 0.0026064706 0.060419023 0.05175777 0.058050156 -0.0050883093
0.0022015013 0.034166813 0.054166865 0.15171498 -0.059835248 0.037840605 -0.0043347357 0.05933469
0.06438178 0.048623268 0.08110341 0.036900938 0.076294705 0.015541783 0.035571974 0.1980228
0.07600565 0.042927317 -0.003310573 -0.012706162 -0.02972738 0.10811425 0.056349814 0.09048555
0.09098876 0.08081854 0.09835441 0.033505604 0.033097204 0.051702123 -0.0035745394 0.047082014

network_body._body_endoder.seq_layers.2.weight f4 [128, 128]
00000000: 7262 ae3d b7d7 1cbd 3395 2e3e 0d0c d83d
00000010: f337 f3bd c4bf 0e3e 0720 183d 3155 953e
00000020: b7b1 773d 5d92 d53d 74f9 19bd 3820 48be
00000030: 8b21 b5bd 59ef bcbd cff3 ebbc 105a bb3d
00000040: 5b4e e9bd bf94 093e 303b bd3d 2c88 bc3d
00000050: 01d0 8e3e 6049 603d c80f 033d b399 643d
00000060: 95fe ddbd 590c 8cbd 31f0 163d 0369 fb3b
00000070: 38fc f13a a889 ccbd 5147 07be b874 42be
00000080: aee0 7bbd 5ad9 a4bd 2468 22be a8b3 883e
00000090: 830c 373e 5bdc 7f3e 9c2a f03d 932a 8abe
000000a0: a18b ef3d 466a 98bd 4086 b63d 0c0f 36bc
000000b0: 7585 343e 99b7 6fbe 6605 85be b94e 73bd
000000c0: 53fe 2a3e 4f39 a63d 9320 86bd 1665 2f3d
000000d0: 30e9 2f3e af78 26be 694a f23d 184c 46bd
000000e0: 53e0 373d 1e0b 223d a860 163d 6e6c babd
000000f0: 6c17 c13d df2a 8abd ee62 ccbd 4f24 69bc
00000100: 29a8 263d 7bb7 05be 79e3 82bd 2b3b 633d
00000110: 151d 66be 4ae4 4dbd d870 dbbd a7ac ee3d
00000120: a387 5abd 558a 7b3d 753b c8bd 01f2 0fbe
00000130: 3430 70bd a847 853c 4ce2 b53d bcdf b53b
00000140: 1571 553e ef4b 863d 55c4 973d 590f 5d3e
00000150: fa72 a7bc 9a99 273e 602a d83d 6186 f33b
00000160: 939e b23e 2532 9a3d 864a c33d ee5b 59bb
00000170: b12e a73d 5ed9 74bd 71ec 03bd 108c d13d
00000180: 2c96 39be 4fe5 053e 0f9a a33d c13c 1cbd
00000190: 67b6 843d 56d0 0b3c c326 fb3b b9ed 60bd
000001a0: 6caa 853c 1482 a13d d621 b7bd 2af1 463e
000001b0: 2a18 7c3e f9eb 903c 94a5 113e e135 623d
000001c0: 1523 81bd 52a8 20be 7284 0f3e db35 33be
000001d0: 193d 723e 12da bcbd 4856 5fbc 5d03 703e
000001e0: 9789 7bbd 4a9c 883e 5201 c13d 5fd6 fc3d
000001f0: efca babc 4012 463e d93b 023e 01d2 8dbc
00000200: a46c fd3c f4ac 3abd a4cd d3bd f49e 113e
00000210: 6de9 693e 427d 4e3d 3af4 bc3d 00d6 8dbe
00000220: c1f4 efba cec3 ab3b 7b95 e93c cd6f 1a3d
00000230: b36a bdbc 338a 2a3e eae0 283d 31cd 05be
00000240: 118e 843d a2f8 dfbd abd6 bdbc 5a42 1ebe
00000250: b74f fcbd a808 34bd 6bf6 1bbe 0129 d9ba
00000260: a28b 09be 9d4d 513d 8042 143d 4a46 b9bd
00000270: 0ddb b4bd 1bf4 8d3d 92ee 9ebc b269 2a3e
00000280: 2b86 363e 2dad 973d 94de e43d 8cef 61be
00000290: 45ce 0abe e0a3 55be d52f 55be 2db7 4c3e
000002a0: 093a 193e 5b34 dd3d 630e 013e deeb ed3d
000002b0: 1cea 44be 24f9 143c 9d56 c83d f749 81bd
000002c0: 0fbc 33be 7a56 b33c 4f4b 80bc 3d16 f8bd
000002d0: 2fe0 d1bc 97c4 963d 9c5e 28be db3f 143e
000002e0: 3b13 523d a4e0 99bc 2ce2 143d 138e b53d
000002f0: efa3 7dbd a41f 9e3d e5c5 cd3b d620 debc
00000300: 4673 f63c cd22 89bc 68e7 493e 6392 383d
00000310: 15f7 d13c 2ce1 313e 9066 7b3d 80bb c93c
00000320: a63e 89bd 9c74 453e 7c8b a1bd dc84 5e3d
00000330: 3da5 4e3c 7235 f4bc dda9 5fbe b7d7 b1bd
00000340: 58fb 90be 9ce9 f43c 5735 13be a042 8ebe
00000350: e2da c0bc b794 edbc ca56 f73c c358 66be
00000360: c10d a6bd cc3f ed3c ef11 a23d ed06 2b3c
00000370: 764c 263d 207a 233d 9d35 e9bc c0ee f93d
00000380: 1c6a 233e d61c acbd 90b0 18bd dbbc e9bd
00000390: 2a11 c83d 7175 473e 0368 9ebd 4432 883d
000003a0: cfe3 543c 8e4f 0bbe 2c3e 633c 9326 57be
000003b0: a2f2 c5bc 0168 2f3e 6efa 403c af05 0bbe
000003c0: 46a5 8a3e 6eab f93d 0301 a7be a48d c63d
000003d0: 65fd 343e 0b28 9b3e 44c4 2c3d a8e0 98bd
000003e0: 3e04 093e d434 20be e295 003e 8c61 8d3c
000003f0: a526 4d3b baf6 983d 2f1a b3bc cbd8 bdbd
0.08514871 -0.03829166 0.17049102 0.105491735 -0.11875906 0.1394034 0.03713992 0.29166558
0.060472216 0.10428307 -0.037591413 -0.1954354 -0.088442884 -0.092253394 -0.02880278 0.091480374
-0.11391898 0.13435648 0.09239805 0.0920566 0.2789307 0.054757476 0.031997472 0.05581064
-0.10839573 -0.06838293 0.036850158 0.0076724305 0.0018462008 -0.09987193 -0.13210799 -0.18989837
-0.061493568 -0.08049269 -0.15860039 0.26699567 0.17875867 0.24986403 0.11726877 -0.26985607
0.11696554 -0.07442145 0.08912325 -0.011111986 0.17629035 -0.2340988 -0.2598068 -0.059401248
0.1669858 0.081163995 -0.06549182 0.042821012 0.17178798 -0.16256975 0.11830599 -0.048412412
0.044891667 0.039561383 0.036713272 -0.091027126 0.094282955 -0.06746458 -0.09979807 -0.014229848
0.040687714 -0.13058273 -0.06391043 0.05547635 -0.22472031 -0.05026654 -0.107148826 0.116540246
-0.05335201 0.06141122 -0.097769655 -0.14057161 -0.05863972 0.01626952 0.08881053 0.005550353
0.20843919 0.06557452 0.07410494 0.21587886 -0.020440567 0.16367188 0.105549574 0.0074317907
0.34886608 0.075290956 0.095356986 -0.0033166367 0.081632026 -0.05977761 -0.03220791 0.10231793
-0.18123692 0.13075756 0.07988369 -0.038143877 0.06480103 0.008533558 0.007664533 -0.05491421
0.016316615 0.078861386 -0.089420006 0.19427934 0.24618593 0.017690646 0.1422332 0.055227164
-0.063055195 -0.15689209 0.14015368 -0.17501013 0.2365612 -0.09221281 -0.013631411 0.23438783
-0.061410513 0.2668174 0.0942408 0.123455755 -0.022801844 0.193429 0.12718143 -0.017312052
0.030935593 -0.045575097 -0.10341957 0.14220792 0.22842951 0.050412424 0.0922627 -0.27702332
-0.0018307195 0.0052418476 0.02851366 0.037704278 -0.023122167 0.16654281 0.04123012 -0.13066556
0.064724095 -0.10936095 -0.02317365 -0.15454999 -0.12319892 -0.043953568 -0.1523072 -0.0016568006
-0.13432172 0.05109941 0.03619623 -0.0904661 -0.08830843 0.06931325 -0.019400869 0.16641882
0.17824619 0.074060775 0.11175266 -0.22064036 -0.13555248 -0.20863295 -0.20819028 0.19991751
0.14963545 0.10801002 0.12603144 0.11617254 -0.1922993 0.009092603 0.09782145 -0.06312936
-0.17552207 0.021891821 -0.01566091 -0.121136166 -0.025619594 0.07361715 -0.1644234 0.14477484
0.05128787 -0.018783875 0.036348507 0.08864989 -0.061923917 0.07720879 0.0062796944 -0.027115267
0.030084264 -0.016740227 0.1971718 0.04506148 0.025630513 0.17371053 0.061377108 0.02462554
-0.06701402 0.19282764 -0.07887933 0.054325923 0.012612638 -0.029810641 -0.21842141 -0.086837225
-0.2831676 0.02989655 -0.14375816 -0.27785206 -0.023541871 -0.029001577 0.030192751 -0.22494797
-0.08108092 0.028961085 0.07913577 0.010438663 0.040600263 0.03991139 -0.028467948 0.12203741
0.15958446 -0.084039375 -0.037277758 -0.114129744 0.09768899 0.19478394 -0.077346824 0.066502124
0.012993767 -0.13604566 0.013869803 -0.21010809 -0.024163548 0.17129518 0.011778457 -0.13576387
0.2707922 0.12190901 -0.3261796 0.096949846 0.17674787 0.30303988 0.04217936 -0.07464725
0.13380525 -0.15645152 0.12557176 0.017258428 0.0031303552 0.07468934 -0.021863071 -0.092698656

network_body._body_endoder.seq_layers.2.bias f4 [128]
00000000: 28fa ac3d 2289 793d 6ee0 e23c c4f1 933c
00000010: ef52 c03d 8763 7f3d b0bf 1b3e 67cb 0a3d
00000020: d225 553d 7b41 b43c e494 c13d 78ba 6e3d
00000030: 7cc9 af3d 2e68 833d 0d0f b23d 9f58 873d
00000040: 0d06 813d 66b3 b73c 8147 053c 6041 be3d
00000050: 2f1e 563d a4bc 373e 156f 60bb d723 043e
00000060: 2846 973d 20d4 b43d af73 043a 21b5 3e3c
00000070: a74d abbc b963 2b3d 0946 e93d 5bf8 293d
00000080: 1b41 6e3d deb6 953d 7ec6 463d 2b5c 8f3d
00000090: 7fce 223d 7555 5a3d 8445 b73d 1a75 1e3d
000000a0: ca8c cb3d 1ac9 ed3d 280c 8ebd 2dae c5bd
000000b0: aa7f df3d 75f3 1b3d d068 0a3d 606a 973d
000000c0: 6de2 853d aa1d 2c3e ae89 6d3d ac36 8e3d
000000d0: ac22 033e 1059 cf3c 82ba 513d 945f fb3c
000000e0: 3ba9 c33c 2e55 213d 82da 7a3c 4afb dcbd
000000f0: 7b3d 9a3c 5a76 053d 246a 783d e8d4 753d
00000100: 8dca d33d d56b 213d 5f05 273d 0e5e 5f3d
00000110: d702 d13d 5dc5 4a3d fbc4 743d 3c2e 993d
00000120: 04ce d73c 519c 5b3d 3fdc 9c3d 2b3d 843d
00000130: c170 bf3d 3893 b13d f6a8 873d 41c1 bd3d
00000140: be5b c33d 5d02 48bd 4632 2f3d acdf 993d
00000150: e8f9 b63d 1040 383d bdf9 613d adf8 a53d
00000160: 2a09 ef3b ba6d 703d 67fe 8c3d 525e af3c
00000170: 2c32 c73d cc27 373d 55a0 de3c 5211 343c
00000180: aa80 b43d e226 ad3d 9065 503c a865 b63d
00000190: b08d c53c 0520 b43d 1024 9d3d af9f 633d
000001a0: 3990 ae3d 51a7 903d 0208 3e3d 8e65 ef3d
000001b0: 5c17 fa3c 9666 1f3d ce31 4e3d dcd2 623d
000001c0: 4432 7f3d 2ce5 593c e344 703d ff86 a13d
000001d0: 2871 153d e962 753c f065 9c3d c2de 1cbc
000001e0: b87b 743d 879a 8cbd 87be 9c3d db4d cd3d
000001f0: 3e99 343d 842d b13d 3cee 3a3d 3e1c d33c
0.08446151 0.060921796 0.027694907 0.018059619 0.09390818 0.062350776 0.15209842 0.033885386
0.05203802 0.02200388 0.09452227 0.0582833 0.08583352 0.06416355 0.08694277 0.066087
0.06299982 0.022424411 0.008134724 0.09289813 0.05227488 0.17943054 -0.0034245898 0.12904297
0.07386428 0.08829522 0.00050526386 0.011639864 -0.020911051 0.04184315 0.11390311 0.041496616
0.05816756 0.0731027 0.04852914 0.070000015 0.03974771 0.053304154 0.08948806 0.038685896
0.09938963 0.11610623 -0.06935912 -0.09652362 0.10913022 0.038073976 0.033791363 0.07393336
0.06537328 0.16808191 0.05799263 0.069440216 0.12806195 0.025311023 0.05120326 0.030685224
0.023884406 0.039387874 0.015310885 -0.10790117 0.018828144 0.032583572 0.0606481 0.060017496
0.10341368 0.039409477 0.040776607 0.054533057 0.1020562 0.049504627 0.059758168 0.07479522
0.026343353 0.05361587 0.07659196 0.06456979 0.09347678 0.08670658 0.066240236 0.09265376
0.09538983 -0.04883038 0.042772554 0.07513365 0.089343846 0.04498297 0.05516981 0.08104072
0.0072947936 0.058698393 0.06884461 0.02140728 0.097263664 0.044715688 0.027176062 0.010990458
0.08813603 0.08454682 0.012719527 0.08906108 0.024115413 0.0879517 0.07672894 0.055572208
0.08523602 0.07063163 0.046394356 0.11689292 0.030528717 0.038916193 0.050340466 0.055376872
0.062303796 0.013299268 0.058659445 0.078870766 0.036484867 0.014977195 0.076366305 -0.009574594
0.0596883 -0.06865411 0.07653528 0.100246154 0.044091456 0.086512595 0.045637354 0.025770303

network_body._body_endoder.seq_layers.4.weight f4 [128, 128]
00000000: baca 56bc ffc7 683e d354 47be 8ede 2dbe
00000010: a16e 40bd 0709 863e 2f0f 933e 7c35 7a3b
00000020: 5192 203d 8ca7 f5bd d79c 393c 9090 69be
00000030: 5b2f ba3d bfed 4bbe b54d f43c b51d 823c
00000040: 2062 0abe 4e6b 21bc 3de3 f6bc f4ec 0f3d
00000050: 673b d33d f2ec 813e 41f0 84be eded a63d
00000060: 8150 3dbd eaed 4e3e 82df 51be 326b efbd
00000070: 2de5 39be b2f0 ee3d cdd7 af3d d8d8 83bc
00000080: 602b 7a3c 8391 673e f41e 523e 0b13 1fbc
00000090: e339 913e a12c 2fbd a8d8 3d3e 3481 0dbe
000000a0: cd70 8cbd 6996 6c3e 46eb de3c b3dc f9bd
000000b0: a190 613e b473 a33c 4f9e 3cbe 88ae dd3c
000000c0: 7176 d5bd 0150 50bd 4130 b4bb 5d59 82bd
000000d0: b062 4d3e fdd9 103e bcf5 a13d 1589 3bbe
000000e0: 03b0 0c3d 27e2 cb3d 53ef 8a3e a6cb ff3d
000000f0: fe7f 19be e5f1 91bd 642c d9bc b7a6 29bd
00000100: d007 96bd 5bab 013d 4c20 e73c c368 663e
00000110: ccb2 203d 8912 3f3d 3f61 29be 8c17 15be
00000120: 5f21 d7bd 0957 99bd 54a3 243e d546 f23d
00000130: e7d2 89bd cf8d 4a3d 6700 b33d 44d4 5abd
00000140: ac32 15bd 90f0 103e 02f2 50be e5c2 c3bd
00000150: ac33 393e 796a 43be dd66 2cbe 8c90 623d
00000160: 2858 37be ec2e 42be 9610 073c 228e 633d
00000170: 84ad 7e3d 5ea5 3e3b 7164 15be 2f14 0bbd
00000180: 96a2 6fbd 2198 01bc f781 523e 3a9c 0f3d
00000190: 5fb1 09be 49b6 14bd 5c3c 3dbd 2860 52be
000001a0: 6d15 bd3d 236e 3abd 10f7 fabd fdb1 733d
000001b0: efbf d03d d5af 0b3e c160 c3bd 3b62 663d
000001c0: 83e8 5abd f533 cd3d c647 13be 1303 b0bc
000001d0: 1031 dfbd 519a 773d 6222 53bd 677c 8fbd
000001e0: 2e23 bd3d 1ac9 79bd f15f a3bd 2710 81be
000001f0: 8dab 353d ff91 373e 1046 32bd 150a 80bd
00000200: cd5b 1bbe e43c 543e 7b94 aa3d 36fb 35bd
00000210: ae4d 653c c06d 71bd 8ade 0fbe 687c 24bd
00000220: efe6 843b 0cf2 61be afe6 e93d a793 d33c
00000230: 5757 8b3e 270e e4bd 8068 f5bb f90d 173e
00000240: e1f3 a9bc a117 16bc 8b99 97bd cae3 ee3d
00000250: 30b8 6a3d 15f0 d13c 1200 54be 1788 8c3b
00000260: 3ccc 073d b3cc 5ebc face fbbc 0eeb aebe
00000270: dac8 fd3d d044 003e 27e8 8e3d da06 3239
00000280: 0c50 133e c922 6d3e afa0 8a3e b53a 8c3d
00000290: 106a a23c 01c9 f7bd c7c5 933d f761 b53d
000002a0: 48b9 153d a8f1 c23d 29d8 533c f70c 21be
000002b0: f1fb 263d 50d5 debd 4085 0ebe f80d 093e
000002c0: b836 cfbd 509d 893b 9e8c cfbd e60f a3bc
000002d0: 65e8 11bd 514e e13d 0db5 a8bd 31ae 55be
000002e0: 2376 f13d a6c4 bcbc 7005 85bd 53a1 b53d
000002f0: fe05 b7bd dae2 afbd ce27 87bc 8c0b 7c3e
00000300: dd1e 6fbd 4a46 ff3d 7a2d 173d a623 81bd
00000310: 189f 3b3e fbf3 3a3d 70e1 0cbe 70b9 97bd
00000320: 0d63 54be 5b44 063b 45cc 9f3e 9878 313e
00000330: 1c9d 12be 781b 043d 617d b33d 54f3 c53d
00000340: 964c f0bd ea52 203d c007 c2bc f224 3ebd
00000350: 8ef0 283e b5a1 433e a87c 07be 65ce 97bd
00000360: 2fdd a9be 891f 11be 9ece db3d 35e7 5b3e
00000370: c3a4 803d 0518 113c 42ce f7bd 8f45 013e
00000380: b9fb 783e 0dd5 77bd 4bbc 8e3d f29c c4bc
00000390: 3471 903d 46cc eabd 829c d63c e095 903d
000003a0: d17d 083e 445b 05bd 00d8 123e 576c 653c
000003b0: 65c5 213d 0b3d 3abc 5151 ce3d c37b 3b3e
000003c0: dc33 193a b908 c43b 6da8 babe bd71 24be
000003d0: b8c7 46bd a561 82bc ba84 b03d 6394 2abe
000003e0: 875c 523d 827e c6bc d961 4cbd b423 22be
000003f0: 3fcf 2a3e 3f01 b13d 7667 8dbd bcc3 863e
-0.013109857 0.22732542 -0.19465952 -0.16979429 -0.046980504 0.26178762 0.28722522 0.0038178852
0.03920204 -0.11994848 0.011328897 -0.22809052 0.090910636 -0.19914912 0.02982221 0.015883306
-0.13513994 -0.009852244 -0.030137653 0.035138085 0.103140645 0.25376087 -0.2596455 0.081508495
-0.046219353 0.20207945 -0.20495418 -0.11690368 -0.1815383 0.11667003 0.085860826 -0.01609461
0.0152691305 0.22614102 0.2051962 -0.00970913 0.28364477 -0.04276717 0.18539679 -0.13818818
-0.068574525 0.23104252 0.027211796 -0.12200298 0.22027828 0.019952632 -0.18419765 0.027060762
-0.104229815 -0.050857548 -0.0054989164 -0.06364701 0.20057178 0.14145656 0.07908198 -0.18314011
0.034347545 0.099552445 0.27135715 0.12490015 -0.14990231 -0.07126216 -0.026510425 -0.041418757
-0.07325709 0.031657558 0.028213643 0.22500901 0.039233014 0.046648536 -0.16541003 -0.14559764
-0.10504412 -0.07487304 0.1607793 0.118299164 -0.067296796 0.049451645 0.08740311 -0.05342509
-0.036425278 0.14154267 -0.20404819 -0.095586576 0.18086118 -0.19083585 -0.16836114 0.055313632
-0.17904723 -0.18963212 0.0082437005 0.05555547 0.062177196 0.0029090266 -0.14589097 -0.033954795
-0.058504663 -0.0079098055 0.2055739 0.0350611 -0.13446568 -0.036306653 -0.04620014 -0.20544493
0.09232602 -0.04551519 -0.12254155 0.059495915 0.101928584 0.13641293 -0.09539939 0.056246024
-0.053444397 0.10019676 -0.14382848 -0.02148584 -0.1089803 0.060449902 -0.051546462 -0.0700615
0.092352256 -0.0609828 -0.07977284 -0.25207636 0.044353057 0.17926787 -0.043523848 -0.06251923
-0.15171738 0.20726353 0.08329102 -0.044429027 0.013995571 -0.058942556 -0.14049736 -0.040157706
0.0040558497 -0.2206499 0.114209525 0.025827242 0.27215073 -0.11135512 -0.007489264 0.14751424
-0.020746173 -0.009160907 -0.07402333 0.11664541 0.05730456 0.025627175 -0.20703152 0.004288684
0.033153757 -0.013598609 -0.030738343 -0.34163707 0.12391825 0.1252625 0.06977873 0.00016977955
0.14386004 0.231578 0.27075717 0.06847135 0.019825965 -0.12098885 0.072154574 0.08856576
0.03655365 0.095187485 0.012929955 -0.15727602 0.040767614 -0.1088053 -0.13918018 0.13384235
-0.10117859 0.0041996613 -0.101342425 -0.019905042 -0.03562202 0.11001266 -0.08237658 -0.2086723
0.11790111 -0.023042988 -0.06495178 0.08868661 -0.0893669 -0.085881904 -0.016498473 0.2461378
-0.058379043 0.124645784 0.036908604 -0.063056275 0.18322408 0.045642834 -0.13757873 -0.07408416
-0.2074091 0.002048752 0.31210533 0.17331159 -0.14317745 0.03225276 0.087641485 0.09665552
-0.117333576 0.039141573 -0.023685336 -0.046421953 0.16498014 0.19104655 -0.13231146 -0.074124135
-0.33176562 -0.14172186 0.107327685 0.21474917 0.06281426 0.008855824 -0.120998874 0.12624191
0.24314775 -0.060505915 0.06969508 -0.024000619 0.07052842 -0.11464743 0.026197676 0.070598364
0.13329245 -0.03255774 0.1434021 0.014002881 0.03949489 -0.011367093 0.100741036 0.1830893
0.00058442145 0.005982485 -0.36456624 -0.16059013 -0.04853031 -0.015915701 0.086190656 -0.16658168
0.051357772 -0.024230246 -0.049898002 -0.15833932 0.1668062 0.08642816 -0.06904499 0.26321208

network_body._body_endoder.seq_layers.4.bias f4 [128]
00000000: b039 9f3d 098a b63d 0b8a a53d eb50 8e3d
00000010: ace4 033d 4c4c b63d c65f e43d af01 f23d
00000020: a037 753d 4381 983d 7604 ba3d fb26 c93d
00000030: 146d 163e d8ed 793d da4c c63d 7aa2 5a3d
00000040: 4d6d 973d dbbb 9e3d e3a8 ac3d 54db 043e
00000050: aeb6 dd3d ca01 a03d c43e c33d 81a2 073e
00000060: adbc cc3d ecda a03d 6aa5 7e3d b551 a53d
00000070: a86e 333d 46a4 a93d 4e10 a23d 0109 0b3e
00000080: 17b0 b93d e0d0 f13d e528 f63d a3d9 a83d
00000090: 74e2 313d 38f6 c83d b423 993d 1d19 753d
000000a0: 6c63 d43d 0961 8f3d 3b05 d93d eaf0 593d
000000b0: a023 703d 55de f73c 21d4 bf3d b4ae d03d
000000c0: 4be9 eb3d b2b8 993d 1f63 c03d aa6a ca3d
000000d0: 6162 a23d 17ef 963d f247 6e3d 0fdf b63d
000000e0: 4d12 bc3d f5c7 ce3d 6c76 9d3d 138a 9f3d
000000f0: 2123 093e 5581 df3d e41b 823d 79b5 e73d
00000100: a410 d33d a36f f73d 3605 8b3d 67c8 5a3d
00000110: eba0 ac3d 9d1d e03d 50da 853d 64ad 8a3d
00000120: 9c31 ed3d 3cdf 963d 949d b63d e948 b13d
00000130: f931 5d3d 4632 a43d 407b 3f3d abb0 763d
00000140: 48d7 da3d a3db d33d a24c e03d 8a64 dc3d
00000150: b67c 8c3d 86f4 7c3d ba29 ba3d 41b2 8f3d
00000160: dddd 103e f9e0 9c3d 4100 053d 420a cd3d
00000170: 318c 933d f903 6f3d 5380 d53d 1e92 b63d
00000180: 48cd d03d c465 bb3d 1c59 ce3d f7da 993d
00000190: 2521 653d 8b65 b43d 3233 bc3d 227e bd3d
000001a0: eb36 723d 2afd e83d d1d1 dc3d 190b d03d
000001b0: f238 e73d cd87 c33d 5d0f e13d 73a4 853d
000001c0: 9347 fb3d 79bf 883d d470 9b3d 010e d43d
000001d0: 3606 803d d941 e73d 90f0 f93d dde4 a73d
000001e0: 8c01 9e3d 28ff 0b3e e2b1 f13d 2bb1 ad3d
000001f0: a2ee 263d 4c5c 8d3d 900c ee3d 64c7 a63d
0.07774675 0.08913047 0.0808297 0.06949028 0.0322005 0.08901271 0.1115108 0.11816727
0.0598675 0.0744653 0.09082882 0.09821888 0.14690048 0.06101784 0.09682627 0.053377606
0.07393894 0.07750674 0.0843065 0.12974292 0.10825859 0.07812841 0.09533456 0.13245584
0.099969245 0.07854256 0.06216947 0.08072225 0.043806702 0.08283286 0.07913266 0.13577653
0.090667896 0.11807418 0.12019519 0.08244636 0.043428853 0.098125875 0.07477513 0.059838403
0.10370526 0.0700093 0.10596701 0.05320827 0.058627725 0.030257383 0.09366632 0.10189572
0.115191065 0.07505931 0.09393906 0.09883626 0.079289205 0.073698215 0.05817408 0.08929264
0.09183178 0.100967325 0.07688603 0.077900074 0.13392307 0.1091334 0.06352976 0.1131391
0.10305908 0.1208184 0.06788103 0.053413775 0.0842913 0.10943148 0.065357804 0.06771353
0.11581728 0.07366797 0.089167744 0.08656485 0.054002736 0.080174014 0.0467484 0.060227077
0.10685593 0.10344627 0.109521165 0.10761364 0.06859724 0.061756633 0.0908999 0.07016421
0.14147134 0.07660098 0.032470945 0.10011722 0.07204474 0.058353398 0.104248665 0.089145884
0.10195404 0.0915027 0.1007559 0.07512467 0.055939812 0.0880843 0.09189452 0.092525735
0.059134405 0.11376412 0.10782207 0.10158367 0.11290158 0.09547386 0.109892584 0.06525507
0.12269511 0.066771455 0.0758988 0.103542335 0.06251185 0.11291856 0.12204087 0.08197949
0.07715139 0.13671553 0.118015066 0.08481058 0.04075492 0.0690237 0.1162349 0.081434995

action_model._discrete_distribution.branches.0.weight f4 [25, 128]
00000000: a73c 9abd 13eb 3abd c5f8 11bd e1d2 57bd
00000010: a629 f53b 3f4c 6a3d 3591 a2bc 53e6 0cbc
00000020: 96e2 093d fe4e 2a3d 15f9 49bd db23 57bd
00000030: 141f 483d d5c4 6e3d 6ce4 8ebd a512 cbbc
00000040: 13d2 b9bd 6d30 113d 713a 24bd 3855 fe3b
00000050: b624 4ebd 76b6 a3bd 47fa a73b f449 9dbc
00000060: ea77 80bd c3a3 a1bd 530f 5f3d 3fa9 4cbd
00000070: 88cc 243d e042 c43c 29ac 8fbd 16e9 d7bc
00000080: 89a3 22bd 1ac9 693d de23 86bd 09db 78bd
00000090: 0e17 0d3d f629 9a3d 5cd1 2e3d 59ba 31bd
000000a0: c9cc 5fbd c03d 513d 9e14 66bd 3506 313c
000000b0: afa2 3f3d a51c 323d 0804 cfbd b99b 0abd
000000c0: 8ed8 4c3b 535d 84bd dffc 7abd 3ef5 883d
000000d0: 3b72 4f3d 12c0 f9bc c08a d33c e729 90bd
000000e0: 11cb bfbd 3083 953d 3dd4 9cbd ee32 093d
000000f0: a953 523d c731 99bd 065a 523b a4fe 6d3d
00000100: 5ae3 a23d 0a5b a53d 3cd9 8abd 76b4 8e39
00000110: b09a 263d 513c 6dbd 4641 d6bd daad 89bc
00000120: bdc3 503d 7bfd c53c 3223 793d a5dd 8f3d
00000130: 45c7 053d 7af6 883d dd71 16bc 6c2a 33bd
00000140: 14ac 1bbd ac82 4ebd 5209 51bd 43cc cf3b
00000150: dfec c7bc 8bcb 6c3d 37d9 acbd 7105 053d
00000160: 5004 be3c 9bad a4bd 80d3 15bd bf7f 40bd
00000170: 8d0f 4d3d ebc6 163d d550 b1bd 04e5 28bd
00000180: ef79 4bbd 1140 bebd 1b89 b6bd 55ee 883d
00000190: 7bca 83bd f784 733d 316f 8f3d f52d b7bd
000001a0: 9b65 793d 4058 793c baca 66bd ff70 95bd
000001b0: d8a0 3ebd 6021 a3bd 4c23 acbd ca82 703d
000001c0: 80e5 49bd c60b 1f3d cc0e 7dbd 82ec b5bd
000001d0: 39c4 333d a845 7d3d 8af6 56bc a44e c7bd
000001e0: 5993 373d 8bff 0ebd 31f0 463d 13a4 94bd
000001f0: 30a3 ec3c 2c10 c4bd 9319 62bd ccdc 823d
00000200: a89b 92bd 6337 93bd bdb0 44bd 8779 80bd
00000210: add0 21bd 272f 9d3d d380 513c a6ec 263d
00000220: a41f 453c f184 3a3d 6558 a3bd e493 58bd
00000230: d4be ac3d 8ba3 163d c62c 99bd 8cd9 4dbd
00000240: 9703 92bd 5303 c03c bbf2 bbbc 185d 153d
00000250: 8fcc a3bd 5772 bcbd aaad 063d 171e 563d
00000260: 9448 d0bd 0db6 5ebd aff8 073d bda0 86bd
00000270: f470 61bb 0fa1 c63c 1320 a9bd f9f8 ab3b
00000280: ead1 79bd e90a a93d 739d a6bd 25fd 99bd
00000290: 0c07 b73c 8656 873d 049a 233d f149 a8bd
000002a0: 28e4 3fbd e569 8e3d 306d 40bd 5cf7 c1bb
000002b0: e8d3 403c c6ed 5d3c 90d7 c4bd 2c27 29bc
000002c0: 08e7 343d 589d 44bd 108a 9cbd 8e82 a43d
000002d0: 2809 673d 3fe0 98bd 255d 2c3c 8e9f 65bd
000002e0: 284d bbbd 2fde 6a3d 9eca a0bd b23f 533d
000002f0: 17aa ac3d 02d5 9dbd 9fdd 09bc 1c0b ad3d
00000300: 271d a83d f6ec a83d 1e54 b6bd 5b51 773c
00000310: 8a9f 653d 44e1 a1bd 94bf b2bd 8626 23bc
00000320: b094 a93d 0fef 6c3c 0f7f a93d 6a11 793d
00000330: 64d8 6b3d b4bc 973d 9621 93bc b423 6dbd
00000340: 455f 07bc 3315 4dbd 95de 94bc 596e 893d
00000350: e0cc 4dbc 8830 3b3d fe4b b8bd c02b 363d
00000360: a2c1 823d a5b6 65bd d535 11bd 62a8 c1bd
00000370: d016 283d da2c 60bc 5845 afbd d1fc 81bd
00000380: 5cc3 a5bd 7e74 abbd f60f f3bd ecdf 3a3d
00000390: 7ff7 9abd fcb7 8a3d b76d a83d 9b39 d2bd
000003a0: e3e5 353d 33da 813d f96d 3cbd d274 c1bd
000003b0: 927d 89bd 2a31 a6bd cfc2 a3bd c829 583d
000003c0: 0b2c adbd f12e e93c 89d1 89bd 66cc c4bd
000003d0: 1419 e13c 21ee bd3d 8989 b83c 8437 f4bd
000003e0: 29e0 963d abf2 9bbd 484f 9e3d 06ba c9bd
000003f0: 482e 223d d4c0 e5bd 704a 50ba 07f1 4d3d
-0.075311 -0.04563434 -0.035637636 -0.052691344 0.0074817715 0.05720162 -0.01984463 -0.008599835
0.033663355 0.04157924 -0.04930981 -0.05252443 0.048857763 0.058293182 -0.06977162 -0.024789164
-0.090732716 0.035446573 -0.040094797 0.0077616237 -0.05032798 -0.07993786 0.005126271 -0.019200303
-0.06272872 -0.07892563 0.054457974 -0.049966093 0.04023412 0.02395767 -0.07015259 -0.026356261
-0.03970674 0.05707655 -0.0654981 -0.060755763 0.034445815 0.07527535 0.04268013 -0.043390606
-0.054638658 0.05108428 -0.056172006 0.0108047025 0.046786007 0.04348435 -0.10108191 -0.033839915
0.0031257006 -0.06463113 -0.061276313 0.06687401 0.050646048 -0.030487094 0.025822997 -0.07039242
-0.09364904 0.07300413 -0.07657669 0.033495836 0.051349316 -0.074801974 0.0032097115 0.058104172
0.0795352 0.08074005 -0.067797154 0.00027218804 0.040674865 -0.05791885 -0.10461669 -0.016806532
0.05096792 0.02416872 0.06082458 0.07024697 0.03266074 0.06687637 -0.009182421 -0.04374163
-0.038005903 -0.050417587 -0.05103428 0.0063414886 -0.024404941 0.0578113 -0.08439868 0.032475892
0.023195416 -0.08040925 -0.036578655 -0.04699683 0.05006366 0.036810797 -0.086579956 -0.04123403
-0.04967683 -0.092895634 -0.089128695 0.06686083 -0.064351045 0.059452977 0.0700363 -0.089443125
0.060887914 0.015218794 -0.05634568 -0.07296943 -0.04654011 -0.0796535 -0.0840517 0.05871848
-0.049291134 0.038829587 -0.06178169 -0.08883001 0.043888304 0.061834008 -0.013120303 -0.097317964
0.044818256 -0.034911674 0.048568908 -0.07257857 0.028886408 -0.09573397 -0.05520017 0.0638977
-0.07158595 -0.071882986 -0.048020113 -0.062731795 -0.03950565 0.07675009 0.012787062 0.04075303
0.0120314695 0.04553694 -0.07975844 -0.052875414 0.08434835 0.03677706 -0.07479243 -0.050256297
-0.07129591 0.023439085 -0.022942891 0.036465734 -0.07998001 -0.09201496 0.032880463 0.05227479
-0.10170093 -0.054372836 0.033196148 -0.06573627 -0.00343996 0.02424672 -0.08258071 0.0052481857
-0.060991205 0.08254034 -0.081355 -0.075189866 0.022342227 0.066083 0.039941803 -0.08217228
-0.046848446 0.069537915 -0.04697913 -0.00591938 0.011769272 0.013545459 -0.09611428 -0.010324281
0.04416564 -0.048001617 -0.07643521 0.08032714 0.056405216 -0.074646465 0.010520254 -0.056060366
-0.09145576 0.057340797 -0.07851146 0.051574416 0.084308796 -0.07706644 -0.008414655 0.084493846
0.08208685 0.08248322 -0.08902763 0.01509508 0.05606035 -0.07904294 -0.08727947 -0.009957915
0.08280313 0.014461293 0.08276188 0.060807623 0.057579413 0.07409039 -0.017960351 -0.057895377
-0.00826246 -0.050069045 -0.018172542 0.067105 -0.012561053 0.04570058 -0.08998869 0.044475317
0.06384589 -0.056082387 -0.03545173 -0.094559446 0.04103738 -0.013682568 -0.08558148 -0.06347049
-0.080939025 -0.083718285 -0.11868279 0.045623705 -0.075667374 0.067733735 0.082240514 -0.102648936
0.04440869 0.06340446 -0.046003316 -0.0944611 -0.06713404 -0.08114846 -0.07996141 0.05277422
-0.08455666 0.028464766 -0.06729419 -0.096092984 0.027477778 0.09273935 0.02252652 -0.11924651
0.07366974 -0.076146446 0.077299654 -0.09849934 0.03959492 -0.1121842 -0.00079456624 0.05027869

action_model._discrete_distribution.branches.0.bias f4 [25]
00000000: ffcd 7d3c eeee 163d 2cec 73bc 61c3 223d
00000010: e189 e83c e65e f33c f85f fbbc 5c19 4bbd
00000020: cadf efba e9cd 07bc fdd9 ed3b e742 39bd
00000030: 57d5 28bd 682f 0fbc fab8 403c 5382 013c
00000040: 6e9c eabb 6ff4 48bc 62f4 fcbc 7e13 66b7
00000050: 1421 0f3c d866 573c a480 763b dd01 143c
00000060: bb29 a43b
0.015491008 0.036848955 -0.014887851 0.03973711 0.028386058 0.029708337 -0.03068541 -0.04958473
-0.0018300947 -0.008288839 0.0072586522 -0.04522982 -0.04121908 -0.00873933 0.011762852 0.007904607
-0.007159761 -0.012265309 -0.03087825 -1.3713607e-05 0.008735914 0.013147078 0.0037613297 0.009033647
0.0050098575
