Assets/Env5/Brains/MoveUp.onnx (onnx, 153430 bytes, 8 tensors)

network_body._body_endoder.seq_layers.0.weight f4 [128, 9]
0	0x3f16cb1b	0.58903664
1	0xbe761a0d	-0.24033375
2	0x3ecc5c02	0.39913946
3	0x3c94be30	0.018157095
4	0x3dd21061	0.1025703
5	0xbd9a3dac	-0.07531294
6	0xbf1e54cb	-0.61848134
7	0x3e3a8231	0.18213727
8	0xbe0e82ae	-0.13917038
9	0xbe48bc0d	-0.19602986
10	0x3e241f94	0.16027671
11	0x3debec45	0.11519674
12	0xbe5bf9f6	-0.21482071
13	0xbe3bc424	-0.1833654
14	0xbe7f9992	-0.24960926
15	0x3ec6ea53	0.3885065
16	0x3b78c27a	0.0037957714
17	0x3df42462	0.11921002
18	0xbe3031a7	-0.17206441
19	0x3e64de2c	0.22350377
20	0x3eee8301	0.46584323
21	0x3dcc8e02	0.09988023
22	0xbcc3b53b	-0.023890128
23	0x3e3fd318	0.1873287
24	0xbeda8e20	-0.42686558
25	0x3e252f63	0.16131358
26	0x3eb42c7c	0.3519019
27	0x3e9cc19d	0.30616465
28	0x3d5da861	0.054115657
29	0xbe78b7e9	-0.24288906
30	0xbef9b264	-0.48768914
31	0xbedec7be	-0.43511766
32	0x3e4d40e7	0.2004429
33	0xbe974216	-0.29542607
34	0x3e9e7c5d	0.30954257
35	0x3f4206cf	0.7579164
36	0xbe08ed88	-0.13371861
37	0x3f2d629b	0.67728585
38	0xbebe34dc	-0.37149704
39	0x3e11e2ed	0.14246722
40	0xbf12c7b5	-0.5733598
41	0x3ecbd9ea	0.39814693
42	0xbeac019f	-0.33594987
43	0xbd860bf2	-0.06545247
44	0x3d0e53cb	0.03474788
45	0x3dd30200	0.10303116
46	0xbe4a9fa2	-0.19787458
47	0xbd5b5aa0	-0.053553224
48	0x3e74cf41	0.23907186
49	0xbd347ce9	-0.044064436
50	0x3cdca1b3	0.026932573
51	0xbf6ba797	-0.92052597
52	0x3e7d1a72	0.2471712
53	0x3e6e4830	0.23269725
54	0x3eef967a	0.46794492
55	0xbe4072fc	-0.18793863
56	0xbeb3b81a	-0.35101396
57	0x3ea9871d	0.33110896
58	0xbe5a70c1	-0.21332075
59	0x3dcb4557	0.09925335
60	0x3dca1ea4	0.098691255
61	0xbedf3bf3	-0.43600425
62	0x3e895a47	0.2682669
63	0xbf27d53c	-0.65559745
64	0xbe061fbf	-0.13098048
65	0x3c10441a	0.008805299
66	0xbee9db29	-0.45675018
67	0xbeff50ad	-0.49866238
68	0x3ea261a8	0.3171513
69	0x3d6bf7a9	0.057609234
70	0x3e68d9e4	0.22739369
71	0xbecc8a13	-0.39949092
72	0xbf21f5c3	-0.6326563
73	0x3ed95c6d	0.42453328
74	0x3df5ba30	0.11998403
75	0xbedbbf13	-0.42919216
76	0xbebd7574	-0.37003672
77	0xbebd845c	-0.37015045
78	0xbe184710	-0.14870858
79	0x3e9b191c	0.30292594
80	0xbd41b621	-0.047292832
81	0x3e2a3ba2	0.1662431
82	0x3e1c88fb	0.15286629
83	0xbe3564cc	-0.17714232
84	0xbef34f01	-0.47521213
85	0xbd8e6559	-0.06952924
86	0xbe055458	-0.13020456
87	0xbc852b41	-0.016255977
88	0x3eaa766a	0.33293468
89	0xbd4a6829	-0.04941574
90	0x3d9e12dc	0.07718441
91	0x3ef3364b	0.4750236
92	0xbe1e48df	-0.15457486
93	0xbd6b280f	-0.05741125
94	0x3f0b2a73	0.5436165
95	0x3e8a4543	0.27005967
96	0xbd2b28b8	-0.04178688
97	0x3e823ce0	0.2543707
98	0x3dfd12e6	0.1235712
99	0x3ea0ede9	0.3143151
100	0x3d971ec7	0.07378917
101	0x3d8d3d62	0.068964735
102	0xbe2d1888	-0.16903889
103	0x3e52513a	0.20538798
104	0x3c805ace	0.015668299
105	0x3ef169fb	0.4715117
106	0xbde3a2a2	-0.11115004
107	0x3dc2125c	0.09476158
108	0xbcce0c35	-0.025152305
109	0x3d525ff4	0.05136104
110	0xbb506fd0	-0.0031804927
111	0x3f1eb08d	0.61988145
112	0x3e26855a	0.16261807
113	0x3e3d97fa	0.18515006
114	0x3f078a17	0.52945083
115	0x3dc5c055	0.09655825
116	0x3c055f4d	0.008140397
117	0x3dafd8ad	0.085862495
118	0x3f1b71f6	0.60720766
119	0x3d6a0d73	0.057141732
120	0x3e4fcd79	0.20293225
121	0xbcea6f0d	-0.028617406
122	0x3e99f8d8	0.30072665
123	0xbf67558f	-0.9036493
124	0x3eb18b07	0.34676382
125	0xbd955730	-0.0729202
126	0xbf3a0acd	-0.7267273
127	0xbdf8f0f9	-0.12155337
128	0x3efc87af	0.49322268
129	0x3e2d3369	0.16914143
130	0xbf04b428	-0.51837397
131	0xbde4f208	-0.11178976
132	0xbed4ac19	-0.4153755
133	0x3ee697ac	0.4503759
134	0xbd8625db	-0.06550189
135	0x3d4b3ba5	0.04961743
136	0x3ee18aee	0.44051307
137	0xbd58822a	-0.05285851
138	0xbf013967	-0.50478214
139	0xbf13af31	-0.57689196
140	0x3e098d70	0.1343286
141	0xbc7167b2	-0.014734196
142	0xbe519e75	-0.20470603
143	0xbe74b51a	-0.2389721
144	0xbf4439e3	-0.7665083
145	0x3e358a1a	0.17728463
146	0xbe59ee55	-0.21282323
147	0xbeaaa37c	-0.33327854
148	0x3e67f86a	0.22653356
149	0xbece5f15	-0.40306917
150	0xbec4fe87	-0.3847544
151	0x3eb9b97a	0.3627432
152	0x3cd03da5	0.02542002
153	0xbe8c8a7b	-0.27449402
154	0xbe9f00a2	-0.3105517
155	0xbdec9b42	-0.115530506
156	0xbeb2a479	-0.34891108
157	0xbf5eb48e	-0.86994255
158	0x3e19253f	0.14955615
159	0x3e7542f6	0.23951325
160	0xbe79ab4a	-0.24381748
161	0xbdda12ec	-0.1064814
162	0xbe331cb5	-0.1749142
163	0xbc0037d1	-0.007825808
164	0x3e573d4c	0.21019477
165	0xbdf1c01e	-0.118042216
166	0x3e1a51d5	0.15070279
167	0x3e76e51c	0.24110836
168	0xbec6c3e2	-0.38821322
169	0x3f45b328	0.77226496
170	0x3e84e24f	0.2595391
171	0x3de860b4	0.1134657
172	0x3f24727d	0.64237195
173	0x3e8de58a	0.27714187
174	0x3f065f7a	0.52489436
175	0x3eda0874	0.42584574
176	0x3ece092d	0.40241376
177	0xbd6ad0b0	-0.057327926
178	0x3db769f6	0.08955757
179	0x3ecec4b0	0.40384436
180	0xbf0d772e	-0.5525998
181	0xbe5d77e3	-0.21627764
182	0xbe220461	-0.15821983
183	0xbe9bfe73	-0.30467567
184	0xbf9fed78	-1.2494345
185	0xbdf009d2	-0.11720623
186	0x3e686b66	0.22697219
187	0x3e8c29ec	0.27375734
188	0xbea194a3	-0.31558713
189	0x3b3481b4	0.002754313
190	0x3ea356d7	0.3190219
191	0xbe5d56d6	-0.21615157
192	0x3eb7a5c2	0.3586865
193	0x3e8c5416	0.27407902
194	0xbd303867	-0.04302254
195	0x3de9b3ba	0.11411233
196	0x3ea09292	0.31361824
197	0xbe2ac92d	-0.16678305
198	0xbeed7d01	-0.46384433
199	0x3ed6e4fc	0.41971576
200	0xbdc09118	-0.094026744
201	0xbe0a9bdf	-0.13536023
202	0xbe22124b	-0.1582729
203	0xbde93fc5	-0.11389116
204	0xbe201d68	-0.15636218
205	0xbdadd042	-0.08486988
206	0xbe306d80	-0.17229271
207	0x3e93b34c	0.2884773
208	0x3f0f4cc5	0.55976516
209	0xbdf4f64e	-0.119610414
210	0x3d772633	0.060339164
211	0x3f338acc	0.7013366
212	0x3cea728d	0.028619075
213	0x3f63d259	0.8899284
214	0xbed8820f	-0.42286727
215	0xbee70368	-0.45119786
216	0x3cdee245	0.027207503
217	0x3e5ab963	0.21359782
218	0xbe99db24	-0.30050004
219	0xbe6b5ba7	-0.22984181
220	0x3f0e3d51	0.5556231
221	0xbe3fccc6	-0.18730459
222	0x3ee7f1d1	0.4530168
223	0xbe96a261	-0.2942076
224	0x3de45e0e	0.11150752
225	0xbeb41a44	-0.3517629
226	0x3e9c1bd4	0.3048998
227	0x3ee20b8c	0.44149435
228	0x3cb9a8b1	0.022663446
229	0xbf6214a7	-0.8831276
230	0xbdb2d219	-0.08731479
231	0xbde5d962	-0.11223103
232	0xbdce76fd	-0.10081289
233	0xbde067a4	-0.10957268
234	0xbe62e6f2	-0.22158411
235	0x3f1d032b	0.6133296
236	0x3cbf7436	0.023370843
237	0xbb0b6cc2	-0.0021274542
238	0xbe58ca2c	-0.21170872
239	0x3e12c592	0.1433318
240	0xbeb05c54	-0.3444544
241	0x3d87ed14	0.06637016
242	0xbdab8da1	-0.08376623
243	0x3ef4ffcc	0.47851408
244	0xbe345853	-0.17611818
245	0x3e85ae78	0.26109672
246	0x3e401f67	0.18761979
247	0xbed8930c	-0.42299688
248	0x3e9c0b06	0.3047716
249	0x3e7ddd35	0.24791415
250	0xbd66b7ea	-0.056327738
251	0x3f3015f8	0.6878352
252	0xbf301375	-0.6877969
253	0x3f7a878e	0.9786309
254	0x3df9e73e	0.12202309
255	0xbefd787b	-0.49505982

network_body._body_endoder.seq_layers.0.bias f4 [128]
0	0x3dd64870	0.10463035
1	0x3dd05571	0.10172547
2	0x3d9475fa	0.07249065
3	0x3d9ac634	0.075573355
4	0x3dd1c79b	0.1024315
5	0x3dc27017	0.09494036
6	0xbd77878b	-0.060432
7	0x3db7f9ce	0.08983193
8	0x3de0e34b	0.10980853
9	0x3d7497aa	0.05971495
10	0x3dc3207c	0.0952768
11	0xbdde9078	-0.10867399
12	0xbda30204	-0.07959369
13	0x3dd4029f	0.103520624
14	0xbc1059b5	-0.00881045
15	0x3d818139	0.063234754
16	0x3d831a8f	0.0640155
17	0xbdd0991d	-0.10185454
18	0x3dccefae	0.10006653
19	0x3ddf0470	0.10889518
20	0xbd59b6e3	-0.05315293
21	0x3d7a995d	0.061181415
22	0x3d8e43bc	0.06946513
23	0xbdce6243	-0.10077336
24	0x3d6e4ab6	0.05817672
25	0xbd088e22	-0.033338673
26	0x3dcb704a	0.09933527
27	0xbde5f433	-0.11228218
28	0x3d9d51ea	0.076816395
29	0x3dca53ee	0.098792896
30	0xbba8972f	-0.0051449756
31	0xbdc59efd	-0.09649465
32	0x3db9316b	0.09042629
33	0x3d9ce4ad	0.07660804
34	0xbdce55e0	-0.10074973
35	0xbdd6825e	-0.10474084
36	0x3d9a150b	0.07523545
37	0x3c95b386	0.01827408
38	0xbdb85f7e	-0.09002589
39	0x3dd2f4d5	0.10300604
40	0x3d91af85	0.07113556
41	0x3d540f97	0.05177268
42	0x3db4c457	0.08826511
43	0xbdacde47	-0.084408335
44	0xbda4b67f	-0.08042621
45	0xbdcfbd8d	-0.10143576
46	0x3dbd80f9	0.09253115
47	0xbdc948a6	-0.0982831
48	0x3da3d7c4	0.080001384
49	0x3dcb00f7	0.099122934
50	0x3ddcc80f	0.10780346
51	0x3d312348	0.043246537
52	0xbdda38a8	-0.106553376
53	0x3daeba2e	0.08531605
54	0x3d72eaaf	0.059305843
55	0xbd3ffafd	-0.04687022
56	0x3dba746c	0.09104237
57	0xbdc5e4f9	-0.09662814
58	0xbd781e26	-0.060575627
59	0xbd7ad0cc	-0.06123428
60	0x3d97b1c2	0.074069515
61	0x3db7d76b	0.089766346
62	0xbdca4a09	-0.09877402
63	0xbdc9dbe7	-0.09856396
64	0x3d6b0b56	0.057383858
65	0x3db5416b	0.08850368
66	0x3de87478	0.1135034
67	0xbdd8fa5c	-0.10594627
68	0x3dbb337d	0.0914068
69	0xbda70503	-0.08155253
70	0x3d4bd9bd	0.0497682
71	0xbdcdcbcb	-0.10048636
72	0xbdcefe97	-0.10107153
73	0x3dd9f9b2	0.10643329
74	0xbdaaa421	-0.08332086
75	0x3d934223	0.07190349
76	0x3dc8eea7	0.09811144
77	0xbdba0d17	-0.09084528
78	0xbcc4ae93	-0.024009025
79	0x3cfb7f57	0.030700369
80	0xbdbbdbe9	-0.09172804
81	0x3ddeef0e	0.1088544
82	0xbdc1a102	-0.09454538
83	0x3d18f803	0.037345897
84	0x3de93c09	0.11388404
85	0xbddb7df6	-0.107173845
86	0xbd99c265	-0.07507781
87	0x3dda800d	0.10668955
88	0xbce95608	-0.028483406
89	0x3de0cb23	0.10976245
90	0xbdd31815	-0.10307328
91	0x3c657d82	0.014006974
92	0x3dbfbd97	0.09362333
93	0x3d810e63	0.06301572
94	0x3dbf4010	0.09338391
95	0x3ddb7362	0.10715367
96	0xbd4e17ff	-0.050315853
97	0x3be3f85e	0.006957098
98	0x3dea8447	0.11451011
99	0xbdd36b31	-0.103231795
100	0x3d9d6942	0.07686092
101	0x3dd2922a	0.10281785
102	0x3dbab47a	0.091164544
103	0x3d92fb95	0.07176892
104	0xbda1d38b	-0.07901677
105	0xbdd180c7	-0.102296405
106	0x3dc49f04	0.09600642
107	0x3dd03d3d	0.1016793
108	0x3db61451	0.08890594
109	0x3dd0c95c	0.10194656
110	0xbdd42f2e	-0.10360561
111	0xbd97188e	-0.0737773
112	0x3c2e9178	0.0106548
113	0x3d8ac3ef	0.067756526
114	0xbd47a2fe	-0.048739426
115	0xbdbce0d9	-0.09222574
116	0xbdb1ba8e	-0.086781606
117	0x3d9cf692	0.07664217
118	0xbde8806c	-0.113526195
119	0xbd96b6de	-0.07359098
120	0xbdd5b2ef	-0.104345195
121	0xbd48049a	-0.048832513
122	0x3de698d5	0.11259619
123	0xbd5d4aba	-0.054026343
124	0xbdd43aec	-0.10362801
125	0xbdd3eacd	-0.10347519
126	0xbd332471	-0.043735925
127	0x3d6001c2	0.054689176

network_body._body_endoder.seq_layers.2.weight f4 [128, 128]
0	0xbdc46202	-0.09589006
1	0x3cb14311	0.021638425
2	0x3e86698d	0.26252404
3	0x3e160a2c	0.14652318
4	0x3e282558	0.16420496
5	0x3cec4baa	0.028844673
6	0xbd01c6b1	-0.031683628
7	0x3cdc9593	0.026926791
8	0x3e36bc8e	0.17845365
9	0x3ce3bcc1	0.027799966
10	0x3d8d5004	0.069000274
11	0xbe973e60	-0.29539776
12	0xbd90dcbe	-0.07073353
13	0x3dbdcbdc	0.09267399
14	0x3de9b64a	0.11411722
15	0x3e4f5481	0.2024708
16	0xbd332afb	-0.04374216
17	0xbdb1c74d	-0.08680592
18	0xbc55976c	-0.01303659
19	0x3d1ca01d	0.038238633
20	0x3e0e1330	0.13874507
21	0x3cf23d05	0.029570112
22	0xbc0f1779	-0.008733624
23	0xbda0ede4	-0.07857874
24	0x3db87b39	0.09007878
25	0xbd04c9e0	-0.032419086
26	0xbd733c56	-0.059383713
27	0xbe35d3ff	-0.17756651
28	0x3e00ce32	0.12578657
29	0x3e5863f9	0.21131887
30	0x3d577535	0.05260201
31	0x3bcdee00	0.0062844753
32	0x3d0e4d8e	0.03474193
33	0x3e4c2f85	0.19940002
34	0x3d93939a	0.07205887
35	0xbcdcb028	-0.026939467
36	0xbdea4d52	-0.11440529
37	0xbe04b7cf	-0.12960742
38	0xbe1690c3	-0.1470366
39	0x3e13625c	0.1439299
40	0x3e3cb077	0.18426691
41	0x3df07648	0.1174131
42	0x3d6aceed	0.057326246
43	0xbdc079f1	-0.093982585
44	0xbe4ef7fb	-0.20211785
45	0x3dbe6e6f	0.09298407
46	0x3e1c6de7	0.152763
47	0xbdd86db8	-0.10567802
48	0xbc8d38da	-0.017239023
49	0x3b65c3f3	0.0035059422
50	0x3dfd4792	0.123671666
51	0xbd244b1e	-0.0401107
52	0xbdb8b057	-0.09018009
53	0x3c3ec366	0.011643266
54	0x3d52afe7	0.051437285
55	0x3d50bab2	0.050959297
56	0x3e0b74a6	0.13618717
57	0xbce18a33	-0.027531719
58	0xbd33c05d	-0.043884624
59	0xbe28d1ca	-0.16486278
60	0x3ca0149d	0.01954108
61	0x3e3d2103	0.18469624
62	0xbdb220db	-0.08697673
63	0x3d24cd44	0.04023482
64	0x3e601494	0.2188285
65	0xbe6d888f	-0.23196624
66	0x3e05e5c8	0.13075936
67	0xba5923fe	-0.00082832563
68	0x3dc7923a	0.097446874
69	0xbdb94d58	-0.09047955
70	0xbbea3199	-0.007147026
71	0xbe4d8c7e	-0.20073125
72	0xbdd2a620	-0.10285592
73	0x3d83d930	0.064379096
74	0x3e11fc8f	0.142565
75	0xbd8bd9fd	-0.06828687
76	0x3e43eee1	0.19134094
77	0x3ceee2ff	0.029160975
78	0xbd0e529d	-0.034746755
79	0x3d1a38c1	0.03765178
80	0xbdd0e9e2	-0.102008596
81	0x3d72d00b	0.059280436
82	0xbcb3a873	-0.021930909
83	0xbd9b07e4	-0.075698644
84	0x3d7230dc	0.059128627
85	0xbcebccb1	-0.028784128
86	0x3ca02e87	0.019553436
87	0x3de5409e	0.111939654
88	0xbda0a7c5	-0.078444995
89	0x3e2a23ed	0.16615267
90	0x3d195b5d	0.037440646
91	0x3e6e051b	0.23244135
92	0x3e18f737	0.14938055
93	0x3d0ab418	0.033863157
94	0xbbc79bc6	-0.0060915677
95	0x3e05e1a1	0.13074352
96	0x3d6c7e7a	0.057737805
97	0x3e7442a6	0.2385355
98	0x3e4a9eee	0.1978719
99	0xbb973d03	-0.0046154275
100	0xbb3cc766	-0.0028805374
101	0xbbe12ec7	-0.0068720314
102	0x3dc5156f	0.09623229
103	0x3dcc0130	0.09961164
104	0xbd440f6b	-0.047866266
105	0xbe05efcd	-0.13079758
106	0xbd3efaa4	-0.04662575
107	0x3e44f7e1	0.19235183
108	0x3e0345b7	0.12819563
109	0x3e12e3fd	0.14344783
110	0xbe2d33d7	-0.16914307
111	0xbcf6e7bf	-0.030139802
112	0x3c5fab2a	0.013651649
113	0x3bd95732	0.006632709
114	0xbd1a768a	-0.037710704
115	0xbcf18751	-0.02948347
116	0xbd5c802c	-0.05383317
117	0xbd9820ab	-0.07428106
118	0xbdcfefc8	-0.101531565
119	0xbe0197d4	-0.12655574
120	0xbd9101c2	-0.070804134
121	0x3d86c0c5	0.065797366
122	0xbd2a2437	-0.041538443
123	0x3b186d47	0.0023258494
124	0xbe515325	-0.20441873
125	0x3e4fd77a	0.20297042
126	0x3e14c519	0.14528312
127	0x3dec985c	0.11552498
128	0x3da3650b	0.07978257
129	0xbe221a92	-0.15830448
130	0xbdb17a12	-0.08665861
131	0xbd238ca4	-0.039929047
132	0xbe3c896b	-0.18411796
133	0xbe27f496	-0.16401896
134	0x3dad25d5	0.084544815
135	0xbd83cdfa	-0.06435771
136	0xbd814fe9	-0.0631407
137	0xbd010063	-0.03149451
138	0xbdd1cec9	-0.10244519
139	0x3e8550c8	0.26038194
140	0xbd41bb5f	-0.04729783
141	0xbdff5a99	-0.12468452
142	0x3d7bfa62	0.06151808
143	0x3d8a0dde	0.06740926
144	0xbdd1eb42	-0.1024995
145	0x3b2c38f3	0.0026279062
146	0xbe4f5d0a	-0.20250335
147	0xbca01eae	-0.01954588
148	0xbe123b11	-0.14280345
149	0xbda44194	-0.080203205
150	0x3d5721fe	0.05252265
151	0x3d38bc04	0.04510118
152	0xbd7d1580	-0.061788082
153	0x3df6bfbc	0.12048289
154	0xbd2d49c0	-0.04230666
155	0xbb591d92	-0.0033129198
156	0xbd15051f	-0.036381837
157	0xbd853d63	-0.06505849
158	0xbe1e47d6	-0.1545709
159	0xbd931794	-0.071822315
160	0xbdea64e6	-0.11445026
161	0xbe23d7a4	-0.16000229
162	0x3dc3dd08	0.09563643
163	0x3e15d0d3	0.14630441
164	0xbd1b4e7a	-0.037916638
165	0xbd17d019	-0.03706369
166	0x3d873ce0	0.06603408
167	0xbd507a4f	-0.050897893
168	0xbd5df97c	-0.054193005
169	0xbd154021	-0.03643811
170	0xbd1c5368	-0.03816548
171	0x3d1fdb40	0.039027452
172	0xbc9ffb77	-0.019529087
173	0x3df2cf90	0.11855996
174	0xbe4b0f25	-0.19829996
175	0x3d8f28d0	0.06990206
176	0xbe35d620	-0.17757463
177	0xbddbebae	-0.10738312
178	0xbcf1f4ec	-0.029535733
179	0x3c347b9c	0.011015799
180	0x3d777f20	0.06042397
181	0xbd588d40	-0.05286908
182	0x3d0b7cd6	0.0340546
183	0x3e11ccd6	0.14238295
184	0xbdeaf6fd	-0.114728905
185	0x3e4cd34c	0.20002478
186	0x3e022272	0.12708452
187	0x3ddbf56d	0.10740171
188	0xbd86d753	-0.065840386
189	0x3d97f8ed	0.07420526
190	0xbd9d305d	-0.0767524
191	0xbde0c2b6	-0.10974638
192	0xbd5318ac	-0.0515372
193	0xbe01a9fa	-0.12662497
194	0xbe75919a	-0.23981324
195	0xbb1b5f52	-0.0023707938
196	0xbda553a2	-0.08072592
197	0x3d32bc60	0.04363668
198	0x3d632947	0.055459287
199	0x3dc23ca6	0.09484224
200	0x3d57ea8d	0.05271392
201	0xbceb4acb	-0.028722188
202	0xbd239748	-0.039939195
203	0x3ddccd93	0.10781398
204	0x3d333f08	0.043761283
205	0x3da19567	0.07889824
206	0xbd727edd	-0.059203018
207	0xbdcf934b	-0.10135516
208	0xbc27328e	-0.010204924
209	0xbe28e07a	-0.16491881
210	0x3df2ebd1	0.11861385
211	0xbdf787cd	-0.12086449
212	0xbde019ce	-0.10942422
213	0x3d865658	0.065594375
214	0x3dcad993	0.0990478
215	0xbb59bb1f	-0.0033223105
216	0x3de16e18	0.11007327
217	0xbc9b2e60	-0.018943012
218	0x3d80e976	0.06294529
219	0x3d331f2e	0.043730907
220	0xbdfc759d	-0.123271205
221	0x3df8a692	0.12141146
222	0xbe1f53a1	-0.15559246
223	0xbe0b1ccd	-0.13585205
224	0xba88bcb7	-0.0010432218
225	0xbe45086c	-0.19241494
226	0xbd98fdc2	-0.074702755
227	0xbb2a6ab1	-0.0026003534
228	0xbd76d8e9	-0.060265455
229	0xbe55b7f1	-0.2087095
230	0xbd27081f	-0.04077923
231	0xbdc7da41	-0.097584255
232	0x3ca98047	0.02069105
233	0x3df3277b	0.11872765
234	0xbd965fd0	-0.073424935
235	0x3b567aa7	0.0032726915
236	0xbbf65171	-0.007517033
237	0xbe141555	-0.14461263
238	0x3b909889	0.004412715
239	0xbd522c67	-0.051311877
240	0xbcb35989	-0.02189328
241	0xbcd767ae	-0.026294556
242	0x3d41375f	0.047171947
243	0xbe0e21dd	-0.13880105
244	0xbd0a588c	-0.03377585
245	0x3d329c37	0.04360601
246	0x3e0a855d	0.13527437
247	0xbd2283dc	-0.039676532
248	0xbe13aa1b	-0.14420359
249	0xbd37882f	-0.04480761
250	0xbd7641df	-0.060121413
251	0x3d790f92	0.060805865
252	0x3de3dd61	0.11126209
253	0x3dae56f3	0.08512678
254	0xbda2ca1e	-0.07948707
255	0x3d68733a	0.056750514

network_body._body_endoder.seq_layers.2.bias f4 [128]
0	0x3dbd952e	0.092569694
1	0xbda594d6	-0.08085029
2	0xbda12623	-0.07868602
3	0x3db58a81	0.08864308
4	0x3d9c0b26	0.07619314
5	0x3dace99a	0.084429935
6	0x3da471f8	0.0802955
7	0xbdbe40f3	-0.09289732
8	0xbd18463a	-0.03717635
9	0xbdb9a3c9	-0.09064443
10	0x3dc15c36	0.09441416
11	0x3db028f4	0.08601561
12	0xbdb9c1d3	-0.09070172
13	0x3d1fdfe4	0.039031878
14	0x3daa17c4	0.08305314
15	0x3d8c2693	0.06843295
16	0xbda5d03d	-0.08096359
17	0x3d916527	0.070993714
18	0x3db88561	0.09009815
19	0xbd630a11	-0.055429522
20	0x3d90c21d	0.07068274
21	0x3d95ca41	0.073139675
22	0xbd56c634	-0.052435115
23	0x3da4920d	0.080356695
24	0x3da4e372	0.08051194
25	0xbd9822bc	-0.074285
26	0x3d8a4de5	0.067531385
27	0x3dc3228d	0.095280744
28	0xbd9d38ea	-0.07676871
29	0x3d838880	0.0642252
30	0xbdc377ea	-0.09544356
31	0xbd563b7d	-0.052302826
32	0x3db96af9	0.090536065
33	0x3db4f477	0.088356905
34	0xbdac32c2	-0.08408119
35	0xbdb5254b	-0.08845004
36	0xbd91b119	-0.07113857
37	0x3dc94aa7	0.09828692
38	0xbdade20a	-0.08490379
39	0xbdd583cd	-0.1042553
40	0xbd9a605f	-0.075379126
41	0x3da9adef	0.08285128
42	0xbdb7c1db	-0.08972522
43	0x3da23d30	0.07921827
44	0xbdb4a184	-0.08819869
45	0x3d896741	0.06709147
46	0xbdb073d9	-0.08615846
47	0x3db75fb0	0.08953798
48	0xbd842e49	-0.06454141
49	0x3dbc32d0	0.09189379
50	0xbd473c24	-0.04864134
51	0xbd966a0d	-0.07344446
52	0xbd91c097	-0.07116812
53	0xbdb40156	-0.08789317
54	0x3d87b560	0.066263914
55	0x3d2dabf2	0.042400308
56	0x3d1eedee	0.038801126
57	0xbdaf73be	-0.08566998
58	0xbdc315ce	-0.09525643
59	0x3db44dce	0.088039026
60	0xbd98bcfd	-0.07457922
61	0x3d70e9c5	0.05881669
62	0x3da52787	0.0806418
63	0xbdb478a3	-0.08812072
64	0xbdc14146	-0.09436278
65	0x3d7d6310	0.06186205
66	0xbdab913a	-0.08377309
67	0x3d89f0c3	0.06735375
68	0x3db6aefd	0.08920095
69	0xbdba525d	-0.09097741
70	0x3d9f6094	0.07782093
71	0xbd88b802	-0.06675722
72	0xbda6125a	-0.08108969
73	0x3d56a893	0.05240686
74	0x3dc967d8	0.0983426
75	0x3d7fd204	0.062456146
76	0x3dad4a62	0.08461453
77	0x3d559213	0.05214126
78	0x3d968b75	0.07350818
79	0x3d9cd2db	0.07657405
80	0xbda03965	-0.07823447
81	0x3d8e0130	0.0693382
82	0xbda0ffb1	-0.07861269
83	0x3db96ce1	0.0905397
84	0x3db2ff19	0.08740062
85	0x3d95818b	0.07300099
86	0x3dbb8ebc	0.09158084
87	0x3d7bdf39	0.06149218
88	0xbdad5438	-0.08463329
89	0xbdb4e10f	-0.08831989
90	0x3daa3ebf	0.08312749
91	0xbda77c2c	-0.08177981
92	0xbdaf8b63	-0.08571508
93	0xbdb8d7d1	-0.09025539
94	0xbdb8b301	-0.09018517
95	0xbd85027c	-0.064946145
96	0xbdb9402a	-0.090454414
97	0x3db33c43	0.087517284
98	0xbdbc358c	-0.09189901
99	0x3d8d54dc	0.06900951
100	0xbd8596d8	-0.06522912
101	0xbd998540	-0.074961185
102	0x3db9c696	0.090710804
103	0xbdb57bb2	-0.08861484
104	0xbdcdbae1	-0.1004541
105	0x3d750b9f	0.059825536
106	0xbdbce94b	-0.092241846
107	0x3da98141	0.08276606
108	0x3db09fdf	0.08624243
109	0xbd85ef8e	-0.06539832
110	0xbd95bdc8	-0.073115885
111	0x3d730f3d	0.059340704
112	0x3da1fdcd	0.07909737
113	0x3d9b1e98	0.07574195
114	0xbda686d7	-0.081311874
115	0xbdb3a3e6	-0.087714955
116	0x3da4486d	0.080216266
117	0x3d9c16d7	0.07621544
118	0x3db7c20b	0.08972558
119	0x3d89a7f4	0.06721488
120	0x3dbdfdb4	0.09276906
121	0x3db9b3aa	0.09067471
122	0xbd945dcc	-0.07244453
123	0xbda6f7e1	-0.08152748
124	0x3db35dc7	0.08758121
125	0x3d95cfc8	0.07315022
126	0x3da39542	0.07987453
127	0x3dab6177	0.08368199

network_body._body_endoder.seq_layers.4.weight f4 [128, 128]
0	0xbe0271a3	-0.12738661
1	0x3c8e8118	0.017395541
2	0x3e0689b1	0.13138463
3	0xbe5f1e49	-0.21788897
4	0xbdde4928	-0.10853797
5	0xbc7ceaea	-0.015436867
6	0xbe197271	-0.14985062
7	0x3d9296f7	0.071577005
8	0x3d5450fd	0.05183505
9	0x3e3af191	0.18256213
10	0xbda87e42	-0.08227207
11	0xbd92e206	-0.07172017
12	0x3cee4cdb	0.029089382
13	0xbda6929e	-0.08133434
14	0xbd417895	-0.047234137
15	0x3d79ae11	0.06095702
16	0xbc3f104b	-0.011661599
17	0x3cc544a0	0.024080575
18	0x3de3fd13	0.111322545
19	0x3c8d23ca	0.01722898
20	0xbe080791	-0.13284136
21	0xbd174d7e	-0.036939137
22	0x3dc01849	0.09379632
23	0xbcab636b	-0.02092143
24	0x3c8636f3	0.016383624
25	0x3b4fce5a	0.0031708688
26	0xbcbaf138	-0.0228201
27	0xbdc65025	-0.09683255
28	0x3de866f1	0.113477595
29	0x3d296166	0.041352652
30	0x3d1f552e	0.038899593
31	0x3e347b23	0.17625098
32	0x3a1e6d77	0.0006043533
33	0xbe0a69b2	-0.13516882
34	0xbd13cb3f	-0.036082502
35	0x3dccffb1	0.10009707
36	0x3cc3f7cb	0.023921868
37	0xbd0805b0	-0.03320855
38	0xbc335d5f	-0.010947554
39	0x3beea4ba	0.0072828205
40	0x3d48b9aa	0.049005188
41	0xbe10a07b	-0.14123718
42	0xbd21d3a6	-0.039508484
43	0x3c14a499	0.009072446
44	0x3d9640c6	0.07336573
45	0xbca9c9a7	-0.020726038
46	0xbe240211	-0.16016413
47	0xbda6dbeb	-0.08147415
48	0x3dbedc53	0.09319367
49	0x3d0586e2	0.032599337
50	0x3cf60f0d	0.030036474
51	0x3ccb4149	0.024811404
52	0x3de3be4a	0.11120279
53	0x3dfc68f3	0.12324705
54	0xbca68744	-0.020328172
55	0x3d706f92	0.05870015
56	0x3cf9353f	0.030420898
57	0xbdda02e0	-0.106450796
58	0x3d8d02e6	0.068853185
59	0xbd54da43	-0.051965963
60	0x3d27e3bb	0.040988665
61	0xbd571812	-0.05251319
62	0xbd48951e	-0.048970334
63	0xbd3b7570	-0.045766294
64	0x3e22c83a	0.15896693
65	0xbd98a488	-0.07453257
66	0xbc0b757a	-0.008511895
67	0xbd02dc66	-0.03194847
68	0x3baa607b	0.0051994896
69	0xbd48817d	-0.048951615
70	0xbc402a97	-0.011728904
71	0x3d83fb4f	0.06444418
72	0xbd9ff226	-0.07809858
73	0x3cea1875	0.028576115
74	0xbc82a59a	-0.015948106
75	0xbc5b0f17	-0.013370297
76	0xbdf92b94	-0.12166515
77	0x3c56fc08	0.013121612
78	0xbdde25d2	-0.108470574
79	0x3d5bea7a	0.05369041
80	0x3ddef97d	0.1088743
81	0xbe410c62	-0.1885238
82	0x3da87b6d	0.082266666
83	0xbda7a2e5	-0.081853665
84	0xbda3c90b	-0.0799733
85	0x3db35195	0.08755795
86	0xbd21a4ce	-0.03946381
87	0x3df31efb	0.118711434
88	0x3d08c320	0.03338921
89	0x3e1dc72a	0.15408006
90	0xbce016e4	-0.027354665
91	0x3d5da338	0.054110736
92	0xbc7fd1a9	-0.015613952
93	0x3da5e254	0.08099809
94	0x3c86d25a	0.016457725
95	0x3d99fc0c	0.07518777
96	0x3b12999e	0.0022369395
97	0xbe4ff7b7	-0.2030934
98	0xbd80d7c5	-0.06291155
99	0x3e07c24f	0.13257717
100	0xbd01ab08	-0.03165725
101	0x3d5e3d8c	0.054257914
102	0xbe1e3853	-0.15451173
103	0x3e0fa4b6	0.14027676
104	0x3e2b515a	0.16730252
105	0xbd4cc621	-0.049993638
106	0x3d52f084	0.051498905
107	0xbde21fed	-0.110412456
108	0x3bb300a4	0.005462723
109	0xbbb2b7fc	-0.0054540616
110	0x3dd5bee8	0.10436803
111	0xbc4a58fe	-0.012350319
112	0x3c98c732	0.018649671
113	0xbd3523a8	-0.044223458
114	0xbc7d910f	-0.015476479
115	0xbd02ecd6	-0.031964146
116	0xbe412489	-0.18861593
117	0x3c9b46f2	0.018954728
118	0xbdb770a3	-0.089570306
119	0xbda3cb44	-0.07997754
120	0x3d57d34a	0.052691735
121	0xbda89c35	-0.08232919
122	0x3dbbfb9c	0.0917885
123	0x3d1e7a89	0.038691077
124	0xba1e7731	-0.00060449826
125	0xbdb81e7b	-0.08990189
126	0xbc35edf1	-0.011104093
127	0xbdbd4ec2	-0.092435375
128	0xbe35a3f2	-0.17738321
129	0xbd716755	-0.058936436
130	0x3e1b163d	0.15145202
131	0x3c18b90d	0.009321463
132	0xbcc76b39	-0.02434312
133	0x3ce3a307	0.027787698
134	0x3e1344e8	0.14381754
135	0x3d04487d	0.032295693
136	0x3e01be81	0.12670328
137	0x3e4d785c	0.20065445
138	0x3e31a537	0.1734818
139	0x3c65244d	0.013985706
140	0x3e40123a	0.18756953
141	0x3dacdd52	0.08440651
142	0xbd33cbc9	-0.043895517
143	0xbdaf8923	-0.08571079
144	0x3e564968	0.2092644
145	0xbc089ee0	-0.00833866
146	0xbdb14561	-0.08655811
147	0x3e179668	0.14803469
148	0x3d6face7	0.058514502
149	0xbdd944fa	-0.10608859
150	0xbcbbbea5	-0.022918055
151	0xbe293d93	-0.16527395
152	0xbe6a56e6	-0.22884712
153	0x3d892ee8	0.066984
154	0xbd106303	-0.035250675
155	0xbdb89249	-0.09012277
156	0x3db1b957	0.08677929
157	0x3c7b9300	0.015354872
158	0x3c7b69af	0.015345021
159	0xbe156687	-0.14589892
160	0xbe270ad8	-0.1631273
161	0xbdf59f31	-0.11993254
162	0x3d7e0cb7	0.062023845
163	0x3da1e1f9	0.07904429
164	0xbce6c496	-0.028169911
165	0xbdbefd52	-0.09325661
166	0x3da90d65	0.08254508
167	0x3d4bfae3	0.04979981
168	0xbd18cb5f	-0.037303325
169	0xbdbb94fd	-0.09159277
170	0x3d3c56c7	0.045981195
171	0xbe061794	-0.13094932
172	0x3d2d476f	0.042304453
173	0xbdd16f2d	-0.10226283
174	0x3d50c7c3	0.050971758
175	0xbd81c5e5	-0.063365735
176	0x3de16c3b	0.110069714
177	0x3da83546	0.08213286
178	0xbd9514dc	-0.07279369
179	0x3d1eb270	0.03874439
180	0x3d361bda	0.044460155
181	0x3d2475aa	0.040151276
182	0xbd80d119	-0.06289882
183	0x3e06e3e3	0.1317287
184	0xbdf9214b	-0.12164553
185	0x3ce79243	0.028267985
186	0x3dd4d092	0.10391344
187	0xbc83627c	-0.016038172
188	0x3d008ab7	0.03138229
189	0xbd67342e	-0.056446247
190	0xbd6f7cc2	-0.058468588
191	0x3bb05dfc	0.0053822976
192	0x3e356904	0.17715842
193	0xbd5548f7	-0.052071538
194	0x3d7db288	0.06193784
195	0xbddcc44a	-0.10779627
196	0xbe9f8b00	-0.31160736
197	0xbc9fb64d	-0.019496107
198	0x3d3d092a	0.046151318
199	0x3df38931	0.118914016
200	0x3cd11fe9	0.025527911
201	0xbcf3134e	-0.029672291
202	0xbe18a8f5	-0.14908202
203	0xbdf623b4	-0.120185286
204	0xbdd8bd5d	-0.10582993
205	0x3d790500	0.060795784
206	0x3dae6fda	0.08517428
207	0x3e1a9e2a	0.15099397
208	0x3dbe247b	0.09284302
209	0xbdcbde23	-0.099544786
210	0x3d891081	0.06692601
211	0x3d3f7ea4	0.046751633
212	0xbda1750c	-0.07883653
213	0x3ce93d44	0.028471597
214	0xbdd0c533	-0.10193863
215	0x3de60c62	0.112328306
216	0x3e154c0d	0.14579792
217	0x3deffff6	0.117187425
218	0x3d344fb6	0.04402133
219	0x3d20d151	0.03926212
220	0xbd9f8600	-0.0778923
221	0x3dc19cfe	0.09453772
222	0xbc9e5e40	-0.019332051
223	0x3b1e5841	0.002416149
224	0x3db7e017	0.089782886
225	0xbe09b23d	-0.13446899
226	0xbc21dda1	-0.009879501
227	0xbddeb9af	-0.1087526
228	0xbde3f167	-0.11130028
229	0x3c8be1eb	0.0170755
230	0xbe14c383	-0.14527707
231	0x3e25e5d6	0.16200957
232	0x3e1d91d5	0.15387662
233	0xbd2106a7	-0.039312985
234	0x3e006f0b	0.1254236
235	0x3d0892fa	0.033343293
236	0x3b881edc	0.0041540693
237	0x3d912694	0.07087436
238	0x3d0f9c51	0.035061184
239	0xbe38da65	-0.18052061
240	0x3d647704	0.055777565
241	0x3d866886	0.06562905
242	0xbca7f6c3	-0.020503407
243	0x3e013df1	0.12621285
244	0x3d94b81a	0.07261677
245	0x3d48900c	0.0489655
246	0xbe6f9d1a	-0.23399773
247	0xbd1da368	-0.038485914
248	0x3cc923c6	0.02455319
249	0xbd67e893	-0.056618284
250	0x3d924aee	0.07143198
251	0x3d62e1e4	0.055391207
252	0xbd5c67c1	-0.053809885
253	0xbda9bef7	-0.08288377
254	0xbda90d2a	-0.08254464
255	0x3db7edb4	0.08980885

network_body._body_endoder.seq_layers.4.bias f4 [128]
0	0xbd200489	-0.039066825
1	0xbd11f5a3	-0.035634648
2	0x3d94442a	0.07239564
3	0x3d1aaf52	0.037764855
4	0x3d62fe0f	0.05541807
5	0x3daf8804	0.08570865
6	0xbd0867ba	-0.033302046
7	0xbc7c0e22	-0.015384229
8	0x3d66bb78	0.056331128
9	0xbd00bc9c	-0.031429872
10	0xbcc7de75	-0.024398068
11	0x3d92f46b	0.07175525
12	0x3d79c326	0.060977124
13	0xbcacd542	-0.021097783
14	0xbccf78fe	-0.025326248
15	0xbcef1bba	-0.029188026
16	0x3d5233ca	0.05131892
17	0xbcbb171d	-0.02283817
18	0xbcde1881	-0.027111294
19	0xbd27e527	-0.04099002
20	0xbd2f9e74	-0.042875722
21	0x3d3cd1f7	0.046098676
22	0xbd251d74	-0.04031129
23	0x3d71a14e	0.058991723
24	0xbd033145	-0.03202941
25	0x3d00a734	0.031409457
26	0x3d65e7ef	0.056129392
27	0x3d8f29e9	0.069904156
28	0x3d349251	0.04408485
29	0xbd4b3c07	-0.049617793
30	0x3d5f658f	0.054540213
31	0xbd2e4937	-0.042550292
32	0xbcc8d03f	-0.024513362
33	0xbd2b0b06	-0.04175856
34	0xbd1ebbbb	-0.038753252
35	0x3c3b6792	0.011438267
36	0x3d5249f8	0.051340073
37	0x3d8f3cfa	0.06994052
38	0xbd23182d	-0.039817978
39	0x3d6c7d71	0.057736818
40	0x3d99b017	0.075042896
41	0x3da858cc	0.08220062
42	0xbd1f5876	-0.038902722
43	0xbcb102e5	-0.021607826
44	0x3d84df59	0.06487913
45	0xbd3c93ae	-0.046039276
46	0xbd231519	-0.039815042
47	0x3cf02732	0.029315565
48	0xbd15d5d2	-0.036580868
49	0xbd2e2562	-0.04251612
50	0xbd0c7b92	-0.034297533
51	0x3d440abf	0.04786181
52	0x3d8ad94a	0.06779726
53	0x3d97e67f	0.074170105
54	0x3c8b1a76	0.016980391
55	0xbd0a60fa	-0.03378389
56	0xbcf7b527	-0.030237747
57	0xbd030ff6	-0.031997643
58	0x3d3fbac7	0.046808984
59	0xbcec9314	-0.028878726
60	0x3d49d854	0.049278572
61	0xbcc8ef4f	-0.024528174
62	0xbd2de72a	-0.042456783
63	0xbd3e67ed	-0.04648583
64	0xbd21368a	-0.039358653
65	0x3d9baa08	0.0760079
66	0xbd20fe8f	-0.039305266
67	0x3da461f9	0.08026499
68	0xbd1c8dc1	-0.038221125
69	0xbd399459	-0.04530749
70	0xbd1e009a	-0.038574792
71	0x3d7d725e	0.061876647
72	0xbd153369	-0.03642598
73	0x3d3d30dd	0.046189178
74	0x3d8afc00	0.067863464
75	0xbd105cf7	-0.03524491
76	0xbd3e2adb	-0.04642759
77	0xbd4e1a53	-0.050318073
78	0xbd1aa41b	-0.03775416
79	0x3da7a4ed	0.08185754
80	0x3d737372	0.05943627
81	0xbd0b4b28	-0.03400722
82	0x3da20913	0.07911887
83	0xbb83f708	-0.004027251
84	0xbd119e86	-0.03555157
85	0xbd37870d	-0.04480653
86	0xbcdac9d3	-0.026707565
87	0x3d6d2838	0.057899684
88	0x3d691e80	0.056913853
89	0x3d745542	0.05965162
90	0xbd2cbc7e	-0.042171948
91	0x3d82ab19	0.063802905
92	0x3d913dbb	0.07091852
93	0xbd1747aa	-0.03693358
94	0x3d80e735	0.06294099
95	0x3d9bf471	0.07614983
96	0xbcaa8ac1	-0.020818116
97	0xbd2427a5	-0.04007687
98	0x3d98d8a1	0.07463194
99	0x3d89b01d	0.06723044
100	0xbd0cf70a	-0.034415282
101	0x3d5f1c12	0.05447013
102	0x3c5a5670	0.013326272
103	0xbd25f8eb	-0.04052059
104	0x3d56544e	0.052326493
105	0xbcc0577a	-0.023479212
106	0x3d8c25e9	0.06843168
107	0x3d8ce93a	0.06880422
108	0x3d88c7e6	0.066787526
109	0x3d7731a2	0.060350068
110	0xbd498768	-0.0492014
111	0xbccdcaaa	-0.025121052
112	0x3d577b18	0.052607626
113	0xbcd22738	-0.025653467
114	0x3d3408ce	0.04395371
115	0xbd08ca08	-0.033395797
116	0xbd33ea3b	-0.04392455
117	0x3d826086	0.06366067
118	0x3d35ed54	0.044415787
119	0x3d67f338	0.056628436
120	0xbd0f2be5	-0.03495397
121	0x3d3406af	0.043951686
122	0x3d9a47a5	0.07533196
123	0xbd1a52e9	-0.037676726
124	0xbd161577	-0.036641564
125	0x3da554f7	0.080728464
126	0xbc803839	-0.015651809
127	0xbd31b418	-0.04338464

action_model._discrete_distribution.branches.0.weight f4 [25, 128]
0	0xbd17b7ec	-0.037040636
1	0xbd48a3d8	-0.04898438
2	0x3ceb0a36	0.028691392
3	0x3cbf8569	0.023379045
4	0xbb95441c	-0.0045552384
5	0x3c8cec1a	0.017202426
6	0xbcb87ae2	-0.022519533
7	0x39a76f3e	0.00031935604
8	0x3cc36824	0.023853369
9	0xbc250a58	-0.010073267
10	0x3b8d181d	0.004305853
11	0x3d14911d	0.036271203
12	0x3c594f55	0.013263543
13	0x3c5cda0e	0.013479723
14	0xbca427e8	-0.02003856
15	0x3c3dfe0d	0.011596215
16	0xbc595b54	-0.013266403
17	0xbc4c2b90	-0.012461558
18	0xbca5c393	-0.020234859
19	0xbd127733	-0.03575821
20	0xbcbc2d90	-0.022970945
21	0x3c82b767	0.015956594
22	0xbd109174	-0.035294965
23	0x3c070425	0.008240734
24	0x3bd9eb26	0.0066503463
25	0x3c42978c	0.011876952
26	0x3cae76e5	0.021296928
27	0x3b8f4ac6	0.0043729274
28	0x3d2b820e	0.041872077
29	0xbced15f7	-0.028941138
30	0x3b331488	0.002732547
31	0xbd0162f5	-0.031588513
32	0xbbb0b57c	-0.0053927284
33	0xbd240024	-0.040039197
34	0xbce495b9	-0.027903425
35	0xbc528c41	-0.012850822
36	0x3ce8b363	0.02840585
37	0x3cb3d541	0.021952273
38	0xbd351a2a	-0.044214405
39	0x3c643834	0.0139294155
40	0x3c430085	0.011901979
41	0x3cb0c8ce	0.021580126
42	0xbc38113c	-0.011234578
43	0xbc2a829b	-0.010407115
44	0x3c9c4aa7	0.019078566
45	0xbd26e3cc	-0.040744588
46	0xbc78ec96	-0.015193125
47	0xbad7cfec	-0.0016465164
48	0xbd0c651d	-0.034276117
49	0xbcd265db	-0.025683334
50	0xbccf3127	-0.025291992
51	0xbb4c1455	-0.0031140049
52	0x3c5d8263	0.013519856
53	0x3c73065b	0.014833058
54	0xbcc4964b	-0.023997447
55	0xbcf24384	-0.02957321
56	0xbd2e137a	-0.042499043
57	0xbd11fc15	-0.035640795
58	0x3bd835c6	0.006598207
59	0xbc8d1d1b	-0.017225793
60	0x3bd70178	0.0065614544
61	0xba3e1c19	-0.00072521117
62	0xbc779d8c	-0.015113246
63	0xbcc87ea8	-0.024474457
64	0xbcc019b0	-0.023449749
65	0x3caf7acf	0.021420864
66	0xbc9ed3c1	-0.019388082
67	0x3d144086	0.036194347
68	0xbd28e268	-0.041231543
69	0xbd2d930e	-0.04237657
70	0xbc9abf17	-0.018889947
71	0x3cd94414	0.02652172
72	0xbcde9cc5	-0.027174363
73	0x3ca24e21	0.019812645
74	0x3ca4e286	0.020127546
75	0xbd0e6fbb	-0.034774523
76	0xbd630ca5	-0.05543198
77	0xbd3f101a	-0.046646215
78	0xbd1c67a1	-0.038184766
79	0x3d1cfb12	0.038325377
80	0x3cc2fd2b	0.02380236
81	0xbc9a61c2	-0.018845443
82	0x3ccefce8	0.02526708
83	0x3c98e6b2	0.018664692
84	0xbd04f6e1	-0.032462005
85	0xbd348d5c	-0.044080123
86	0xbd12f4b5	-0.035877902
87	0xba8ca2ea	-0.0010729705
88	0x3cba5044	0.022743352
89	0x3ca03756	0.019557636
90	0xbce5c21c	-0.02804666
91	0x3b809234	0.003923679
92	0x3c5dc978	0.013536803
93	0xbd0e2561	-0.034703616
94	0x3cba5d5b	0.022749593
95	0x3d09391e	0.033501737
96	0x3c9e2aeb	0.019307574
97	0xbbce7e05	-0.006301644
98	0x3c75a1b7	0.014992169
99	0x3ca4ba85	0.02010847
100	0xbd081c34	-0.03323002
101	0x3c7a7f0b	0.0152890785
102	0x3c054cf9	0.0081360275
103	0xbbc5e4e7	-0.00603925
104	0x3bceb72a	0.006308456
105	0x3a5d176e	0.0008433972
106	0x3c44a3af	0.012001916
107	0x3cd9d451	0.026590498
108	0x3d147242	0.036241777
109	0xbb5adee3	-0.003339701
110	0xbd177c2e	-0.03698366
111	0xbd132f09	-0.035933528
112	0x3c96f544	0.018427499
113	0x3c5118a5	0.012762223
114	0xbc2247a4	-0.009904776
115	0xbc4d87ac	-0.012544554
116	0xbce7d5bf	-0.028300164
117	0x3d0b8b0f	0.034068163
118	0x3c86ace5	0.016439864
119	0xbb4b094d	-0.0030980885
120	0xbd03095a	-0.03199134
121	0x3b8ca735	0.0042923936
122	0x3cddffa7	0.027099444
123	0xbd10c287	-0.035341766
124	0xbc2de39e	-0.01061335
125	0x3cf057b9	0.029338704
126	0x3c98024c	0.018555783
127	0xbcc1cd27	-0.023657395
128	0xbc7f7b5b	-0.015593375
129	0xbbba3270	-0.005682282
130	0x3c84d591	0.016215118
131	0x3c1b6078	0.009483449
132	0x3c911a4b	0.017712733
133	0x3ca3077d	0.019901032
134	0xbc4bbf2d	-0.012435717
135	0x3c5a7100	0.013332605
136	0xbc830e32	-0.01599798
137	0xbb2fd6c3	-0.0026830889
138	0x3b89eabf	0.004208892
139	0x3b7c445a	0.003849289
140	0x3a665950	0.00087871123
141	0x3b20f772	0.0024561551
142	0xbc7036e9	-0.014661529
143	0xbc28486a	-0.010271171
144	0x3c8c5287	0.017129196
145	0xbbb83580	-0.005621612
146	0xbc8476bc	-0.016169898
147	0xbca7e91a	-0.020496894
148	0xbc9b8db6	-0.018988471
149	0xba1f277f	-0.0006071254
150	0xbc9d4047	-0.019195689
151	0xba8a6069	-0.0010557297
152	0xbc56f169	-0.01311908
153	0xbbe8ceff	-0.007104754
154	0x3c90a658	0.017657444
155	0x3c22548e	0.009907855
156	0xbbae2d36	-0.005315448
157	0xbcacfbf2	-0.02111623
158	0xbb955872	-0.0045576626
159	0xbc19c5d2	-0.009385543
160	0xbb9a9c29	-0.004718323
161	0xbc7a6306	-0.015282398
162	0xbc166458	-0.009179197
163	0x3b8d3048	0.004308734
164	0x3b249b94	0.0025117146
165	0x3ba0238e	0.004887051
166	0xbc934541	-0.017977359
167	0x3c424393	0.011856931
168	0x3ca8febf	0.020629285
169	0x3c8d5918	0.017254397
170	0xbc91de5a	-0.01780622
171	0x39d905b4	0.00041393714
172	0xbb304a86	-0.0026899888
173	0xbca268e2	-0.019825403
174	0xb9ef8992	-0.0004568813
175	0xbc98a8f8	-0.018635258
176	0xbc44edb9	-0.012019568
177	0xbbe95fe9	-0.007122029
178	0xbbff7d18	-0.0077968948
179	0xbca3a46b	-0.019975862
180	0x3cabd37a	0.020974863
181	0x3af6dcd0	0.0018834118
182	0xbc271dcc	-0.010199975
183	0xbc7b9382	-0.015354993
184	0xbc78a728	-0.015176572
185	0xbc3efbaf	-0.011656686
186	0x3af8a178	0.001896902
187	0xbc7bf433	-0.015378046
188	0x3c449400	0.011998177
189	0xbb7881c6	-0.0037919148
190	0xbbcfe5ed	-0.006344548
191	0xbcd03652	-0.025416527
192	0xbba18505	-0.0049291872
193	0x3c924abc	0.017857902
194	0xbc9b7f8d	-0.01898172
195	0x3ca4c828	0.020114973
196	0xbd15ce77	-0.036573853
197	0xbc92f252	-0.017937813
198	0xbca5a414	-0.02021984
199	0x3c48b745	0.012250726
200	0xbc6b8568	-0.014375068
201	0xbc2632c2	-0.010143938
202	0x3c2fa16b	0.010719637
203	0xbc59429f	-0.013260513
204	0xbc913f41	-0.017730357
205	0xbca88f25	-0.02057607
206	0xbc4b1809	-0.012395867
207	0x3c8506f6	0.01623867
208	0x3c4b1ea8	0.012397446
209	0xbca349d1	-0.01993266
210	0x3cbb16fe	0.022838112
211	0x3cdc5ba2	0.026899163
212	0xbca00fad	-0.019538725
213	0xbc4c875f	-0.012483447
214	0xbbbd7497	-0.005781721
215	0x3c057c97	0.00814738
216	0x3bc0e3ed	0.005886546
217	0xbaf6cba3	-0.0018828999
218	0xbd03696c	-0.03208296
219	0xbb80711b	-0.003919733
220	0xbbb07532	-0.0053850645
221	0xbcdb55ac	-0.02677425
222	0x3b478234	0.0030442597
223	0x3c1a4e2f	0.0094180545
224	0x3c612f18	0.013744138
225	0x3bba18a4	0.005679207
226	0x3c53e3a5	0.012932693
227	0x3b49e89d	0.0030808814
228	0xbd035525	-0.032063622
229	0x3ca2ac77	0.019857628
230	0xbac92fe2	-0.0015349353
231	0xbc2b2cde	-0.010447709
232	0x3b5c8b69	0.003365243
233	0x3bc00213	0.0058596223
234	0xbc4e5815	-0.012594243
235	0x3ce0c694	0.02743844
236	0xbac2c067	-0.0014858366
237	0x3c022d68	0.007945396
238	0xbb30a655	-0.002695461
239	0xbc8706a8	-0.016482666
240	0x3c90ff52	0.017699871
241	0x3c790c6e	0.015200717
242	0xbc47c90c	-0.012193929
243	0xbc893007	-0.016746534
244	0xbc8cb512	-0.017176185
245	0x3bdf41a2	0.006813244
246	0x3c32849a	0.0108958725
247	0xbbea06db	-0.0071419305
248	0xbcbc95e5	-0.023020694
249	0x3c1c70a6	0.009548342
250	0x3a82cab5	0.0009978624
251	0xbcc6ee47	-0.024283541
252	0xbc0aaaa9	-0.00846354
253	0x3c6227c1	0.013803423
254	0x3c8e62b2	0.017381046
255	0xbcf982c9	-0.030457871

action_model._discrete_distribution.branches.0.bias f4 [25]
0	0x3d020717	0.031745043
1	0x3c965e8f	0.018355636
2	0xbc169592	-0.009190934
3	0xbc49619f	-0.012291341
4	0xbca78203	-0.020447737
5	0x3d41921b	0.047258478
6	0x3b42837a	0.0029680417
7	0xbc550356	-0.013001284
8	0xbc8365e1	-0.01603979
9	0xbca966b0	-0.020678848
10	0x3d1c44bf	0.0381515
11	0xba83bdfb	-0.0010051125
12	0xbc98a332	-0.018632505
13	0xbc997626	-0.018733095
14	0xbcbe79ca	-0.023251433
15	0x3ce08afd	0.027410025
16	0xbb8dcdac	-0.0043274965
17	0xbc60d788	-0.013723262
18	0xbc6febbb	-0.014643605
19	0xbcc570a3	-0.024101561
20	0x3b8aef2e	0.004239938
21	0xbbe3166c	-0.006930163
22	0xbc41fcde	-0.011840073
23	0xbcc25157	-0.023720426
24	0xbcbdb102	-0.023155693
