Assets/Env5/Brains/MoveUp.onnx (onnx, 152406 bytes, 8 tensors)

network_body._body_endoder.seq_layers.0.weight f4 [128, 7]
0	0xbf799d86	-0.97505987
1	0x3e3e9cb0	0.18614459
2	0xbf23953c	-0.6389959
3	0x3d977d58	0.07396954
4	0xbea30338	-0.31838393
5	0xbed35517	-0.41275856
6	0xbebc1202	-0.3673249
7	0xbec0556b	-0.3756517
8	0xbe93606b	-0.287845
9	0xbdf5524c	-0.119785875
10	0xbe11a979	-0.14224805
11	0xbe49c0a5	-0.19702394
12	0xbf073b52	-0.5282489
13	0xbe98bf43	-0.2983342
14	0xbef5959b	-0.47965702
15	0x3e121030	0.14263988
16	0x3e4fe4c2	0.20302108
17	0x3cd19d1e	0.025587615
18	0x3eb10b01	0.34578708
19	0x3e19e60f	0.15029167
20	0xbf1238b3	-0.57117766
21	0x3d0b5552	0.034016915
22	0x3ee8da3f	0.4547901
23	0xbeaf3abb	-0.34224495
24	0xbf716384	-0.94292474
25	0x3f02b82c	0.51062274
26	0xbdbb459d	-0.09144137
27	0xbc390342	-0.011292281
28	0x3f0332fc	0.5124967
29	0xbeaafab7	-0.33394405
30	0xbeca002d	-0.3945326
31	0xbdc1ae59	-0.09457082
32	0x3d829b3a	0.06377263
33	0x3e7569d8	0.23966157
34	0xbdcd0d4d	-0.100123025
35	0xbe37d762	-0.17953256
36	0xbf316a4a	-0.6930281
37	0x3dab35bb	0.08359858
38	0x3eb84a5a	0.35994226
39	0x3d8fe94c	0.0702692
40	0xbd9c02ff	-0.07617759
41	0x3f2552a0	0.645792
42	0x3f80df07	1.0068063
43	0x3e1419e1	0.14462997
44	0xbea20f2c	-0.316522
45	0x3ef78d35	0.4834992
46	0xbd9a1e5a	-0.0752532
47	0xbf75287b	-0.95764893
48	0x3e3a12b3	0.18171196
49	0xbe1cad24	-0.15300423
50	0x3ef8dae7	0.4860451
51	0xbf479beb	-0.77972287
52	0xbd7d2e25	-0.061811585
53	0xbe631894	-0.22177345
54	0x3eb567eb	0.35430846
55	0x3db37abb	0.08763643
56	0xbe7833d6	-0.24238524
57	0x3dc56c50	0.096397996
58	0xbf1dc1f6	-0.61624086
59	0x3ec99675	0.39372602
60	0x3f1bf275	0.60916835
61	0x3efb0fa6	0.49035376
62	0xbecad207	-0.39613363
63	0x3c141df6	0.009040346
64	0xbf162f5c	-0.58666015
65	0xbeb3cd38	-0.35117507
66	0x3eda25ea	0.4260705
67	0x3efad3d0	0.48989725
68	0x3ed918d8	0.42401767
69	0x3e1de5d6	0.15419707
70	0xbea7a85b	-0.32745633
71	0xbe27e422	-0.1639562
72	0x3f36fee1	0.71482664
73	0xbd156455	-0.036472637
74	0x3d765a1a	0.06014452
75	0xbea6b530	-0.3256011
76	0x3e048a83	0.12943463
77	0x3db9dae0	0.0907495
78	0x3ec3c3b3	0.38235244
79	0xbf2074b5	-0.6267808
80	0x3dfbef95	0.12301556
81	0x3e23c98a	0.1599485
82	0xbefd15f1	-0.49430802
83	0x3da2e14e	0.0795313
84	0xbe050c70	-0.12993026
85	0xbdb75ed6	-0.089536354
86	0xbf0c270e	-0.5474709
87	0x3dd05055	0.10171572
88	0x3f1ecdde	0.6203288
89	0x3f1b7bc1	0.6073571
90	0xbf0fa960	-0.5611782
91	0xbec03b98	-0.37545466
92	0xbe9d3b67	-0.30709383
93	0x3dd86bfe	0.10567473
94	0xbf04bf70	-0.5185461
95	0x3f0b8cdb	0.54511803
96	0x3ec58ed6	0.38585538
97	0xbf05d42e	-0.52276886
98	0xbdf7c412	-0.12097944
99	0xbdbe90f0	-0.093049884
100	0x3db72874	0.08943263
101	0xbee84b5a	-0.4536999
102	0xbf11b6ac	-0.5691936
103	0xbe00f3bb	-0.12592976
104	0x3f3e0909	0.74232537
105	0x3e9e3bed	0.30905095
106	0x3e233d2c	0.15941304
107	0x3eaead9d	0.3411683
108	0x3f058e0e	0.52169883
109	0xbea0f4b3	-0.3143669
110	0x3f61e3d3	0.8823826
111	0xbe95a108	-0.2922442
112	0xbdf3c382	-0.119025245
113	0x3e42766f	0.18990491
114	0x3df1277a	0.11775108
115	0xbe8c1a18	-0.27363658
116	0x3f255846	0.6458782
117	0x3ea0dabc	0.3141688
118	0xbf671896	-0.9027189
119	0x3d94bdf4	0.07262793
120	0x3e15b612	0.14620236
121	0x3df9c9ea	0.12196715
122	0x3da8d095	0.08242909
123	0x3d35574e	0.044272713
124	0x3ea3af21	0.3196955
125	0xbf0a398e	-0.5399407
126	0x3e856c00	0.2605896
127	0xbe10a98a	-0.14127174
128	0xbe569dff	-0.20958708
129	0xbc07bdae	-0.008284969
130	0x3e1bf6d9	0.15230884
131	0x3def92e1	0.11697937
132	0xbdd57705	-0.10423092
133	0x3f3d9866	0.74060667
134	0x3e1a8e38	0.15093315
135	0x3e0bd817	0.1365665
136	0xbe94dfd4	-0.29077017
137	0x3f4fb19c	0.81130385
138	0xbb20f076	-0.0024557388
139	0x3e388725	0.18020304
140	0xbf086011	-0.53271586
141	0x3e27b9a6	0.16379413
142	0x3e18ea15	0.14933045
143	0xbec33fa9	-0.38134506
144	0xbd950c50	-0.07277739
145	0x3ef32ab4	0.47493517
146	0x3e7e4495	0.2483085
147	0x3ed8decf	0.4235749
148	0x3e2b3ea8	0.1672312
149	0x3eb6e929	0.35724762
150	0x3de6a12c	0.1126121
151	0xbf1a0d3b	-0.6017644
152	0xbf3e10ca	-0.7424437
153	0xbd61208c	-0.05496268
154	0xbb975c6e	-0.004619173
155	0xbefdb06b	-0.4954866
156	0x3c90a3e6	0.017656278
157	0x3f5842f5	0.8447717
158	0xbee61d42	-0.44944197
159	0xbf4d2b24	-0.8014395
160	0x3e0c5a8b	0.13706414
161	0xbe0e9ad0	-0.13926244
162	0xbf1bc534	-0.60847783
163	0x3d1ffe6e	0.039061002
164	0x3ee34e06	0.44395465
165	0xbd1f21f5	-0.038850743
166	0x3f456a6f	0.7711553
167	0xbf164dbc	-0.58712363
168	0x3f23f846	0.6405071
169	0x3e0022f2	0.1251333
170	0xbe5c9903	-0.21542744
171	0xbe53c6c8	-0.20681298
172	0x3e020019	0.1269535
173	0x3f184bd8	0.5949073
174	0xbe9b1c35	-0.30294958
175	0xbd811099	-0.06301994
176	0x3eaf8a94	0.34285414
177	0x3e695707	0.22787105
178	0xbec29b29	-0.38009003
179	0xbd85e5b0	-0.0653795
180	0xbf50eb71	-0.81609255
181	0x3f0a7522	0.5408498
182	0xbeaca8a0	-0.337224
183	0xbcc1cc71	-0.023657056
184	0xbe0f6a55	-0.14005406
185	0xbc3ec7d8	-0.011644326
186	0xbf1426a6	-0.5787147
187	0xbe4a5507	-0.19758998
188	0xbe2f1a61	-0.17099907
189	0x3d7da4e0	0.061924815
190	0xbf6ef75b	-0.93346184
191	0xbe415f23	-0.18883948
192	0xbef62414	-0.480744
193	0xbe8c60ff	-0.27417752
194	0x3ecb46f1	0.39702561
195	0x3e872d72	0.2640186
196	0x3c0149bd	0.007891116
197	0x3ec164f0	0.37772322
198	0xbe6786e8	-0.22610056
199	0x3d14e75c	0.036353454
200	0xbdc12201	-0.09430314
201	0xbd967727	-0.07346945
202	0xbe9bd48e	-0.30435604
203	0xbed766f2	-0.4207073
204	0xbdda4120	-0.10656953
205	0xbf0665cd	-0.52499086
206	0x3db08b2e	0.086202964
207	0xbda3e7ed	-0.08003221
208	0xbeaa81b5	-0.33302084
209	0xbe8a51ec	-0.27015626
210	0xbded1fd2	-0.11578335
211	0xbf74474e	-0.954213
212	0x3da1b980	0.078967094
213	0x3d7b07af	0.061286625
214	0x3e1adaea	0.15122572
215	0xbe7ec90f	-0.24881385
216	0xbead766b	-0.33879408
217	0x3ed730ad	0.42029324
218	0x3e54403e	0.20727631
219	0xbf3ca237	-0.7368502
220	0x3cc7b9ff	0.024380682
221	0x3ed752fa	0.42055494
222	0xbeb18961	-0.34675124
223	0x3d8a6bcf	0.06758844
224	0x3e616d94	0.22014457
225	0x3baee8ab	0.005337795
226	0x3f592400	0.84820557
227	0xbdb298fa	-0.08720584
228	0x3eddbf31	0.4330993
229	0xbedac425	-0.4272777
230	0xbe2a3e11	-0.16625239
231	0xbe6707d3	-0.22561578
232	0x3f9eca9f	1.2405585
233	0xbe916256	-0.28395337
234	0xbef48c38	-0.47763228
235	0x3db23b36	0.087027
236	0x3f1d65af	0.6148328
237	0x3dcea48c	0.100899786
238	0x3ecfedf4	0.4061123
239	0xbf0007c7	-0.5001187
240	0xbd1835ad	-0.037160564
241	0x3e046bc9	0.12931742
242	0x3d8a8d4d	0.06765232
243	0x3ef5e0c5	0.48023048
244	0xbea2acd3	-0.3177248
245	0x3d5406a6	0.051764153
246	0xbe9a3933	-0.30121765
247	0x3ecdfcea	0.4023202
248	0xbde2e75e	-0.11079286
249	0xbef469e4	-0.47737038
250	0x3ec9481a	0.39312822
251	0xbe0a0e56	-0.13482031
252	0x3e76689e	0.24063346
253	0x3ec175b8	0.37785125
254	0x3dbd5d12	0.092462674
255	0xbf0cca5e	-0.5499629

network_body._body_endoder.seq_layers.0.bias f4 [128]
0	0x3dbceab4	0.092244536
1	0xbe0ddabb	-0.1385297
2	0xbd81e3e5	-0.063422956
3	0x3dd82e67	0.105557255
4	0xbe00df61	-0.12585212
5	0xbdf363fc	-0.11884305
6	0x3e2040ec	0.15649766
7	0x3dc172ab	0.09445699
8	0xbd74dfba	-0.059783675
9	0x3db2966d	0.08720098
10	0xbe16743d	-0.14692779
11	0x3db62ffe	0.088958725
12	0x3df4b51d	0.11948607
13	0x3df18359	0.11792631
14	0x3d395853	0.04525025
15	0x3e14f442	0.14546302
16	0x3db11aa7	0.08647662
17	0x3e081c97	0.13292156
18	0x3e0d8f29	0.13824143
19	0x3e0e3cf5	0.13890441
20	0x3d082d96	0.0332466
21	0x3e1c3394	0.1525405
22	0xbe172696	-0.14760813
23	0xbe055264	-0.13019711
24	0x3e0f2800	0.13980103
25	0x3e0c8643	0.13723092
26	0xbe060a82	-0.13089946
27	0xbe0af9a4	-0.13571793
28	0x3e115d91	0.14195849
29	0x3d80e10e	0.06292926
30	0xbdce2fd2	-0.10067715
31	0x3df348d7	0.118791275
32	0x3e164345	0.14674099
33	0x3e07096d	0.1318719
34	0xbc07936f	-0.008274897
35	0x3e17d348	0.14826691
36	0x3e0e146e	0.13874981
37	0xbe163e0a	-0.14672104
38	0x3e10f3bc	0.14155477
39	0x3e1540f3	0.14575557
40	0x3dff1648	0.12455422
41	0x3d65f9ee	0.056146555
42	0xbe1e3ced	-0.15452929
43	0x3c8a617b	0.016892185
44	0x3ddb650c	0.107126325
45	0x3de8bf4d	0.11364613
46	0x3c8c8bb7	0.017156465
47	0x3e2147ef	0.15750097
48	0xbe042253	-0.12903719
49	0x3e0e87d6	0.13919005
50	0xbe15e792	-0.14639118
51	0xbe0856bc	-0.13314337
52	0xbe204ae5	-0.1565357
53	0xbe244fba	-0.16046038
54	0x3e115ac0	0.14194775
55	0xbde4323c	-0.11142394
56	0x3df655fb	0.12028118
57	0x3df53946	0.11973815
58	0x3df87e64	0.12133482
59	0x3e12e436	0.14344868
60	0x3dc21393	0.0947639
61	0x3e061602	0.13094333
62	0x3d6c3d87	0.057675865
63	0x3e1762d7	0.14783798
64	0xbd35ed0d	-0.044415522
65	0x3e16266b	0.14663093
66	0xbe089765	-0.13339002
67	0xbdcfb8a2	-0.10142638
68	0xbe1591c4	-0.14606386
69	0xbe074421	-0.13209583
70	0x3cb09454	0.021555103
71	0x3da99eb1	0.08282221
72	0x3de52f79	0.11190695
73	0x3e07c632	0.132592
74	0x3e0d0111	0.13769938
75	0xbe12fe4b	-0.14354818
76	0x3e10022f	0.14063333
77	0xbdcaefa5	-0.0990899
78	0x3db40f99	0.087920375
79	0x3de491fa	0.11160655
80	0x3e0e4af2	0.13895777
81	0x3c0a502f	0.008441969
82	0xbd9ca5b9	-0.076487966
83	0xbd2e673e	-0.04257893
84	0xbe020a97	-0.12699352
85	0x3e09259b	0.13393252
86	0x3e04b8af	0.12961076
87	0x3e09fa5c	0.13474411
88	0xbc25838b	-0.010102163
89	0x3de231e5	0.11044673
90	0x3c3750f3	0.011188733
91	0x3d0990e2	0.033585437
92	0x3e11a3a1	0.14222576
93	0x3e17db21	0.14829685
94	0x3e000558	0.12502038
95	0xbd43a36b	-0.04776327
96	0x3e258c14	0.16166717
97	0x3ced4129	0.028961735
98	0x3e04ffb7	0.12988172
99	0xbd62d905	-0.055382747
100	0x3e143945	0.14474972
101	0x3e182b72	0.14860323
102	0x3e101b86	0.14073
103	0x3dc9cb82	0.09853269
104	0x3e06b455	0.13154729
105	0xbe0c4e5f	-0.13701771
106	0x3e16bd2e	0.14720604
107	0x3e0f933e	0.14021012
108	0xbddbc6d4	-0.10731283
109	0xbe077586	-0.13228425
110	0x3e1b06f3	0.1513937
111	0x3e172121	0.14758731
112	0x3de4a437	0.11164134
113	0x3e0e9e68	0.13927615
114	0x3e0bdb82	0.13657954
115	0xbd8cb0f1	-0.068696864
116	0x3e1e7205	0.15473182
117	0x3e161a97	0.1465858
118	0x3de6d827	0.112716965
119	0xbe0ca7ac	-0.13735837
120	0x3da8ba2f	0.08238637
121	0x3e25bca4	0.16185242
122	0x3e1b3a7e	0.15159032
123	0x3e0194e6	0.12654456
124	0xbcc1c659	-0.02365415
125	0x3e0a2c0c	0.13493365
126	0x3ddb356c	0.10703549
127	0xbdb7b73f	-0.08970498

network_body._body_endoder.seq_layers.2.weight f4 [128, 128]
0	0xbd8af6a6	-0.06785326
1	0x3e5678b2	0.20944479
2	0x3c814cdd	0.015783722
3	0x3d8060ce	0.06268464
4	0x3c74137a	0.014897222
5	0x3d02d09f	0.031937238
6	0xbe5e68a1	-0.217196
7	0x3d9d1972	0.07670869
8	0x3da4dc6f	0.08049857
9	0x3db9f417	0.090797596
10	0x3d52331f	0.051318284
11	0xbda745fb	-0.081676446
12	0xbd9c9023	-0.076446794
13	0x3d34ee23	0.044172417
14	0xbc95f3f6	-0.018304806
15	0xbde3ffbc	-0.11132762
16	0x3cb4e441	0.022081496
17	0x3cf09a7f	0.029370544
18	0xbc49e153	-0.012321788
19	0xbe04667c	-0.1292972
20	0xbcb0352d	-0.021509731
21	0x3d0581ae	0.032594375
22	0xbdabc275	-0.08386699
23	0x3d868d18	0.0656988
24	0xbda76d1d	-0.081751086
25	0xbc0786fd	-0.00827193
26	0xbd425297	-0.047442045
27	0xbe08dc05	-0.13365181
28	0xbe06553c	-0.13118452
29	0x3bd72b05	0.0065664076
30	0xbd2b8728	-0.041876942
31	0xbc476fc0	-0.012172639
32	0xbe0cc0fd	-0.13745494
33	0xbe28614d	-0.16443367
34	0x3d89f044	0.0673528
35	0xbe072858	-0.13198984
36	0x3de471ba	0.11154504
37	0x3e742018	0.23840368
38	0xbe17cbec	-0.14823884
39	0xbe0a50d3	-0.13507394
40	0xb95712d4	-0.00020511012
41	0xbde730df	-0.11288618
42	0x3e694c94	0.22783118
43	0xbbe4d09a	-0.006982875
44	0xbd8345a7	-0.064097695
45	0xbe65d716	-0.2244533
46	0x3d551100	0.052018166
47	0xbe2e79d3	-0.1703866
48	0x3dd592cd	0.10428391
49	0x3ce53c53	0.027982866
50	0x3d2b0ee7	0.04176226
51	0x3db10dbb	0.08645197
52	0x3cb5d310	0.022195369
53	0x3da283aa	0.07935269
54	0xbcdd7260	-0.027032077
55	0x3d5870a5	0.0528418
56	0xbc469504	-0.012120489
57	0x3c7afa63	0.015318486
58	0xbd9231e0	-0.07138419
59	0xbcc2b6b3	-0.023768758
60	0xbdf68292	-0.12036623
61	0xbd34aa3b	-0.044107657
62	0x3dc3616e	0.095400676
63	0xbd825965	-0.06364707
64	0x3ab49793	0.0013778083
65	0xbe13cb2a	-0.1443297
66	0x3dc508c0	0.096208096
67	0xbd8bd6b2	-0.06828059
68	0x3db5e332	0.08881225
69	0x3d760c32	0.060070224
70	0xbda0f859	-0.078598686
71	0x3d9c9f7d	0.076476075
72	0xbe81354c	-0.25235975
73	0x3c318a17	0.010836146
74	0xbe59512b	-0.2122237
75	0xbd4d396d	-0.050103594
76	0xbe405c15	-0.18785127
77	0xbbf45958	-0.0074569397
78	0xbe006d5b	-0.12541716
79	0xbd8ea760	-0.06965518
80	0x3d2c5eda	0.042082645
81	0x3d00a855	0.031410534
82	0x3da379d0	0.07982218
83	0x3dd52d20	0.104089975
84	0xbda37be4	-0.07982615
85	0xbd8e8844	-0.06959584
86	0x3d3799a8	0.044824272
87	0x3d1d3589	0.038381133
88	0x3e0f48a0	0.13992548
89	0xbabfd22f	-0.0014634783
90	0x3a40b8c7	0.0007351753
91	0xbe30e7c1	-0.17275907
92	0xbd321b9e	-0.04348337
93	0xbde86356	-0.11347072
94	0xbdb881d9	-0.090091415
95	0xbca2cd6b	-0.019873342
96	0xbe4ba07d	-0.1988544
97	0x3e25d51f	0.1619458
98	0xbd717035	-0.0589449
99	0x3e2af8d9	0.1669649
100	0xbd2e09fb	-0.042489987
101	0x3dc9ae5e	0.09847711
102	0x3cea572d	0.028606022
103	0xbd3df3ed	-0.046375204
104	0x3e05bdd5	0.13060696
105	0x3d1cf5ae	0.038320236
106	0xbd46a132	-0.04849357
107	0xbd44b776	-0.048026524
108	0xbd61ed87	-0.055158164
109	0xbc66fefc	-0.014098879
110	0xbddd620f	-0.10809719
111	0x3d2ec40d	0.042667437
112	0xbd0c2c84	-0.03422214
113	0xbe06e19d	-0.13172002
114	0x3ca38cd2	0.01996461
115	0x3e1e5f00	0.15465927
116	0xbe0aa75f	-0.1354041
117	0x3d05d9a0	0.032678246
118	0xbd28f5b1	-0.041249935
119	0x3cb5437b	0.022126904
120	0x3cb559bb	0.022137513
121	0xbd4ecbcc	-0.050487325
122	0xbd079d73	-0.03310914
123	0xbe151c0c	-0.1456148
124	0xbcc963d3	-0.024583733
125	0xbe0031b5	-0.12518962
126	0xbdb3e4da	-0.08783884
127	0x3dbb5110	0.09146321
128	0x3d150dc1	0.03639007
129	0x3da8d42b	0.08243593
130	0x3c650fe3	0.0139808385
131	0xbbe04fb9	-0.006845441
132	0xbcb8c8ef	-0.02255675
133	0x3d61f776	0.055167638
134	0x3d8a819b	0.067630015
135	0x3de8d157	0.113680534
136	0x3dc4c019	0.09606952
137	0x3dbeeb52	0.093222275
138	0x3dba00a4	0.090821534
139	0x3cc961bc	0.024582736
140	0xbc61aa1b	-0.013773466
141	0xbd872cff	-0.06600379
142	0xbde1de28	-0.11028701
143	0x3d22c480	0.03973818
144	0xbd459c7d	-0.048244942
145	0xbd31cb57	-0.04340681
146	0x3d5567d1	0.05210096
147	0xba7a1765	-0.0009540229
148	0x3e596b65	0.21232374
149	0xbd5d0d52	-0.05396778
150	0xbcc8e819	-0.024524735
151	0xbcd1db41	-0.025617244
152	0xbd32e59b	-0.043676
153	0x3dd35e92	0.10320772
154	0xbdf412a6	-0.119176194
155	0x3d2f63b0	0.04281968
156	0x3cd3b777	0.025844319
157	0x3dd3fdeb	0.103511654
158	0xbdfc6aa0	-0.123250246
159	0xbda966ee	-0.082715854
160	0x3d27c386	0.04095795
161	0x3de848d0	0.11342013
162	0xbe4956c0	-0.19661999
163	0xbd823588	-0.063578665
164	0xbe3c9d14	-0.18419296
165	0x3d5a2e2e	0.053266697
166	0x3d82a4d0	0.06379092
167	0x3db3a378	0.087714136
168	0x3e6ff02d	0.23431464
169	0x3caeafcb	0.021324059
170	0xbdf09cbb	-0.11748644
171	0x3e19cc98	0.15019453
172	0xbc0f26e6	-0.008737301
173	0x3bd2a235	0.006428028
174	0x3db3dd33	0.08782425
175	0xbd05134f	-0.032489117
176	0xbdb33b1c	-0.087515086
177	0x3df14353	0.11780419
178	0xbc8e332e	-0.017358389
179	0xbdcd7799	-0.10032577
180	0xbc474798	-0.012163065
181	0xbdd5071b	-0.10401746
182	0x3db6a516	0.089182064
183	0xbd5cc2b5	-0.053896625
184	0xbdd0362f	-0.10166585
185	0x3c26d8ce	0.010183526
186	0x3e0b1026	0.13580379
187	0xba498a4c	-0.00076881493
188	0x3e11ff6d	0.14257593
189	0xbe101ebd	-0.14074226
190	0x3d109c9d	0.035305608
191	0xbd1a068e	-0.037603907
192	0xbde90f6a	-0.11379893
193	0x3e58e532	0.21181181
194	0x3d6399d8	0.05556664
195	0xbbcb2028	-0.0061989017
196	0xbd5afa7b	-0.053461533
197	0xbe1ecc23	-0.1550756
198	0xbd6694dc	-0.056294307
199	0x3db66c82	0.08907415
200	0xbda61b65	-0.08110694
201	0x3d506702	0.050879486
202	0x3dcbc7ed	0.09950242
203	0xbd4ceef5	-0.050032575
204	0x3dfc0b8c	0.1230689
205	0x3d5571f0	0.052110612
206	0x3cdf24f1	0.027239295
207	0x3dca28b5	0.098710455
208	0x3daf1954	0.08549753
209	0x3e12859b	0.14308779
210	0x3cf58a41	0.029973151
211	0x3ddca4e8	0.10773641
212	0xbe5edb5a	-0.21763363
213	0xbcc0193f	-0.023449538
214	0x3d966e29	0.0734523
215	0xbd12ebd4	-0.035869434
216	0xbd92b115	-0.07162682
217	0x3d239d04	0.039944664
218	0xbd3d38a7	-0.046196606
219	0xbd1024aa	-0.035191216
220	0xbc09d001	-0.008411408
221	0xbda50a19	-0.080585666
222	0xbd8686c1	-0.06568671
223	0xbd9636c3	-0.07334664
224	0xbd2e5d90	-0.042569697
225	0xbca4f7e0	-0.020137727
226	0x3dd58946	0.104265735
227	0xbe2dc475	-0.16969474
228	0x3cf137f8	0.029445633
229	0x3ca33977	0.019924862
230	0x3dbff472	0.09372796
231	0x3d8d95e4	0.06913355
232	0xbd0a38b0	-0.033745468
233	0xbc6a2752	-0.014291601
234	0xbe10fb8d	-0.14158459
235	0x3e380085	0.17968948
236	0x3d9b8f1f	0.075956576
237	0xbe4ef54c	-0.20210761
238	0xbbff1817	-0.007784854
239	0xbdc586b8	-0.09644836
240	0xbe25bbc6	-0.16184911
241	0xbe2fd415	-0.17170747
242	0x3dac5223	0.08414104
243	0x3d336f3c	0.043807253
244	0x3cd2a680	0.025714159
245	0xbdd59f31	-0.10430754
246	0x3db3d305	0.08780483
247	0x3c8e2c6c	0.017355166
248	0xbcec96db	-0.028880527
249	0xbce05587	-0.027384533
250	0xbd7fea7a	-0.062479474
251	0x3d20d8ac	0.039269134
252	0x3e68187c	0.2266559
253	0xbd71830e	-0.058962874
254	0x3d993757	0.07481258
255	0xbdd51a0c	-0.10405359

network_body._body_endoder.seq_layers.2.bias f4 [128]
0	0xbe036cf6	-0.12834534
1	0x3daa6200	0.08319473
2	0x3deee146	0.11664061
3	0x3d8be2fd	0.06830404
4	0x3dfb7f45	0.12280134
5	0xbe0a37f2	-0.13497904
6	0xbde7c743	-0.11317303
7	0xbe02208b	-0.12707727
8	0x3e02f4d0	0.12788701
9	0xbdfbeb8e	-0.12300788
10	0xbdccaae6	-0.09993534
11	0x3e074228	0.1320883
12	0x3dc71394	0.09720531
13	0x3dffc5dc	0.124889106
14	0xbdb63719	-0.08897228
15	0x3de7d7e0	0.11320472
16	0xbe02890b	-0.1274759
17	0x3dd1c9e3	0.10243585
18	0xbdf096cc	-0.11747512
19	0x3db182a2	0.08667494
20	0xbe0fd65b	-0.14046614
21	0xbdfaf157	-0.12253063
22	0x3df7c4f8	0.12098116
23	0xbdb20c00	-0.08693695
24	0x3ddbd216	0.1073343
25	0xbdfcebd5	-0.12349669
26	0x3df6e6ec	0.120557636
27	0x3dee5275	0.11636821
28	0x3df49445	0.11942343
29	0x3dfdca7e	0.12392138
30	0x3df48c8b	0.11940869
31	0xbdef873b	-0.11695715
32	0x3df6e444	0.12055257
33	0xbe09336e	-0.13398525
34	0xbde6e138	-0.11273426
35	0xbe0cebac	-0.13761777
36	0xbdf78d6b	-0.1208752
37	0x3dd52489	0.10407359
38	0x3ded40c8	0.11584622
39	0xbe0e25db	-0.13881628
40	0x3dbcd594	0.09220424
41	0xbe071bc7	-0.1319419
42	0x3df72c49	0.120689936
43	0xbddb51df	-0.10708975
44	0xbd135b78	-0.035975903
45	0x3d8f6e5c	0.07003471
46	0x3dedcf82	0.116118446
47	0xbdf399e5	-0.118945874
48	0x3df1d37e	0.11807917
49	0x3daea69c	0.08527872
50	0x3dc9a33f	0.0984559
51	0x3dcf44d3	0.10120549
52	0x3de85490	0.11344254
53	0x3de9bbc8	0.114127696
54	0xbdb39036	-0.087677404
55	0xbe03c767	-0.12869035
56	0xbdc83371	-0.09775437
57	0x3e00d1b8	0.12580001
58	0x3de9adf2	0.114101306
59	0x3d9708b5	0.073747076
60	0x3e060cfc	0.1309089
61	0x3e0c87a0	0.13723612
62	0xbe0ede10	-0.13951898
63	0xbe0298d9	-0.12753619
64	0x3dde9836	0.10868876
65	0x3dd3447b	0.10315796
66	0x3deb0d39	0.114771314
67	0xbddacded	-0.106838085
68	0x3dd11ce3	0.10210588
69	0x3dee61cd	0.11639748
70	0xbdd73ded	-0.10509858
71	0x3d848455	0.06470553
72	0xbdbeb57f	-0.093119614
73	0xbe0c2e28	-0.13689482
74	0xbe05c7c2	-0.13064483
75	0xbd871b2a	-0.06596978
76	0x3dc75936	0.097338125
77	0xbde2906c	-0.110627025
78	0xbdf22fe7	-0.11825543
79	0x3dbf1ed1	0.0933205
80	0xbe0bb1ed	-0.13642092
81	0xbdb5c52a	-0.08875497
82	0xbe07bf85	-0.13256653
83	0x3d9dd854	0.07707277
84	0xbda63a6b	-0.08116611
85	0xbdf6a5a5	-0.12043313
86	0x3def7973	0.116930865
87	0x3b556c7f	0.003256589
88	0xbe08ce36	-0.13359913
89	0x3dd5ebf1	0.10445393
90	0x3de33b26	0.11095266
91	0x3dea1a67	0.11430817
92	0xbc6f1e95	-0.014594694
93	0x3e047ebb	0.12938969
94	0xbe0622d4	-0.13099223
95	0xbe06a317	-0.13148151
96	0x3dd6211e	0.10455535
97	0xbe04ab91	-0.12956072
98	0x3dfe0a27	0.1240428
99	0x3e01a35d	0.12659974
100	0x3daf07be	0.085463986
101	0x3df122b1	0.11774195
102	0xbde6176e	-0.112349376
103	0x3de277d5	0.110580124
104	0x3d1eb644	0.03874804
105	0xbdf6d449	-0.12052209
106	0x3de6bb36	0.112661764
107	0x3da3400a	0.07971199
108	0x3e056649	0.130273
109	0xbe0ed784	-0.139494
110	0xbdb45e75	-0.08807079
111	0x3d6daeb2	0.05802793
112	0xbe107c24	-0.14109856
113	0x3df218dd	0.118211485
114	0xbdc61a48	-0.096729815
115	0x3dd513e5	0.10404185
116	0xbdf6082b	-0.12013277
117	0xbddfba96	-0.1092426
118	0x3d8c04b0	0.068368316
119	0xbdf5c820	-0.120010614
120	0x3debfb17	0.11522501
121	0x3d7420ab	0.059601467
122	0x3dd89d62	0.105768934
123	0x3ddcf17f	0.10788249
124	0xbd5b7c02	-0.05358506
125	0x3dcb5f09	0.09930236
126	0x3d8904ab	0.066903435
127	0x3de4f07d	0.11178682

network_body._body_endoder.seq_layers.4.weight f4 [128, 128]
0	0xbda8490d	-0.08217058
1	0xbd0ebddf	-0.034849044
2	0x3e181ddd	0.14855142
3	0xbc26900c	-0.010166179
4	0xbd22fc6f	-0.03979152
5	0x3d806632	0.06269492
6	0x3d0dbc8e	0.034603648
7	0x3df85d0d	0.12127123
8	0xbbbb931e	-0.005724325
9	0x3ce97bc4	0.028501399
10	0x3e4307bd	0.1904592
11	0xbcc99702	-0.024608139
12	0xbc0f7615	-0.00875618
13	0xbd513d18	-0.051083654
14	0x3e0f4aac	0.13993329
15	0xbd281103	-0.04103185
16	0x3c05cbf4	0.008166302
17	0xbe6d86f2	-0.23196009
18	0x3e1d2c17	0.1534885
19	0x3d0276f9	0.031851742
20	0x3e7a056f	0.24416135
21	0x3db84592	0.089976445
22	0xbda2b24b	-0.07944163
23	0x3bbef949	0.005828057
24	0xbdbfbe20	-0.09362435
25	0x3d8fa8ac	0.070145935
26	0xbe0a7dd3	-0.1352456
27	0x3e152006	0.14562997
28	0xbca01ff0	-0.019546479
29	0xbdb1a526	-0.08674078
30	0xbdad1218	-0.08450717
31	0xbd2a6307	-0.041598346
32	0xbe06db94	-0.131697
33	0x3e71a0e9	0.23596539
34	0xbd61d8ad	-0.05513828
35	0xbc712a8d	-0.014719618
36	0x3c9b1a4d	0.01893344
37	0x3c324b82	0.01088226
38	0xbe517e44	-0.20458323
39	0xbc8affd9	-0.0169677
40	0xbe8c2405	-0.2737123
41	0xbc7da7ea	-0.015481928
42	0xbe1b0b8b	-0.15141122
43	0x3cc34da1	0.023840727
44	0xbd18ccfa	-0.037304856
45	0x3c98dac1	0.018658997
46	0xbe599d9f	-0.21251534
47	0x3d74786a	0.05968515
48	0xbe34298a	-0.17593971
49	0xbd17282b	-0.03690354
50	0x3c6e4402	0.0145425815
51	0xbdaacaae	-0.08339439
52	0xbd85acce	-0.065271005
53	0x3bf4d8f8	0.0074721538
54	0x3d8556e0	0.06510711
55	0xbe4612bf	-0.19343089
56	0x3dce9334	0.100866705
57	0xbe3c5374	-0.1839121
58	0xbb4d1e40	-0.0031298548
59	0xbb15e581	-0.002287239
60	0xbdaffe0d	-0.08593378
61	0xbe38c739	-0.18044747
62	0x3c96545d	0.018350774
63	0x3ca4e9e8	0.020131066
64	0x3debdc8e	0.11516677
65	0x3d3e9a45	0.04653384
66	0xbe4b8b56	-0.19877371
67	0xbe02a261	-0.12757255
68	0x3d88b61d	0.0667536
69	0xbdfe507d	-0.12417696
70	0x3c4557aa	0.0120448265
71	0x3d1ed288	0.038774997
72	0x3db00cde	0.08596204
73	0x3e2326d0	0.15932775
74	0xbc1208cf	-0.008913233
75	0x3d7982ec	0.060915872
76	0xbd0d97d8	-0.034568638
77	0x3cf700b1	0.030151697
78	0x3e0ed364	0.13947827
79	0x3b287122	0.0025702198
80	0x3c93ac3b	0.018026462
81	0x3df33885	0.118760146
82	0x3df58d69	0.119898625
83	0xbdcdd103	-0.100496314
84	0xbe0f4ca2	-0.13994077
85	0x3df252ba	0.11832185
86	0xbc419655	-0.011815627
87	0x3e3c27b6	0.18374524
88	0x3dc7ca1d	0.09755347
89	0xbe159b6d	-0.14610071
90	0xbd89f6fe	-0.06736563
91	0x3da23e42	0.07922031
92	0xbdcb7566	-0.09934501
93	0xbd59035e	-0.052981727
94	0x3d87a048	0.06622368
95	0xbdb6d018	-0.089264095
96	0xbd98436b	-0.07434734
97	0x3c630cc7	0.013858027
98	0xbe24f46f	-0.16108869
99	0x3d5d52d0	0.054034054
100	0xbcbd37e2	-0.023097936
101	0xbd03dae3	-0.03219117
102	0x3dcd2ea5	0.10018662
103	0xbdb655d1	-0.08903087
104	0x3ce074ef	0.027399508
105	0x3db84a7b	0.08998581
106	0xbe776c89	-0.24162497
107	0x3d2eaa54	0.042642906
108	0xbdbe1b3b	-0.092825375
109	0x3dfbaf13	0.12289252
110	0xbc879cb4	-0.016554214
111	0x3e0fe8eb	0.14053695
112	0x3e3d7f38	0.18505561
113	0x3c91b797	0.017787738
114	0x3db77de8	0.089595616
115	0xbca40f21	-0.020026745
116	0x3dc4fb66	0.09618263
117	0x3ce6b2ab	0.028161367
118	0xbcf31a51	-0.029675635
119	0xbe7d2db5	-0.24724467
120	0xbdd4103b	-0.10354658
121	0xbc941257	-0.018075151
122	0xbe52ffb3	-0.20605354
123	0xbdc90139	-0.09814686
124	0xbe0fafbd	-0.14031883
125	0x3dae12e6	0.08499698
126	0x3d80e2ea	0.062932804
127	0xbe638d2f	-0.22221826
128	0xbdb9ea64	-0.090779096
129	0x3dd1094f	0.102068536
130	0x3e2dddc0	0.16979122
131	0x3e0fc8d4	0.14041454
132	0x3e12e841	0.1434641
133	0xbd7c4734	-0.061591342
134	0x3b3c3520	0.0028718188
135	0xbda8ff8d	-0.082518674
136	0x3d853830	0.065048575
137	0x3d27527f	0.04085016
138	0xbd8b57b2	-0.06803836
139	0xbd0aa072	-0.03384442
140	0x3e40f939	0.18845071
141	0x3e187e7d	0.14892001
142	0xbded5117	-0.11587732
143	0x3d9f5ee2	0.07781769
144	0xbd8f8ea3	-0.07009628
145	0x3e2088cc	0.15677184
146	0xbbb6648e	-0.0055661863
147	0x3e26d1f0	0.16291022
148	0xbe122d6f	-0.14275144
149	0xbda0e84d	-0.07856808
150	0x3da23fa4	0.07922295
151	0xbd564e08	-0.05232051
152	0xbd510dab	-0.051038425
153	0xbdd90ff9	-0.1059875
154	0xbd51e2b7	-0.051241603
155	0x3ddfc545	0.10926298
156	0x3e4aa0b9	0.19787873
157	0x3d835891	0.06413377
158	0x3d6a7d4b	0.057248395
159	0xbd0a0bfd	-0.03370284
160	0x3e32a292	0.17444828
161	0xbdfc5a7c	-0.12321946
162	0xbd87813b	-0.06616446
163	0xbe29c024	-0.16577202
164	0x3e28a10d	0.16467686
165	0x3d984266	0.074345395
166	0xbd05941a	-0.032611944
167	0xbc4bec26	-0.012446439
168	0x3e829a0f	0.25508162
169	0xbe1de81e	-0.15420577
170	0x3e02ea1e	0.12784621
171	0xbdb71788	-0.08940035
172	0xbd04ad37	-0.032391753
173	0xbd6ee18d	-0.05832057
174	0x3e005be5	0.12535055
175	0xbdd5a014	-0.10430923
176	0x3eb6d1f6	0.35707062
177	0x3dd8fbdc	0.10594913
178	0xbb358114	-0.0027695345
179	0x3e4338f8	0.190647
180	0xba5be8eb	-0.00083888945
181	0x3d69b453	0.057056736
182	0x3d016d02	0.0315981
183	0xbd5ebaae	-0.05437725
184	0x3cda5605	0.026652345
185	0xbce55c83	-0.027998215
186	0x3d4e363a	0.050344683
187	0xbbd90d94	-0.006623933
188	0xbdb18a86	-0.086689994
189	0x3e20137a	0.1563243
190	0x3c3894a7	0.01126591
191	0xbe33271c	-0.17495388
192	0x3dfae85e	0.12251352
193	0x3e1ec06d	0.15503092
194	0x3e0135d7	0.12618195
195	0xbca5cf9a	-0.020240594
196	0x3e56f4f7	0.20991884
197	0xbda1966b	-0.07890018
198	0x3a7ba6bc	0.00095997355
199	0x3d2245d3	0.03961737
200	0xbc33671e	-0.010949878
201	0xbc4564b2	-0.012047933
202	0xbe3aab39	-0.18229379
203	0x3d707360	0.05870378
204	0x3e0c93c4	0.13728243
205	0xbe0cc165	-0.13745649
206	0xbc2f073e	-0.010682879
207	0x3d6a2e96	0.057173334
208	0xbdeb6b5f	-0.11495089
209	0xbe198324	-0.14991432
210	0xbd1682b8	-0.036745757
211	0x3e463cc4	0.19359118
212	0xbd15ebf2	-0.036601968
213	0xbd3af023	-0.04563917
214	0x3d991a42	0.074757114
215	0x3df78060	0.120850325
216	0xbde17c1f	-0.11010002
217	0x3d111c46	0.035427354
218	0x3daa0325	0.08301381
219	0x3d986ce6	0.07442646
220	0xbb96c564	-0.0046011675
221	0x3c96b731	0.0183979
222	0xbd8f20d5	-0.06988684
223	0xbcca2eba	-0.024680484
224	0x3e0848d0	0.13309026
225	0xbe64c7fc	-0.22341913
226	0x3db4fa30	0.08836782
227	0x3eb2dbad	0.34933224
228	0x3dbf671d	0.09345839
229	0xbd82f069	-0.06393511
230	0xbc9ba61a	-0.019000102
231	0x3d971766	0.0737751
232	0xbca92009	-0.020645158
233	0xbdf8f49d	-0.12156031
234	0x3cb78f0d	0.02240708
235	0x3e5dbd2e	0.21654198
236	0x3e370fb0	0.17877078
237	0xbd13c315	-0.036074717
238	0xbdab4bbb	-0.08364054
239	0x3c67f2ad	0.0141569795
240	0x3d1e29b6	0.038613997
241	0x3c67a218	0.014137767
242	0xbe0c768b	-0.13717096
243	0x3d14197c	0.036157116
244	0x3dd62b58	0.10457486
245	0xbcaedba9	-0.021344976
246	0x3d8554c6	0.0651031
247	0x3d13eb31	0.036112968
248	0x3d9c833a	0.07642217
249	0xbe1a0d78	-0.150442
250	0x3e42209e	0.18957755
251	0x3d1d6098	0.038422197
252	0xbd500f1b	-0.050795656
253	0x3e223481	0.15840341
254	0xbe5c7850	-0.2153027
255	0x3a1adb82	0.0005907343

network_body._body_endoder.seq_layers.4.bias f4 [128]
0	0xbd5ec799	-0.05438957
1	0x3da1c8fd	0.078996636
2	0xbd4e22ea	-0.050326265
3	0x3d83461a	0.06409855
4	0xbd50abac	-0.05094497
5	0x3d85de00	0.06536484
6	0xbd7837e2	-0.06060017
7	0xbd5399d7	-0.051660385
8	0xbd0244bd	-0.031803835
9	0x3da7e662	0.08198239
10	0xbcf0f01e	-0.029411372
11	0x3c7072df	0.014675825
12	0x3d8eefe6	0.06979351
13	0xbd23df43	-0.04000784
14	0xbd5df108	-0.054184943
15	0xbcedbb6f	-0.02902004
16	0x3dbfef30	0.09371793
17	0x3da74084	0.08166602
18	0x3d9f2409	0.07770545
19	0xbd30c50b	-0.043156665
20	0xbd4eb2cc	-0.050463483
21	0x3dcdf6f6	0.1005687
22	0xbd75892e	-0.059945278
23	0x3db7114a	0.089388445
24	0x3db232a0	0.08701062
25	0xbd71afc0	-0.0590055
26	0x3dc600ae	0.096680984
27	0xbd3438c7	-0.04399946
28	0xbce49a5c	-0.027905636
29	0x3d9f0e5f	0.07766413
30	0xbd0fb6ba	-0.03508637
31	0xbd3ec54e	-0.046574883
32	0x3d6295f9	0.055318806
33	0x3d8055a9	0.062663384
34	0x3dd385c1	0.10328246
35	0x3dc3d84f	0.09562742
36	0x3dcf55cc	0.10123786
37	0xbd190d9c	-0.037366495
38	0x3d90848d	0.07056532
39	0x3dac633a	0.084173635
40	0x3d9669dc	0.0734441
41	0xbd8c9799	-0.068648525
42	0xbc542dd2	-0.012950378
43	0xbd555af8	-0.052088708
44	0x3dd9098d	0.10597525
45	0x3dd1c7cd	0.10243187
46	0x3d0c8059	0.03430209
47	0x3dc8c3f5	0.09803001
48	0xbd7b0ad9	-0.061289642
49	0xbd37c952	-0.04486973
50	0xbd615ba3	-0.055019032
51	0xbd709eef	-0.05874532
52	0x3d99d486	0.07511239
53	0x3db3aa11	0.08772672
54	0x3d8f9ce3	0.07012346
55	0xbd74495b	-0.05964027
56	0xbd7d7faf	-0.061889347
57	0x3dbcc41a	0.09217091
58	0xbd1a53d3	-0.037677597
59	0xbd8f2adb	-0.06990596
60	0xbd843616	-0.064556286
61	0x3d5e31ea	0.05424682
62	0x3d291854	0.041282967
63	0xbd70d4aa	-0.058796562
64	0x3dcd7ba4	0.10033348
65	0x3dc8e15b	0.09808608
66	0x3dce1f28	0.10064536
67	0x3db9f46b	0.09079822
68	0x3dbd8f39	0.09255833
69	0xbd6623dc	-0.056186542
70	0x3da9f25f	0.08298182
71	0x3db74467	0.089485936
72	0xbd68602a	-0.056732334
73	0xbd6c96d7	-0.05776104
74	0x3d585c5e	0.052822463
75	0x3db54342	0.08850719
76	0xbd7c2d8f	-0.061566886
77	0xbd743598	-0.059621423
78	0x3d89a8a2	0.06721617
79	0x3dbd0b43	0.092306636
80	0xbd266f3b	-0.04063342
81	0xbd6989ce	-0.057016186
82	0xbd2f1ff2	-0.042755075
83	0xbd52a9d0	-0.051431477
84	0xbd5112f2	-0.05104346
85	0x3dbf976c	0.09355053
86	0xbd676d0a	-0.056500472
87	0x3d9cf705	0.07664303
88	0xbd6af742	-0.05736471
89	0xbd596f2d	-0.05308454
90	0x3da33dce	0.07970773
91	0xbd440d14	-0.047864035
92	0x3d119652	0.035543747
93	0x3da22729	0.079176255
94	0xbd7783e6	-0.060428523
95	0xbd8e526e	-0.06949316
96	0x3d0cd83c	0.034385905
97	0xbd7cf7c6	-0.061759733
98	0xbd7a5554	-0.06111653
99	0xbd506e84	-0.050886646
100	0x3db74908	0.089494765
101	0x3ddbb802	0.10728456
102	0x3d8284d5	0.06372992
103	0x3dd3a621	0.10334421
104	0x3d956731	0.07295073
105	0x3dc1056b	0.094248615
106	0xbd253d0a	-0.040341415
107	0x3d6bf284	0.057604328
108	0x3d7131bd	0.058885325
109	0xbd4fd43d	-0.050739516
110	0xbd618760	-0.055060744
111	0xbd7c648e	-0.061619334
112	0x3d9f9c3e	0.07793473
113	0xbd51b84f	-0.05120116
114	0xbd393093	-0.04521234
115	0x3da57e5a	0.0808074
116	0x3d9e62ec	0.077337116
117	0x3d8861fd	0.06659315
118	0xbd8a1815	-0.067428745
119	0x3d91cb82	0.07118894
120	0xbd8d05af	-0.0688585
121	0xbd49c9f5	-0.049264867
122	0x3d8100c1	0.06298972
123	0x3db1802c	0.08667025
124	0xbd5a34f9	-0.053273175
125	0x3da9eee3	0.08297517
126	0xbd3c98bc	-0.046044096
127	0x3d96cacc	0.07362899

action_model._discrete_distribution.branches.0.weight f4 [25, 128]
0	0xbb2c1f46	-0.0026263758
1	0x3c55b6a9	0.013044038
2	0xbc403763	-0.011731955
3	0x3a448072	0.00074959465
4	0xbccfaa8a	-0.025349874
5	0xbc84d50c	-0.01621487
6	0xbcd95dd7	-0.026534004
7	0xbc59354d	-0.013257337
8	0x3c3aced3	0.01140185
9	0xbc6012dd	-0.013676372
10	0x3ceb2bb2	0.028707359
11	0x3c267fdb	0.010162319
12	0xbbf3e5dd	-0.0074431733
13	0xbb1889ea	-0.0023275563
14	0xbc1e5930	-0.009664819
15	0x3bc2c107	0.005943421
16	0x3c0a040f	0.008423819
17	0xbbe60451	-0.0070195575
18	0xbb6b4cc9	-0.0035903922
19	0xbb57830d	-0.003288451
20	0x3a5a542b	0.0008328582
21	0x3cf73f68	0.030181602
22	0xbbe2804a	-0.006912266
23	0x3bbc2341	0.0057415073
24	0x3b533c3d	0.003223195
25	0xbc2abcf0	-0.010421023
26	0x3ced3979	0.02895807
27	0xbd0ad844	-0.033897653
28	0x3c3fe95e	0.011713354
29	0x3cc8075e	0.024417575
30	0x3ca630be	0.020286914
31	0xbc977c11	-0.018491777
32	0xbcb83967	-0.02248831
33	0xbb0ece3a	-0.00217904
34	0x3c272648	0.010201998
35	0xbb498946	-0.0030751987
36	0x3cd76f1f	0.026298104
37	0x3bd43e67	0.0064771655
38	0x3c77b2fd	0.015118358
39	0x3c5835e6	0.013196444
40	0xbb29537f	-0.002583712
41	0xbc92ada2	-0.01790506
42	0x3c50be7c	0.0127407275
43	0x3bed00b7	0.007232751
44	0xbc1a026f	-0.009399994
45	0x3c81f567	0.015864087
46	0xbb5665ab	-0.0032714407
47	0x3cb72d4b	0.022360465
48	0xbc62876b	-0.0138262315
49	0x3a4b42b8	0.00077537773
50	0xbc90adb5	-0.017660955
51	0xbca6deb7	-0.02036987
52	0x3c21cf15	0.009876032
53	0x3c9681fb	0.018372526
54	0x3c48657f	0.01223123
55	0xbc63173c	-0.01386052
56	0xbccba350	-0.024858147
57	0x3c9b4ab4	0.01895652
58	0x3b2800c7	0.002563523
59	0xbcecf19e	-0.028923806
60	0xbd36a872	-0.044594236
61	0xbc1ce4fd	-0.009576079
62	0x3ba0b5f7	0.0049045044
63	0xbb975397	-0.004618119
64	0x388e4528	6.783969e-05
65	0x3ca62e57	0.020285768
66	0x3bfe2ad1	0.007756569
67	0x3c2a8b3a	0.010409171
68	0xbbcb4358	-0.0062030964
69	0xbcb114e8	-0.021616414
70	0xbb929661	-0.004473493
71	0xbc1af8fe	-0.009458778
72	0xbca1394b	-0.01968064
73	0xbcc2d4b3	-0.023783064
74	0xbc354f1a	-0.011066223
75	0x3c722c17	0.01478102
76	0xbc8dff78	-0.017333731
77	0xbc1b566b	-0.009481053
78	0x3c3b6627	0.011437929
79	0x3cd3f8df	0.025875507
80	0x3cd4a067	0.025955392
81	0xbc933321	-0.017968716
82	0x3c946c19	0.018117951
83	0xbc77e44a	-0.015130112
84	0xb9c81fb8	-0.00038170605
85	0x3c905014	0.01761631
86	0xbc7401fc	-0.014893051
87	0xbc0e5e49	-0.0086894715
88	0xbccfc5d0	-0.025362879
89	0xbca93660	-0.02065581
90	0x3c2b69ae	0.010462208
91	0x3b6577bf	0.0035014001
92	0xbc947531	-0.018122287
93	0x3b98ab57	0.004659097
94	0x3c230239	0.00994926
95	0xbbb096e3	-0.005389081
96	0xbcbe8dea	-0.02326103
97	0xbc99cb1b	-0.018773606
98	0xbc29609c	-0.010337975
99	0xbc983750	-0.018581063
100	0x3bc13ee1	0.0058973883
101	0x3ccf3a71	0.025296422
102	0xbc38613d	-0.011253652
103	0x3c218e38	0.009860568
104	0xbc424426	-0.011857068
105	0x3c1761fe	0.009239672
106	0x3c2ca0ec	0.010536414
107	0xbcc052a8	-0.023476914
108	0xbcc88637	-0.024478061
109	0xbc669fd3	-0.014076191
110	0xbc5e54fc	-0.013570067
111	0xbb35d38b	-0.0027744498
112	0x3c5533a1	0.013012798
113	0x3b9c792b	0.0047751865
114	0xbaccf1e0	-0.0015636049
115	0x3b69df1d	0.0035685964
116	0x3c2386d6	0.009980878
117	0xbc488d1d	-0.012240675
118	0xbc9b94ac	-0.01899179
119	0x3cd96d4a	0.02654137
120	0xbcf5eb9e	-0.030019578
121	0xbcb95b3e	-0.022626515
122	0xbbb8f134	-0.005643988
123	0xbc32252d	-0.010873121
124	0xbc0e3d41	-0.008681596
125	0xbb443f03	-0.0029944784
126	0xbab36c04	-0.0013688807
127	0x3b6d9bae	0.0036256122
128	0x3bcbc990	0.0062190965
129	0xbc487b89	-0.012236484
130	0x3b3faaad	0.0029246018
131	0xbb9a9e3c	-0.00471857
132	0xba72a2a4	-0.0009255803
133	0xbc031726	-0.0080011245
134	0x3be7ff2a	0.0070799785
135	0x3a437969	0.0007456751
136	0xbbecea00	-0.0072300434
137	0xbc13536b	-0.008992056
138	0x3c5008ed	0.012697441
139	0x3bc3aa6f	0.005971245
140	0xbc916351	-0.017747553
141	0x3c7a96d2	0.015294747
142	0x3b224ca4	0.002476492
143	0x3cfab46c	0.03060361
144	0xbc60aa9d	-0.013712552
145	0xbd043671	-0.032278482
146	0xbbd54dff	-0.006509542
147	0x3c9fb965	0.019497583
148	0x3c2b41d6	0.010452708
149	0xbcac2eb3	-0.021018362
150	0x39f0f2dd	0.00045957314
151	0xbcc93981	-0.024563553
152	0xbc9d2a44	-0.019185193
153	0x3be0981f	0.0068540717
154	0xba4363a9	-0.000745351
155	0x3d19dbd2	0.037563153
156	0xb94ee670	-0.00019731536
157	0xbc38611a	-0.01125362
158	0x3c2d2db1	0.010569976
159	0xbaed929d	-0.0018125359
160	0xbd053bab	-0.032527607
161	0x3b66b79c	0.0035204655
162	0xbb3a5fd8	-0.0028438475
163	0xbb30f8bf	-0.0027003733
164	0xbbdb5644	-0.0066936333
165	0xbbcc6260	-0.006237313
166	0x3af98247	0.0019036018
167	0x3c2ec9fe	0.010668276
168	0xbc530c1f	-0.012881308
169	0x3c2daf17	0.010600827
170	0x3c869bd6	0.01643173
171	0x3d12297a	0.035684086
172	0xbc1d1e7b	-0.009589787
173	0xb63a77ed	-2.7785966e-06
174	0xbcc5bbbb	-0.024137368
175	0xbb87563e	-0.004130154
176	0x3caf8c4c	0.021429203
177	0x3ccc553e	0.02494299
178	0x3c4ef34f	0.0126312515
179	0x3c7266eb	0.014795045
180	0xbc9ae398	-0.018907353
181	0xbc0ba09c	-0.008522179
182	0xbc8f61eb	-0.017502746
183	0x3bd814eb	0.0065942905
184	0xbb0e74a8	-0.0021737013
185	0xbc5bfd9a	-0.013427163
186	0x3cf029a4	0.02931673
187	0xbba18df2	-0.0049302513
188	0x3c7db75c	0.015485611
189	0xbca69678	-0.020335421
190	0x3c8d73f0	0.017267197
191	0x3c9a6863	0.018848604
192	0xbc940a3e	-0.01807129
193	0x39bfc986	0.00036580506
194	0xbbe7f884	-0.007079186
195	0xbc0816d8	-0.008306228
196	0xbc39c647	-0.011338777
197	0x3cd2f1b0	0.025750011
198	0x39abb6f1	0.00032751964
199	0xbbb41c1d	-0.0054965154
200	0xbc1c4e39	-0.009540134
201	0x3d011bb0	0.031520545
202	0xbbabb7e1	-0.005240426
203	0xbbf1899d	-0.007371141
204	0x3ca3cac2	0.019994143
205	0x3bc1fc51	0.005919971
206	0xbcd094c3	-0.02546156
207	0x38be0d47	9.062379e-05
208	0x3ca5cba1	0.0202387
209	0x3cc4da9f	0.024030028
210	0x3c9a74c4	0.018854506
211	0x3c68d28f	0.014210357
212	0x3c5ff5b0	0.013669416
213	0xbc5553a6	-0.013020432
214	0x3cc71908	0.024303928
215	0xba93c373	-0.0011273458
216	0x3b097249	0.002097266
217	0x3be9e92a	0.007138391
218	0xbccf0840	-0.025272489
219	0x3bf99a74	0.007617289
220	0xbc60d4c7	-0.013722605
221	0xbb288af8	-0.0025717597
222	0x3c98190f	0.018566636
223	0xbbcacc8a	-0.0061889337
224	0xbc586ce8	-0.013209559
225	0x3a3e4369	0.00072579697
226	0xbc781c95	-0.015143533
227	0xb9da6cc4	-0.00041661237
228	0xbbbd8ed0	-0.005784847
229	0xbc67b836	-0.01414304
230	0xbcbcfe3a	-0.023070443
231	0x39cf9565	0.00039593424
232	0xbcbc7bd3	-0.023008263
233	0xbb308dcc	-0.0026939986
234	0x3b9781f8	0.004623648
235	0xbc8586e6	-0.016299676
236	0xbb6c53f3	-0.003606078
237	0x3c5e174c	0.013555359
238	0x3b299ae0	0.0025879666
239	0x3c7da8ce	0.015482141
240	0xbc38e6c2	-0.011285486
241	0x3c4aa8c1	0.012369336
242	0x3d384fe1	0.044998053
243	0xbc2740f6	-0.010208359
244	0x3b519e7c	0.0031985333
245	0xbd1c4b56	-0.038157783
246	0x3c0502c5	0.008118336
247	0xb8a393c1	-7.799967e-05
248	0x3b317baf	0.0027081778
249	0xbb216171	-0.002462473
250	0xbc7b1a68	-0.01532612
251	0xbc6b56bd	-0.014363942
252	0x3c4fa428	0.012673415
253	0x3aa4c92e	0.0012572163
254	0xbbdc0db7	-0.006715502
255	0xbbb1df63	-0.005428241

action_model._discrete_distribution.branches.0.bias f4 [25]
0	0x3cb9eb2d	0.022695148
1	0x3b9b97eb	0.0047483346
2	0xbba6cb6c	-0.0050901677
3	0xbc5f0747	-0.013612575
4	0xbcb77c80	-0.022398233
5	0x3ccb233c	0.024797074
6	0x3c0e3139	0.008678728
7	0xbbfc43c1	-0.0076985066
8	0xbca99913	-0.020702874
9	0xbcfc785f	-0.030819116
10	0x3d52c776	0.051459752
11	0x3c9021c7	0.017594231
12	0xbc5cd6bf	-0.013478934
13	0xbca79175	-0.020455102
14	0xbcbf720d	-0.023369813
15	0x3d3496c6	0.0440891
16	0xbc63fd7d	-0.013915417
17	0xbc931533	-0.017954445
18	0xbc9d54a6	-0.019205403
19	0xbd02b5c3	-0.031911623
20	0x3cf80b04	0.03027869
21	0x3ca3fc71	0.020017834
22	0xbc9c0a43	-0.019047862
23	0xbcca334d	-0.024682665
24	0xbcd859b1	-0.026409956
