Assets/Env5/Brains/MoveToBridge.onnx (onnx, 155478 bytes, 8 tensors)

network_body._body_endoder.seq_layers.0.weight f4 [128, 13]
00000000: 33fa eb3d ed9a 0cbe 8d4c 9f3e d0f5 073f
00000010: dd6a c83d b350 543e 8345 0abf 2a49 9d3d
00000020: 0192 66bd fcd0 603e 7e59 bb3d 742d 863e
00000030: 8eb6 13bf 632e 9e3e a57b acbe 822d 2ebe
00000040: 0ab6 afbe e502 4e3e 794f a7bc edd0 4b3e
00000050: 0977 c83d 70aa 043f 23de 5abe 041b e83e
00000060: f49d ad3c cdd4 55be b029 f4be 9cf9 0b3e
00000070: 03c8 c6be 9cdf 003d 709e db3e b1c6 26be
00000080: e629 493e 3dee dc3e db8d 533f 7846 adbe
00000090: d362 923e da2b a93d d52e c53e bada 7e3e
000000a0: 88d0 e83c fa35 d9be c213 22be ad7b c5bd
000000b0: f786 eb3d 935d a5bd ad48 8ebe 1b9f 5b3d
000000c0: 8290 963e 4389 e8be 2ceb 0abf 1dab 6a3e
000000d0: 4ba4 c03b 6c0c 1a3f eb2c d6be 8ab5 f53e
000000e0: 8ad6 1dbd ccc0 8bbe 65a1 733d 5b5e 30bc
000000f0: 71ad e53d 00ac 293e 699f c73e 6e1f 823e
00000100: 2ede 793e 7930 ae3e 32f9 90bd d43e 82be
00000110: 0e0d 993e 57bc e5bc 4ad6 19bc 44ee 3f3e
00000120: c5a8 9fbd c4f5 053e 51b4 ffbe 0673 92bd
00000130: 6f70 863e 8b60 943e ecb4 e13e 0c16 843e
00000140: fa9e 9bbd a71b 93be 565d 0e3e b23e e8bd
00000150: 0117 19bf d155 c0be 34ba b33c fe35 13be
00000160: c42f a8be 3443 d4bd 8410 303e b9a8 e83e
00000170: cfba 9dbe 971b babe 06da 2cbe 025d c43e
00000180: 686e 38be 11f6 dc3e 3535 703b b23d 183d
00000190: c211 253d 99ef 1dbe dc54 9c3d 0310 a7be
000001a0: 712e 93bc e377 e2be 2b77 c53d 09b8 0dbd
000001b0: e80c 0ebf f9b6 ebbe 7a48 e1bd 4c87 77be
000001c0: 42c7 943d 3688 f2be 5825 d13e 2470 00be
000001d0: e84a d0bd 41b3 2dbd 76eb 5ebe 7aeb aebd
000001e0: e265 aabe 8b3e 03bd b8ca 283f 6235 bf3e
000001f0: 6bb1 d13e daa4 243d aba4 92bd 1f01 d2be
00000200: c4c4 06bd 08a5 58be c852 d23d de3d b53d
00000210: 119d 8e3e 158b bf3e aff1 04be 3ec7 9d3d
00000220: f86d 5e3d a848 323e 7e5a 5d3e 3e3e bb3e
00000230: 3781 463e 5083 efbe 7edf a73e 2d7f 1c3d
00000240: a844 ef3e db4d 723e 1c87 1abe eb01 26be
00000250: 26d0 9c3d bff6 37be 8c15 893e f2fd be3e
00000260: cc93 d4bd 9d9e 0bbf 5827 783e 2f9b a93e
00000270: daca 773e 9645 94be 6bef 053e 8536 693c
00000280: 6074 263d 7710 1ebe f527 4f3d d6f2 66be
00000290: 8f4f a5bd b05e 3a3e fedb 9ebb abd7 3d3e
000002a0: 593d 9abe 0eec ffbd 3e5e fb3c 879f 4b3e
000002b0: 3374 3dbe c317 bf3c a408 9e3d 50c3 8f3e
000002c0: 1fa0 0abe a877 d6bb 9840 a2be 4bda 40be
000002d0: 39c4 1a3c 1908 f03e fd17 aabe 2fe0 a93e
000002e0: a1d3 81bd 54a2 743a e74f a0be 87e7 6dbe
000002f0: e1c0 263d 2aec 453e 88d7 bfbb 49a8 fa3d
00000300: 45bd d93c 3eaa 9bbe aa96 223e edb6 97bd
00000310: 43c3 6cbc 8180 9b3d 127b c0be 3d1d 89be
00000320: 65d2 70be 439b 983c 9406 ae3e 3afb 59bd
00000330: ac91 bcbe f7a2 e93d 6cff 883d 830f 3f3e
00000340: e237 bfbe 354a 123f dd79 2bbe f6cd 1f3d
00000350: a43d 23bc 48c4 673e 6846 bebd 8d13 babe
00000360: d58d 2cbe c0a0 b3be 0b5c 3e3f 6fed 5fbe
00000370: eb12 dfbe 9f2d 8d3d a3a8 04be 896e 713e
00000380: 7dd9 093f bcec 443e 8812 2a3e a781 19be
00000390: bf82 cf3e 832e 9cbe 2860 0dbd 381f bb3e
000003a0: ec88 e23e 251c 25bf bb4e f3bc ac9b 9bbc
000003b0: 8f98 b63e d39a 7cbe 90bd 83be e13c c93e
000003c0: 5100 e43e 3239 823e a2ed 88be 5b8f e03e
000003d0: b883 243b b772 353e b56d 523e 063e 713e
000003e0: 19e3 e0be 6811 e53b 1fc4 1abe 440b e33d
000003f0: b0d2 d63d fe50 113e 507b 83be b036 c9bc
0.11522331 -0.13730974 0.3111309 0.53109455 0.097860076 0.2073391 -0.54012316 0.076799706
-0.056291584 0.21954721 0.09147929 0.26206553 -0.5770043 0.30894765 -0.33688083 -0.17009547
-0.34318572 0.20118292 -0.020423638 0.19903918 0.09788329 0.51822567 -0.21373801 0.4533311
0.021193482 -0.20881958 -0.47688055 0.13669437 -0.38824472 0.03146325 0.42894316 -0.16286732
0.19644889 0.4315051 0.8263833 -0.33842826 0.28591022 0.08260317 0.38512293 0.24888125
0.028419748 -0.42423993 -0.1582785 -0.0964273 0.11500352 -0.080744885 -0.27789822 0.05361853
0.29407126 -0.45417222 -0.54265094 0.22916837 0.0058789602 0.60175204 -0.41831145 0.47990066
-0.03853468 -0.2729553 0.05948009 -0.010764684 0.11214722 0.16569519 0.38988808 0.25414604
0.24401161 0.34021357 -0.0707878 -0.2543856 0.29892772 -0.028043909 -0.009389469 0.18743235
-0.07795862 0.13082033 -0.49942258 -0.07150845 0.26257655 0.28979906 0.44083345 0.2579807
-0.07598682 -0.28732035 0.13902792 -0.11340083 -0.59800726 -0.37565473 0.021939375 -0.14376065
-0.32848942 -0.103643805 0.171938 0.45441225 -0.30806586 -0.36349174 -0.16880044 0.3835221
-0.18010867 0.43156484 0.0036652808 0.037168212 0.04030014 -0.1542343 0.07633373 -0.32629403
-0.01796648 -0.4423209 0.0964187 -0.034599338 -0.55488443 -0.46038035 -0.11000152 -0.24172705
0.07264568 -0.47369546 0.40848804 -0.12542778 -0.10170537 -0.042407278 -0.21769509 -0.08541007
-0.33280855 -0.032042067 0.65934324 0.37345415 0.40955672 0.040196277 -0.07160314 -0.4101648
-0.032902494 -0.21156704 0.102696955 0.08849691 0.27854207 0.374108 -0.1298282 0.07704018
0.054304093 0.17410529 0.21616551 0.36570925 0.19385229 -0.4677987 0.32787699 0.03820722
0.46732068 0.23662512 -0.15090603 -0.16211669 0.07656889 -0.1796522 0.2677425 0.3730312
-0.103797525 -0.545389 0.24233758 0.33126208 0.24198475 -0.2895934 0.13079612 0.01423419
0.040638328 -0.15435968 0.050575215 -0.22553572 -0.08071815 0.18200183 -0.0048480025 0.18539302
-0.3012493 -0.12496196 0.030684587 0.19885074 -0.18501358 0.02332676 0.07716492 0.280787
-0.13537644 -0.006545026 -0.31689906 -0.18833272 0.009446197 0.46881178 -0.33221427 0.3317885
-0.06339193 0.000933205 -0.3131096 -0.23232852 0.040711287 0.1932837 -0.0058545507 0.12239129
0.026579509 -0.30403322 0.15877786 -0.07407937 -0.014450851 0.075928695 -0.37593895 -0.2678012
-0.23517759 0.018628722 0.33989394 -0.053218104 -0.3682989 0.11408036 0.06689343 0.18658261
-0.37347323 0.5714448 -0.16745706 0.03901478 -0.009963427 0.22633469 -0.09290773 -0.3634304
-0.1685098 -0.3508358 0.74359196 -0.21867917 -0.4356912 0.06893467 -0.12954955 0.23577322
0.53847486 0.19230932 0.16608632 -0.14990865 0.4052944 -0.30504236 -0.03451553 0.36547256
0.44245088 -0.6449607 -0.029700628 -0.018995129 0.35663268 -0.24668436 -0.25730562 0.3930426
0.4453149 0.25434262 -0.267438 0.43859372 0.0025102925 0.17719541 0.20549662 0.23558816
-0.43923262 0.0069906004 -0.15113877 0.11086133 0.10489404 0.14191052 -0.25680017 -0.02456221

network_body._body_endoder.seq_layers.0.bias f4 [128]
00000000: 4d0b 9c3d 5bfd a6bd c39e 1f3d feb5 f6bc
00000010: 98d7 663d 4b0b 103c b1ab 6cbd 132a 72bd
00000020: dd5a 38bd 230e 36bd 62a0 0c3d 2fc6 d7bc
00000030: 4172 c2bc 094a c73a accb 8d3d cfde 90bd
00000040: fdbe 8a3d b57f 8a3d a1d9 3dbd 0528 6cbd
00000050: 2b32 a03d cebe ac3d 8118 8b3d 5b1b 773c
00000060: a9d9 ad3d fea6 603d fe4e 72bd 28af 98bd
00000070: 4e84 11bd 6f42 283d 00fc 943d b11c 56bd
00000080: 8829 7d3d a1db 0b3d 960a f6bd eaf8 adbd
00000090: 5a57 95bd a8de 703d 15d9 083d a03f 9c3d
000000a0: f8bc c5bc e798 a63d b409 733d b3cc 0c3d
000000b0: 15a0 2abd f19e 1bbc a366 97bd 60c8 4f3d
000000c0: 5cfc 5a3d 5e9c f33c 0b65 64bd a4fd 993d
000000d0: 0236 6fbd 13e2 47bd 5960 353d b4cf 973d
000000e0: 0d9d ac3d dd55 66bd a3d6 c13c 245b 943d
000000f0: f8ba 0e3d de76 003d 41a4 783d d1d5 ad3b
00000100: 444a 66bd 8b8b 843d 3d4c d0bc 17ef f43c
00000110: 57eb 03bd 0231 1fbd a011 b9bc 2766 8cbd
00000120: 15c3 03bd bd39 2d3d 3d78 863d cb3d 82bd
00000130: db11 42bd 62ec 793d 9fb8 83bd 54db a33d
00000140: 91e9 64bd 5d07 843c ffbc 873d 6409 c1bb
00000150: 4af7 3fbd f816 83bd a9b7 833d f8d1 003d
00000160: f63a 793d d935 ea3c fc54 5c3d c0c3 cf3c
00000170: bb50 7dbd fecc 713d 58ac 443d 13f8 93bd
00000180: 5881 3bbd f135 7f3c 2d98 6a3d 6373 803d
00000190: 9f4d 72bd 9e4d 5d3d 3749 723d 9849 9ebd
000001a0: 362b 2dbc bde9 5e3d 853b 303d bcac a0bd
000001b0: a07b 543d 9c25 4d3d 1b66 393d 517e 783d
000001c0: f76b 40bd 270a 85bd ebfe 613d 2535 e8bb
000001d0: dd7d 633d 502e 513d 501a ffbc e701 fa3c
000001e0: c609 333d 8514 653d b903 903d 692c b9bc
000001f0: 4235 823d 83f3 3a3d 2eff 3fbd 6b33 94bd
0.07619343 -0.081537925 0.038969766 -0.030116078 0.05635795 0.008791755 -0.057780925 -0.059122156
-0.04500853 -0.044447076 0.03433264 -0.026339618 -0.023736121 0.0015204559 0.06923613 -0.07073747
0.067747094 0.067626394 -0.046350125 -0.057655353 0.07822069 0.084348306 0.06791783 0.015082206
0.08488781 0.054846756 -0.059157364 -0.074552834 -0.035526566 0.04107898 0.07274628 -0.052273456
0.061807185 0.034145 -0.12013738 -0.08494742 -0.072920516 0.05880609 0.03341015 0.07629323
-0.024137959 0.081346326 0.059335425 0.034374904 -0.041656572 -0.009498344 -0.07392623 0.050728202
0.053463325 0.029737648 -0.055760425 0.07519081 -0.058401115 -0.048799586 0.044281337 0.07412663
0.084283926 -0.05623423 0.023661917 0.07243946 0.034846276 0.03136336 0.06070352 0.00530503
-0.05622317 0.06471928 -0.025426978 0.029899163 -0.03220686 -0.038865097 -0.022591412 -0.068554215
-0.032168467 0.04229139 0.065659024 -0.06359442 -0.04738031 0.061016448 -0.06431698 0.08000818
-0.05588681 0.016116792 0.06627845 -0.005891012 -0.046866693 -0.06400865 0.06431515 0.03145024
0.060847245 0.02859013 0.053791985 0.025361896 -0.06184457 0.059033386 0.048015922 -0.07225051
-0.04577765 0.0155768255 0.057274032 0.06272008 -0.059156056 0.0540291 0.059151854 -0.07728881
-0.010569384 0.05442213 0.043025512 -0.078454465 0.05187571 0.050084695 0.04526339 0.06066734
-0.046977963 -0.06496077 0.05517475 -0.0070864134 0.055539954 0.051069558 -0.031140476 0.030518485
0.043710493 0.055927772 0.0703196 -0.022604184 0.06357814 0.045642387 -0.046874218 -0.0723637

network_body._body_endoder.seq_layers.2.weight f4 [128, 128]
00000000: 506b 863c 5a06 343e 8bbb 51bc 1a79 d8bd
00000010: f593 29be 83cd 1cbe 993a 07bd 599b d2bd
00000020: e497 4b3d 4d43 ac3d 2275 56be 5c21 a53d
00000030: 5d26 6d3d 0838 bdbd d26b 08bd 95a3 aa3d
00000040: c701 4f3d c10c 393e 536b 2cbe c4af 873d
00000050: f469 c43d 3767 173e 94ea ac3d 4017 d1bd
00000060: 57a1 abbd 36e8 803d 210c 5dbe a083 073e
00000070: 5999 843d 8927 bbbb 5748 153e 21da 5a3d
00000080: fa22 fbbd 3b81 76bd 8e61 8a3d b785 be3d
00000090: 434e 7bbd 9b0b f8bc d04f b1bd c5f8 e13d
000000a0: f790 22bd b9f9 25be bd21 10bd 5d55 59bd
000000b0: 6911 90bc 0648 193e a876 613d cba6 7abd
000000c0: 664e 54bd d976 15bd 510a c03d 4d4b 30bd
000000d0: 5212 b63d 2596 91bc 2abb dbbc bf0a c4bd
000000e0: 91cf 593b 0edb 753d eff3 f8bc d53f 46bc
000000f0: 2179 113d 44a7 1cbd 4162 f4bb 1590 b4bd
00000100: 77ea 933d a8ee 4dbc 4610 983c 67e6 abbd
00000110: c602 d53c e3a2 003e f97e c6bd fa61 dc3d
00000120: 9700 5c3d 2545 c3bd 53e3 91bd 1df6 b33d
00000130: b92e f23c d7ff 4cbd 87ab 2a3e 1fd2 2c3e
00000140: 2cb5 01bd 6ede 6f3e 4b18 e3bd 7858 373e
00000150: 6ff3 85bd 1c09 88bc 3301 ec3b 76c7 bfbd
00000160: a78b a6bd 2297 0b3e c6ed b9bc f62e 00be
00000170: 45a1 2dbd ea2e 0cbd 3780 c93c 74da 01bd
00000180: cc98 953d 5ea4 a4bd 2c61 9bbc 8608 f4bd
00000190: 5181 6cbd b474 dcbd a034 bdbd b279 203e
000001a0: 1a2c 223e f092 f2bd 2f6c 0cbe 3bb4 af3d
000001b0: 8df7 2f3d e859 34bd 09f2 acbc f515 18be
000001c0: 7961 8e3d 0b59 c9bd bc69 3b3d 50a6 33bd
000001d0: 1e5c e53d 49f5 b13d 26c0 353d 4355 e83c
000001e0: d6c5 4ebc dce8 eebd d399 12be 6885 123e
000001f0: 4d5d 103e fda3 e6bd ae4e d23d f036 10be
00000200: 524f d23d f211 0ebe 4699 403d 51ce 1abe
00000210: 807b 423e c54c f3bd aa2b ebbd 8f13 7ebd
00000220: f3ce e7bc 01cc 1fbe 6f0a 2dbe e968 07be
00000230: 321e 5c3e 7c5a b4bd 93b8 b8bd 8c92 83bd
00000240: bd7e 6c3d fb8c a33e 22e9 afbd 0bda e4bd
00000250: e369 243e ed0f 093d 59f2 d83d 42ea f73c
00000260: 0fe2 b03c a895 723e 9a74 07be 94dc 273d
00000270: 8958 abbd 045a 0c3d 59e9 113e caff 07be
00000280: 59e8 00be e061 0dbe 5a41 2dbe eb2a b4bd
00000290: e67f 003d 4d6a 4f3e fa11 57bd 7ac4 1c3e
000002a0: 8f97 28bd 2ab2 a23d a4aa 8d3c 1180 adbd
000002b0: 5f19 8bbd ab87 433b b45c d4bd ccdb 6bbd
000002c0: a4ce 863d 8cd7 9b3d 38cd 98bd 9a1f 14bd
000002d0: dc73 85bd c043 f6ba 5448 6bbe 41b3 033e
000002e0: f3c9 313e 82d2 45be 5e58 603d 08c3 063e
000002f0: e297 17be 2751 1cbe 190a bdbc 745f 203e
00000300: 186e c6bc 7b6f e03d 3520 943c 1dfc 55bb
00000310: 8d8e 0abb 2154 193d 06bd 20bd ec39 a5bd
00000320: 7406 b83d 19eb 1e3e 0332 aabd 2ff5 77ba
00000330: 9e25 ceba 24de d9bc ff76 32bd 7061 0e3e
00000340: 6f3b aebd b4e5 303e ed80 4c3d 6237 483d
00000350: 9d85 bcbd a1b5 c5bd ee2e 053e 2a26 403e
00000360: ae83 e73d aca4 ff3b b70c e83d e248 97bc
00000370: bddc 17be 1d03 00be 16b5 4bbe 7ce3 10be
00000380: 828d 9e3d e967 08bd 5347 843d da98 463d
00000390: dbb0 00bd 7afc 1bbe 5da6 36bd 2f1f 153d
000003a0: 900c 88bd 5d03 2dbe d6d7 0dbe 9690 593d
000003b0: 0b31 893d 5b40 ee3d 8ff9 333d bc5b 7ebe
000003c0: 748b e03d 4540 1fbe 0ff2 433e f7ed d1bd
000003d0: 37dc f73d 2d62 383c 8386 b63d 8964 cebc
000003e0: 7364 d13c d34e b2bd d924 b8bd 04dd 86bd
000003f0: 8d98 c93c 10e0 9bbd a9c7 34be 4302 1cbe
0.016408592 0.17580548 -0.012801061 -0.10569973 -0.16560347 -0.15312771 -0.033014867 -0.102835365
0.0497054 0.08411274 -0.2094312 0.080630034 0.057897914 -0.09239203 -0.03330595 0.08331982
0.050538804 0.18071271 -0.16837816 0.066253215 0.095905215 0.14785467 0.0844318 -0.10209513
-0.083803825 0.06294291 -0.21586658 0.13233805 0.06474561 -0.0057115 0.14578377 0.05343068
-0.122625306 -0.060181838 0.06756888 0.09302848 -0.061353933 -0.030278971 -0.08657801 0.11033777
-0.03968903 -0.16208543 -0.035188425 -0.053059924 -0.017586427 0.14968881 0.0550448 -0.061194222
-0.05183258 -0.036490295 0.09376968 -0.043040562 0.08890213 -0.01777179 -0.026822645 -0.09572362
0.0033235291 0.06002336 -0.030389754 -0.01210018 0.03551591 -0.038245454 -0.007458002 -0.08816544
0.07222455 -0.012569107 0.018562447 -0.08393555 0.026002299 0.12562136 -0.09692187 0.10760875
0.0537115 -0.09534673 -0.07123437 0.08787177 0.029563295 -0.050048675 0.16666995 0.1687703
-0.03166692 0.23424694 -0.11088618 0.17904842 -0.06540572 -0.016605906 0.0072022914 -0.09364216
-0.08132105 0.13631871 -0.022696387 -0.12517914 -0.042390127 -0.03422443 0.02459727 -0.031702474
0.07304534 -0.08039163 -0.018967234 -0.11915688 -0.057740513 -0.10764447 -0.09238553 0.15671423
0.15837136 -0.11844432 -0.13713144 0.08579298 0.042960692 -0.044031054 -0.021111505 -0.14852126
0.06952185 -0.09831437 0.045755133 -0.04385978 0.111992106 0.086893626 0.0443727 0.028360968
-0.01262041 -0.11665508 -0.14316492 0.14308703 0.14098091 -0.11261747 0.10268913 -0.14083457
0.102690354 -0.13874033 0.047021173 -0.15117766 0.18992424 -0.11879877 -0.11482938 -0.06203037
-0.028296923 -0.15605165 -0.16898511 -0.13223614 0.21495894 -0.08806321 -0.0901958 -0.06424436
0.057738055 0.31943497 -0.085893884 -0.11174401 0.16056018 0.033462454 0.10593099 0.03026307
0.021592168 0.23689902 -0.13228074 0.040981844 -0.08366496 0.034265533 0.14249171 -0.1328117
-0.12588634 -0.13806868 -0.16919461 -0.087972485 0.031371973 0.20255394 -0.05250738 0.15309325
-0.041160163 0.07944138 0.017293282 -0.08471692 -0.067919485 0.0029835503 -0.10369244 -0.05758266
0.06582382 0.07609472 -0.07461017 -0.03616295 -0.06516239 -0.0018788502 -0.2297681 0.12861349
0.17362194 -0.19318584 0.054771774 0.13160336 -0.14804032 -0.15265332 -0.023076104 0.15661412
-0.024222419 0.10958763 0.018081764 -0.0032651492 -0.0021142096 0.037433747 -0.039242767 -0.08067688
0.08985606 0.1551937 -0.0831032 -0.00094588374 -0.0015727764 -0.026595183 -0.043570515 0.13904357
-0.0850743 0.17275125 0.04992764 0.048880942 -0.09205172 -0.096537836 0.13006184 0.18764558
0.11304413 0.007801613 0.1133055 -0.01846737 -0.14830299 -0.12501188 -0.19893298 -0.14149278
0.07741834 -0.03330222 0.064589165 0.048485614 -0.031418663 -0.15233031 -0.04459225 0.036406692
-0.06643021 -0.16895814 -0.13851866 0.053116404 0.06698807 0.116333686 0.04393917 -0.24839681
0.109640986 -0.1555186 0.19135307 -0.10250466 0.121025495 0.011253876 0.08912375 -0.025194423
0.025560593 -0.08706441 -0.08991403 -0.06585124 0.024608875 -0.07611096 -0.1765429 -0.15235238

network_body._body_endoder.seq_layers.2.bias f4 [128]
00000000: 2cd6 12bc ba69 483d 81a3 34bd f7f5 443d
00000010: 52b4 153d e299 2fbc f211 233d 831f 813d
00000020: 401d 49bd 63f6 6a3d 6af7 643d ec5e 5f3d
00000030: a289 273d 2a58 893c 1f9c 7b3d f364 a4ba
00000040: cfed 633d e947 25bd 8ad7 663d aa02 1d3d
00000050: 7377 06bc 2370 183d 8df6 cbbc 3139 033d
00000060: ce43 8f3d 8fac be3a 39dd e4bc dd43 3b3d
00000070: d789 07bd 1bfb 07bd e593 0b3d af97 3b3d
00000080: bb4f 25bd e7c2 18bd b438 5b3c 0800 5d3d
00000090: e028 4dbd 4642 25bd 7acf 523d 9d20 6d3d
000000a0: a81f 5cbc 0f7c 32bd b3e6 573c 7b59 d13c
000000b0: 29de 323d 5e2b 1a3d 65d6 f63c d698 24bd
000000c0: 7cbe 5f3d 713c 473d fc8a 6e3d 8b62 5a3d
000000d0: 6fbb 33bc 3eb9 693d 3161 4f3d e33e 373a
000000e0: c854 453d 0740 c03c 23c7 bfbc 7c3a 03bd
000000f0: d732 8dbc 3a10 ffbc 5811 593d 78b6 213d
00000100: f870 6e3c e996 883d 187b 683d 3102 8bbc
00000110: b500 473d 8e8a 91bc 539d 8c3d 4cd6 2c3d
00000120: dbee 3b3d 8a6d 173d 5082 dd3c da33 01bc
00000130: a49f 6abd 68d0 463d d6fd 08bd 3145 5a3d
00000140: afba 253d 5293 463d c039 c23c 0066 753d
00000150: e09c 4a3c 6c53 1bbd e3d5 00bd 79b3 96bc
00000160: 93e1 3b3d ea53 4b3d c8be efbc d754 d3bc
00000170: 8815 3abd 9586 a1bc 1330 4fbd bd94 003d
00000180: 15f7 383b 7a50 313d 0c4e fbbb 7fcc 323d
00000190: a58d 713d 7974 a6bc 933a 073d ffee 943d
000001a0: 5b81 2b3d e893 4fbc 45df ca3c 9c45 3c3d
000001b0: 28be 55bd 33f6 4c3d 3986 123d 191e 173d
000001c0: 999b f33c 95f0 c8bc 4296 403d b71b 5f3d
000001d0: 4097 4d3c f27f 2c3d 3d9e d53c 34b3 4c3d
000001e0: 2e7c 2e3d d624 0abd 8fc6 aa3c 060a 4b3b
000001f0: c34f 813d fbb6 3dbd e299 423d 3249 0cbd
-0.008962195 0.048928954 -0.044101242 0.048086133 0.03654892 -0.010717841 0.039812036 0.063048385
-0.04910016 0.05736388 0.055900015 0.054533884 0.04090274 0.016765673 0.061428186 -0.0012542292
0.055646714 -0.040351782 0.056357898 0.03833262 -0.00820719 0.037216317 -0.024897838 0.032036964
0.069953546 0.0014547276 -0.027937518 0.045719016 -0.03309044 -0.033198457 0.03407659 0.045798954
-0.04035924 -0.03729525 0.013380218 0.053955108 -0.05008781 -0.040346406 0.051467396 0.05789243
-0.013435282 -0.043575343 0.013177562 0.025555363 0.0436689 0.037639014 0.030131528 -0.04018482
0.05462502 0.048641626 0.058238015 0.053316634 -0.010969981 0.057061426 0.0506298 0.0006990267
0.048176557 0.02346803 -0.023410385 -0.032038197 -0.017236156 -0.031135667 0.052995056 0.039480656
0.014553301 0.06669409 0.056758016 -0.016968818 0.04858466 -0.017766263 0.06865945 0.042196557
0.045882087 0.0369697 0.027039677 -0.0078858975 -0.05728115 0.048538595 -0.0334452 0.053288642
0.04046124 0.04848034 0.023709178 0.059911728 0.0123665035 -0.037921354 -0.03145398 -0.018396126
0.04586942 0.049640574 -0.029265776 -0.02579729 -0.04543069 -0.019717494 -0.050582957 0.031391848
0.0028223444 0.04328964 -0.007669216 0.043652054 0.058972973 -0.02031921 0.033014845 0.072721474
0.04187141 -0.012669541 0.024764666 0.045964822 -0.0521833 0.05003948 0.035772536 0.036893938
0.02973728 -0.024528781 0.047018297 0.05446979 0.012548268 0.042114206 0.02607643 0.04997559
0.042598896 -0.033726536 0.020846633 0.0030981316 0.063140415 -0.046317082 0.047510035 -0.034249492

network_body._body_endoder.seq_layers.4.weight f4 [128, 128]
00000000: 3409 36bd 19ac 07bd df50 0c3b 589e 563d
00000010: 74b9 183d 1285 08be 30d0 14bd 374d 8ebc
00000020: 86d9 e7ba d3b0 08bd 5c11 a4bd 8493 e7bc
00000030: 605e 37bd 16a0 ffbd 9c96 5fbe 43dc 0bbe
00000040: 53dc d4bd d6d7 513d c936 9dbd 67c1 483d
00000050: 3bee 6d3d 629b 33bd 9d65 09bd 1dae 8d3d
00000060: 656e be3d 4020 a8bc 9237 6a3d d3e2 b43d
00000070: 3adf 813e 0257 bd3d 7786 b93c fdc8 013e
00000080: 1a8c bcbc 8297 8e3e 4464 513d f8c4 a53d
00000090: 0a2a 27be e564 793d 02e4 ca3d 91f2 f33d
000000a0: 01b6 6a3b 3114 59be 2c7c 663d 36d6 31bd
000000b0: e461 d03d 8527 3abd 406c 293d cf42 c7bd
000000c0: 3639 09be 6b5f a4bc f3ff 85bd 9952 443d
000000d0: 4c25 fe3c 2311 c7bd ebd7 c63c cdda 9cbd
000000e0: 32da 843d 19f1 99bd a97f 993d 48e7 47bd
000000f0: b4a9 5cbd 39f1 2b3e 7e29 7ebd 20e6 9bbd
00000100: dcaa 1e3e 1c8f 743c 617b da3d 96b2 82bd
00000110: f61d 9bbd 23ed af3d 60d1 fbbd 17a3 b2bc
00000120: 1e31 b8bd 1243 02bd 048d 123d 7b1f bbbd
00000130: 72eb 2ebe 5048 e3bc 929b e63d 1561 ecbc
00000140: a2c9 d93d 4c08 87bd d530 66bd 70cc 963d
00000150: 1391 2e3e f7d2 0a3d 2ab9 02be 866e 0d3c
00000160: 218e f1bd 964b 0f3d f070 d03d 46c0 aebb
00000170: e14e 9f3d 9670 0c3e 849d 083e b370 29bd
00000180: bba6 3a3d efc9 7c3b 1b5b b53c ea71 c83b
00000190: 42f5 ec3d 9f8a fd3c abc4 23bd 35ee 873d
000001a0: b742 3a3d 0ad2 95bd 655b c5bb 680c 323d
000001b0: d946 da3c 758c 533d eade 38be 5f55 7b3b
000001c0: 4cfb 1cbe 2dfc f9bd 384d 8fbd 5a26 d13d
000001d0: 72dd 6fbe 92a6 e9bd 83b5 223d 65ce 243d
000001e0: 63fd 773d 8329 87bd 064a 0f3d 10a4 153e
000001f0: 283c 15bd 068a 013c 1133 e0bd d712 41bd
00000200: 4c07 0f3e 5d09 e23d aa3e 54bd 6eb4 403d
00000210: 1442 09bd ad71 54bd 7543 ccbd c06c fa3d
00000220: 75f4 4e3d 6633 683e 0e37 75bd 4060 ad3d
00000230: f4fe 67bd ed00 f73d c8ea 1b3e 2bb9 433e
00000240: 5c18 f9bd ee38 d53b b09f 31bc f813 94bc
00000250: 7d88 ae3d fab6 0d3d 9cfe 9c3c 3189 fabd
00000260: 513f 0f3e eeea 353d a4d5 653d b549 833c
00000270: a434 543c ed8c ef3d 8a01 2cbe d67c e6bd
00000280: ebc0 adbc 2663 253c 6b26 493e 9aec 943b
00000290: 649d 853c edfc abbd ef3a 84bc 2139 c83d
000002a0: 76f7 5a3d 159b 373d c23b 123e 5c90 e7bd
000002b0: 6d59 7a3e c394 6439 4e99 31be f2f2 b3bd
000002c0: 2898 8e3d 614f 04be 9d2a b43d 43f3 953d
000002d0: 94be bfbc a01e 0a3e b5b8 7fbc aac1 e7bc
000002e0: 97b8 3a3d 8f73 3d3e 1f91 88bd dcde 503e
000002f0: 9291 58bd 462a 3ebb 8ce8 fb3d 9786 1abb
00000300: 363f 24be 6232 c7bb 47b1 433d 06f4 ba3d
00000310: 0d04 163e bb2a 36be 27ce bd3d d4b9 94bd
00000320: 35a3 953d 4a6a fc3c d92e 333e db72 0c3e
00000330: d53d 403c 7cec 223e 8348 3c3e 8782 753d
00000340: fcea cdbc 8dd2 c63d 58b9 0c3e ce73 9a3d
00000350: b5d7 8dbe 0f36 4abe acd3 a23c 9a3d 8abd
00000360: 0e82 dcbc 7d3d a3bc b81c 04be 8bde b3bd
00000370: 9fca 86bc 4cf4 40bd a4e8 233c eaf9 203e
00000380: 8b52 313d 5a73 903e 14cf 453d f46a 643c
00000390: 4b0f 50bd 96c3 ab3d b67f 37be 6b00 733d
000003a0: 1d51 9cbc 09aa 1d3c 7021 973e 14f6 3abd
000003b0: 3940 02bc 67f5 ebbd 48d5 653e faf0 693e
000003c0: 9cec 243e adc5 14bc 8e27 a2bd de98 603d
000003d0: b58d 5b3e 0c30 333d ab90 8c3e 5f56 b5bd
000003e0: d844 59be e96c 623c 193b d53d ea18 20be
000003f0: a16c 8d3d c9c7 47be 6bcd 783d c18c ba3c
-0.04444237 -0.03312311 0.0021410508 0.052397102 0.037286237 -0.13332012 -0.036331356 -0.017370803
-0.0017688728 -0.033371758 -0.080111235 -0.028268583 -0.044767737 -0.12481706 -0.21834797 -0.13658242
-0.10393586 0.051231228 -0.07676465 0.049012568 0.058088522 -0.043849356 -0.03354417 0.06917975
0.092984 -0.02052319 0.057181902 0.08832326 0.2536562 0.09245111 0.022647126 0.12674327
-0.023016024 0.27849966 0.05112101 0.080942094 -0.1632463 0.060887236 0.0990677 0.119115
0.003581405 -0.21199109 0.056270763 -0.043417178 0.10174921 -0.045447845 0.041363 -0.097295396
-0.1340073 -0.02006503 -0.06542959 0.047930334 0.031023644 -0.097200654 0.02427288 -0.076589204
0.0648693 -0.07516689 0.07495052 -0.04880455 -0.05387278 0.16791238 -0.06205129 -0.07612252
0.15494865 0.014926698 0.10668064 -0.06381719 -0.07574074 0.08590152 -0.122957945 -0.021806283
-0.08993743 -0.031802244 0.035779014 -0.09136864 -0.17082003 -0.027744442 0.112601414 -0.028854886
0.106341615 -0.065933794 -0.056198914 0.07363212 0.17047529 0.033892598 -0.12765947 0.008632308
-0.11794687 0.034984194 0.10177791 -0.0053329794 0.07778717 0.13714823 0.13341337 -0.041367244
0.045569163 0.003857251 0.022138169 0.0061170952 0.11570217 0.030949889 -0.03998248 0.06637231
0.04547378 -0.073154524 -0.006022858 0.043468863 0.02664511 0.051647622 -0.18053785 0.0038350446
-0.15330237 -0.12206302 -0.0699715 0.10212393 -0.23424318 -0.11408724 0.039723884 0.040235896
0.060544383 -0.065997146 0.034982704 0.14613366 -0.036434323 0.0079064425 -0.1094724 -0.047137108
0.13967627 0.11036942 -0.051817574 0.04704707 -0.033510283 -0.051866222 -0.09973804 0.12227774
0.0505261 0.22675857 -0.059866957 0.08465624 -0.056639627 0.120607235 0.1522628 0.19113605
-0.12162849 0.0065070307 -0.010841295 -0.018075928 0.08522127 0.03459833 0.019164376 -0.122331984
0.13988997 0.0444135 0.056111947 0.016026357 0.012952004 0.11696801 -0.16797462 -0.11254279
-0.021210155 0.01009444 0.19643562 0.0045448067 0.016310401 -0.08397851 -0.016141383 0.097765215
0.053458653 0.044825632 0.14280608 -0.11306831 0.24448176 0.00021799192 -0.17343637 -0.087865725
0.06962615 -0.12920906 0.0879719 0.07321789 -0.023406304 0.13488245 -0.015608002 -0.028290588
0.045586195 0.18501113 -0.06668305 0.20397514 -0.0528732 -0.0029016896 0.12300214 -0.0023578757
-0.16039738 -0.006079004 0.047776487 0.09128575 0.14649983 -0.17789738 0.09267836 -0.072620064
0.0730652 0.030812401 0.1749834 0.13715689 0.011733492 0.15910524 0.18387036 0.059938934
-0.025136463 0.09708128 0.13742578 0.07541619 -0.27703634 -0.19747184 0.019876324 -0.06750031
-0.026917484 -0.01992678 -0.1290158 -0.08782681 -0.01645404 -0.04710798 0.010004196 0.15720335
0.04329161 0.28213006 0.04829319 0.013941515 -0.050795835 0.083869144 -0.17919812 0.05932657
-0.019081647 0.009623059 0.29517698 -0.045644835 -0.007949882 -0.11521416 0.22444642 0.22845832
0.16105884 -0.009080333 -0.07917701 0.054833286 0.21440776 0.043746993 0.27454123 -0.088543646
-0.21217668 0.0138199115 0.104116626 -0.15634504 0.06905485 -0.19509806 0.060742777 0.022772195

network_body._body_endoder.seq_layers.4.bias f4 [128]
00000000: a218 633a 6a07 e73c b55b 3c3d 06f6 0a3d
00000010: 81fe 0a3c 4803 ee3c a25f d33c 67ef a2bc
00000020: 8d01 fd3b eb4d a73c be3d 1c3d 530c 193d
00000030: 4796 d23c da1b ce3c 06b2 c8bc 777d ea3c
00000040: c0e7 67bb 7ac5 803c 7c56 dd3c 0175 133d
00000050: da83 3f3d 0c5e 003d 426a c63c 5db5 b5bc
00000060: e86b 0a3d 8308 123d 072d c93c 2d99 033d
00000070: 5fb7 793c d918 0e3d b0e2 253d d889 8b3c
00000080: d86b 003d ec6d 203c 4c08 82bc 6c83 0eba
00000090: ee10 f13c fa4e 143d 4742 013c 0681 e73c
000000a0: 50d6 98bc 2a3d 8bbc 7df4 da3c 6fac b8bc
000000b0: e531 f73c 8a29 673c 07db 023d 1794 a5bc
000000c0: f608 f13c 1031 d33c dd11 233d c512 cd3c
000000d0: 513f c63c d092 bebc cc30 ee3c 9871 91bc
000000e0: 1e20 103d 9f9e d23c 00dd 153d ad88 cebb
000000f0: 35fb 3f3d b842 5b3c 68bc f53c a841 163d
00000100: 3ad4 32bc 9dc3 45bc 0aa1 263d 366d 59bc
00000110: 768e 3d3c bf1e f43c 2a49 eb3c 7b65 ea3c
00000120: 1c06 2c3d 3973 a83c 2071 0f3d c9d4 083d
00000130: 71a7 a73b 72db dcbc a562 063d e3ac 333d
00000140: ce10 173c 2f6c 2d3d fd37 0a3d c5e4 093d
00000150: 0cc7 e0bc 0a95 003d 0935 173d bbd4 213d
00000160: e954 b53c b099 f43c a6d2 4b3c ed80 f13c
00000170: a4a5 a43c dfe8 163d 0675 203d b8f6 54bc
00000180: bc9a a93c 985c 20ba c0c3 a8bc 4d08 cd3c
00000190: 6194 a73c c1bf b2bc 11f9 f23c 4f0e 213d
000001a0: 745a 84bb 8573 08bc 3672 f63c 8bb8 ff3b
000001b0: c311 fd3c fb39 21bc e790 fd3c 5db5 0e3d
000001c0: d36f b93c 8a61 3b3d 1b7f f03c 23b7 143d
000001d0: c2b5 633c 3136 123d 64fd 77bc 118b 173c
000001e0: 04eb c13c a040 c63b 72ec 033d 5b1c 1a3d
000001f0: 0d88 f23c 3a18 173d 6688 983c ef56 0c3d
0.00086630334 0.028201777 0.045985896 0.033926032 0.00848353 0.029054299 0.025802437 -0.019889547
0.007721132 0.020422896 0.03814482 0.03736527 0.025706423 0.025159765 -0.02449895 0.02862428
-0.0035385936 0.015719164 0.027018778 0.036000255 0.046756603 0.03133969 0.02422059 -0.022181207
0.033794314 0.03565265 0.024557604 0.0321285 0.015241473 0.034691665 0.04049939 0.017033502
0.031352848 0.009791832 -0.015873097 -0.00054364535 0.029427018 0.03620813 0.007889337 0.028259765
-0.01865688 -0.016996939 0.02672791 -0.02254316 0.030175159 0.014109025 0.031947162 -0.020212216
0.029423218 0.02578023 0.039811958 0.025033364 0.024200113 -0.023263365 0.029076003 -0.017754361
0.03518688 0.025710402 0.036587715 -0.006302914 0.04687043 0.013382606 0.029997066 0.03668371
-0.010914857 -0.012070564 0.040680923 -0.013270667 0.01156961 0.029799817 0.02872141 0.028612843
0.041998014 0.020562755 0.035019994 0.033406053 0.005116396 -0.026960108 0.03280892 0.04386605
0.009220315 0.0423395 0.0337448 0.033665437 -0.027438663 0.031392135 0.036915813 0.039509516
0.022135215 0.02985844 0.012440359 0.029480422 0.020098515 0.036843177 0.039174102 -0.012998275
0.020703666 -0.0006117313 -0.020601153 0.025028372 0.020456495 -0.021819951 0.02965978 0.039320286
-0.004039103 -0.008328323 0.030083757 0.0078039817 0.030892259 -0.009840484 0.030952884 0.03484093
0.02263633 0.045747317 0.029357484 0.036307465 0.013898315 0.035696212 -0.015136097 0.009249465
0.023671634 0.0060501844 0.032207914 0.037624698 0.02960589 0.03688834 0.018619727 0.034262594

action_model._discrete_distribution.branches.0.weight f4 [25, 128]
00000000: 4f14 df3c 3476 f13c 225c 273c 4b27 b9bc
00000010: 105d b3bc 3f9e 1bba 310c 7f3c 4766 c13c
00000020: 9943 78bb 6ecc 91bc 2d73 5e3c 22fe 463b
00000030: 58ca 173d e959 bfbb b47a ab3c 1afa f0bc
00000040: bef6 e83b 6ff6 93bb e9d1 ca3c 5593 07bd
00000050: d7d1 d6bb f5d3 8d3c 4802 c33a 3d91 cf3b
00000060: dd9b 01bd eff9 28bd c4b7 6bbc 3acf 8cbc
00000070: b418 f3bc ce1c 4dbd b264 83bd f966 28bd
00000080: 62d1 9c3c fdfe c5bb 0e79 073d 02c1 043c
00000090: 0413 253c 4856 b3bc 8500 0a3b ebb6 983c
000000a0: 8cba f83c 6f3b 753c b266 69bd 3b21 1d3d
000000b0: 06a2 51bd 3e83 62bd a204 55bd ed33 be3c
000000c0: 8694 48bc d786 f13c 3c90 23bd 4d1e 84bc
000000d0: 86c6 d7bc 6943 eb3b 0e96 c1bc 10e9 f83c
000000e0: fbcb b8bd f0d8 4ebd 7155 31bd 3218 bc3c
000000f0: 1ee5 f7bc 4bf8 0c3b 79a2 b8bc 6eb9 e3bc
00000100: ac1c 143d 80f3 f43c fb98 133c 1e99 d6ba
00000110: fc5d 433c 1196 9cbc ce28 1e3d 7d79 0cbd
00000120: fedd c2bc 0b37 813a 9be7 26bd 20b6 91bc
00000130: 5694 aa3c 4ef8 923c c816 62bd 108e 1e3d
00000140: a0d5 873a 7090 0fbd ddc0 66bd 8750 e9b9
00000150: ea65 053b 038e 0bbd 18da 9bbd be4a 67bc
00000160: 2084 81bc 7953 52bd a2f2 8abc bca6 afbc
00000170: 9151 3a3d ac3f 4dbd b100 743c 87d4 973c
00000180: 97be 74bc d867 3d3c d15d f53c cc8a 133d
00000190: 3020 71bc ac26 f83c b29f 85bd 267e 4e3d
000001a0: 9390 eb3c f84b 173d a9f1 e1bc d14b 053d
000001b0: b7c3 f7bc 05c0 8c3c 4028 45ba fa00 febc
000001c0: 01c4 2bbd 10e1 b0bc 27e8 f6bc f21b 80bc
000001d0: c9d4 4cbd 7da5 d13c 370c a63c d1c4 18bd
000001e0: 523b 3bbd 0f17 dd3c 345f 0cbd 7f22 30bd
000001f0: 2968 fe3c 8dfd ddbc 946a d4bc 1bef 5dbc
00000200: af68 8fbc cbec 923d 88b3 213d 3c90 d63c
00000210: a321 1ebd f4ab 243d b758 17bd 686f d5bb
00000220: 4ecd 35bd 9298 9fbc a8ab 583d e8af 033d
00000230: 68dc b23d 8dad 563c 1d1b 693b 05a1 c4bc
00000240: 9877 fbbb 02ef 72bd 646c 663d 4dc7 31bd
00000250: f3a8 613d 02cc 893d 0d13 3f3c 68da 82bc
00000260: e47a 44bd f9f5 34bd bcd6 1c3c d1a9 29bc
00000270: 1c49 87bd 44ac efbc bd6f a9bd c49f 4dbd
00000280: 3952 553d 8971 bdbb a578 87ba 245f acbc
00000290: 08a2 503d 79a8 433c 4819 67bd fae9 953d
000002a0: e0a3 56bc 09b4 c5bb 3e4f a5bd 7192 03bc
000002b0: 8088 45bd bcb0 89bd f9a2 71bd e4a6 f03a
000002c0: 8fc3 873c 9943 9b3d 97a5 6dbd 51b4 d73c
000002d0: 55c9 1abd 4151 0abc df6b bc3c c0c6 66bc
000002e0: b088 dabd 7a1f 16bd 2c71 afbc 15b9 51bb
000002f0: 18d0 2bbc b1d4 5b3d 6a80 06bc ccdf 79ba
00000300: 5abf 1a3c 60d1 52bb a8a3 823d fefa 96bb
00000310: b44f c23c 3ff1 9a3b a4a5 a63d 86b8 23bd
00000320: 2084 2bba 74f2 433d e1e5 cbbc 212f 38bc
00000330: 78a4 dcbb 5eaf 0dbc f9f2 8cbd c397 953d
00000340: 3bba be3c fa4a 0cbd 1ccd 1bbc 2ce0 193d
00000350: 2b1d 16bc 1654 78bc a065 bdbd a87c 6f3c
00000360: c34d 98bb 697c 34bd d9c8 1e3d 206e 14bc
00000370: b85d b33d a98b 90bd de84 7c3d 9a74 7dbc
00000380: 3546 73ba d18c 703c 582e 6bbb 29e4 913d
00000390: 8bdf 623c d24d 903c 6861 b2bd add6 593d
000003a0: d75e 973c 445f 41bc e7a4 71bc a4f4 b8bc
000003b0: 58df f5bb 64cd 953b 43d7 0c3d 35cb 78bc
000003c0: 3f58 2dbd dded 103b 0036 f1bc dcd4 4f3b
000003d0: 98b8 0ebd 1956 453d 40c6 0b3c 6182 c9bc
000003e0: 7ef0 52bd 49b8 4c3d 9b23 82bd 2034 34bd
000003f0: 0b96 823d 77f4 8fbc 6e3c 22bc c140 ee3b
0.027231364 0.029475309 0.010214837 -0.022601744 -0.021894962 -0.0005936361 0.0155668715 0.02360834
-0.0037882088 -0.017797675 0.013577265 0.0030363877 0.037058204 -0.0058395755 0.020932533 -0.029416133
0.007109492 -0.004515461 0.024758296 -0.03309949 -0.0065557766 0.017312983 0.0014877999 0.0063344524
-0.031642783 -0.04125398 -0.014387075 -0.017188657 -0.029674865 -0.0500763 -0.064156905 -0.041113827
0.01914281 -0.00604236 0.03307443 0.008102657 0.010075334 -0.021891728 0.0021057439 0.01864191
0.03036239 0.014967783 -0.056982704 0.03836177 -0.05117991 -0.055300944 -0.05200637 0.02321812
-0.012242442 0.029483242 -0.039932474 -0.01612773 -0.02633978 0.007179667 -0.023631122 0.03038457
-0.09023281 -0.050499856 -0.043294374 0.022960756 -0.030260619 0.0021510299 -0.02253841 -0.02779838
0.036160156 0.029901266 0.009008641 -0.0016372537 0.011924263 -0.019114526 0.038613133 -0.034295548
-0.023787495 0.0009858323 -0.04074822 -0.01778704 0.020822685 0.017940667 -0.055197507 0.0387097
0.0010363348 -0.035049856 -0.056336273 -0.0004450122 0.0020354935 -0.03407098 -0.076099575 -0.014116941
-0.015810072 -0.051349137 -0.0169614 -0.02144181 0.045487944 -0.05010955 0.014892743 0.018533958
-0.014938018 0.011560403 0.029951962 0.03602104 -0.014717147 0.030291878 -0.065246 0.050413273
0.028755462 0.036937684 -0.027581053 0.032543007 -0.030244691 0.017181406 -0.00075209513 -0.031006325
-0.04193497 -0.021591693 -0.030139996 -0.015638325 -0.050007615 0.025591606 0.020269496 -0.037297074
-0.04571087 0.026988534 -0.03427048 -0.043001648 0.031055527 -0.027098441 -0.025929727 -0.013545777
-0.017505972 0.07174071 0.039477855 0.026191823 -0.038606297 0.04020305 -0.03694984 -0.006513525
-0.044385247 -0.01948193 0.05289808 0.03215018 0.087334454 0.013102901 0.003556914 -0.024002561
-0.007674169 -0.059309967 0.056255713 -0.04340296 0.055092763 0.067283645 0.011662257 -0.015973285
-0.04796876 -0.04417989 0.009572681 -0.010355429 -0.066057414 -0.029256947 -0.082732655 -0.050201192
0.052080367 -0.0057813567 -0.0010335637 -0.02104146 0.050935775 0.0119420225 -0.056420594 0.07320018
-0.013100594 -0.0060334248 -0.08071755 -0.00803052 -0.04822588 -0.067231625 -0.058993313 0.0018360284
0.016572742 0.075812526 -0.058019247 0.026331099 -0.03778966 -0.008442224 0.023000656 -0.014085472
-0.10670602 -0.036651112 -0.02141627 -0.0032001187 -0.010486625 0.053669635 -0.008209327 -0.00095319445
0.009445036 -0.0032168254 0.06378871 -0.0046075573 0.023719646 0.004728466 0.08137062 -0.039970897
-0.00065428205 0.047838643 -0.024889888 -0.011241705 -0.0067334734 -0.008647768 -0.06882281 0.07304337
0.023282161 -0.03425119 -0.009509351 0.037567303 -0.009162228 -0.015156766 -0.09247899 0.014617123
-0.004647942 -0.04406396 0.038765762 -0.009059459 0.0875811 -0.07057888 0.06165015 -0.0154696945
-0.0009280176 0.014682011 -0.0035885777 0.07123596 0.013847242 0.017615233 -0.08709985 0.053183246
0.01847784 -0.011802498 -0.014748788 -0.022577591 -0.0075034313 0.0045716036 0.034384977 -0.015185167
-0.042320486 0.0022114434 -0.029444695 0.0031712567 -0.03484401 0.048177812 0.008531153 -0.024598302
-0.051498882 0.049980436 -0.063544475 -0.043995023 0.06376275 -0.017572625 -0.009902103 0.007270903

action_model._discrete_distribution.branches.0.bias f4 [25]
00000000: 1172 9ebc 8c6e df3a 0203 a039 8b2e de3c
00000010: b7a8 363c c4e4 20bc 2b37 60bc 651f 17bc
00000020: 9368 573b 8471 d73c 49a6 3cbc 2524 6bbc
00000030: ff23 82bc fcb4 c33b 11ae 843c 339e 3bbc
00000040: ec25 c0bc 4e57 73bc dd72 b63a 8e9c 333c
00000050: f0f5 a0bc b670 80bb 81df b73b f528 513c
00000060: e990 b53c
-0.0193415 0.0017046495 0.0003051982 0.027121803 0.011148623 -0.009820167 -0.013685028 -0.009223794
0.0032868728 0.026299246 -0.011514255 -0.014351879 -0.015886305 0.0059725028 0.016196283 -0.011451292
-0.023455583 -0.014852358 0.001391973 0.0109626185 -0.019648522 -0.003919686 0.0056113605 0.012766113
0.022163825
