Assets/Env5/Brains/MoveToTrigger2.onnx (onnx, 156502 bytes, 8 tensors)

network_body._body_endoder.seq_layers.0.weight f4 [128, 15]
0	0x3edec676	0.4351079
1	0x3e32e5cc	0.17470473
2	0x3c11e858	0.008905493
3	0x3ecd0e1e	0.40049833
4	0xbde56e16	-0.11202638
5	0x3d02576f	0.031821664
6	0xbf178184	-0.59182
7	0x3f28890c	0.65834117
8	0x3e150409	0.1455232
9	0xbcb6ecbf	-0.022329686
10	0x3e331f2f	0.17492364
11	0x3eb5ab7a	0.3548239
12	0xbd71ab17	-0.059001055
13	0xbebb2d33	-0.36557922
14	0x3cee2762	0.029071514
15	0x3e97bf3d	0.2963809
16	0xbf1dab1b	-0.6158921
17	0xbdc09371	-0.09403122
18	0xbe377818	-0.17916906
19	0xbe3c8e39	-0.18413629
20	0xbe0380fb	-0.12842171
21	0x3e811f16	0.2521903
22	0x3dba2aa2	0.09090163
23	0xbf18a578	-0.59627485
24	0x3eb16421	0.34646705
25	0x3e0e2cd5	0.1388429
26	0x3dfa239e	0.12213825
27	0x3e1fab7c	0.1559276
28	0x3e7785a6	0.24172077
29	0x3ed03132	0.40662533
30	0xbe804b27	-0.25057337
31	0xbe86ca84	-0.26326382
32	0x3df7ddf5	0.12102882
33	0x3e24b172	0.16083315
34	0x3c9031e3	0.017601913
35	0xbe3d8e2c	-0.18511266
36	0x3f1d2dd6	0.61398065
37	0xbd964c10	-0.073387265
38	0xbf07fff6	-0.5312494
39	0xbd536e82	-0.05161906
40	0x3e52a3b1	0.20570256
41	0xbe03fa1f	-0.12888382
42	0x3dc1c608	0.094615996
43	0x3e6d39be	0.23166558
44	0xbcab1b73	-0.020887112
45	0xbc436b7e	-0.011927484
46	0x3d6e4399	0.058169935
47	0x3dc0386b	0.09385761
48	0xbe9dc0ae	-0.30811065
49	0x3e210f7a	0.1572856
50	0xbe452eac	-0.19256085
51	0xbf31120c	-0.6916816
52	0x3dfab1de	0.12240957
53	0xbc387f10	-0.011260763
54	0xbe965213	-0.29359493
55	0x3d91136a	0.07083781
56	0xbe7f8777	-0.2495402
57	0xbe674772	-0.22585848
58	0x3d6abbcf	0.057308014
59	0xbd78ee56	-0.06077417
60	0xbe845a65	-0.25850216
61	0xbe13a527	-0.1441847
62	0xbebd818c	-0.370129
63	0xbde46983	-0.11152937
64	0x3b516e74	0.0031956704
65	0xbcc8acdd	-0.02449649
66	0xbe1688e5	-0.14700659
67	0xbded8d8f	-0.11599266
68	0x3e33e04f	0.17566036
69	0x3d02c4ee	0.031926088
70	0xbe83ac56	-0.2571742
71	0x3e9b60ac	0.30347192
72	0xbe8b4761	-0.27202895
73	0xbef4311d	-0.4769372
74	0xbc20b32f	-0.009808346
75	0x3d135ce3	0.035977256
76	0x3e830c3c	0.25595272
77	0x3e98680a	0.29766876
78	0xbe6b597f	-0.22983359
79	0x3ea3464f	0.3188958
80	0xbdbee6b4	-0.09321347
81	0xbea4f48a	-0.32217818
82	0x3e49fda6	0.19725665
83	0xbe585f58	-0.21130121
84	0x3990db3a	0.00027629157
85	0x3d2fb71e	0.042899244
86	0xbe4450a3	-0.19171385
87	0x3ed70180	0.41993332
88	0xbe73eaa5	-0.23819979
89	0x3d0d3487	0.034473922
90	0xbf0ce609	-0.55038506
91	0x3e4b8a80	0.19877052
92	0x3c1fbcca	0.009749601
93	0x3f7a286a	0.97717917
94	0xbdd69883	-0.10478308
95	0xbed97cb4	-0.42477953
96	0x3f22417b	0.63381165
97	0xbe27e3ff	-0.16395567
98	0x3e242d8f	0.16033004
99	0x3e415ef0	0.18883872
100	0xbd40fff1	-0.047119085
101	0x3db3acd6	0.087732
102	0x3e90a612	0.28251702
103	0x3e2b46c7	0.16726218
104	0xbcbb0ad2	-0.022832308
105	0x3db6e398	0.08930129
106	0x3e864fe4	0.26232827
107	0xbf086914	-0.53285336
108	0xbd520a59	-0.0512794
109	0x3e989d94	0.29807723
110	0x3ec521b9	0.3850229
111	0xbf3bcbae	-0.73357666
112	0x3dc104cf	0.09424745
113	0x3df6031f	0.12012314
114	0x3eac9e3b	0.3371447
115	0xbdf29584	-0.11844924
116	0xbec6e1e7	-0.38844225
117	0x3d4c9ac1	0.049952272
118	0x3e81b97a	0.2533682
119	0xbe28bd94	-0.16478568
120	0x3d8bf479	0.06833739
121	0x3e6a5fc0	0.22888088
122	0xbe989aca	-0.29805595
123	0x3e0f7813	0.14010648
124	0xbedc5db8	-0.43040252
125	0xbe9bbab2	-0.30415875
126	0xbee706a3	-0.4512225
127	0xbd514cb1	-0.05109853
128	0xbedbd5c7	-0.42936537
129	0x3e3672d1	0.17817236
130	0x3e30ab5f	0.17252873
131	0x3e41f5e7	0.1894146
132	0x3be66e1c	0.007032169
133	0x3d06c353	0.03290112
134	0xbf075610	-0.52865696
135	0xbda1449c	-0.07874414
136	0x3d992976	0.07478611
137	0x3e3c8327	0.18409406
138	0x3c09893f	0.008394538
139	0xbe76aa6b	-0.24088447
140	0x3ceebbce	0.029142287
141	0x3f5f1e0e	0.87155235
142	0x3e217d26	0.15770397
143	0xbec50f9c	-0.38488472
144	0xbd77d166	-0.060502432
145	0x3d94b2ed	0.0726069
146	0xbeaf2d00	-0.3421402
147	0xbe3ce5ab	-0.18446986
148	0xbe9e04d6	-0.30863065
149	0xbdda8bbf	-0.10671186
150	0xbeb8fe4b	-0.3613151
151	0xbe880f70	-0.26574278
152	0xbe3a9ec5	-0.18224628
153	0xbe25c04f	-0.16186641
154	0x3ca77106	0.020439636
155	0xbd83b564	-0.06431082
156	0xbf3095b3	-0.6897842
157	0xbcc130a8	-0.023582771
158	0x3ca172d1	0.019708069
159	0x3e4bb6f1	0.19894005
160	0x3e05f181	0.13080408
161	0x3dbbe47e	0.09174441
162	0x3edbb1e1	0.42909148
163	0x3e82e655	0.25566354
164	0xbd6de385	-0.058078308
165	0xbe979d69	-0.29612282
166	0x3e84e1a1	0.2595339
167	0x3e3fc1c6	0.18726262
168	0x3e8f2653	0.27958927
169	0xbea9de81	-0.3317757
170	0xbe247f82	-0.16064265
171	0xbed76928	-0.42072415
172	0x3e8b077a	0.27154142
173	0xbead4147	-0.33838865
174	0x3daa50ed	0.083162166
175	0x3d2000e5	0.039063353
176	0x3d0f6039	0.035003874
177	0xbe61c841	-0.22049047
178	0x3f216eb2	0.6305953
179	0xbd115c17	-0.035488214
180	0xbeaeb436	-0.34121865
181	0x3e12799d	0.14304204
182	0x3e2328d4	0.15933543
183	0x3edaeeb1	0.42760232
184	0x3e471d03	0.19444661
185	0x3eb0a200	0.34498596
186	0x3e711fc1	0.2354727
187	0xbe1c50b2	-0.15265158
188	0xbf091a7c	-0.53556037
189	0xbe048ebf	-0.12945078
190	0xbe9677c9	-0.29388264
191	0x3e0db03e	0.13836762
192	0xbdfba116	-0.12286584
193	0x3e8f0ea8	0.2794087
194	0x3e18cf9f	0.14922951
195	0x3f1f99ab	0.62343854
196	0xbedacda3	-0.42735013
197	0xbeff093d	-0.49811736
198	0xbda82755	-0.08210627
199	0xbec33626	-0.3812725
200	0xbdc64811	-0.09681714
201	0x3e985324	0.2975093
202	0x3d5af52d	0.053456474
203	0xbdff4582	-0.124644294
204	0x3e263445	0.16230877
205	0xbf3b9e6c	-0.7328861
206	0xbc8a13e3	-0.016855186
207	0x3d4fe33f	0.05075383
208	0xbcec0978	-0.028813109
209	0xbe26cf6e	-0.16290066
210	0xbe81cee8	-0.2535317
211	0xbdc4ce11	-0.096096165
212	0xbf12c959	-0.5733848
213	0x3e54b934	0.20773774
214	0x3dec514f	0.11538946
215	0xbe90b2bd	-0.28261366
216	0xbe4168b7	-0.18887602
217	0x3e76518c	0.24054545
218	0x3f25a0ea	0.6469866
219	0xbe2aaae0	-0.16666746
220	0x3eb0b5af	0.34513614
221	0xbcc88604	-0.024477966
222	0x3e0c3f71	0.13696076
223	0x3efe64f2	0.4968639
224	0x3f0338ce	0.5125855
225	0x3d861dff	0.0654869
226	0x3ecbf982	0.39838797
227	0xbe164e58	-0.14678323
228	0x3d83ae18	0.0642969
229	0x3db66749	0.08906419
230	0xbec357eb	-0.38153014
231	0x3f1f18e7	0.6214737
232	0xbe53037b	-0.20606796
233	0x3e3366e7	0.17519723
234	0x3e3a23a8	0.18177664
235	0x3e6a8b88	0.2290479
236	0xbcdd9ee7	-0.02705331
237	0xbdc167e6	-0.09443645
238	0xbebcd927	-0.36884424
239	0x3e693d12	0.22777203
240	0x3e95f913	0.2929159
241	0x3ec62714	0.3870169
242	0xbe700c5c	-0.23442215
243	0xbea7fb4c	-0.32808912
244	0x3e9c53fd	0.30532828
245	0x3ee80da1	0.45322898
246	0xbee16ca3	-0.44028196
247	0x3dfdebd4	0.12398496
248	0x3f05bc1c	0.5224016
249	0xbf0810fa	-0.53150904
250	0xbf2166bd	-0.6304739
251	0x3e8c56ce	0.27409977
252	0xbec5765c	-0.38566864
253	0x3e63fa5f	0.22263478
254	0xbea2458c	-0.31693685
255	0xbe8e4d56	-0.27793378

network_body._body_endoder.seq_layers.0.bias f4 [128]
0	0x3d38d825	0.045128006
1	0xbd3c1162	-0.045915015
2	0x3c90e403	0.01768685
3	0x3d20d5fc	0.03926657
4	0x3cf5b609	0.029994028
5	0x3afa629b	0.0019102873
6	0x3d7030f2	0.058640428
7	0x3cca9671	0.02472994
8	0x3d762b8a	0.060100116
9	0x3c9f6561	0.01945752
10	0xb9aac8e2	-0.00032574596
11	0x3d1464fb	0.036229115
12	0x3cba2554	0.022722878
13	0xbd782805	-0.06058504
14	0x3d5cd99a	0.05391846
15	0xbbcbf19c	-0.0062238704
16	0x3d1021ce	0.03518849
17	0x3d7fffd1	0.062499825
18	0x3cc644bf	0.024202703
19	0x3cdd1154	0.026985802
20	0x3cc40925	0.023930142
21	0xbb3e2637	-0.0029014477
22	0x3cbdd4f1	0.023172827
23	0x3d0b79c7	0.034051683
24	0x3d0f1734	0.034934238
25	0x3c54e0dd	0.012993065
26	0x3d13760a	0.036001243
27	0xbe178e99	-0.1480049
28	0x3db28033	0.08715858
29	0x3d706d00	0.0586977
30	0x3c8d621c	0.017258696
31	0x3cef9bf0	0.029249161
32	0xbd0730ee	-0.033005647
33	0x3d193115	0.037400324
34	0x3d5589c3	0.052133333
35	0x3d0af85c	0.03392826
36	0x3d1730f2	0.036911912
37	0x3d63a942	0.05558134
38	0xbc8bf70d	-0.017085576
39	0x3d08edf3	0.03343005
40	0x3dd15508	0.102212965
41	0x3d837ae1	0.06419922
42	0x3d3f1255	0.046648342
43	0x3cac4cda	0.02103274
44	0x3c21c882	0.009874465
45	0x3c3140a0	0.01081863
46	0x3d68b9f8	0.05681798
47	0x3ce1979f	0.027538119
48	0x3da56d9e	0.080775484
49	0x3ca876cd	0.020564461
50	0xbd5d05c8	-0.05396059
51	0xbd2eb627	-0.042654183
52	0x3d8909bb	0.06691309
53	0xbc08a3e2	-0.008339854
54	0xbd1ad3bf	-0.037799593
55	0x3ca949d7	0.020665092
56	0x3ce0598b	0.027386447
57	0x3d6a1c50	0.057155907
58	0x3cfd0b55	0.030889193
59	0x3cc6523d	0.024209136
60	0xbcc34ad2	-0.023839388
61	0x3d466627	0.048437264
62	0x3d58a099	0.052887533
63	0xbc7c5a7e	-0.015402434
64	0x3d13b2bd	0.03605913
65	0x3e5cb690	0.21554017
66	0x3da44ad8	0.08022088
67	0x3d02e324	0.0319549
68	0x3ca62e79	0.020285832
69	0x3d678311	0.05652148
70	0x3cda5aa8	0.026654556
71	0x3c0c83ef	0.008576377
72	0x3d0533ad	0.032519985
73	0x3d2ee2ef	0.04269689
74	0x3df95d43	0.121759914
75	0x3d892f57	0.066984825
76	0x3d269f0f	0.040679034
77	0x3cd1a676	0.02559207
78	0x3d39fbdf	0.04540622
79	0xbe005c62	-0.12535241
80	0x3ca911e9	0.020638423
81	0x3d88b4da	0.0667512
82	0x3bc1c37b	0.0059131957
83	0x3d3d26f4	0.046179727
84	0x3d7feb2c	0.062480137
85	0x3cc30afc	0.023808949
86	0xbcdb1430	-0.026743025
87	0x3d3cbb56	0.046077095
88	0xbae64958	-0.0017569466
89	0x3d3d8d97	0.04627761
90	0x3ca73ae3	0.020413822
91	0xbc950734	-0.018191911
92	0x3d2d1bcc	0.042262837
93	0x3d96f517	0.07370966
94	0x3cf127cc	0.029437922
95	0xbcf3f63d	-0.029780501
96	0x3dd08bcc	0.10182914
97	0x3a9d96ca	0.0012023088
98	0x3c36d678	0.011159532
99	0x3d2fa62a	0.042883076
100	0x3d9089c4	0.07057527
101	0x3d7296dd	0.059225906
102	0xb9f36007	-0.00046420118
103	0xbc92e15e	-0.01792973
104	0x3d33a8e8	0.043862253
105	0x3ddb260f	0.107006185
106	0xbcc1a712	-0.023639236
107	0x3d1891e0	0.037248492
108	0x3cad7856	0.021175545
109	0x3d7acd5b	0.061231
110	0x3c8be767	0.017078115
111	0x3d4f1e5a	0.050566055
112	0xbc17b83d	-0.009260234
113	0x3be62631	0.0070235957
114	0x3c8715a1	0.016489806
115	0xbd0d037a	-0.034427144
116	0xbccf1ece	-0.025283244
117	0x3d8a7208	0.06760031
118	0x3c844289	0.016145008
119	0x3c1a1d2f	0.009406372
120	0x3d5de727	0.054175522
121	0x3cf62027	0.030044628
122	0x3c2a85a9	0.010407844
123	0x3bc332e4	0.0059569944
124	0x3d40d491	0.04707772
125	0x3c3c1ae3	0.01148102
126	0x3d56c9a5	0.052438397
127	0x3c55397d	0.013014195

network_body._body_endoder.seq_layers.2.weight f4 [128, 128]
0	0x3d944fb8	0.07241768
1	0xbe621fdb	-0.22082464
2	0xbc261ca5	-0.010138665
3	0x3e3d4bea	0.1848599
4	0xbd13d9e9	-0.036096487
5	0x3dd61aab	0.10454305
6	0xbd92572d	-0.07145534
7	0x3d3005a6	0.042974137
8	0x3e356cfc	0.17717355
9	0xbd68b4e2	-0.05681313
10	0x3d890d86	0.066920325
11	0x3e733fc3	0.23754792
12	0x3e318b0e	0.17338201
13	0xbdee8e90	-0.116482854
14	0xbd404bd7	-0.046947327
15	0xbb8cccd4	-0.0042968784
16	0x3e64819a	0.22315064
17	0x3caec3aa	0.021333534
18	0x3d95e58c	0.07319173
19	0xbdcfcd98	-0.10146636
20	0xbb779501	-0.0037778022
21	0xbd308281	-0.04309321
22	0xbe9f1503	-0.31070718
23	0xbdd304fb	-0.10303684
24	0xbd262517	-0.040562715
25	0xbc2d909d	-0.0105935605
26	0x3c66b68d	0.014081609
27	0x3d262688	0.04056409
28	0x3e1217c8	0.14266884
29	0xbe3c93a1	-0.18415691
30	0x3e0f4fcf	0.13995288
31	0x3db32ad2	0.08748402
32	0xbd70bf4a	-0.058776177
33	0xbe68ef88	-0.22747624
34	0x3e44eeff	0.19231795
35	0xbc37dee1	-0.011222572
36	0x3c97a94f	0.01851335
37	0x3de9b6b1	0.11411799
38	0x3c359425	0.011082684
39	0xbcf55af4	-0.029950596
40	0x3d3c4dad	0.045972515
41	0x3dd3924b	0.103306375
42	0xbc358349	-0.011078664
43	0xbd9cabd5	-0.07649962
44	0x3c9fefbd	0.019523496
45	0xbd8be948	-0.06831604
46	0x3bcd0ab7	0.006257381
47	0xbda652b6	-0.081212446
48	0x3dba7abb	0.0910544
49	0xbdcabb9a	-0.098990634
50	0xbe7d229d	-0.24720235
51	0x3e375736	0.17904362
52	0xbbad41f9	-0.0052874056
53	0xbc85f20e	-0.016350772
54	0xbdbd39ed	-0.09239564
55	0x3de03b3a	0.109487966
56	0x3db87808	0.09007269
57	0x3e220f9a	0.15826264
58	0xbe0048b4	-0.12527734
59	0x3d3eacaf	0.046551403
60	0xbda4305c	-0.08017036
61	0x3d2fd246	0.04292514
62	0x3e24c486	0.16090593
63	0xbe2ae634	-0.16689378
64	0xbd56ba13	-0.052423548
65	0xbd1b5903	-0.037926685
66	0x3dda12ad	0.106480934
67	0x3e32b66d	0.17452402
68	0xbdf0cb2f	-0.11757504
69	0x3e3e3327	0.185742
70	0x3c94e715	0.018176595
71	0xbd33ae32	-0.043867297
72	0xbc985296	-0.018594068
73	0x3cf90662	0.030398551
74	0xbd98c81e	-0.07460044
75	0xbd4eb387	-0.05046418
76	0xbd71f26c	-0.059069082
77	0xbe57ba99	-0.21067275
78	0x3d890bd1	0.06691707
79	0x3dc9b8e8	0.09849721
80	0xbdaf7798	-0.085677326
81	0x3e8f845b	0.28030667
82	0x3e0f69b4	0.14005166
83	0x3e206408	0.15663159
84	0x3db484e3	0.08814409
85	0xbe4794df	-0.19490384
86	0x3be19201	0.00688386
87	0xbe2caef8	-0.1686362
88	0xbe038f6b	-0.12847678
89	0x3e630608	0.2217027
90	0x3e051288	0.1299535
91	0x3ca66cf3	0.020315623
92	0xbdd180d5	-0.10229651
93	0x3e6c16aa	0.2305552
94	0x3e76101b	0.24029581
95	0xbd0eeba1	-0.034892682
96	0xbdcc4048	-0.09973198
97	0x3e063c2e	0.13108894
98	0xbd8669e0	-0.06563163
99	0x3dd934b3	0.10605755
100	0x3dc6959d	0.09696505
101	0x3cb24e04	0.021765716
102	0x3db1252b	0.08649667
103	0xbc5ec9f1	-0.013597951
104	0x3dba09de	0.09083913
105	0x3e8f3539	0.27970293
106	0xbdf1ee18	-0.11812991
107	0xbd4c56cb	-0.04988746
108	0x3e1273d3	0.14301996
109	0x3cc27602	0.023737911
110	0xbd16ab70	-0.03678459
111	0xbc3bb5e4	-0.01145694
112	0x3dba3375	0.09091846
113	0xbe1a07a8	-0.15041983
114	0x3c273d1f	0.0102074435
115	0xbd7d1363	-0.061786067
116	0x3e05cecc	0.13067168
117	0xbd9bcdcb	-0.07607611
118	0x3d8360e7	0.06414967
119	0xbd943a1f	-0.07237648
120	0xbd1f8194	-0.038941935
121	0xbe23b41a	-0.15986672
122	0xbe7ae27f	-0.24500464
123	0x3c828c43	0.015936023
124	0x3e234bb2	0.15946844
125	0xbe578380	-0.21046257
126	0x3d7c8d33	0.061658096
127	0x3cb591ca	0.022164244
128	0x3e1d2b56	0.15348563
129	0x3e5e1dc7	0.21691047
130	0x3c52361d	0.012830284
131	0x3d953ddd	0.0728719
132	0xbb85716f	-0.00407236
133	0x3dfa0710	0.12208378
134	0xbd740da5	-0.059583325
135	0x3e1e7785	0.1547528
136	0xbca13fdb	-0.019683769
137	0xbd338c27	-0.04383483
138	0x3dee1189	0.11624438
139	0x3e8a5207	0.27015707
140	0x3e6fec28	0.2342993
141	0xbd58d645	-0.05293872
142	0x3c36ecb5	0.011164834
143	0xbe76d671	-0.2410524
144	0x3c5ee19c	0.013603594
145	0x3dec4a1f	0.11537575
146	0xbd2d851a	-0.042363264
147	0xbdd19cff	-0.10235023
148	0xbd309fd6	-0.04312118
149	0x3d0d2768	0.03446141
150	0xbe22a16f	-0.15881895
151	0xbe2ef79e	-0.17086646
152	0x3c9ba719	0.019000577
153	0xbdeff759	-0.117171
154	0xb9e9a431	-0.00044563555
155	0xbe0f9d49	-0.14024843
156	0x3d5d2165	0.053986926
157	0xbc114c83	-0.0088683395
158	0x3d8100ea	0.062990025
159	0xbd49786b	-0.049187105
160	0xbe083666	-0.13302001
161	0xbe0b3dd5	-0.13597806
162	0xbe02f4b0	-0.12788653
163	0x3e9a80c4	0.30176365
164	0x3ca01f8e	0.019546296
165	0xbc049628	-0.008092441
166	0xbcc9a5b2	-0.024615142
167	0x3dd622ff	0.10455894
168	0x3ddddf07	0.10833555
169	0x3e98e5a9	0.29862717
170	0xbcf797fa	-0.030223835
171	0x3de4cb9f	0.1117165
172	0xbe3bce99	-0.1834053
173	0xbe2deb67	-0.1698433
174	0xbdba9715	-0.09110848
175	0xbe46c35d	-0.19410463
176	0x3d9125e2	0.07087304
177	0x3d6b2bea	0.057414927
178	0xbdeb42d0	-0.11487353
179	0xbb93ecd0	-0.0045143142
180	0x3d8e7387	0.06955629
181	0xbe2b2dde	-0.16716716
182	0x3cb19d06	0.02168132
183	0xbd8c90c1	-0.06863547
184	0xbdc4cd12	-0.096094266
185	0x3e98616e	0.29761833
186	0x3d2bd0e2	0.041947253
187	0xbe040f8b	-0.12896554
188	0x3dbe4fb1	0.09292544
189	0xbcc93113	-0.024559533
190	0x3d82195f	0.063524954
191	0xbe26279b	-0.16226046
192	0x3dd1f068	0.10250932
193	0x3dcc8d3e	0.09987877
194	0x3e52966a	0.20565191
195	0x3e7932fe	0.24335858
196	0x3c30b32d	0.010784906
197	0x3df7d95e	0.121020064
198	0xbdf8511a	-0.12124844
199	0xbe23244b	-0.15931813
200	0xbd0b6193	-0.0340286
201	0xbdb1ec84	-0.0868769
202	0x3dda103e	0.10647629
203	0x3e89957f	0.2687187
204	0x3e018e5e	0.12651965
205	0xbe82ab03	-0.25521097
206	0x3b3094ce	0.0026944163
207	0xbd2db49f	-0.04240858
208	0x3e0d67f8	0.13809192
209	0x3da299a9	0.079394646
210	0x3cf3d45f	0.029764352
211	0x3df7fe74	0.1210908
212	0x3d5ab668	0.053396612
213	0xbd441463	-0.047871005
214	0x3b1abea4	0.0023612166
215	0xbe10aa48	-0.14127457
216	0xbe0aa2d4	-0.13538677
217	0x3df16f1d	0.11788771
218	0xbd588bbb	-0.052867632
219	0xbdbaaa2d	-0.0911449
220	0x3e02b216	0.12763247
221	0x3d4c2682	0.04984141
222	0x3d4a5bb7	0.049403872
223	0xbd0f9669	-0.03505555
224	0x3e621928	0.22079909
225	0x3e29ef39	0.16595162
226	0x3cb347f7	0.021884901
227	0x3de2d3e8	0.11075574
228	0x3d7d29bd	0.061807383
229	0xbddf5084	-0.10904029
230	0x3e65048e	0.22365019
231	0xbe10a164	-0.14124066
232	0x3da9b994	0.08287349
233	0x3d6b10bc	0.057389006
234	0x3ddd6b9e	0.10811542
235	0xbeb3e5a7	-0.35136148
236	0xbd9aa014	-0.07550064
237	0x3e291bf0	0.16514564
238	0x3df60859	0.12013311
239	0x3e403d86	0.1877347
240	0x3ca47d1a	0.020079184
241	0x3bec7e3f	0.007217198
242	0x3c1e9a02	0.009680273
243	0xbd3602ad	-0.044436146
244	0xbd05e5e8	-0.03268996
245	0xbdbcf7ed	-0.092269756
246	0xbe072f6c	-0.13201684
247	0xbdb9568c	-0.09049711
248	0xbd8e71e9	-0.069553204
249	0xbe47074a	-0.19436374
250	0xbd4d2260	-0.05008161
251	0x3e80c893	0.25153026
252	0x3d97fb92	0.0742103
253	0xbdccad21	-0.09993959
254	0xbd02a699	-0.03189716
255	0xbd411ddd	-0.04714762

network_body._body_endoder.seq_layers.2.bias f4 [128]
0	0x3d1ad76b	0.037803095
1	0x3d90abbb	0.07064005
2	0x3d733d41	0.05938459
3	0xbc699523	-0.014256748
4	0x3c5c960f	0.013463511
5	0x3c5a8f8d	0.013339889
6	0x3df16ef9	0.117887445
7	0x3dc36882	0.09541418
8	0x3d83d5ee	0.06437288
9	0x3cdd3dc6	0.027006995
10	0x3d258792	0.040412493
11	0x3c7da7ec	0.01548193
12	0x3de384da	0.11109324
13	0x3d3c66f1	0.04599661
14	0x3d9792c2	0.07401039
15	0x3d474cda	0.048657276
16	0xbc79f29f	-0.015255599
17	0x3dde2fee	0.108489856
18	0x3d708367	0.058719065
19	0x3d5d26b3	0.053991985
20	0x3d52599a	0.051354982
21	0x3d94a0d2	0.072572365
22	0x3d47d382	0.048785694
23	0x3d945210	0.07242215
24	0x3d573ebc	0.052550063
25	0x3da93e76	0.082638666
26	0x3d1da79f	0.038489934
27	0x3dd4446f	0.10364615
28	0x3d58e08c	0.05294852
29	0x3ce3b686	0.027796995
30	0x3d21a74b	0.039466184
31	0x3d019302	0.03163434
32	0x3d5eac50	0.05436355
33	0x3d06a941	0.032876257
34	0x3d7cac48	0.061687738
35	0x3d2ae99a	0.041726686
36	0x3d3aad13	0.045575213
37	0xbc9fc9d2	-0.019505415
38	0x3d040b98	0.03223762
39	0x3b4c2fa9	0.0031156337
40	0x3bd75328	0.0065711923
41	0x3d27991a	0.040917493
42	0x3cf22b9c	0.02956181
43	0x3d26ca67	0.04072037
44	0x3d80bcff	0.06286048
45	0x3d145c82	0.036221035
46	0x3daab0c0	0.08334494
47	0x3dbe6f85	0.092986144
48	0x3cf155ab	0.029459795
49	0x3da6f5dd	0.081523634
50	0x3d51dcf8	0.051236123
51	0xbcf48221	-0.029847207
52	0x3dcf613c	0.10125968
53	0x3dc363b5	0.09540502
54	0x3c59e517	0.013299248
55	0x3c3553b4	0.01106732
56	0x3dc634c3	0.09678032
57	0x3d10dfb7	0.0353696
58	0x3d1a8bb4	0.037730888
59	0x3d05f8e7	0.032708075
60	0x3d5b862a	0.053594746
61	0x3d5427ee	0.051795892
62	0xbda0345e	-0.07822488
63	0x3dd3bd7e	0.10338877
64	0x3d1b2f66	0.037887
65	0x3d30900f	0.043106135
66	0xbc88b8da	-0.016689707
67	0x3d433ab8	0.04766342
68	0x3d65ef5d	0.056136478
69	0x3d383cb6	0.044979773
70	0x3d757d7b	0.05993412
71	0x3d8150bf	0.06314229
72	0x3d696828	0.056984097
73	0x3d1db76c	0.038505003
74	0x3c1ba56e	0.009499891
75	0x3c93da94	0.018048562
76	0x3c9d14e0	0.019174993
77	0x3d3acf2e	0.04560774
78	0xbc0f4871	-0.008745299
79	0x3bed562e	0.0072429394
80	0x3d0cf83e	0.03441643
81	0x3c55f66b	0.013059239
82	0x3d9cf8a3	0.07664611
83	0x3d30f4b9	0.043202136
84	0x3ca312e1	0.019906463
85	0x3d5f478c	0.05451159
86	0xbd17427b	-0.036928635
87	0x3c18dcfd	0.009330031
88	0x3d3b5f1f	0.04574501
89	0x3b46a956	0.0030313334
90	0x3d2efaff	0.042719837
91	0x3d18cd00	0.03730488
92	0x3ced114c	0.028938912
93	0x3d81d6fc	0.06339833
94	0x3d818c0a	0.063255385
95	0x3d692448	0.056919366
96	0x3d7b8575	0.06140657
97	0x3d13571e	0.035971753
98	0x3d7ecd10	0.06220728
99	0x3d313ea0	0.043272614
100	0x3b8f8cc9	0.0043807966
101	0x3cec9d51	0.028883608
102	0x3cc195c8	0.023630992
103	0x3d9b940b	0.07596596
104	0x3b85ac3b	0.0040793694
105	0x3d52dcd5	0.051480133
106	0x3c208df1	0.0097994665
107	0x3d4c58f6	0.049889527
108	0x3db4733e	0.08811043
109	0x3c42c485	0.011887674
110	0x3db2d72e	0.087324485
111	0xbb60e582	-0.0034316485
112	0x3d3e4ab4	0.04645796
113	0x3d9b336b	0.075781666
114	0x3d38e2fd	0.045138348
115	0x3d899472	0.06717767
116	0x3d10a9be	0.03531813
117	0x3c642459	0.013924682
118	0x3da23eb5	0.07922117
119	0x3d21d5ef	0.039510664
120	0x3bae5f54	0.0053214226
121	0x3c00bc92	0.007857459
122	0x3daac6cf	0.08338701
123	0x3cc609a7	0.024174524
124	0x3d2a42da	0.04156766
125	0x3dabdf7a	0.08392234
126	0x3d42baff	0.047541615
127	0x3d037716	0.03209599

network_body._body_endoder.seq_layers.4.weight f4 [128, 128]
0	0xbdfd5444	-0.12369588
1	0xbe7143b3	-0.23560981
2	0xbe42a061	-0.19006492
3	0xbdf18ef0	-0.11794841
4	0xbddb10db	-0.10696574
5	0x3e7dc1ad	0.24780913
6	0x3e4cf315	0.20014603
7	0x3e3c93c5	0.18415745
8	0x3de5fbf5	0.112296976
9	0xbc985a8d	-0.018597865
10	0xbc536861	-0.012903304
11	0xbe132d4d	-0.1437275
12	0x3d341786	0.043967746
13	0x3e075645	0.13216503
14	0x3c308e79	0.010776156
15	0x3ddf1740	0.108931065
16	0x3968ffe1	0.00022220566
17	0xbe1a3794	-0.15060264
18	0x3d6e4400	0.05817032
19	0x3d96aae6	0.07356815
20	0x3d83f5cb	0.06443366
21	0xbdea857d	-0.11451242
22	0x3e4153b9	0.18879594
23	0x3dfca9a3	0.12337043
24	0xbe5643ed	-0.20924349
25	0x3e78d13d	0.24298568
26	0xbc938088	-0.018005624
27	0x3e5c9c38	0.21543968
28	0xbd855eb7	-0.06512206
29	0xbdbf304d	-0.093353845
30	0x3dfc37f0	0.12315357
31	0x3e46f1bf	0.19428156
32	0x3d376e63	0.044783007
33	0x3da34765	0.07972602
34	0x3e107244	0.14106089
35	0x3c65df56	0.014030298
36	0x3d848403	0.06470492
37	0xbe53845d	-0.20655961
38	0xbd3191b9	-0.043351863
39	0xbe294dc8	-0.16533577
40	0x3e09049c	0.13380665
41	0x3e80fff6	0.25195283
42	0xbddb1131	-0.106966384
43	0x3e2ca53b	0.16859905
44	0x3e5a7c24	0.21336418
45	0x3c946b3b	0.018117538
46	0x3cde45c2	0.027132872
47	0x3b0fac8c	0.0021922914
48	0x3de82de6	0.113368794
49	0x3e3ff7e9	0.18746914
50	0x3da82e17	0.08211916
51	0x3d23ee9b	0.040022474
52	0xbe012f83	-0.1261578
53	0xbd911f00	-0.07085991
54	0x3e0646e2	0.13112977
55	0xbdb50777	-0.088393144
56	0x3ce3325e	0.027733978
57	0x3d439b5d	0.047755588
58	0xbd480f27	-0.048842575
59	0xbc24d511	-0.010060565
60	0x3db725bc	0.08942744
61	0xbcc10d9a	-0.023566056
62	0xbdf1b7a8	-0.11802608
63	0x3d8b7581	0.068095215
64	0xbd54a686	-0.05191662
65	0x3b2cebdd	0.0026385703
66	0x3e5fb8d9	0.21847858
67	0xbe8d2c60	-0.27572918
68	0x3d89fa02	0.06737138
69	0xbe9c0a6b	-0.30476698
70	0x3dd2cf89	0.102934904
71	0x3dd11fc7	0.10211139
72	0xbd744282	-0.05963374
73	0xbd589302	-0.052874573
74	0xbdcac78a	-0.0990134
75	0x3c900aaf	0.01758322
76	0x3e0fc64f	0.14040492
77	0xbd7ddf2f	-0.061980423
78	0xbe870bb1	-0.26376107
79	0x3e53d148	0.20685303
80	0x3da26c6c	0.07930836
81	0xbd374ccd	-0.044750977
82	0xbe888831	-0.26666406
83	0x3e3740d3	0.17895822
84	0x3e814a1b	0.2525185
85	0xbde6abfb	-0.112632714
86	0x3e03f12e	0.12884971
87	0x3db385b1	0.08765734
88	0xbdf4e1c9	-0.119571276
89	0xbdc22ba7	-0.09480982
90	0x3ce46bc4	0.027883418
91	0xbe0cc11d	-0.13745542
92	0xbe49551b	-0.19661371
93	0x3e324afb	0.17411415
94	0x3bb75610	0.0055949762
95	0x3e5331f9	0.20624532
96	0x3dbb4ea2	0.091458574
97	0xbe28c316	-0.1648067
98	0x3ed1bc32	0.40963894
99	0xbe15c3bd	-0.1462545
100	0x3e42d428	0.19026244
101	0x3d00fd45	0.031491537
102	0x3d3bad90	0.04581982
103	0xbe100dd7	-0.1406778
104	0x3d48543c	0.048908457
105	0x3cafb25f	0.021447359
106	0x3dfaa4bc	0.12238452
107	0xbd266de4	-0.040632144
108	0x3e4eb1fe	0.20185086
109	0xba0f1b22	-0.000545906
110	0xbcb3dab9	-0.021954881
111	0xbcd0ad25	-0.025473187
112	0x3de5438a	0.11194523
113	0x3e32b11e	0.17450377
114	0x3e3a1842	0.18173316
115	0x3e22d7f5	0.15902694
116	0xbe1982b3	-0.14991264
117	0x3e0065ff	0.12538908
118	0xbda790bf	-0.08181905
119	0x3ce9aa0d	0.02852347
120	0x3d01d1b3	0.031694125
121	0x3e3cf4f4	0.18452817
122	0x3e0d57f5	0.13803084
123	0x3dfd64ae	0.12372719
124	0xbe63b2f6	-0.22236237
125	0x3bbbc229	0.005729933
126	0xbe3f4360	-0.18678045
127	0x3bd6e94a	0.006558572
128	0x3e891a24	0.26777756
129	0x3e30d9aa	0.17270532
130	0x3a325bd0	0.0006803842
131	0xbdd5eb14	-0.10445228
132	0x3e2f92bd	0.1714582
133	0xbc0f458b	-0.008744608
134	0x3e7f96d3	0.24959879
135	0x3cf9a1c5	0.030472646
136	0xbdea0fd1	-0.11428798
137	0xbbbb1cd4	-0.0057102237
138	0xbd224a95	-0.03962191
139	0x3d92982c	0.07157931
140	0x3e6c9cfc	0.2310676
141	0xbd8c770f	-0.06858646
142	0x3dee907f	0.11648654
143	0x3d39a579	0.045323823
144	0xbe33232b	-0.17493884
145	0x3e9c7535	0.30558172
146	0x3b69f239	0.0035697354
147	0xbd4ea500	-0.050450325
148	0x3c9152bf	0.017739652
149	0x3dd787ff	0.10523986
150	0x3d9aa695	0.07551304
151	0x3d68afd8	0.056808323
152	0x3dc16caa	0.09444554
153	0xbde96e73	-0.1139802
154	0xbd411e8c	-0.047148272
155	0xbbd5d7f1	-0.0065259864
156	0xbe56d95f	-0.20981358
157	0x3d62dc27	0.055385735
158	0x3dfe5b10	0.124197125
159	0xbc9165e8	-0.017748788
160	0x3d37259d	0.044713605
161	0xbd051adb	-0.032496314
162	0x3d9cded7	0.07659691
163	0x3d4153a0	0.04719889
164	0xbd980b7c	-0.074240655
165	0xbe1ee64b	-0.15517537
166	0x3e386aa2	0.18009427
167	0xbc6b4a7a	-0.014361018
168	0xbdd71d6a	-0.10503657
169	0xbe43d0bd	-0.19122596
170	0xbc12cd81	-0.008960129
171	0xbda10c84	-0.07863715
172	0xbd807f9d	-0.0627434
173	0x3c3ff0f9	0.011715167
174	0x3e98dc65	0.29855648
175	0x3dc3b22f	0.0955547
176	0xbd132030	-0.03591937
177	0x3a8c2937	0.0010693435
178	0x3d34d804	0.04415132
179	0xbd0b70ca	-0.03404311
180	0x3e894d02	0.26816565
181	0x3df2ae62	0.11849667
182	0xbe2b0f6a	-0.16705099
183	0xbdcfac88	-0.101403296
184	0x3e6ae1ba	0.2293767
185	0x3b854d85	0.004068079
186	0x3d350a2b	0.04419915
187	0x3dca8a31	0.09889639
188	0x3e765c78	0.24058712
189	0xbcce30a1	-0.025169672
190	0xbd8d22a2	-0.06891371
191	0x3eabf32d	0.33583966
192	0x3d8f26ad	0.06989799
193	0x3dc71f83	0.09722807
194	0xbe0f71d5	-0.14008267
195	0x3df58a6c	0.119892925
196	0xbc1b6317	-0.009484074
197	0x3e686bf1	0.22697426
198	0x3e87bf27	0.26513025
199	0xbc888443	-0.01666463
200	0x3e164697	0.14675365
201	0x3d7ea6c4	0.06217076
202	0x3dc23e27	0.09484511
203	0x3cc66af9	0.02422093
204	0xbd9d25ff	-0.07673263
205	0x3d2fb310	0.042895377
206	0xbe767209	-0.24066938
207	0xbba42271	-0.0050089885
208	0xbe5a0bb1	-0.21293522
209	0x3d9373ec	0.07199845
210	0x3e891233	0.26771697
211	0xbaf02702	-0.0018322172
212	0x3a90a178	0.001103445
213	0x3ea1ebb8	0.31625152
214	0xbe858453	-0.26077518
215	0xbdc9e08b	-0.09857281
216	0xbe2b2354	-0.16712695
217	0xbd56f6d8	-0.052481502
218	0xbdc85053	-0.09780946
219	0x3db8e4f4	0.09028044
220	0xbba8a086	-0.005146089
221	0xbd4915a6	-0.04909291
222	0xbe0d741e	-0.13813826
223	0x3df6d758	0.12052792
224	0x3d0a42dd	0.033755172
225	0x3db634ef	0.08896815
226	0x3d2f9c56	0.042873703
227	0xbc895630	-0.01676473
228	0xbe955196	-0.29163808
229	0xbc9099c2	-0.017651442
230	0x3e1e4068	0.15454257
231	0x3d8b9ed1	0.06817401
232	0x3e41804f	0.18896602
233	0x3d88b068	0.06674272
234	0xbe62cedb	-0.22149222
235	0x3d88d7b4	0.06681767
236	0xbdbe5d03	-0.09295084
237	0xbd7ab813	-0.061210703
238	0x3e8f63fa	0.28005964
239	0x3d2c219b	0.042024236
240	0xbc790726	-0.015199458
241	0xbe02d453	-0.12776308
242	0xbd0cb204	-0.034349456
243	0xbe26ad4f	-0.1627705
244	0x3e099ef3	0.1343954
245	0xbc6b7867	-0.014371968
246	0x3e134047	0.14379989
247	0x3ca42dca	0.020041365
248	0xbdae0004	-0.08496097
249	0xbe115cb8	-0.14195526
250	0x3e1cbe07	0.15306865
251	0xbdb463dd	-0.0880811
252	0x3d87b329	0.06625969
253	0x3e4ec8f9	0.20193852
254	0x3eacc086	0.33740634
255	0x3e356275	0.1771334

network_body._body_endoder.seq_layers.4.bias f4 [128]
0	0x3d68b5b1	0.0568139
1	0x3dacd7d1	0.08439601
2	0x3c969cda	0.01838534
3	0x3d0b65b5	0.034032542
4	0x3d59f17d	0.053208817
5	0x3d7d4fe9	0.061843786
6	0x3d496a4e	0.049173646
7	0x3cd40b5f	0.025884328
8	0x3d8590cb	0.06521758
9	0x3d8e7776	0.06956379
10	0x3d4aabb8	0.04948017
11	0x3da0f1ba	0.07858606
12	0x3d76dee8	0.060271174
13	0x3d808d74	0.0627698
14	0x3d7e6f07	0.062117603
15	0x3d356875	0.04428907
16	0x3d4cc707	0.049994495
17	0xbc0f26c8	-0.0087372735
18	0x3d33ca60	0.04389417
19	0x3d8c9a3d	0.06865356
20	0x3dad7cbd	0.084710576
21	0x3dc9df21	0.098570116
22	0x3d57dd92	0.05270154
23	0x3d280474	0.04101987
24	0x3d18b35a	0.037280418
25	0x3d552559	0.05203757
26	0x3d935e38	0.07195705
27	0x3d72700e	0.059188895
28	0x3d96946f	0.0735253
29	0x3d169ba2	0.036769517
30	0x3d95259c	0.07282564
31	0x3d45535c	0.0481752
32	0x3d05ae27	0.032636788
33	0x3d4272ab	0.047472637
34	0x3d46f5f4	0.048574403
35	0x3d3b34d8	0.045704693
36	0x3d421467	0.04738274
37	0x3d981d0a	0.07427414
38	0x3d475dee	0.048673563
39	0x3d71e10a	0.059052505
40	0x3d7a7b52	0.061152764
41	0x3dade0d7	0.084901504
42	0x3da9c23f	0.082890026
43	0x3d98f8e3	0.074693464
44	0x3d412260	0.047151923
45	0x3d1e9efd	0.03872584
46	0x3d17277e	0.036902897
47	0x3d20b4bb	0.039234858
48	0x3db025ed	0.08600984
49	0x3d710efe	0.05885219
50	0x3d2e3c9b	0.042538267
51	0x3d15b47f	0.036549088
52	0x3d4fb807	0.05071261
53	0x3d741d1f	0.059598085
54	0x3d9ddc2e	0.077080116
55	0x3d734ab5	0.059397418
56	0x3daf7473	0.08567133
57	0x3d04ac47	0.03239086
58	0x3d8403ab	0.06446012
59	0x3d2a3705	0.041556377
60	0x3d9b7785	0.07591156
61	0x3d53d3d7	0.051715698
62	0x3d3255ef	0.043538984
63	0x3d892774	0.06696978
64	0x3d8f50c7	0.06997829
65	0x3d3f2fd1	0.04667646
66	0x3d594d67	0.053052332
67	0x3d45c3ca	0.048282422
68	0x3d27bf5e	0.040953986
69	0x3cff4092	0.03115872
70	0x3d562176	0.052278005
71	0x3d48f562	0.04906214
72	0x3d8f36e5	0.06992892
73	0x3d1e9b10	0.038722098
74	0x3d8730fb	0.06601139
75	0x3d7a78f8	0.06115052
76	0x3d14d635	0.036337096
77	0x3d398a45	0.04529788
78	0x3d9391b0	0.07205522
79	0x3dbacafd	0.09120748
80	0x3d8476c5	0.06467966
81	0x3d1de358	0.03854689
82	0x3d352e73	0.04423375
83	0x3d6a8bca	0.05726222
84	0x3d1982ca	0.037478246
85	0x3d874275	0.066044725
86	0x3d38cceb	0.0451173
87	0x3d819701	0.0632763
88	0x3d6b8682	0.057501324
89	0x3db2663f	0.08710908
90	0x3d3f6687	0.046728637
91	0x3d357ce8	0.044308573
92	0x3d2a08d5	0.04151233
93	0x3db43a95	0.08800236
94	0x3d9ea6b5	0.077466406
95	0x3d82e8c2	0.06392051
96	0x3d8e9995	0.06962887
97	0x3d9c8ffe	0.07644652
98	0x3dac3b4a	0.08409746
99	0x3d833727	0.06407004
100	0x3d2d667d	0.04233407
101	0x3d896603	0.0670891
102	0x3d3c17ae	0.04592102
103	0x3d5f470c	0.054511115
104	0x3d4e23eb	0.050327223
105	0x3da2767f	0.079327576
106	0x3d2694a2	0.04066909
107	0x3d551b79	0.052028153
108	0x3d0b4446	0.034000657
109	0x3d24e835	0.040260512
110	0x3d95a4ca	0.07306822
111	0x3d017286	0.03160336
112	0x3d938092	0.07202257
113	0x3d6978c5	0.05699994
114	0x3d9caf61	0.07650638
115	0x3d10d246	0.035356782
116	0x3d90ac77	0.07064145
117	0x3d5b143e	0.0534861
118	0x3caf71b0	0.021416515
119	0x3d3f532a	0.04671017
120	0x3d3cfd5e	0.046140067
121	0x3d871255	0.065952934
122	0x3d421abf	0.04738879
123	0x3d68963b	0.056783896
124	0x3d5db9a3	0.054132115
125	0x3d75fb84	0.060054317
126	0x3d65c7da	0.056098796
127	0x3da14456	0.07874362

action_model._discrete_distribution.branches.0.weight f4 [25, 128]
0	0xbd646eef	-0.055769857
1	0x3d521a59	0.05129466
2	0xbc7b1c11	-0.015326516
3	0xbcb1d629	-0.021708565
4	0x3c1b5280	0.009480119
5	0x3c077e05	0.0082697915
6	0x3d0e4844	0.034736887
7	0xbb773965	-0.0037723419
8	0xbc765968	-0.015035965
9	0xbd82af59	-0.06381101
10	0x3d0fd232	0.035112567
11	0xbd359286	-0.04432919
12	0xbd55efbd	-0.052230585
13	0x3d70a173	0.05874772
14	0xbd8e38df	-0.06944441
15	0xbda8f3c0	-0.082496166
16	0xbb917d26	-0.0044399677
17	0x3c827019	0.015922593
18	0xbd6a477f	-0.05719709
19	0x3d518546	0.05115249
20	0x3d6b9e8b	0.057524245
21	0xbd8e3368	-0.06943399
22	0x3bbe0220	0.005798593
23	0x3c953aa4	0.018216439
24	0xbd016ae8	-0.031596094
25	0x3c61ab7a	0.013773793
26	0xbca38e6c	-0.019965373
27	0xbd556bee	-0.052104883
28	0x3d90dbff	0.07073211
29	0xbd1b449b	-0.037907224
30	0xbd9ef70c	-0.07761964
31	0xbd73dbdd	-0.05953585
32	0x3cb60e31	0.022223564
33	0x3d3cf285	0.046129722
34	0x3d38c5c0	0.045110464
35	0x3b0f00e6	0.0021820604
36	0x3ba90b76	0.005158837
37	0x3d2f9a58	0.042871803
38	0x3d064ec5	0.032789964
39	0xbc7f16f8	-0.015569441
40	0xbb9bb7bb	-0.004752127
41	0xbd83c93b	-0.06434866
42	0xbc3c696a	-0.011499742
43	0x3ca0d73c	0.019633882
44	0x3cd29fec	0.025711022
45	0xbd053001	-0.032516483
46	0xbc3941cc	-0.011307191
47	0xbcbcce6e	-0.023047652
48	0x3d57d7e8	0.05269614
49	0x3b68ed1b	0.0035541716
50	0xbd59d33c	-0.053179964
51	0xbd36ce9b	-0.044630628
52	0xbc922f15	-0.017844716
53	0x3c50235e	0.012703745
54	0x3d215740	0.03938985
55	0x3d540093	0.05175836
56	0xbdad800d	-0.084716894
57	0x3c4f4b27	0.012652195
58	0xbd8ffab0	-0.07030237
59	0x3c1e503e	0.009662686
60	0x3d551367	0.052020457
61	0xbd60fb54	-0.054927185
62	0x3b0532e5	0.0020324525
63	0x3ca76aa9	0.020436602
64	0x3d2fd29d	0.042925466
65	0xbd7d9554	-0.06190999
66	0xbcd21f72	-0.02564976
67	0xbbca7120	-0.0061780363
68	0xbcd1ced8	-0.025611326
69	0x3b98e54a	0.0046660053
70	0xbd46f29e	-0.04857122
71	0x3c1d2d32	0.009593295
72	0x3d71123d	0.058855284
73	0x3c37f59a	0.01122799
74	0xbd9b4188	-0.075808585
75	0xbc3f8b59	-0.011690938
76	0x3d2054b9	0.039143298
77	0xbd55ec14	-0.052227095
78	0x3d8912a4	0.066930085
79	0x3d6d5036	0.057937823
80	0x3d4eba8e	0.05047088
81	0x3c8f5ea7	0.017501188
82	0x3d1d3a1e	0.038385503
83	0xbd27c0b6	-0.040955268
84	0x3c4127f6	0.011789313
85	0x3cdf7181	0.027275803
86	0xbc820878	-0.015873179
87	0x3d6cfaf9	0.057856534
88	0xbd86e5b1	-0.06586779
89	0x3cec13c8	0.028818026
90	0x3d19b83a	0.037529208
91	0xbc97f5d7	-0.018549843
92	0xba83bcd4	-0.0010050782
93	0x3d5329aa	0.051553406
94	0x3d33077c	0.04370831
95	0x3d3dcf49	0.04634026
96	0x3d358623	0.044317376
97	0xbd92dfa8	-0.07171565
98	0x3d8c720e	0.06857692
99	0x3c5afbe0	0.013365716
100	0x3ba7d81f	0.005122199
101	0x3d5336ab	0.051565807
102	0x3d1d7ca5	0.03844895
103	0x3c51faea	0.01281617
104	0xbc9285b5	-0.017886022
105	0xbb363e95	-0.0027808298
106	0x3d316a9e	0.04331457
107	0xbd01f2e9	-0.031725798
108	0x3cce6678	0.025195345
109	0x3bd770d2	0.0065747285
110	0x3d54ae73	0.05192418
111	0xbd89393b	-0.06700369
112	0xbd413bbd	-0.04717611
113	0x3c8ca880	0.01717019
114	0x3d36957f	0.044576164
115	0x3d30e583	0.04318763
116	0x3ccb8ea6	0.024848294
117	0xbc2d340a	-0.010571489
118	0xbd5e0885	-0.054207344
119	0x3bec5b7a	0.0072130533
120	0x3c01f8e2	0.007932873
121	0xbc299784	-0.010351066
122	0x3ca3decf	0.020003704
123	0x3d3cc026	0.046081685
124	0x3cd0e542	0.025499944
125	0x3d5d9fb7	0.054107394
126	0x3d2a6bc1	0.04160667
127	0x3d9c8bb9	0.076438375
128	0xbdabe562	-0.08393361
129	0x3d6b2656	0.057409607
130	0x3cbebdfd	0.023283953
131	0x3c63ee4c	0.013911795
132	0xbbe3dd23	-0.006953852
133	0xbc53f27c	-0.012936231
134	0x3d10e5de	0.03537547
135	0xbd01e065	-0.03170814
136	0x3c30837b	0.010773535
137	0xbd87dc3f	-0.066338055
138	0x3d7c9429	0.061664734
139	0xbdaa414c	-0.08313236
140	0xbd936252	-0.071964875
141	0x3d18bd02	0.037289627
142	0xbd90f401	-0.0707779
143	0xbd8b9017	-0.06814592
144	0x3ce32113	0.027725732
145	0xb9c6eb9e	-0.0003794105
146	0xbd46b2f0	-0.04851049
147	0x3d4d7730	0.050162494
148	0x3d67c7de	0.056587093
149	0xbdc2f3e3	-0.09519174
150	0x3d3a5b0c	0.045496985
151	0x3d1903b9	0.037357066
152	0xbd896aa9	-0.06709797
153	0xbc6838ce	-0.0141737
154	0xbc1a9440	-0.00943476
155	0xbd98e99d	-0.07466433
156	0x3d894fc9	0.06704671
157	0xbd760907	-0.060067203
158	0xbd8c0056	-0.068360016
159	0xbd76b4ee	-0.06023114
160	0x3d2edbe2	0.042690165
161	0x3d7403cc	0.059573933
162	0x3d4b30f1	0.04960722
163	0xbce133a5	-0.027490446
164	0xbcd0e6bd	-0.02550065
165	0x3d95cb53	0.07314172
166	0x3db8e199	0.09027404
167	0xbd38b2b1	-0.04509229
168	0xbd026b7f	-0.031840798
169	0xbde3f85c	-0.11131355
170	0xbcf9d216	-0.030495685
171	0xbc17111d	-0.009220389
172	0x3cdb97dc	0.02680581
173	0xbcb4f3c9	-0.022088902
174	0x3bff2e0d	0.007787472
175	0x3b0d3443	0.0021546043
176	0x3d7be21f	0.061494943
177	0x3cee5840	0.029094815
178	0xbd900cfe	-0.07033728
179	0xbc8a6be4	-0.01689715
180	0xbd0669b0	-0.032815635
181	0x3d6d7571	0.05797333
182	0x3d1cbf48	0.038268358
183	0x3d95c9c7	0.073138766
184	0xbdc8355d	-0.09775803
185	0x3d4b3dd6	0.04961952
186	0xbd289455	-0.041157085
187	0x3ce8aec0	0.02840364
188	0x3d87efcf	0.06637537
189	0xbd9a7286	-0.07541375
190	0x3d349a04	0.044092193
191	0xbc41578c	-0.011800658
192	0x3d89ff71	0.06738175
193	0xbdb122a5	-0.08649186
194	0xbd8a1786	-0.06742768
195	0x3b36d7e7	0.0027899684
196	0x3c895b9f	0.016767321
197	0x3cf8f49d	0.030390078
198	0xbcac77a0	-0.021053135
199	0xbc657f85	-0.014007454
200	0x3d4acb7f	0.049510475
201	0x3c7762aa	0.015099207
202	0xbd9b4ecb	-0.07583388
203	0xbcb65b69	-0.022260385
204	0x3d2a1d8a	0.041532077
205	0xbd266c6d	-0.040630747
206	0x3d93a62c	0.07209429
207	0x3d8afd5c	0.06786606
208	0x3d93a0fe	0.07208441
209	0x3d0a2b75	0.03373285
210	0x3d6ae222	0.057344563
211	0xbd977f5e	-0.0739734
212	0xbcc81d78	-0.024428114
213	0x3d1ccde2	0.038282283
214	0xbbfdbebb	-0.007743684
215	0x3d96a96c	0.073565334
216	0xbd51f2e0	-0.051257014
217	0x3b425abb	0.002965613
218	0x3d65038c	0.055911586
219	0xbd33e74a	-0.043921746
220	0xbd04105b	-0.03224216
221	0x3d8face7	0.070154004
222	0x3d90745d	0.070534445
223	0x3d7fb08b	0.062424224
224	0x3d1a1740	0.03761983
225	0xbdd5e6a7	-0.10444384
226	0x3d9659ab	0.073413216
227	0x3c02aaf8	0.007975332
228	0x3d62fbb4	0.055415824
229	0x3d7414e3	0.05959023
230	0x3bddb3b9	0.0067658094
231	0xbcfd68a5	-0.030933687
232	0x3c36563d	0.011128959
233	0xbce00e09	-0.027350442
234	0x3d114ef6	0.035475694
235	0xbd824860	-0.06361461
236	0x3d0df358	0.0346559
237	0x3c7248ab	0.014787833
238	0x3d451281	0.04811335
239	0xbd69d9ca	-0.057092465
240	0xbdba5f46	-0.09100203
241	0x3d414ef7	0.047194447
242	0x3d8b5ef3	0.068052195
243	0x3d8b2d85	0.067957915
244	0x3d5f0048	0.054443628
245	0x3cf199ab	0.02949222
246	0xbd80467c	-0.06263444
247	0x3c2d1835	0.010564853
248	0x3cf8e668	0.030383304
249	0xbd1dcdb9	-0.03852627
250	0x3d761ddf	0.06008708
251	0xb9db0bb4	-0.00041779655
252	0x3c893c23	0.016752308
253	0x3d84f850	0.06492674
254	0x3d992ea8	0.07479602
255	0x3d929123	0.07156589

action_model._discrete_distribution.branches.0.bias f4 [25]
0	0x3bcbd8f3	0.0062209307
1	0x3c0380dc	0.008026328
2	0x3c817cc4	0.015806563
3	0x3c83ab5c	0.016072921
4	0x3b352e82	0.002764613
5	0x3ce1996f	0.027538983
6	0xbc4606b0	-0.012086555
7	0xbc18b671	-0.009320841
8	0xbc7a5527	-0.015279091
9	0xbca72787	-0.02040459
10	0xbcb05431	-0.02152452
11	0xbbf23a2b	-0.007392188
12	0xbcbd325a	-0.023095299
13	0xbcad3c6d	-0.021146977
14	0x3b8376f3	0.0040119826
15	0x3cb82953	0.022480642
16	0xbc048bcf	-0.008089974
17	0xbcd0be29	-0.0254813
18	0xbc11d52d	-0.008900923
19	0xbc5cfaed	-0.01348756
20	0x3c1c8fb8	0.00955575
21	0x3afa15ea	0.0019080017
22	0xbc108e17	-0.008822939
23	0x3cefa4c9	0.02925338
24	0x3c83266e	0.016009536
