Assets/Env5/Brains/MoveToTrigger2.onnx (onnx, 155478 bytes, 8 tensors)

network_body._body_endoder.seq_layers.0.weight f4 [128, 13]
000000 61 4e f5 3d 54 76 0d 3f d8 57 91 bd c6 45 53 be
       0.1197784 0.5525868 -0.07096833 -0.20632085
000010 4e 8f 5e 3d 33 1d 29 3a fe ee d5 be 9b 2b 8c 3e
       0.054335885 0.00064511894 -0.417839 0.27377018
000020 bb 14 24 be d8 dd 20 3f 67 26 76 3d 0c db a5 be
       -0.16023533 0.62838507 0.060095217 -0.32393682
000030 d0 78 5d be b7 6e 53 3d cc 54 b1 be 2b b5 82 3d
       -0.21628118 0.051619258 -0.34635007 0.06382211
000040 fb 8d 90 3e 34 30 28 be 8c 8c 70 3d 22 d4 21 3e
       0.28233323 -0.16424638 0.058727786 0.15803578
000050 a7 e3 1f be 3f 6d 45 be bd ec 1a 3e 4c c7 58 3e
       -0.15614186 -0.19279955 0.15129371 0.21169776
000060 48 22 b7 bb 5a ad 0b 3e 2b ae ef bd d2 a9 3a 3f
       -0.0055888034 0.13640347 -0.11703142 0.72915375
000070 5d f1 ac be ca d3 8f be 05 d2 53 3d eb c3 9f 3d
       -0.33777896 -0.2809127 0.051713962 0.0780104
000080 22 67 4c 3d 9f e1 be 3e 17 41 ae bd fb 5e 4d 3e
       0.049903043 0.3728151 -0.08508509 0.20055763
000090 39 73 af be 3b b0 77 3d b5 80 88 be 3b e5 c5 bd
       -0.34267595 0.0604708 -0.26660696 -0.09662863
0000a0 96 e0 a4 3e db ed be be 3b f5 88 bd 33 f9 a7 3e
       0.32202595 -0.37290844 -0.06687399 0.3280731
0000b0 c3 02 cb 3e a0 49 82 bc aa 39 17 bf 25 d3 92 3e
       0.39650545 -0.015904248 -0.59072363 0.28676715
0000c0 89 d9 35 3e 41 20 a5 3e 04 e6 fe be c7 39 6d bd
       0.17758764 0.3225117 -0.49784863 -0.05791643
0000d0 20 bb ae 3e c8 51 f1 bd 60 bf 6c bd 8e 27 a1 bc
       0.3412714 -0.11783177 -0.057799697 -0.019672181
0000e0 15 18 12 3f 7e e5 6e 3e bd 02 00 be 2e af 1d bf
       0.57067996 0.23329732 -0.12501045 -0.6159543
0000f0 8f dc 2b bf 0f da 95 be 42 ee 77 3e 37 1a a9 be
       -0.6713342 -0.29267928 0.24211982 -0.33027813
000100 c4 bd 1d be c6 e1 53 3e 20 d2 5e be de 4b a6 3e
       -0.15404421 0.20691594 -0.21759844 0.32479757
000110 52 eb 17 bd f2 62 6c bd 3b 17 1f 3f c0 97 3b 3d
       -0.037089653 -0.05771155 0.6214482 0.045799017
000120 e1 1a f5 3e f7 d5 b1 be d2 0e 17 be e6 1c bd 3d
       0.4787207 -0.34733555 -0.14751747 0.092340276
000130 dd d0 c2 be 7c 6c 01 3e 75 b9 18 bd 95 f0 83 3d
       -0.38049975 0.1263904 -0.03728624 0.06442372
000140 e4 8e f2 3d db b9 bc be 32 c7 eb 3e 71 39 0f bf
       0.118436605 -0.36860546 0.4605041 -0.55947024
000150 26 43 13 bd a1 7f 06 be 5e 8e d9 be c2 90 15 3e
       -0.03595271 -0.13134624 -0.4249143 0.14606002
000160 fc a4 38 be 25 f8 97 3e 36 45 bd be 2e 56 5d 3e
       -0.18031687 0.29681507 -0.36966866 0.21614906
000170 e8 42 3e be 3e 4e 96 3d 9f 98 da be b8 1a ce 3c
       -0.1858021 0.07339142 -0.42694566 0.025159225
000180 e9 be 4c be 57 c8 03 3d 25 6b ef 3d ad 3e 8c be
       -0.19994701 0.03217348 0.11690358 -0.27391568
000190 39 d8 cb be 7d ca 7a bc 28 3d 56 ba ff a2 34 3e
       -0.39813402 -0.015307066 -0.0008172565 0.17640303
0001a0 19 84 71 be ce 34 77 3c d0 21 36 bd ec d2 97 3e
       -0.23585548 0.015088273 -0.04446584 0.29653108
0001b0 2f 4e 0e 3d 00 99 ab be 60 9b 2b 3e 6f c6 24 3e
       0.03474253 -0.33515167 0.1675849 0.16091321
0001c0 68 f9 7f bd 14 e8 03 be 41 a6 0f bf 42 10 de 3c
       -0.06249371 -0.128815 -0.5611306 0.027107362
0001d0 e7 76 1f bd 8c ca b5 bd 86 cd 98 3e 04 aa a1 be
       -0.038931753 -0.088765234 0.29844302 -0.31575024
0001e0 e4 62 59 be dc d5 14 3e 19 82 09 3f b0 f6 82 be
       -0.2122913 0.14534706 0.5371414 -0.25578833
0001f0 0c 90 1d 3f ad 98 99 3e ca 09 a5 bd 90 e1 09 3d
       0.61547923 0.29999295 -0.08058508 0.03366238
000200 11 90 a8 3e 04 6f a9 3e 23 61 18 be 8c a5 e1 bc
       0.32922414 0.3309251 -0.14880805 -0.02754476
000210 33 e5 d0 be 6f 38 47 bf 7c 8d b7 be 9c 78 ab 3d
       -0.40799865 -0.77820486 -0.35850132 0.08372614
000220 31 24 e2 bd f2 ed 02 be f4 be ba 3e 07 b2 1f 3e
       -0.11042059 -0.12786081 0.3647381 0.15595256
000230 72 2c f9 3e ed da aa 3d 90 45 4b be ef 42 0a bd
       0.48666722 0.08342538 -0.19850755 -0.03375524
000240 e0 ab ba be 05 1d c4 bd c5 4d fb 3e 78 e5 44 3e
       -0.36459255 -0.095758475 0.4908277 0.1922816
000250 f5 57 9b 3e 48 69 4c be 52 e3 83 3d 50 b4 93 3d
       0.30340543 -0.19962037 0.06439842 0.07212126
000260 ac 6e 3b 3d 69 24 5c bc 65 65 c0 3c ef e4 af 3d
       0.04575984 -0.013436415 0.023485849 0.085885875
000270 15 98 8e 3d f8 2d be be a0 35 29 bf e6 b5 26 be
       0.06962601 -0.37144446 -0.6609745 -0.16280326
000280 3a dc 86 3e 39 07 a7 be 05 8c 8f 3d c4 14 02 bf
       0.26339895 -0.32622698 0.070091285 -0.50812936
000290 52 d1 11 bd 32 31 00 be f8 e5 83 3d eb f7 07 bf
       -0.035600014 -0.12518767 0.064403474 -0.5311267
0002a0 69 b8 b4 3e 19 81 db bd b2 6e 49 bc 14 b4 8a 3e
       0.35296944 -0.10717983 -0.012294458 0.27090514
0002b0 b4 7b 6b 3e 4c 44 0a be 3b 24 a0 3e d5 b4 b1 be
       0.22996408 -0.13502616 0.31277642 -0.34708276
0002c0 e8 9d 92 be 33 0b d9 be 30 d7 96 3e 25 8c 13 bf
       -0.28636098 -0.42391357 0.2946105 -0.5763572
0002d0 5b 2f 9c 3e 0f 36 88 3e 44 83 13 3f 08 2e 03 be
       0.3050488 0.26603743 0.5762217 -0.12810528
0002e0 c6 67 e9 bd d1 93 1a be a0 51 b1 3e 08 a4 f8 be
       -0.11396746 -0.1509545 0.34632587 -0.48562646
0002f0 11 9f a4 3c 6a bf 8f bd 75 84 65 3e 02 70 90 be
       0.02009538 -0.07018931 0.2241381 -0.28210455
000300 59 c4 d6 3e 47 27 d1 be 66 23 1c be 4a 28 69 be
       0.41946676 -0.4085028 -0.15247878 -0.22769275
000310 d6 76 ec 3d 49 32 8f bd c4 de 4d bf e9 99 a1 3e
       0.11546104 -0.06992013 -0.8041804 0.31562737
000320 60 04 80 3c cd bb 5c be 0c fc 06 3f 83 1a b0 bd
       0.015627086 -0.21556015 0.52728343 -0.08598807
000330 2a a1 9d 3d 5f 8a 14 3f 83 4b d6 3c 2d 26 c5 3e
       0.07696755 0.5802364 0.026159054 0.38505688
000340 a0 7f c7 bc 9c 43 b6 be 58 9d 21 3e 7e 0f 8a be
       -0.024352849 -0.35598457 0.15782678 -0.26964945
000350 bd ef d8 3e 07 a5 b9 be 65 41 2d be c5 78 21 3e
       0.42370406 -0.36258718 -0.16919477 0.15768726
000360 c8 9e ad bd 62 4b cd bc 5b 25 1a 3d 98 55 81 bd
       -0.08477551 -0.02506036 0.03763328 -0.06315154
000370 e9 88 f4 3c fa 07 d8 3e e9 cf a4 3d 82 96 d7 3d
       0.02985044 0.42193586 0.08047468 0.10526754
000380 97 f7 c9 be 35 00 2e bd 35 b1 fe 3e d7 46 10 be
       -0.3944671 -0.042480666 0.49744573 -0.14089523
000390 45 e9 0a bd d6 a4 82 3e 7b 23 3e be 99 40 04 3d
       -0.03391387 0.25516385 -0.18568222 0.032288168
0003a0 a2 7b 03 be a4 26 05 bf ba 68 37 3e 59 29 93 3e
       -0.12840131 -0.52012086 0.17911044 0.28742483
0003b0 d1 8a e8 be 1d 87 dd 3e 65 be 7f bd 01 a3 a6 be
       -0.4541841 0.43267146 -0.062437434 -0.32546237
0003c0 e7 17 0a 3c 69 0e eb 3d 73 32 c1 be 0b dc 20 be
       0.00842855 0.11477358 -0.37733802 -0.1570894
0003d0 f5 af 15 be f4 d4 d6 3e 5c 4f 22 be 39 01 2d 3e
       -0.14617904 0.41959345 -0.15850586 0.16894998
0003e0 eb 85 2d 3e 09 f2 ab 3e 01 90 bc 3e 65 d2 39 be
       0.16945617 0.33583096 0.36828616 -0.18146665
0003f0 32 84 17 be c7 8b 9a 3e 6b a0 4f 3e 1a ca 15 3f
       -0.14796522 0.30184767 0.20276038 0.5851151

network_body._body_endoder.seq_layers.0.bias f4 [128]
000000 71 0c f6 3d 99 b0 95 bd 3a 8a e2 3d 37 4b d4 3d
       0.12014092 -0.07309074 0.11061521 0.103659086
000010 e6 fb 03 be aa cc b1 3d c6 f7 55 3c d2 76 58 3c
       -0.1288906 0.08681615 0.013059562 0.013211923
000020 2c d1 c0 bc 39 bc a0 3d 5f cd 00 3d c4 b0 b6 bb
       -0.02353724 0.078484006 0.031445857 -0.0055752713
000030 90 cf 14 3d bb 1b 50 3d a9 a7 08 3d 1a c8 89 3d
       0.03633076 0.050807696 0.03336302 0.067276195
000040 c5 ab 07 3d aa ba 5b 3d cb fe 81 3d e1 df a3 bc
       0.033122797 0.053644814 0.06347426 -0.020004215
000050 5e 58 13 bc ca 8c 4c bd 64 55 ab 3c ba e0 02 bc
       -0.008993236 -0.049938954 0.02091474 -0.007988149
000060 bf be ec 3c 1f 3b c7 3b 60 47 d3 3c 36 42 e6 3c
       0.028899549 0.006080046 0.02579087 0.028107744
000070 d9 f4 ac 3c c3 0f b1 b9 57 86 2d 3d 27 f2 ad 3d
       0.021112846 -0.00033771814 0.042364445 0.084934525
000080 9a 9c 44 3d e3 db 5f 3c d1 df 98 3d 1c 45 c7 3b
       0.04800091 0.013663265 0.074645646 0.0060812365
000090 6a fc 51 3d 2a 1c 0d bd 3c f6 91 3d 77 4a 62 bb
       0.05126611 -0.034450687 0.071270436 -0.0034529248
0000a0 45 04 84 3d 93 8c ff 3c 19 cf 9f 3d 86 d6 db bc
       0.06446127 0.03119496 0.078031726 -0.026835691
0000b0 2c 5b 69 3d bf a5 03 bd 16 b4 05 be 24 89 df 3d
       0.056971714 -0.03214049 -0.13056979 0.109148294
0000c0 af 8f 97 bd b6 08 85 3d 87 ac 64 3d bd 0e 34 3b
       -0.07400452 0.06495802 0.055828597 0.0027474605
0000d0 ca 5b 0b 3d a1 ba 42 3d 44 1f 24 3d 25 00 34 bd
       0.034023084 0.047541264 0.04006888 -0.04394545
0000e0 3e 10 39 3c bf df 0b 3d 50 cb 96 3d 0c e0 65 3d
       0.011295376 0.034148928 0.073629975 0.05612187
0000f0 6e 64 8c 3d 02 4e 54 3d 2c 3f 84 3d da 7a e2 3c
       0.06855093 0.051832207 0.064573616 0.02764647
000100 51 bb 03 bc 7a e1 3b 3c 62 d8 95 3d aa 7a 89 3d
       -0.008040265 0.011467332 0.07316662 0.067128494
000110 0c 95 8f 3c 09 c8 db 3a b5 f6 86 3d fe 9a 01 bd
       0.017527126 0.0016767989 0.065900244 -0.031641953
000120 4c 9a 62 3d c6 2f 7e 3d 10 16 04 3d 88 a1 8e ba
       0.05532293 0.06205728 0.032247603 -0.001088188
000130 39 33 13 3d 4f 58 f5 3c 72 7e 08 3d f4 f8 80 3d
       0.03593752 0.029949335 0.033323713 0.06297484
000140 96 b4 9b 3d 67 42 af bd ca e9 1b 3d 18 24 05 3e
       0.076028034 -0.08557587 0.038064755 0.1300205
000150 11 5e 9b 3d 60 8a 96 3d 3d 92 7c 3d 40 a9 93 3d
       0.07586301 0.07350612 0.0616629 0.07210016
000160 b5 c5 bd 3c 74 b6 a0 3d 17 ab 51 bb 74 42 4a bd
       0.023165563 0.078473 -0.0031992847 -0.04937978
000170 5a 67 ad bd 74 53 10 bd a2 25 49 bd a2 5c 13 bc
       -0.08466978 -0.035235837 -0.049108155 -0.008994253
000180 2a b5 0e 3c 53 ab 12 3c 04 ec 85 3d f3 ad 8f bd
       0.008710185 0.00895198 0.06539157 -0.070156
000190 2e 48 2a 3d 5d 4f 61 3c ae b3 46 bb 46 95 74 3d
       0.041572742 0.013751832 -0.00303195 0.05971267
0001a0 af 17 4b bd 95 2d 43 bd ec 12 8a ba 56 d1 7f 3d
       -0.049583133 -0.047650892 -0.0010534204 0.062455498
0001b0 ce 46 b7 3c fa a5 8b 3d 4a 04 c3 bb 90 df 00 bd
       0.02237263 0.06818767 -0.005951439 -0.031463206
0001c0 f1 5b 2f 3d fb 29 2d 3d b6 96 07 be aa 0d 05 bd
       0.04281229 0.042276364 -0.13241085 -0.032483734
0001d0 7a aa d7 3d f6 d4 29 3c d9 a5 03 bc c0 07 fb 3c
       0.10530563 0.010365715 -0.008035147 0.030643344
0001e0 4e ad 00 3d 8d a4 25 3e c4 bf 2f 3d cb 13 47 3d
       0.031415276 0.16176052 0.04290749 0.04860286
0001f0 99 d7 16 bd bf ed a4 3d 16 9e b6 3d 98 36 17 bd
       -0.036826704 0.08053159 0.08916871 -0.0369173

network_body._body_endoder.seq_layers.2.weight f4 [128, 128]
000000 3a bc 43 3e 43 d9 27 bd 47 8c e6 3d 61 39 c3 bd
       0.19114771 -0.04097868 0.112572245 -0.095324285
000010 24 d0 5c be 98 37 da bd 09 e8 56 3c a9 96 9b bd
       -0.21563774 -0.10655135 0.013116845 -0.075970955
000020 35 3d 08 3e 61 ff 80 3b f1 97 6d 3d cc c5 bf 3d
       0.13304599 0.0039366935 0.05800623 0.09363899
000030 20 7c fa 3c a3 80 60 bd 4a 7b 20 be 29 17 60 bc
       0.030576766 -0.054810178 -0.15672031 -0.013677397
000040 03 55 1a bc ba d5 24 be 7e 0d 05 3e c0 8c f1 bd
       -0.009419682 -0.16097155 0.12993428 -0.11794424
000050 18 cd a0 3d 79 e5 d8 3b 6f 99 59 3e 79 97 89 bb
       0.078516185 0.006619152 0.21249937 -0.004198965
000060 c6 e1 5b bd e5 f8 a4 3d a6 96 22 3d 42 e7 3b 3d
       -0.05368211 0.08055285 0.03969445 0.04587484
000070 24 30 b8 be c6 fe 0e 3e 4e d6 95 3c 4c 65 05 3e
       -0.35974228 0.13964376 0.018290665 0.13026923
000080 04 43 ee 3d f2 17 78 3e ec aa d9 bb b7 68 6d 3a
       0.11633876 0.24227884 -0.00664269 0.0009056436
000090 9b 54 3a bc b2 a9 bf 3d 85 7f 98 3d 8b 4d 18 3d
       -0.011372711 0.09358539 0.074461974 0.037183326
0000a0 96 60 9d 3c 57 69 88 bd f5 a0 30 be 38 bb 91 bc
       0.019211095 -0.06660717 -0.172489 -0.017789468
0000b0 70 cc 50 3e 40 26 04 3e 8d e5 88 bd c9 ba 09 bd
       0.20390487 0.12905216 -0.06684408 -0.033625398
0000c0 4a 27 00 bd 40 f9 d8 3c dc 09 c3 3d f3 e8 27 3e
       -0.03128747 0.02648604 0.09523365 0.16397457
0000d0 fb f7 54 be 92 97 37 3d 58 9a 01 be a5 2b 0a be
       -0.20797722 0.044822283 -0.12656534 -0.13493212
0000e0 5b f1 2a 3d 90 96 68 bc e4 d7 a8 3c b1 23 07 bd
       0.04173408 -0.014196053 0.020610757 -0.032993022
0000f0 e4 02 2d bd 71 e9 45 be 43 22 ec 3d d4 ad b5 bd
       -0.042239085 -0.19327332 0.115299724 -0.08871046
000100 d2 f1 28 3d c1 97 7e 3d e1 d1 c1 3d b8 9c ba bc
       0.041246243 0.062156443 0.09463859 -0.022779807
000110 1e 2c 18 3e a0 b4 16 3d 24 d0 f4 3c be c4 05 be
       0.1486058 0.03679335 0.029884405 -0.13063332
000120 44 f6 01 3e e4 9b 58 3e a5 4b 8c 3e b9 ae 30 bd
       0.12691599 0.21153218 0.27401462 -0.04313538
000130 22 22 0d 3e d3 0e 96 bc 25 05 1e be e2 2c 0c be
       0.13782552 -0.018317616 -0.1543165 -0.13688996
000140 a0 72 6e be 37 a8 b0 bc 06 ed af 3c 7a 58 38 bc
       -0.23285913 -0.021564586 0.021475326 -0.011251563
000150 f5 60 94 bd b8 5b 1c 3e 33 1c 0c 3e 47 a0 91 3e
       -0.072450556 0.15269363 0.13682632 0.28442594
000160 2d d0 24 be 55 ed 0a 3e 17 6b 90 3d c8 67 12 be
       -0.16095038 0.13567097 0.07051676 -0.14297402
000170 9e a9 48 3c 0a 8e 87 3d ca 88 19 bc ee af 39 bd
       0.012247471 0.06618889 -0.009370992 -0.045333795
000180 b8 08 fb 3d 9b 02 08 3e e6 92 b9 3d ef d4 3d be
       0.12257522 0.13282244 0.09061222 -0.18538259
000190 46 a0 89 3b b4 0e 70 3d ee e4 59 3d 04 73 b7 3d
       0.0042000143 0.058607772 0.05319684 0.08957484
0001a0 c6 98 08 3d 88 a4 c5 3d 71 a8 dd 3d 4d 34 0d bd
       0.03334882 0.096505225 0.10823143 -0.034473706
0001b0 df d7 0f 3e 5d 45 f8 3c d3 64 e2 3d a3 1e a8 bc
       0.14047192 0.030306512 0.11054387 -0.020522421
0001c0 b3 84 d0 3a 6d e2 89 bb a4 d7 c9 bd 12 44 14 3e
       0.0015908688 -0.0042079003 -0.09855583 0.14479092
0001d0 05 78 b2 bb 63 74 ee bc 0c 05 3d bd bc f1 e6 3a
       -0.0054464363 -0.029108232 -0.04614739 0.001761965
0001e0 0e c7 2a 3d 5a 26 86 3d 81 5e c5 3d 47 02 02 3e
       0.04169374 0.06550284 0.09637166 0.12696181
0001f0 7e 33 39 bd 16 ea 95 bb 6b 36 bd 3d 45 24 12 3b
       -0.045215122 -0.0045750244 0.09238895 0.002229945
000200 57 9a 29 3e b1 66 0c be b4 37 95 3d 60 27 2c 3d
       0.16562782 -0.13711049 0.07286015 0.04202974
000210 f3 0e c1 bd c7 c6 cb bc 58 bb 8d 3c c4 e5 8d bb
       -0.094266795 -0.024875058 0.017301247 -0.0043303687
000220 eb 7b ac 3d 5d a8 15 3e 5a e7 b4 bc 4f a1 64 be
       0.08422073 0.14615007 -0.022082973 -0.2232716
000230 b3 aa a9 3d 85 49 6e bc 8e 12 71 3d 32 de 23 3e
       0.082845114 -0.014543896 0.058855586 0.1600273
000240 2e 36 72 3e b7 c4 d4 bd 1d 2d 49 3a d1 02 67 be
       0.2365348 -0.10389083 0.0007674264 -0.22559668
000250 26 71 f7 3b c2 c0 00 bd a4 82 0d 3e 00 47 a3 bd
       0.00755133 -0.03143383 0.13819367 -0.079725266
000260 97 28 24 3e c3 00 b7 3c e3 17 aa 3d ab ee bb 3d
       0.16031109 0.02233923 0.08305337 0.09176382
000270 77 5c 1e 3e b4 2b 8a bd 18 dc 86 3d b1 9c 15 3e
       0.1546496 -0.06746617 0.06584948 0.14610554
000280 79 b0 81 bd a0 76 06 be 54 eb 54 3d 42 03 9d be
       -0.063324876 -0.1313119 0.05198224 -0.30666548
000290 1b be d5 bd 5a da c1 bc 96 f5 d2 3d b9 32 a2 be
       -0.1043665 -0.023663688 0.10300748 -0.31679323
0002a0 5b 0e 6d bd f4 4b fa 3d 00 b9 53 bd e6 d3 9d bd
       -0.05787502 0.12221518 -0.0516901 -0.07706432
0002b0 10 65 b7 bd 94 7c d6 3c b5 0c 23 be a0 5b 8a 3d
       -0.08954823 0.02618245 -0.15922816 0.06755757
0002c0 04 2d c0 3d ca 90 66 3d 19 c0 ac 3b 14 fd b1 3d
       0.09383586 0.056290425 0.0052719233 0.08690849
0002d0 00 56 bd bd 1b d0 d5 bc b4 b2 57 3e 91 1d 34 3e
       -0.09244919 -0.026100209 0.21064264 0.17589404
0002e0 0b 16 89 b9 95 26 fa 3c 1f 0c 22 bd c9 f8 38 3e
       -0.000261471 0.030535975 -0.03956234 0.18063654
0002f0 64 93 50 be 49 b7 d1 3d e1 a0 0a 3e 84 51 85 bd
       -0.20368725 0.10240037 0.13537933 -0.065096885
000300 8a 0c 0d bc e0 2b 41 bd 70 ed 14 bd 76 e6 7d 3d
       -0.008608947 -0.047160983 -0.03635925 0.061987363
000310 f9 76 5c bc 28 e8 b3 3d 1f 9c 22 3e 3b d2 30 3e
       -0.0134561 0.08784515 0.15879868 0.17267697
000320 a1 49 1a ba 3a d2 57 3e c0 75 06 3e b2 7c e1 bd
       -0.00058856054 0.21076289 0.13130856 -0.11010112
000330 f6 a3 19 3e 97 28 82 bc 0b 0f 73 3e 5d e3 9c bd
       0.15003952 -0.015888495 0.23736207 -0.076605536
000340 03 12 94 bc bb b9 cd 3d d6 70 39 bd 9c 56 92 3d
       -0.018074995 0.10045191 -0.045273624 0.07145426
000350 e3 e0 5f bd d3 58 fa bc 18 34 fe bc c6 82 aa 3d
       -0.054657828 -0.030559933 -0.0310307 0.08325724
000360 cf 0c 8f 3d 64 ac f6 3d 21 d3 36 bd 78 1f d0 bd
       0.06984865 0.120446 -0.044634942 -0.10162252
000370 ab 99 2b 3e 5b 19 b2 3d 92 8c a8 bc 15 a6 f4 3d
       0.16757838 0.086962424 -0.020574842 0.1194574
000380 53 36 a8 bd c3 3b 21 3e e6 4d 98 3d 2f 4e bd bd
       -0.082134865 0.15745454 0.07436733 -0.09243428
000390 00 3e 07 be 74 46 b2 3d 1f 42 d3 bd da b1 96 bd
       -0.13207245 0.08704844 -0.10315346 -0.07358141
0003a0 f3 60 86 bd 54 1a 30 bd 3b 88 4a bb 66 87 76 3e
       -0.0656146 -0.04299386 -0.0030903954 0.24075088
0003b0 63 df bb be c2 12 a4 bc d8 ca 0c be 2c 26 2f bd
       -0.36693868 -0.020028476 -0.13749254 -0.042761013
0003c0 39 15 ca bd 45 f6 21 bd 5d 94 95 bd e6 4b 04 bd
       -0.09867329 -0.0395415 -0.07303689 -0.032298945
0003d0 45 ad 85 bd 56 51 23 3e 9b 9f 1a 3e 05 69 de 3c
       -0.06527189 0.15948996 0.15099947 0.027149687
0003e0 19 e1 ce bd 35 aa 50 3e 5e 18 d0 3d 08 79 6a 3c
       -0.10101528 0.20377429 0.10160898 0.014311083
0003f0 a6 7d 53 be d9 ca 9c 3d d6 b7 0b be 94 bd 8a bd
       -0.206534 0.076558776 -0.13644347 -0.067744404

network_body._body_endoder.seq_layers.2.bias f4 [128]
000000 a7 83 25 3d f2 03 99 3d 22 c4 ce 3c 3e aa 98 3d
       0.040408757 0.07471456 0.025240008 0.07454346
000010 09 8a 10 3c 1a 5f 3e 3d 51 fd 13 3d 0d ce 6b 3d
       0.008821973 0.046477415 0.036130253 0.057569552
000020 b4 67 b3 bd 6c 1a f9 3b a0 b1 46 bd 0a 79 ca 3b
       -0.08760014 0.0076020267 -0.04850924 0.0061789798
000030 1b 1f 90 3d 7d df bb 3d 7e d1 82 3d fb ac 0b 3e
       0.07037183 0.091734864 0.06387614 0.13640206
000040 e3 d8 3e 3c c7 40 c5 3c 44 71 39 39 33 41 3b 3d
       0.0116483895 0.02407874 0.0001768517 0.045716476
000050 93 19 43 3d 22 d1 65 3d 46 b8 0a 3d 5e 13 4e 3d
       0.04763181 0.056107648 0.033867143 0.05031144
000060 01 bd cd 3d 54 a7 43 3d e1 81 7a 3d b8 4c be 3d
       0.10045815 0.047767 0.06115902 0.09291977
000070 3c 27 06 bc 5f 79 7b 3d 20 a2 ab 3c 7f ab 04 3d
       -0.008188065 0.061395045 0.02095133 0.032390114
000080 22 17 8b 3c 6b 33 53 3d a2 4f 12 3d e4 98 9a 3d
       0.016978804 0.051562708 0.035720475 0.07548693
000090 3a 29 4e 3d 35 9b b9 3c 7e 73 2c 3c 21 0d 8c 3d
       0.050332285 0.022657016 0.010525582 0.06838442
0000a0 19 24 0c 3d 54 e1 d5 3c b4 ed b6 3d 0b 0e 4d bb
       0.034214113 0.026108421 0.08932057 -0.0031288888
0000b0 d3 21 a2 3d 1d 6a 0f 3d 16 48 8e 3d 56 f4 17 3d
       0.07916608 0.035013307 0.06947343 0.03709825
0000c0 db 70 8b 3d ce 63 44 3d 24 aa 34 3b 89 c9 b7 3d
       0.06808635 0.047946744 0.0027567232 0.08973987
0000d0 45 73 a3 3d 46 2c 98 3d 52 5b 7d 3d 39 4d 85 3d
       0.0798097 0.074303195 0.061854668 0.0650887
0000e0 fa ee 31 3d e3 04 80 3c b0 c4 b6 3d 85 6b 8b 3d
       0.043440796 0.01562733 0.08924234 0.06807617
0000f0 1e 48 3c 3d 33 35 c0 3c ca 72 79 3d d9 46 17 bc
       0.045967214 0.023462867 0.060900487 -0.0092332
000100 07 79 47 3d cd ce cd 3d 4f 48 9d 3d 39 8b ab 3d
       0.048699405 0.1004921 0.076798074 0.08376164
000110 c6 30 95 3c 85 a4 2e 3d 39 94 eb 3d 90 f3 fd 3c
       0.018211734 0.042637367 0.115028806 0.030999929
000120 7c 79 90 3d a6 b4 9a 3c 6d 39 f8 3b cf 0c 04 bc
       0.07054421 0.018884968 0.007575205 -0.008059694
000130 e1 50 f5 3c ee f1 9d bc bb c4 83 3d 2a 5b 2d 3d
       0.029945793 -0.0192804 0.06434008 0.04232327
000140 3d 1b 0b 3d 5a d4 5b bc 90 65 97 3d 5c 4f 98 3d
       0.033961523 -0.013417328 0.073924184 0.074370116
000150 4d 8f c5 3d be a9 c5 3d 60 d3 26 3c e1 59 eb 3c
       0.09646473 0.096515164 0.010182232 0.028729381
000160 aa 55 b7 bc 7b 0d 3c 3d 22 91 bb 3c 5d df bb 3c
       -0.022379715 0.045911293 0.022896353 0.022933656
000170 d7 7b 70 3d 3d 8f a6 3d 99 5a 8d bc d7 0b 34 3c
       0.058711853 0.08132789 -0.017255114 0.010989151
000180 83 a8 f7 3c 03 d2 8c 3d 84 6d b4 3d 29 81 60 3d
       0.03023172 0.06875994 0.08809951 0.054810677
000190 cf 5e 24 3d d4 18 76 3d c6 71 22 3c 15 9e b6 3d
       0.04012948 0.06008227 0.009914821 0.089168705
0001a0 97 6d c1 3d 48 82 30 bd aa ed 58 3d 00 6a 6a 3d
       0.09444731 -0.043092996 0.05296103 0.057229996
0001b0 2e 00 3a 3d a3 1a a3 3a 31 b5 94 3d de a0 71 ba
       0.045410328 0.0012443851 0.07261122 -0.00092173915
0001c0 32 0a 20 be 47 23 22 3d b9 04 2e 3d e2 90 13 3d
       -0.15628889 0.039584424 0.042484973 0.036026843
0001d0 97 39 b5 3d 2f 0e bc bc a0 92 54 3d e1 89 c6 3c
       0.08848875 -0.022955982 0.051897645 0.024235668
0001e0 b6 1e 6b bc 8b 1e ac bb c7 8c aa ba ea a7 64 bc
       -0.014350584 -0.0052526644 -0.0013011926 -0.013956049
0001f0 d1 94 5e 3d 4d 48 73 3d a6 96 79 3d 3d cc c5 3d
       0.05434114 0.059395123 0.060934685 0.09658096

network_body._body_endoder.seq_layers.4.weight f4 [128, 128]
000000 fa c9 8f 3d 4f fa 0e bc af bc af 3e d7 b5 73 3b
       0.07020946 -0.00872667 0.34323642 0.0037187242
000010 75 2c 0b 3c 6f 4b e0 3d 9d 65 56 3e f7 70 5c bd
       0.008494486 0.10951888 0.209372 -0.05381867
000020 f9 b0 92 bd 82 8d 08 be bd 2c 15 3d b4 ec 64 3e
       -0.07162661 -0.13335231 0.03641962 0.2235592
000030 21 f8 6a 3e ea f6 70 3d 36 b2 86 3e d2 47 f8 3c
       0.22946216 0.058829226 0.2630784 0.030307684
000040 6e 3f a1 bd 53 42 39 3e f2 b8 97 bd 80 73 62 3c
       -0.078734264 0.18091707 -0.074083224 0.013821483
000050 03 c2 9d bd 8a 8c a1 bc 39 3b 3a 3e 74 db 2f 3e
       -0.077030204 -0.019720335 0.18186654 0.17173558
000060 78 7e 40 3b 51 84 b9 3d 09 bf 9e bd 3e e7 d3 bd
       0.0029372256 0.090584405 -0.07751281 -0.1034684
000070 f7 e3 7a 3e 66 d3 ae 3d 1a bc cc 3e dc b9 b2 bd
       0.24501024 0.08536415 0.3998726 -0.08726856
000080 2e 9a a1 3d 49 04 73 bd 77 66 6a be 8e 33 2a be
       0.078907356 -0.05933026 -0.2289065 -0.16621229
000090 8c f5 b6 be 84 12 3e 3e fc b6 b6 3d 96 60 e0 3c
       -0.35734212 0.1856175 0.0892162 0.027389806
0000a0 c0 19 cf 3d 17 d0 d7 3c 6d 4f 08 bd 40 d1 bb bd
       0.10112333 0.026344342 -0.03327887 -0.09170771
0000b0 c3 40 22 3d 10 19 01 3e 5f 93 61 3c b2 e2 b0 3d
       0.039612543 0.12607217 0.013768046 0.08636989
0000c0 09 14 58 3d a6 99 dc 3d be 18 00 3e 5b 8b 9d bd
       0.052753482 0.107714936 0.12509438 -0.076925956
0000d0 04 6d f5 bd 2a db 3d 3e ba c4 f0 bd 52 ee 94 3e
       -0.11983684 0.18540636 -0.117562726 0.29088074
0000e0 47 7b c4 bd ef f7 37 3e 93 31 65 3e c8 f2 52 bd
       -0.09593826 0.17965673 0.22382192 -0.051501065
0000f0 a9 c8 2f bd 3c 07 c3 3d 17 4c 29 3e ce 62 a3 3d
       -0.042915974 0.09522864 0.16532932 0.0797783
000100 37 26 40 be d0 7d 7a 3d 1e 45 44 3e d9 b0 86 be
       -0.18764578 0.06115514 0.19166991 -0.263068
000110 08 38 01 3e 7d 74 24 3e cb 0c 23 3e 74 79 a1 3d
       0.1261903 0.16060062 0.15922849 0.078844935
000120 6e cd 25 bd 79 55 c9 3d 13 cf 92 3c 1e a4 62 bd
       -0.040479116 0.09830756 0.017921006 -0.055332296
000130 fe f7 bd 3d 45 9b 18 be 8e 2f a2 bd dd d7 77 be
       0.092758164 -0.1490298 -0.079192266 -0.24203439
000140 7f 49 9c 3d c6 82 77 3e 6a 24 f6 bd b4 04 ea bd
       0.07631206 0.2417098 -0.12018664 -0.11426678
000150 54 23 8e bd 1c b4 9f bd 1e 30 58 bd ba 84 46 3e
       -0.06940332 -0.07798025 -0.052780263 0.19386569
000160 1e bc 16 be f4 67 3a 3e a4 9d 0e bc e7 bf 84 bd
       -0.14720199 0.18203717 -0.008704577 -0.06481915
000170 f2 bb a1 3d 52 ec 76 be 61 79 2b be c2 f3 65 bd
       0.07897176 -0.24113587 -0.16745521 -0.05614067
000180 8b e7 ce bc 22 5a 1a 3d 6c 46 a9 3d ab e8 e1 3d
       -0.025256893 0.037683614 0.08265385 0.11030706
000190 2a 50 18 3e eb 1c 2c bd 85 13 30 3d a3 48 68 3d
       0.1487433 -0.042019766 0.042987365 0.056709897
0001a0 33 3a ad 3d a6 75 03 3d ee e3 85 3e d3 67 46 3e
       0.08458366 0.03209462 0.2615046 0.19375543
0001b0 32 7e 9d bd 8a 27 c1 3d aa b2 e5 39 9b 7a 6b 3e
       -0.076900855 0.094313696 0.000438114 0.22995989
0001c0 f1 a5 38 bd a3 24 cf 3d d2 93 7b be e6 3b 32 be
       -0.04508013 0.1011441 -0.24568108 -0.17405662
0001d0 c1 1f 2a be c4 b7 ff bc ab d8 5e 3d dd e0 ef bd
       -0.16613676 -0.031215556 0.05440585 -0.11712811
0001e0 44 be 68 be d2 21 a8 3d c7 93 3d 3e a2 64 9b 3d
       -0.2272883 0.08209576 0.18513404 0.075875536
0001f0 ae e0 3e be b7 ce 6c 3e a8 5a 03 3d 4a a4 2a be
       -0.18640396 0.2312573 0.03206888 -0.16664234
000200 72 7c e9 bd 9d 15 9a bd a5 cc 01 be 8e 3a 1b be
       -0.11400689 -0.07523654 -0.12675722 -0.15159056
000210 05 b5 24 be 32 e9 35 bd 27 23 1d be 33 35 9a 3e
       -0.16084678 -0.044411846 -0.15345441 0.30118713
000220 c2 48 04 be 9f 6d 9b bd 38 1b 68 be e0 76 0a be
       -0.1291838 -0.07589268 -0.22666633 -0.1352191
000230 f4 7c a5 bd 8b 78 34 3e ef 51 d7 bd 03 ca 58 3e
       -0.080804735 0.17624108 -0.105136745 0.21170811
000240 1d d5 05 3e e9 15 b9 bc 7b ea 12 bd 2b 92 0d be
       0.13069578 -0.022593455 -0.03586815 -0.1382529
000250 df cd 9a 3e 08 db 3c 3e 02 43 ef bd 96 c0 73 3e
       0.30235192 0.18442929 -0.116827026 0.23803934
000260 8e 83 a1 3d 35 a7 96 3d 44 a3 46 ba 64 90 5d 3e
       0.0788642 0.07356111 -0.0007577429 0.21637112
000270 8e e2 27 3c 9a c8 e2 bc 84 8e 31 be 97 ac b3 3d
       0.010246886 -0.027683545 -0.17339522 0.08773153
000280 bd a3 45 bd 57 25 09 3e 0f 52 6e 3e fa 0d 0b 3e
       -0.048251856 0.1339315 0.2327349 0.1357955
000290 b2 c2 81 3e 9b f1 cd bd 08 43 d5 bd dc 40 48 bd
       0.25343853 -0.10055848 -0.10413176 -0.04888998
0002a0 35 a1 33 bd 2e 4c b6 bd a2 55 8c 3e 64 73 86 bc
       -0.04385491 -0.08901249 0.27409083 -0.016412444
0002b0 1c a6 da 3b 1d 94 fe bc 4e d0 f0 3d 6c 57 db bd
       0.006672634 -0.031076485 0.11758481 -0.10710034
0002c0 17 f8 30 bd f2 33 e5 bd 67 a2 d4 bd 85 81 b5 3e
       -0.043205347 -0.111915484 -0.10382538 0.35450378
0002d0 f1 d3 7b 3e 7a 71 0f 3d f3 d9 96 3e dd 9e 40 be
       0.24592568 0.03502033 0.29463157 -0.18810602
0002e0 d3 1b de 3d 1c 99 c9 bd 0c 81 ce 3d fa 16 72 3d
       0.10845151 -0.098436564 0.100832075 0.059103943
0002f0 64 df d2 3d 74 f5 5e 3d 37 52 43 3e 07 a7 dc bc
       0.10296515 0.0544333 0.19074331 -0.026935114
000300 0d 86 a6 3d 52 19 9d 3d 02 00 d8 bd 2e 06 f3 3b
       0.08131037 0.07670845 -0.105468765 0.007416508
000310 e7 26 3b be 17 a1 30 3d 99 04 ec 3d 07 68 a2 bd
       -0.18276559 0.043122377 0.115243144 -0.07929998
000320 7e 5a cc 3d 72 74 bc bc d5 61 32 3d 38 0f c9 bc
       0.099781975 -0.023004744 0.04355033 -0.02454339
000330 e4 01 91 bc 64 6d 9e ba 4b 22 3b 3e 2f 18 4b 3e
       -0.017701097 -0.0012087044 0.182748 0.19833444
000340 01 1d db bd 3e 04 4d be 9d fb 8e bd c4 98 89 bd
       -0.106988914 -0.2002115 -0.06981585 -0.06718591
000350 de 7a 1c 3e 97 1e 4c 3e d8 18 68 3d d7 00 82 3d
       0.15281245 0.19933544 0.056664318 0.063478164
000360 59 9c c2 3d 5c 56 bf bc 8a c4 49 3d 18 b5 a3 bd
       0.09502477 -0.023356609 0.0492597 -0.07993525
000370 84 96 dd 3c 24 19 ff 39 bb b5 25 be c5 a7 48 3c
       0.02704931 0.0004865612 -0.16182606 0.012247031
000380 11 aa 23 bd 85 83 25 be 65 09 ec 3c 49 29 c8 3c
       -0.03995711 -0.16163452 0.028813073 0.024433749
000390 aa 38 35 bd 4e 67 bb bc 97 f8 12 be 01 96 e5 bc
       -0.044243492 -0.022876408 -0.14352642 -0.028025629
0003a0 fc 67 02 3d d5 03 28 be 8d 44 dc 3d c2 23 32 be
       0.03183745 -0.16407712 0.107552625 -0.17396453
0003b0 c0 e6 ba 3d 53 c5 ab 3d 6c cc c2 3e 73 15 88 bb
       0.09126043 0.08387246 0.38046587 -0.0041529476
0003c0 a9 df 01 be 03 7e 34 be 92 88 70 3e 1f 63 b9 3d
       -0.12682976 -0.17626195 0.23489597 0.09052109
0003d0 7c 5e 1e 3e 2f 65 1b 3d 60 86 f8 3d 18 d0 8e 3c
       0.1546573 0.037938293 0.12135005 0.017433211
0003e0 0d f3 1e bd dd 77 e4 3d 03 f1 ff bd dc ec ba be
       -0.03880601 0.111556746 -0.12497141 -0.36508834
0003f0 4c 52 97 3e fe f6 a6 bc be 56 45 3e 33 65 ac 3e
       0.29554975 -0.020381447 0.19271371 0.3367096

network_body._body_endoder.seq_layers.4.bias f4 [128]
000000 71 da 5e 3d c1 2d b1 3d ac 03 92 3d a9 3f 5f 3d
       0.05440754 0.08651305 0.071296066 0.05450407
000010 e6 3b 81 3d 76 0f 7b bc 0b 7e f2 3c 68 e6 85 3d
       0.06310253 -0.01532351 0.029601118 0.06538087
000020 c0 a7 be 3d ae 58 8e 3d 92 14 76 3d 77 1a 06 3d
       0.093093395 0.06950508 0.06007821 0.032740083
000030 71 f5 ce 3c 49 bc 4a 3d 63 e5 17 3d 03 56 73 3d
       0.02526352 0.04949597 0.037083995 0.0594082
000040 97 f7 93 3d 77 a6 a3 3d 3c d2 6a 3d 26 d2 84 3d
       0.072249584 0.07990735 0.0573294 0.06485395
000050 2b dc 8b 3d 05 5e 81 3d bd c9 08 3d c2 7b 87 3d
       0.06829103 0.06316761 0.033395518 0.06615402
000060 ac 21 28 3d a8 8e 22 3d d1 8b b4 3d 1d b7 94 3d
       0.041047737 0.03968683 0.0881573 0.072614886
000070 2e 3b 39 3d 19 13 90 3d a0 ef 76 3d 2c f2 b4 3d
       0.045222454 0.070348926 0.060287118 0.08835253
000080 ce 69 99 3d f4 9d 2a 3d be 2e 71 3d 8d 4c 84 3d
       0.07490884 0.041654542 0.058882467 0.064599134
000090 3f 04 42 3d 25 4b 3f 3d e7 26 8a 3d c7 e9 02 3d
       0.04736733 0.046702523 0.06745701 0.03196123
0000a0 c8 9f 14 3d 69 ba 20 3d 17 fe ed 3d f1 73 ae 3d
       0.03628519 0.039240275 0.116207294 0.08518208
0000b0 41 34 9c 3d 37 87 51 3d a2 c5 9f 3d 5d 3e 4e 3d
       0.07627154 0.05115434 0.07801367 0.050352443
0000c0 df 30 a8 3d 84 a7 8f 3d be 44 41 3d cd 36 a5 3d
       0.082124464 0.07014373 0.0471847 0.08067093
0000d0 ca ac 64 3d 95 d2 a2 3d 87 8a 30 3d c3 cc 27 3d
       0.055828847 0.079503216 0.04310086 0.04096676
0000e0 6b a4 6a 3d 63 67 65 3d 2f a0 9b 3d 89 80 6b 3d
       0.057285707 0.0560068 0.07598912 0.057495628
0000f0 64 3b 79 3d 4d 65 91 3d cd 3e 98 3d 36 18 35 3d
       0.060847655 0.070994 0.07433853 0.044212542
000100 ad 79 2c 3d e9 3f 71 3d 30 aa 8e 3d 51 58 6d 3d
       0.042108227 0.05889884 0.069660544 0.057945553
000110 69 4d 6e 3d 60 dc 14 3d fc 76 aa 3d 56 c4 7a 3d
       0.058179293 0.03634298 0.08323476 0.061222397
000120 eb a0 cc 3d 48 ce 73 3d 8d a5 17 3d 31 70 52 3d
       0.0999163 0.059522897 0.037023116 0.051376525
000130 eb 48 2c 3d 49 a4 a4 3d d8 fd 56 3d 18 a2 83 3d
       0.042061727 0.080391474 0.052488178 0.06427401
000140 0e 70 9e 3d 86 d1 aa 3d 9c 3c 64 3d 3c 55 24 3d
       0.077362165 0.08340745 0.055721864 0.04012035
000150 ad dc 8b 3d 6f 4c 70 3d 91 22 88 3d fa e1 96 3d
       0.068292 0.058666643 0.06647218 0.0736732
000160 3a 88 8a 3d 18 32 95 3d 85 ae 6b 3d ff 83 3e 3d
       0.067642644 0.07284945 0.05753948 0.0465126
000170 8e 9d 92 3d 10 e1 8c 3d aa ad 54 3d 84 62 92 3d
       0.071589574 0.06878865 0.05192343 0.071476966
000180 37 39 9b 3d b0 e3 53 3d 6c a0 49 3d df bb 68 3d
       0.07579272 0.05173081 0.049225256 0.056819793
000190 d7 d6 56 3d 8f 0e 60 3d ea e4 20 3d b0 1e 7c 3d
       0.05245098 0.054701384 0.03928081 0.061552703
0001a0 67 1d af 3d 18 74 b2 3d ae 98 89 3d 9f 8b b9 3d
       0.0855053 0.087135494 0.067185745 0.09059834
0001b0 7c 9a ec 3c 1c 58 9b 3d 25 e4 23 3d 01 f2 1c 3d
       0.028882258 0.07585165 0.040012497 0.03831673
0001c0 65 d3 98 3d bd e7 f8 3c 4b 8f 22 3d 0d 71 af 3d
       0.07462195 0.030383939 0.039687436 0.085664846
0001d0 35 3d 76 3d b2 23 41 3d ef 1d 33 3d f3 66 85 3d
       0.060116965 0.047153182 0.04372972 0.06513777
0001e0 54 1b a9 3c 21 75 73 3d f9 37 ca 3d 99 0e 89 3d
       0.020642914 0.059437875 0.09873957 0.066922374
0001f0 dd e4 ad 3d 6d 6c 8e 3d c7 b7 72 3d 4a 1d ac 3d
       0.08490918 0.06954274 0.059257295 0.08404024

action_model._discrete_distribution.branches.0.weight f4 [25, 128]
000000 10 27 67 3b 96 7d 09 bd d6 dc bf 3a 02 bd 26 bc
       0.0035271086 -0.033567034 0.0014637958 -0.010176899
000010 b0 14 98 bd 16 83 61 3c 08 90 2d bc 5d 5c 89 bb
       -0.07425821 0.0137641635 -0.010593422 -0.0041919188
000020 b1 51 a7 bd 38 3d a4 3a 29 22 48 3a 91 4c 3e 3c
       -0.08169878 0.0012530452 0.0007634485 0.011614935
000030 b9 69 de bc 21 05 ef 3b b3 fd 8c bc 7e 4c bf bd
       -0.027150022 0.0072943126 -0.017210817 -0.093407616
000040 0a ca 68 3d d7 49 3b bd 4f c2 a0 bc 0b 9e f7 bc
       0.056833304 -0.045724716 -0.019623904 -0.030226728
000050 8e 61 91 bc 6c df 9d bd 48 a4 70 3c b0 9c 00 3c
       -0.017746713 -0.0770863 0.014687605 0.007849857
000060 08 ba 96 3c fa 47 2b bd 7f 5f 88 3d e2 be 37 3c
       0.018399253 -0.04181669 0.066588394 0.011214944
000070 c8 36 46 3b 2f a9 34 bc 2c c5 33 3d fe fb b1 3c
       0.0030245055 -0.011026665 0.04388921 0.021726605
000080 1f b6 a9 bb 95 0c 8d 3c df 45 6f bd 59 86 58 3b
       -0.005179181 0.017217914 -0.058416244 0.0033039062
000090 0a e0 7b ba a3 c0 83 bc b0 ed 58 bd 6a 75 4e 3c
       -0.00096082746 -0.016083067 -0.05296105 0.012601236
0000a0 47 0c 92 ba 48 0a 3b bd c3 0f 84 3d 1e 89 a6 bd
       -0.0011142575 -0.0456641 0.06448319 -0.08131622
0000b0 c3 24 25 bd 56 d2 ad bb f0 ed a4 bd 42 ff 2c 3d
       -0.04031826 -0.005304615 -0.080531955 0.04223562
0000c0 ba a6 a6 bd 6f 78 34 bd 32 23 ce 3c b0 e6 2c 3d
       -0.08137269 -0.044060167 0.025163267 0.04221219
0000d0 6c 12 5b bd 36 c5 ec 3b e5 53 bc bb 7d cc 88 3a
       -0.053484365 0.007225658 -0.0057473057 0.0010436919
0000e0 6c b3 47 bd cf db 85 bd 5c 0d 84 bd 4a b2 84 bb
       -0.048755094 -0.06536066 -0.064478606 -0.004049574
0000f0 32 b2 82 bd f6 63 fe 3b 20 67 db 3c ce e9 9c bd
       -0.06381644 0.007763381 0.026782572 -0.07661782
000100 47 89 a5 bb 84 41 a6 bd 8b 75 b6 bd e8 53 8b bc
       -0.005051765 -0.08117965 -0.08909138 -0.017007783
000110 55 05 de bb 7e fe 71 3b 52 5f 76 bd 2e ef 44 bd
       -0.006775538 0.003692537 -0.0601495 -0.048079662
000120 0e 5f 9c bd 0b c4 a5 3b 80 a1 46 bd 43 b5 a6 bc
       -0.07635318 0.0050587705 -0.048493862 -0.020350104
000130 c7 2b 94 bb fe d6 af 3c 24 c7 55 3d 68 3e a7 bc
       -0.00452182 0.021464821 0.05219187 -0.0204155
000140 e4 89 94 3d d0 13 03 3d 80 00 12 bc c6 31 2b bb
       0.07252863 0.032001317 -0.008911252 -0.0026122197
000150 9f 05 86 bd bf 69 4a bd 2b d1 8e bd ec 24 94 3b
       -0.06544041 -0.049417254 -0.069734894 0.004521003
000160 ba 16 f8 bc bf 59 2c bd f2 be 1a 3c d2 34 a5 3b
       -0.030284274 -0.042077776 0.009444939 0.005041697
000170 d1 33 87 bc e2 34 60 b9 c9 51 f0 3b cc ba 88 bd
       -0.0165042 -0.00021382005 0.0073339683 -0.06676254
000180 f8 bb 75 bd 1e ed 2d bc fc d1 9c 3c 07 64 50 bd
       -0.059993714 -0.010615615 0.019143097 -0.050876644
000190 4a f7 f2 3b 8a 27 15 bd 3f ec e5 bb 23 1d 63 bb
       0.007414733 -0.03641466 -0.007016688 -0.0034654818
0001a0 ef 88 0d bd a5 52 2d bd 99 45 d1 3c 70 20 7d 3d
       -0.03455442 -0.042315144 0.025545882 0.061798513
0001b0 19 d2 12 3d 25 84 3a bd cf 74 01 bd 93 03 11 3d
       0.035844896 -0.04553618 -0.031605538 0.0354038
0001c0 1c 90 1a 3d 7b d1 80 bc dd a5 5d bc 71 b6 2a 3d
       0.03773509 -0.015724888 -0.013528314 0.041677896
0001d0 2f 4c 93 bd 20 cb 08 bc 94 63 52 bb 76 3d 82 bd
       -0.07192265 -0.00834921 -0.003210281 -0.06359379
0001e0 c2 5a b8 ba b0 dd 25 bd 5a 03 24 3d 00 58 70 3c
       -0.0014065134 -0.04049462 0.04004226 0.014669418
0001f0 f2 a6 94 bd ef ba 86 ba 43 a8 82 3b d3 2b f1 3c
       -0.07258405 -0.0010279099 0.0039873435 0.029439842
000200 4a 2c 2e bc 43 2b 17 bd 98 df 51 bc 93 0a 59 bc
       -0.0106306765 -0.036906492 -0.012809657 -0.01324715
000210 57 8c 49 bd 64 2b 72 3c d8 e5 32 3c d0 19 81 ba
       -0.049206104 0.014780853 0.010919057 -0.0009849612
000220 fb 90 85 bd da 1b 8d bc 72 e8 94 3c 1c 28 8d bc
       -0.065217935 -0.017225195 0.018177245 -0.01723104
000230 f1 93 ea bc 03 bc 99 bb 2b b1 1e bc 0e 73 82 bd
       -0.028634997 -0.004691602 -0.009685795 -0.06369601
000240 d2 f4 15 3d 0f ea 5c bd 5e 0b 54 38 1e 4b 1e bd
       0.036610432 -0.053934153 5.0555325e-05 -0.038645856
000250 91 9d 24 bd ec f6 80 bd 87 15 dc 3c c9 8d 57 3c
       -0.04018933 -0.062970966 0.026865734 0.013156363
000260 86 45 3a 3c ca 74 fd bc 4a 65 70 3d 98 6f 01 3d
       0.011369115 -0.030939478 0.058690347 0.031600565
000270 a2 86 12 ba 0c a0 07 bc d8 85 5a 3d 3d f7 60 3d
       -0.000558952 -0.008277904 0.0533503 0.054923285
000280 90 b6 fd bb a7 5e ef 3c 04 b3 79 bd c2 16 d1 3c
       -0.0077427104 0.029219938 -0.06096174 0.025523547
000290 22 ab 95 bb 20 fc d9 bc 29 1b b4 bd 46 2a bd 3a
       -0.0045675198 -0.02660948 -0.08794243 0.0014432154
0002a0 70 ef 93 bc 2a 42 1b bd 8d 2b 8b 3d b3 d1 9b bd
       -0.018058509 -0.037904896 0.06795416 -0.07608356
0002b0 18 e2 50 bd 9e 72 37 39 52 eb 5d bd 29 bd 41 3d
       -0.05099687 0.00017494938 -0.054179497 0.047299538
0002c0 b7 b8 a9 bd f6 17 84 bb a8 b9 3a 3d f6 bd 38 3d
       -0.08287185 -0.0040311767 0.04558721 0.045103036
0002d0 99 7f 56 bd 07 69 01 3d 08 11 0f 3c bd 6e 8e bc
       -0.05236778 0.031594303 0.008732088 -0.017386789
0002e0 0f ca 3b bd 23 71 14 bd ba 49 b7 bd de 82 9c 3c
       -0.045846995 -0.036240708 -0.08949609 0.019105371
0002f0 17 0e 31 bd 82 66 a8 3c 6b 5f 31 3d 72 08 14 bd
       -0.043226328 0.020556692 0.04330389 -0.036140867
000300 96 ea 20 3c b7 18 90 bd a5 cf b3 bd 16 b6 11 3c
       0.009821555 -0.07035964 -0.087798394 0.00889351
000310 d3 3d 85 bb c9 6c e1 3c 5b 8d 6b bd 4e 5d f3 bc
       -0.004066208 0.027517693 -0.057507854 -0.029707577
000320 c9 16 aa bd 6d 89 de 3c 85 4d 3b bd b8 52 60 3c
       -0.08305127 0.02716514 -0.045728225 0.013691597
000330 85 23 a4 3b 61 1c 6f 3d 2d 5d 48 3d 89 eb a2 bc
       0.005009117 0.058376674 0.048916984 -0.019887703
000340 e0 cd 33 3d d0 5c 7c 3d 7b c6 5a 3c 22 0b 30 3b
       0.04389751 0.06161195 0.0133529855 0.0026862104
000350 5c 4b 98 bd 23 c2 08 bd 74 a9 26 bd a7 a2 40 3d
       -0.07436249 -0.03338827 -0.040688947 0.047030117
000360 c0 16 67 bd 18 ac 22 bc 4b 75 28 3d 09 81 1e 3d
       -0.05641818 -0.009928726 0.041127484 0.038697276
000370 43 b7 bf 3c 4c 3b 34 bc 4e b2 f1 3c 7e dd 93 bd
       0.023402816 -0.011000466 0.029503968 -0.07219981
000380 9d 10 e1 bc 01 02 7e bc 51 cd 48 bb 5b 84 83 bd
       -0.027473742 -0.015503407 -0.0030639956 -0.06421729
000390 0a 8e 41 3c 9d 79 83 bc d3 6c 9d bc c8 61 6f 3c
       0.01181365 -0.0160492 -0.01921693 0.014610715
0003a0 5b 15 5b bd d4 14 a8 bd ec cc de 3c a6 ed 8f 3d
       -0.053487163 -0.08207098 0.027197324 0.0702775
0003b0 7a 2f 58 3c 33 68 ae bd ee 3c c3 bb 81 49 c2 3c
       0.013194913 -0.08515968 -0.005958191 0.02371669
0003c0 30 7e 15 3d 54 dd dd bc f8 d5 92 bc 2b 67 7d 3d
       0.036497295 -0.027083077 -0.017924294 0.061865967
0003d0 40 d3 37 bd a9 c2 02 bd 87 12 1b 3c 57 03 3c bd
       -0.044879198 -0.031923924 0.0094648665 -0.045901623
0003e0 95 3c 0b 3d d1 80 70 bc 60 8b 4e 3d c5 4d 36 3c
       0.033993322 -0.01467915 0.050425887 0.01112694
0003f0 ef 21 d7 bd 9b 48 ac bc f4 09 3e 3c 73 81 42 3d
       -0.10504519 -0.021030715 0.011599053 0.047486734

action_model._discrete_distribution.branches.0.bias f4 [25]
000000 dd 33 a2 bc 2c 43 36 bb 79 e1 9d 3c 99 75 a3 3c
       -0.019800121 -0.0027811034 0.019272553 0.019953536
000010 3a 95 4c ba f2 e8 2a 3d 35 97 5a bc 7b 35 5b bb
       -0.0007804219 0.04172606 -0.013341715 -0.0033448625
000020 03 30 95 bc 65 58 c2 3b 37 a9 03 3c f7 06 9c bc
       -0.01821137 0.0059309476 0.008035949 -0.01904629
000030 7c 0b 05 bd 22 10 81 bc a3 b4 12 3c a6 d0 40 3c
       -0.032481655 -0.015754763 0.0089542 0.011768496
000040 25 a6 00 bc 8c 1d 62 bc 60 5f fa bc 51 24 4d bc
       -0.007852112 -0.01380099 -0.030563056 -0.012520866
000050 8a 39 a0 3c 13 14 d0 bc ff 46 ef 3c 9a 0b 49 3c
       0.019558687 -0.025400197 0.029208658 0.012270832
000060 a9 38 07 bb
       -0.0020633137
