Assets/Env5/Brains/MoveOverBridge.onnx (onnx, 155478 bytes, 8 tensors)

network_body._body_endoder.seq_layers.0.weight f4 [128, 13]
0.3923936 -0.52883595 0.10593487 -0.21872671 -0.04735009 -0.07898985 -0.20867273 0.23160966
0.52377117 -0.51779383 0.46614534 -0.32500786 -0.0649892 0.0048185275 0.37238717 0.26685557
-0.24431485 0.13668874 -0.08072708 0.04553419 -0.32773796 0.35469076 -0.44362095 0.3705388
0.16266555 -0.15593068 -0.01361081 0.66340107 0.22709017 -0.06198585 -0.3663325 0.45473078
0.11375761 -0.13021524 0.67550266 0.3639909 0.2973567 0.24619061 -0.21290767 -0.6405402
-0.024461914 -0.051516995 0.05395383 0.33240134 -0.15257084 0.4732355 -0.22389182 0.1561885
-0.018999863 0.26188558 -0.36817446 -0.47954905 -0.57839185 -0.1684503 -0.13114038 -0.15839258
-0.09639319 0.0793835 0.0849896 0.2749828 0.15824734 -0.33797163 0.12912293 0.18145496
-0.54032385 -0.06573213 0.19303954 0.07260809 -0.24645455 0.16469212 -0.3056867 -0.424364
0.20312084 -0.19013721 0.42226818 0.20083551 0.49373886 -0.15636231 0.044732556 -0.33929887
0.24640726 -0.09395094 0.21416368 -0.46926662 0.52700835 -0.13311918 0.019738633 -0.2154446
0.16524634 -0.47446707 -0.19623591 -0.28724125 0.060352515 0.49093002 0.20735283 0.036071815
0.4120961 -0.04696536 -0.43226823 -0.17199232 0.28037015 0.136593 0.08240715 0.26631948
-0.1692747 0.3260029 -0.3391879 0.22547 -0.45487365 0.05943925 0.014782937 0.07267421
0.22652139 0.15195441 -0.43031743 -0.35855237 0.12088485 0.3965845 -0.26079944 -0.29243898
-0.046835188 -0.10074351 -0.10104152 0.33870897 -0.47256115 0.022693312 0.1952003 -0.22627446
-0.19217895 -0.089607485 -0.2244586 0.20151003 -0.6981982 -0.07894312 0.02940646 0.29963365
-0.34553087 0.16798545 0.13007751 0.11103318 -0.02406014 -0.0055268463 0.04878318 0.6087386
0.11670668 -0.41717175 -0.21628515 -0.33325163 -0.5498545 0.13357814 0.18515964 0.06726955
-0.16875926 -0.38508224 0.19374256 0.7338892 -0.15411063 0.3464378 -0.038093265 -0.21130042
0.08593568 -0.28697494 -0.20388661 -0.27668026 -0.20426662 0.30667347 -0.06537439 -0.14699791
0.12871969 -0.29282212 -0.3286846 -0.4915613 0.25279662 -0.3779899 0.33463186 -0.3714237
-0.35176525 0.09612601 -0.0035410721 -0.17214632 -0.6452583 0.051619835 -0.20411532 0.002688214
0.32193086 0.09960334 0.1415042 -0.5450058 0.52452374 0.13497673 0.20666587 0.17512076
-0.11686299 0.48680097 0.74571496 -0.436681 -0.43855068 0.0062795593 0.3361279 -0.117742695
-0.48057264 -0.1510053 -0.22743453 0.027190985 -0.2512806 0.29356205 0.15258457 0.20826042
0.10178344 -0.07092683 -0.49537453 0.033128202 -0.10499469 0.2884619 0.6108002 -0.0099339485
-0.4434226 -0.14179733 -0.40771148 0.010241038 0.2309345 0.2670188 -0.42732432 0.31900746
-0.2858397 0.047967076 -0.250261 0.23607205 -0.11484543 0.07195181 0.50363654 -0.08660714
0.13286793 0.09356637 0.32644218 0.5319554 0.31673563 0.18249416 -0.05777735 0.24137866
-0.46658206 -0.08334281 0.110342376 0.47437832 0.22327535 -0.33343768 0.3593006 -0.12554127
-0.07421763 -0.052310225 -0.21779433 0.3161583 0.35970557 0.2079792 0.107264966 -0.24472532
00000000: d0e7 c83e cb61 07bf 62f4 d83d e5f9 5fbe
00000010: 2bf2 41bd 6ec5 a1bd 4eae 55be 152b 6d3e
00000020: de15 063f 238e 04bf 9aaa ee3e 6e67 a6be
00000030: 0f19 85bd bde4 9d3b 88a9 be3e 4ba1 883e
00000040: ac2d 7abe 22f8 0b3e 3d54 a5bd 0f82 3a3d
00000050: 45cd a7be 079a b53e 4922 e3be 43b7 bd3e
00000060: cc91 263e 4bac 1fbe e0ff 5ebc a7d4 293f
00000070: 538a 683e e0e4 7dbd ef8f bbbe 79d2 e83e
00000080: c0f9 e83d 2557 05be beed 2c3f 045d ba3e
00000090: 233f 983e 6419 7c3e 7804 5abe 71fa 23bf
000000a0: 5a64 c8bc 7c03 53bd b1fe 5c3d 8230 aa3e
000000b0: 883b 1cbe ec4b f23e e643 65be e1ef 1f3e
000000c0: 9aa5 9bbc de15 863e 5d81 bcbe 7487 f5be
000000d0: 7d11 14bf 3c7e 2cbe aa49 06be aa31 22be
000000e0: cb69 c5bd d193 a23d 070f ae3d 8cca 8c3e
000000f0: 970b 223e 9e0a adbe cd38 043e 54cf 393e
00000100: aa52 0abf 919e 86bd 28ac 453e 8db3 943d
00000110: 955e 7cbe 0da5 283e f882 9cbe 3d46 d9be
00000120: e9fe 4f3e 54b3 42be 8933 d83e d3a7 4d3e
00000130: 57cb fc3e 711d 20be 7c39 373d 95b8 adbe
00000140: 2f52 7c3e 5a69 c0bd b94d 5b3e b743 f0be
00000150: 05ea 063f 6550 08be eab2 a13c 829d 5cbe
00000160: 5636 293e 59ed f2be 11f2 48be 4911 93be
00000170: 3334 773d 2e5b fb3e 4d54 543e 0ac0 133d
00000180: 43fe d23e c05e 40bd 4352 ddbe c11e 30be
00000190: ad8c 8f3e 09df 0b3e 14c5 a83d 075b 883e
000001a0: 5956 2dbe dae9 a63e 09aa adbe 9ce1 663e
000001b0: 33e5 e8be 9276 733d 2234 723c 37d6 943d
000001c0: 39f5 673e f099 1b3e 9152 dcbe 2d94 b7be
000001d0: 7a92 f73d 200d cb3e 8187 85be 90ba 95be
000001e0: 41d6 3fbd 9d52 cebd dbee cebd 436b ad3e
000001f0: 89f3 f1be 53e7 b93c 96e2 473e 7eb4 67be
00000200: 8fca 44be 2184 b7bd 7ad8 65be a558 4e3e
00000210: 1ebd 32bf eeac a1bd d1e5 f03c 9569 993e
00000220: 6ce9 b0be 6104 2c3e 0a33 053e 5d65 e33d
00000230: c519 c5bc 8c1a b5bb dfd0 473d 4bd6 1b3f
00000240: e903 ef3d 8997 d5be db79 5dbe f59f aabe
00000250: 44c3 0cbf b5c8 083e 7d9a 3d3e 9ec4 893d
00000260: 3acf 2cbe 8029 c5be 7364 463e 2ae0 3b3f
00000270: 2dcf 1dbe 4c60 b13e af07 1cbd 235f 58be
00000280: 0cff af3d 61ee 92be a7c7 50be 09a9 8dbe
00000290: 452b 51be 4e04 9d3e 02e3 85bd 9f86 16be
000002a0: 18cf 033e c8ec 95be 5949 a8be ecad fbbe
000002b0: 8f6e 813e e487 c1be de54 ab3e 3f2b bebe
000002c0: 931a b4be b7dd c43d 5511 68bb 2047 30be
000002d0: a62f 25bf 526f 533d 9b03 51be bf2c 303b
000002e0: 1fd4 a43e d6fc cb3d 7ae6 103e 8085 0bbf
000002f0: 3047 063f 5737 0a3e 38a0 533e db52 333e
00000300: dd55 efbd fa3d f93e 2de7 3e3f a794 dfbe
00000310: b789 e0be c3c4 cd3b f518 ac3e 1523 f1bd
00000320: 9e0d f6be 22a1 1abe 99e4 68be a1bf de3c
00000330: daa7 80be c44d 963e 213f 1c3e 3842 553e
00000340: d673 d03d 1642 91bd bba1 fdbe 70b1 073d
00000350: 7507 d7bd 47b1 933e 675d 1c3f 00c2 22bc
00000360: 4908 e3be 5233 11be 8fbf d0be 07ca 273c
00000370: 187a 6c3e b0b6 883e 41ca dabe f254 a33e
00000380: 9559 92be 2079 443d 3622 80be dfbc 713e
00000390: 1534 ebbd 785b 933d 53ee 003f 165f b1bd
000003a0: 880e 083e ba9f bf3d 6e23 a73e 3b2e 083f
000003b0: 2c2b a23e c0df 3a3e f1a7 6cbd f82b 773e
000003c0: d8e3 eebe a3af aabd 2ffb e13d b7e1 f23e
000003d0: 4ba2 643e 58b8 aabe 40f6 b73e e48d 00be
000003e0: 6aff 97bd 3f43 56bd 7a05 5fbe 80df a13e
000003f0: 542b b83e 80f8 543e bcad db3d 4699 7abe

network_body._body_endoder.seq_layers.0.bias f4 [128]
-0.047554944 -0.027400749 0.059247326 0.028666563 0.0025548304 0.05929085 -0.055559374 0.06035266
0.060336884 -0.05561835 0.05059759 -0.03714828 0.06131192 0.048381675 0.036905546 0.060382165
-0.058666997 -0.020272559 0.052751984 -0.058905672 0.06358836 -0.042843778 0.049261875 -0.05392978
-0.056483798 -0.02177138 0.06498522 0.054647397 -0.05345149 0.04752589 0.048584726 0.06213375
0.05066078 -0.050923463 0.059704073 -0.05292315 0.054186717 0.0578112 -0.047022864 0.0495529
0.05301215 -0.054938313 0.056876842 -0.053467516 -0.04221753 -0.054581862 0.04548073 -0.044990037
0.06073213 0.046924196 -0.059422266 0.0594941 -0.0103570605 -0.048885714 -0.036961637 -0.044120904
-0.057393685 0.04296452 0.023968397 -0.04252736 0.062331237 0.06262314 0.06885186 0.015626563
-0.041704413 0.045932006 -0.0606761 -0.05753327 -0.02753439 -0.044125598 0.051475305 0.048296742
-0.048589047 0.05773521 -0.06046328 0.056475233 -0.054519173 -0.043819495 0.03130866 0.058053747
0.05949475 -0.05386738 -0.055158466 0.048056506 0.06743161 -0.04931318 -0.048998218 0.046704486
0.05034234 0.065972194 -0.01742426 0.0408231 0.057741266 -0.0053161033 0.055219103 0.057159476
-0.053803764 0.060748726 0.05037902 -0.044054937 0.057367228 0.04858446 0.057260495 0.04641369
-0.02404708 -0.023677552 -0.050916813 0.048997026 -0.05642656 -0.030223284 0.064903416 0.06164043
-0.048690986 0.06328888 -0.05295244 -0.045774728 0.052430242 -0.017033923 0.06535648 -0.042188954
-0.04342242 0.05944761 0.02853177 0.054879364 0.058158025 -0.058595613 -0.029372513 0.032461956
00000000: f9c8 42bd 8977 e0bc 53ad 723d 24d6 ea3c
00000010: f16e 273b f6da 723d 3a92 63bd 5a34 773d
00000020: cf23 773d 11d0 63bd 6b3f 4f3d cb28 18bd
00000030: 3522 7b3d dd2b 463d 452a 173d 4a53 773d
00000040: ce4c 70bd a312 a6bc 7712 583d 1347 71bd
00000050: 9d3a 823d f57c 2fbd d2c6 493d 79e5 5cbd
00000060: 8e5b 67bd e559 b2bc f916 853d f3d5 5f3d
00000070: f3ef 5abd 82aa 423d c700 473d f67f 7e3d
00000080: ae81 4f3d 1f95 50bd 428c 743d f2c5 58bd
00000090: e4f2 5d3d 70cb 6c3d 0c9b 40bd fbf7 4a3d
000000a0: 4523 593d ff06 61bd b1f7 683d c100 5bbd
000000b0: 4aec 2cbd 3b91 5fbd 004a 3a3d 7947 38bd
000000c0: 41c2 783d 9633 403d c364 73bd 16b0 733d
000000d0: a9b0 29bc 633c 48bd 1665 17bd 1fb8 34bd
000000e0: a415 6bbd 91fb 2f3d 5f59 c43c 2b31 2ebd
000000f0: 0a4f 7f3d 9040 803d 3402 8d3d 4703 803c
00000100: 3fd2 2abd 3323 3c3d 8187 78bd 02a8 6bbd
00000110: cd8f e1bc 0bbd 34bd c5d7 523d ced2 453d
00000120: 4f05 47bd c17b 6c3d 58a8 77bd 9352 673d
00000130: 7f4f 5fbd 127c 33bd 823d 003d c4c9 6d3d
00000140: c4b0 733d 0ba4 5cbd d8ed 61bd e6d6 443d
00000150: 9519 8a3d 9efc 49bd 5bb2 48bd 344d 3f3d
00000160: c533 4e3d 6e1c 873d 52bd 8ebc 1f36 273d
00000170: 1b82 6c3d b532 aebb 6d2d 623d 0e20 6a3d
00000180: 5661 5cbd a8d3 783d 3b5a 4e3d f372 34bd
00000190: e6f9 6a3d 8000 473d fb89 6a3d 481c 3e3d
000001a0: 62fe c4bc 6df7 c1bc 268e 50bd 1bb1 483d
000001b0: 891f 67bd d296 f7bc 15ec 843d ad7a 7c3d
000001c0: 3370 47bd 9a9d 813d a8e4 58bd 487e 3bbd
000001d0: 18c1 563d ba8a 8bbc 9ed9 853d 53ce 2cbd
000001e0: b5db 31bd 567f 733d 75bb e93c 2fc9 603d
000001f0: 1c37 6e3d f401 70bd a09e f0bc d4f6 043d

network_body._body_endoder.seq_layers.2.weight f4 [128, 128]
0.043001432 -0.01907464 0.16957991 -0.046710286 0.03532617 -0.056717895 0.07540264 0.08671016
-0.00900641 -0.1090668 -0.10453295 0.021364294 -0.0063243187 0.013703011 -0.02551129 -0.03715489
-0.16188213 -0.12175315 0.14122295 -0.12631549 0.19906761 -0.05796142 0.062125705 -0.094883405
0.20753585 -0.034654964 0.22149251 0.10408241 -0.1678652 -0.029881414 -0.103272095 0.12777117
0.031917453 -0.09237794 0.1490807 -0.025333188 0.14686415 0.15166353 -0.023566885 -0.011457986
-0.068393126 -0.019474642 0.03661323 -0.029089859 -0.057167973 0.07201775 0.11774145 -0.088360585
-0.0071822847 0.01949369 -0.10582065 -0.009749707 0.052436315 -0.009186188 -0.058995355 0.01016668
0.099986404 -0.1359378 0.101262875 -0.0019311645 0.00891805 0.15257438 -0.110083595 -0.10763609
0.0137921935 0.024355335 -0.051217254 0.05820748 -0.09194134 -0.009070831 0.033099 -0.044861235
-0.14253762 0.2205719 -0.03119675 0.11336958 0.092870966 -0.1767331 -0.023315113 0.11881123
0.11750772 -0.05304846 -0.14359571 0.12799035 0.13610813 -0.2649205 0.055089872 0.08965828
0.22562964 -0.010258757 0.08492023 0.14545545 0.05540707 -0.16420116 -0.14725856 0.041734826
0.10274341 -0.0332218 -0.047520094 -0.07413742 0.02471365 0.10828313 0.0245253 -0.08054139
0.01203314 -0.054480545 0.012795375 -0.075552665 0.055162273 -0.017964594 0.062062442 0.1521455
0.13651523 0.13641475 -0.089506455 -0.22158843 0.11906127 -0.13229711 0.119573325 0.19739687
-0.06493576 0.03141226 -0.07488452 0.13685001 0.097925395 0.01591019 0.02146158 -0.01968548
-0.22855227 -0.21485336 0.1347057 0.12933585 -0.018868454 -0.15400188 -0.08756495 0.076226994
0.0823127 0.010328073 0.0049629384 -0.12140863 -0.11709115 0.07167615 -0.03983256 0.006545538
-0.24779645 -0.056943472 0.10573385 -0.291084 0.20903586 -0.15884449 0.06993189 0.04722138
-0.018231502 -0.041816726 0.029897878 -0.004891593 0.05529996 -0.17441124 -0.059106838 0.006132975
0.0025714198 -0.005233409 0.0695067 0.07794496 0.12732838 0.0536398 -0.034064323 0.07556202
0.09333996 -0.015268474 0.05553098 -0.07384811 -0.1252777 -0.24454108 -0.14098139 -0.18893948
-0.051977467 0.02135895 0.040471286 0.05832992 -0.011244512 -0.128813 0.00023642759 -0.045686506
-0.13951255 0.09781044 -0.014166611 -0.101700954 0.16325182 0.10534132 -0.022006676 -0.06729915
-0.0009289266 0.19708368 -0.02141666 -0.12970346 -0.15568689 -0.06084875 0.08619187 0.07568047
0.0065230657 0.04216753 0.07277646 -0.0070076417 -0.056525398 0.03896922 0.05661119 -0.029094717
0.07599697 -0.08480562 0.071541265 -0.06445234 0.08796313 -0.11360623 0.01964793 -0.06388293
0.06714003 -0.13276339 0.08146459 0.11234641 0.072752975 -0.13819592 0.06637316 0.0838207
-0.14167881 0.11105064 0.04683825 0.056197073 0.21874602 0.08697668 0.055352375 -0.07284841
-0.052396856 -0.13838832 -0.14345768 0.09475305 -0.08204573 -0.13614216 -0.06860527 0.177792
-0.047237825 -0.0429209 -0.02174284 -0.058127888 0.11472495 0.050095357 0.111557245 -0.028377952
0.013661582 -0.0010645298 -0.04877914 0.02573154 -0.032850984 -0.100110054 -0.02366209 0.016206123
00000000: 4522 303d 6b42 9cbc 5ba6 2d3e 4953 3fbd
00000010: 2db2 103d 0651 68bd b36c 9a3d 1995 b13d
00000020: 9f8f 13bc 6a5e dfbd 5f15 d6bd 2c04 af3c
00000030: 3b3c cfbb 9882 603c 0efd d0bc ba2f 18bd
00000040: 6ec4 25be b759 f9bd c09c 103e d958 01be
00000050: 61d8 4b3e f468 6dbd 8677 7e3d 3b52 c2bd
00000060: 4784 543e 5df2 0dbd efce 623e 2929 d53d
00000070: dbe4 2bbe dec9 f4bc 5280 d3bd 72d6 023e
00000080: e0bb 023d a530 bdbd 9ca8 183e 8c87 cfbc
00000090: 8e63 163e af4d 1b3e 570f c1bc 47ba 3bbc
000000a0: b211 8cbd 4989 9fbc c1f7 153d db4d eebc
000000b0: f728 6abd 0b7e 933d 6e22 f13d 65f6 b4bd
000000c0: 5f59 ebbb 3bb1 9f3c 7fb8 d8bd 3cbd 1fbc
000000d0: 76c7 563d aa81 16bc 1da5 71bd 2692 263c
000000e0: acc5 cc3d 4733 0bbe e962 cf3d 211f fdba
000000f0: 031d 123c 753c 1c3e 8273 e1bd 4f70 dcbd
00000100: a7f8 613c d784 c73c 2fc9 51bd f76a 6e3d
00000110: be4b bcbd d39d 14bc d192 073d 6ac0 37bd
00000120: 62f5 11be 9add 613e 5490 ffbc 4f2e e83d
00000130: 2233 be3d 86f9 34be 56ff bebc 4d53 f33d
00000140: e3a7 f03d 5849 59bd c10a 13be e70f 033e
00000150: ee5f 0b3e a9a3 87be eba5 613d c39e b73d
00000160: 750b 673e 5814 28bc a8ea ad3d 46f2 143e
00000170: 86f2 623d 5924 28be f3ca 16be 23f2 2a3d
00000180: 236b d23d 9513 08bd 6ea4 42bd 5cd5 97bd
00000190: 4874 ca3c 8cc3 dd3d 48e9 c83c e2f2 a4bd
000001a0: a626 453c fe26 5fbd b1a3 513c 5bbb 9abd
000001b0: d6f1 613d 7c2a 93bc 3035 7e3d 08cc 1b3e
000001c0: a6ca 0b3e 4fb0 0b3e 294f b7bd 14e8 62be
000001d0: 65d6 f33d e578 07be dce2 f43d 6822 4a3e
000001e0: 0afd 84bd 24aa 003d 0e5d 99bd 6922 0c3e
000001f0: 1c8d c83d 1656 823c 32d0 af3c 7243 a1bc
00000200: 9b09 6abe 8502 5cbe 4bf0 093e 9e70 043e
00000210: 0492 9abc abb2 1dbe 4155 b3bd e61c 9c3d
00000220: 9093 a83d 1437 293c 25a0 a23b 16a5 f8bd
00000230: 7ccd efbd f2ca 923d 7727 23bd f47b d63b
00000240: 5abe 7dbe 8f3d 69bd fd8a d83d f608 95be
00000250: 7f0d 563e 21a8 22be 7338 8f3d 356b 413d
00000260: 3b5a 95bc 0448 2bbd 65ec f43c a849 a0bb
00000270: 3682 623d dc98 32be 031a 72bd 20f7 c83b
00000280: 4485 283b 047d abbb 8759 8e3d 9ba1 9f3d
00000290: 5f62 023e 68b5 5b3d 0887 0bbd 43c0 9a3d
000002a0: 0529 bf3d 9f28 7abc 7474 633d ae3d 97bd
000002b0: cc48 00be fa68 7abe 6d5d 10be 5a79 41be
000002c0: 53e6 54bd f7f8 ae3c 38c5 253d 5beb 6e3d
000002d0: e73a 38bc 8ee7 03be 8ce9 7739 c621 3bbd
000002e0: 61dc 0ebe d750 c83d 131b 68bc 9748 d0bd
000002f0: 7c2b 273e 31bd d73d 5847 b4bc 23d4 89bd
00000300: 3583 73ba 4ed0 493e fe71 afbc fcd0 04be
00000310: 626c 1fbe 8a3c 79bd 5d85 b03d 5dfe 9a3d
00000320: 71bf d53b dcb7 2c3d d30b 953d 5ca0 e5bb
00000330: 2d87 67bd 309e 1f3d 23e1 673d 0b58 eebc
00000340: 4da4 9b3d 92ae adbd 3a84 923d 97ff 83bd
00000350: 0326 b43d 62aa e8bd b2f4 a03c 0ed5 82bd
00000360: b680 893d 20f3 07be e8d6 a63d e015 e63d
00000370: 83ff 943d 3b83 0dbe a7ee 873d 30aa ab3d
00000380: 4014 11be 856e e33d 77d9 3f3d e72e 663d
00000390: f5fe 5f3e d420 b23d 2cb9 623d 8c31 95bd
000003a0: 169e 56bd abb5 0dbe 92e6 12be e30d c23d
000003b0: 9707 a8bd da68 0bbe eb80 8cbd 1b0f 363e
000003c0: 737c 41bd d3cd 2fbd 0a1e b2bc 8217 6ebd
000003d0: eaf4 ea3d ca30 4d3d 2078 e43d e178 e8bc
000003e0: d4d4 5f3c b187 8bba a3cc 47bd f3ca d23c
000003f0: c18e 06bd 8006 cdbd 00d7 c1bc b4c2 843c

network_body._body_endoder.seq_layers.2.bias f4 [128]
0.047052857 0.048180763 0.04274987 0.05631892 -0.04171869 0.050145477 0.045604534 0.047582973
-0.03994563 0.049531553 0.045831647 0.049689967 -0.034586515 0.0517132 0.05454674 -0.036612764
-0.04203782 0.046790764 0.05444309 -0.034335107 0.020986954 -0.03926009 0.04769355 -0.038978234
-0.03681233 0.048735365 0.02763574 -0.036845565 0.046936646 -0.04728347 -0.035744824 0.03327986
0.05220934 0.05674976 -0.04539496 0.061574206 -0.040548094 0.05251776 -0.043274608 -0.04312786
0.04858744 -0.04126953 -0.027652403 -0.03209036 0.04791789 -0.041938428 -0.043232076 0.05220769
0.051771138 -0.04230314 -0.034870848 0.05279932 -0.039196976 0.052974876 -0.039852783 -0.040696442
0.049149666 -0.01860095 0.05440696 -0.038149927 0.041086018 -0.04030049 -0.040351853 0.040215664
0.03588933 -0.037989486 -0.029404745 0.054564085 0.049838502 0.06324334 0.040784065 -0.04525923
0.04580384 0.04868014 0.046305932 0.05267686 0.0024828478 0.04639769 -0.04013493 0.044387594
-0.03741311 -0.032455087 0.052134205 0.06032153 0.042057533 0.058068935 0.049217977 0.050127782
0.050704904 0.052253045 0.058123324 0.045455225 0.046582967 -0.006760655 -0.024610523 -0.045417596
0.05412924 -0.04701194 0.050061237 -0.031000761 -0.044166997 0.039412864 0.05382679 0.06136509
0.04754687 -0.00476981 0.04882385 0.055724695 0.054539595 -0.039964233 0.055269457 -0.043303512
0.047043458 0.050489277 0.050811216 -0.0264467 0.05614639 -0.034928363 0.046887968 0.051168703
-0.039574336 -0.03362682 -0.037285563 -0.04151231 -0.046955667 -0.041317854 0.05196311 -0.047388747
00000000: 7fba 403d 3159 453d 7d1a 2f3d abae 663d
00000010: 38e1 2abd 5865 4d3d d2cb 3a3d 5de6 423d
00000020: 079e 23bd 99e1 4a3d f7b9 3b3d b587 4b3d
00000030: 97aa 0dbd 38d1 533d 676c 5f3d 44f7 15bd
00000040: d92f 2cbd aca7 3f3d b8ff 5e3d f8a2 0cbd
00000050: d5ec ab3c 30cf 20bd 505a 433d a4a7 1fbd
00000060: 87c8 16bd bc9e 473d 5964 e23c 60eb 16bd
00000070: a440 403d 50ac 41bd 2a69 12bd 7650 083d
00000080: 76d9 553d 7072 683d 11f0 39bd 3c35 7c3d
00000090: c215 26bd dd1c 573d b740 31bd d7a6 30bd
000000a0: a003 473d 3d0a 29bd 4b87 e2bc 2e71 03bd
000000b0: 8d45 443d a1c7 2bbd 1e14 31bd bbd7 553d
000000c0: f90d 543d 0f46 2dbd bcd4 0ebd 1a44 583d
000000d0: 028d 20bd 2ffc 583d ac3c 23bd 50b1 26bd
000000e0: 2951 493d 0561 98bc d5d9 5e3d 1943 1cbd
000000f0: d049 283d 2012 25bd fc47 25bd 2eb9 243d
00000100: b100 133d dd9a 1bbd 38e2 f0bc 977e 5f3d
00000110: 7523 4c3d b985 813d 310d 273d be61 39bd
00000120: cf9c 3b3d d464 473d 4aab 3d3d b1c3 573d
00000130: 46b7 223b 810b 3e3d 8664 24bd c4cf 353d
00000140: 7d3e 19bd a0ef 04bd ad8a 553d b513 773d
00000150: 8544 2c3d b1d9 6d3d ca98 493d ca52 4d3d
00000160: f2af 4f3d 4a07 563d b912 6e3d 422f 3a3d
00000170: c8cd 3e3d 7c88 ddbb 029c c9bc cd07 3abd
00000180: 9fb6 5d3d 988f 40bd 030d 4d3d 4ff5 fdbc
00000190: 74e8 34bd 626f 213d 7b79 5c3d f659 7b3d
000001a0: 82c0 423d 114c 9cbb 84fb 473d 943f 643d
000001b0: e964 5f3d 89b1 23bd 3a62 623d 065f 31bd
000001c0: a4b0 403d d8cd 4e3d 6c1f 503d c0a6 d8bc
000001d0: c2f9 653d 0b11 0fbd 990d 403d 4696 513d
000001e0: b318 22bd 47bc 09bd bfb8 18bd d008 2abd
000001f0: 9654 40bd e93c 29bd 45d7 543d b41a 42bd

network_body._body_endoder.seq_layers.4.weight f4 [128, 128]
0.09504976 0.010461895 0.19925123 0.011580613 0.0086394185 0.1121138 0.13043411 -0.0010404617
0.11064252 -0.07156409 0.19008316 -0.14295998 -0.08014871 0.10727048 0.1415529 -0.12917034
0.07228434 0.16958955 0.07630935 0.032055315 0.0057648923 -0.19356878 0.025969286 -0.097134955
0.029023148 0.15047516 0.010747825 -0.18630208 -0.08860823 -0.070383884 -0.17149094 0.053459115
0.11118275 -0.07714332 0.023221869 0.14911549 -0.10913731 0.035635285 -0.039262235 -0.10370471
0.10620302 -0.17566718 0.052704353 -0.12045051 -0.01819423 -0.11075097 -0.10332321 0.06636929
0.12771565 -0.06937594 -0.19222459 0.08930351 -0.04097424 -0.0137964655 -0.08163177 -0.009499815
0.028454073 0.19913033 0.09540718 -0.091851115 0.0064841667 0.00085610035 0.028677177 -0.011870917
0.08765637 -0.026098007 -0.14103325 0.27843788 -0.021638254 0.050222147 0.15745248 -0.066932775
0.04873293 0.060892362 0.07940804 0.09702258 0.072654 0.13504806 -0.050175708 -0.07655742
-0.118430935 0.03133636 0.15976539 0.104384094 -0.084288605 0.124467164 0.053547554 0.13977133
0.13393417 0.038157098 0.066961326 0.008052281 0.0059986366 0.08693102 0.009737931 -0.08460982
0.10096248 -0.1843932 -0.18370207 0.042335782 -0.047085904 0.060309164 0.071686834 -0.16815428
0.024021659 0.07146343 0.015760042 0.050659437 0.14203706 -0.19477709 0.21927461 0.17222513
0.15794872 -0.03235982 -0.0024713448 -0.024229037 0.104955666 -0.20806241 0.2564204 -0.0246348
-0.12414074 -0.13126701 0.059347212 -0.16158596 -0.123068616 -0.07600718 0.068052664 -0.09697267
0.0997034 0.0021843957 -0.005857528 0.17285016 -0.19323964 0.21164416 0.12340572 0.13905537
-0.098620564 0.13319762 0.24536617 -0.002554668 -0.0017495281 -0.021292612 0.07487264 0.014822966
-0.006326863 -0.074195586 0.09725678 -0.08559592 -0.1483584 -0.10288831 0.049619015 -0.070311174
-0.040114325 0.18430467 0.05761209 -0.14130652 0.09089036 -0.023417005 -0.14970115 0.033993844
0.016806291 0.068381585 -0.1941187 -0.107531756 0.13914168 0.086595945 -0.10400078 -0.042466085
0.09450909 -0.21232577 0.024485618 -0.13061228 0.12625165 -0.048787877 -0.088677265 0.0709727
-0.076943114 -0.091486245 -0.05627157 0.16127747 -0.041955747 0.03549199 0.032458257 -0.10485629
0.09528236 -0.08664084 0.17058203 -0.17937015 -0.008078175 0.006343878 -0.17284131 -0.058834814
0.0043598823 -0.12751961 0.10883486 0.043769483 -0.19825864 0.19056109 0.036291424 -0.079304375
0.05131873 -0.02925005 0.17540948 0.0074823215 0.094013974 0.13986649 -0.20684338 0.09852068
-0.17092425 -0.06996892 0.11715436 0.051663235 -0.0056862016 0.07217758 0.039752755 -0.02565732
0.03720186 0.110484 0.105500996 0.28856277 -0.018661471 0.06699422 0.009379906 -0.21504773
-0.03568469 -0.1772137 0.041797325 0.01885635 -0.12651806 0.06897747 0.16793077 0.035856362
0.11146292 -0.07666212 0.04559492 0.060353156 0.0697918 -0.16964853 0.129277 0.005574915
0.110079706 -0.06907724 -0.10258547 -0.010958239 -0.009338471 0.011256707 0.0975626 0.049741805
-0.22449678 0.0029463605 -0.2212999 0.03908166 0.018425928 -0.071101956 0.11302607 -0.07526079
00000000: 73a9 c23d 5e68 2b3c 8408 4c3e 9dbc 3d3c
00000010: 598c 0d3c ec9b e53d 8590 053e 1a60 88ba
00000020: 8c98 e23d 3290 92bd 29a5 423e 1a64 12be
00000030: 0225 a4bd a0b0 db3d 3ef3 103e 3b45 04be
00000040: d009 943d e2a8 2d3e 1448 9c3d 6f4c 033d
00000050: 6ce7 bc3b e536 46be 8abd d43c b1ee c6bd
00000060: f4c1 ed3c 2916 1a3e a517 303c f9c5 3ebe
00000070: 3b78 b5bd 6d25 90bd 529b 2fbe f2f7 5a3d
00000080: c8b3 e33d 51fd 9dbd ca3b be3c bbb1 183e
00000090: 6283 dfbd 4ef6 113d 70d1 20bd 2363 d4bd
000000a0: f880 d93d 19e2 33be 85e0 573d c2ae f6bd
000000b0: 110c 95bc 68d1 e2bd 1e9b d3bd 9fec 873d
000000c0: e4c7 023e f914 8ebd 86d6 44be c2e4 b63d
000000d0: 9bd4 27bd 920a 62bc 8f2e a7bd 1da5 1bbc
000000e0: 8418 e93c d2e8 4b3e d764 c33d 701c bcbd
000000f0: 2279 d43b ec6b 603a 66ec ea3c 3c7e 42bc
00000100: 2f85 b33d 7dcb d5bc 056b 10be 698f 8e3e
00000110: b542 b1bc bdb5 4d3d 393b 213e 0d14 89bd
00000120: 2e9c 473d 456a 793d afa0 a23d c6b3 c63d
00000130: 9fcb 943d 0a4a 0a3e 0b85 4dbd 23ca 9cbd
00000140: eb8b f2bd 8e5a 003d 8a99 233e 54c7 d53d
00000150: 819f acbd a4e8 fe3d ae54 5b3d 3720 0f3e
00000160: 0a26 093e 9e4a 1c3d 0523 893d b7ed 033c
00000170: 3690 c43b e408 b23d d88b 1f3c ea47 adbd
00000180: 6bc5 ce3d 92d1 3cbe 651c 3cbe 4968 2d3d
00000190: 26dd 40bd be06 773d 8cd0 923d a330 2cbe
000001a0: 12c9 c43c 6b5b 923d 341b 813c 4580 4f3d
000001b0: 2a72 113e a573 47be 8689 603e c95b 303e
000001c0: 4fbd 213e bb8b 04bd 49f6 21bb f97b c6bc
000001d0: fff2 d63d 500e 55be 8949 833e ecce c9bc
000001e0: 803d febd dc6a 06be 1016 733d ca76 25be
000001f0: 660b fcbd a7a9 9bbd 325f 8b3d 9b99 c6bd
00000200: 4c31 cc3d 1428 0f3b 82f0 bfbb a2ff 303e
00000210: 9de0 45be 3fb9 583e 23bc fc3d 8864 0e3e
00000220: 94f9 c9bd f564 083e 4541 7b3e 386c 27bb
00000230: 6c50 e5ba d86d aebc d456 993d 07dc 723c
00000240: 9351 cfbb dbf3 97bd 902e c73d ea4c afbd
00000250: 44eb 17be 1bb7 d2bd 4f3d 4b3d 4eff 8fbd
00000260: eb4e 24bd 5dba 3c3e a8fa 6b3d a8b2 10be
00000270: ba24 ba3d 05d5 bfbc 424b 19be 213d 0b3d
00000280: 59ad 893c a50b 8c3d 0dc7 46be 9c39 dcbd
00000290: 287b 0e3e 3759 b13d 5cfe d4bd ebf0 2dbd
000002a0: fb8d c13d ed6b 59be 1096 c83c 3abf 05be
000002b0: 1d48 013e ccd5 47bd 6d9c b5bd 235a 913d
000002c0: 5a94 9dbd 245d bbbd 057d 66bd ec25 253e
000002d0: cad9 2bbd 0d60 113d f3f2 043d e5be d6bd
000002e0: 6623 c33d c170 b1bd 0ead 2e3e cfac 37be
000002f0: 525a 04bc 4ee0 cf3b 50fd 30be c6fc 70bd
00000300: 58dd 8e3b 8094 02be d0e4 de3d a147 333d
00000310: 5004 4bbe 7222 433e 51a6 143d 556a a2bd
00000320: 9733 523d cd9d efbc 8b9e 333e 432e f53b
00000330: 668a c03d 2939 0f3e c0ce 53be 36c5 c93d
00000340: c406 2fbe dd4b 8fbd a0ee ef3d d49c 533d
00000350: 5153 babb d7d1 933d c9d3 223d 4d2f d2bc
00000360: fa60 183d 6f45 e23d e810 d83d 80be 933e
00000370: f1df 98bc 4434 893d 2dae 193c 7935 5cbe
00000380: 1c2a 12bd 8277 35be ac33 2b3d a278 9a3c
00000390: f38d 01be 0f44 8d3d 0bf6 2b3e 1fde 123d
000003a0: ac46 e43d 0801 9dbd bdc1 3a3d df34 773d
000003b0: 01ef 8e3d 58b8 2dbe 3161 043e c7ad b63b
000003c0: 7871 e13d 5e78 8dbd 5518 d2bd 308a 33bc
000003d0: 6300 19bc 0d6e 383c e7ce c73d 10be 4b3d
000003e0: 7ce2 65be ba17 413b 719c 62be 1714 203d
000003f0: f9f1 963c e79d 91bd 367a e73d 5422 9abd

network_body._body_endoder.seq_layers.4.bias f4 [128]
0.041572124 0.048082154 -0.026767584 0.040507436 -0.018452616 0.04835859 0.044596393 -0.024658237
0.04501264 0.034395784 -0.028326254 -0.028514847 -0.010612221 0.0411088 -0.026848285 0.046596117
-0.026740005 0.04832759 -0.030118799 0.04293632 0.04281643 0.04415344 -0.028432358 0.03945809
-0.028819092 -0.023677303 0.04206103 -0.021641832 -0.032900166 0.036235813 -0.024858136 0.04111833
-0.0204918 -0.023972103 0.043289065 0.042988047 0.039983056 0.050717544 -0.023977073 0.036741063
-0.027245862 -0.026369052 0.03828481 0.044508077 0.041723933 -0.02729048 0.04441954 -0.030294476
0.042055372 0.040762175 -0.026635285 0.051081773 -0.03319118 0.045544814 0.03538474 -0.017313017
0.032867726 -0.026532337 -0.023042457 -0.03140141 0.033152837 0.035192408 0.024947576 -0.020265074
-0.028337875 0.049736284 0.03786755 -0.024976453 -0.023632 -0.026517052 0.034583475 -0.025355792
-0.032345567 0.042348582 -0.027984407 -0.019249385 -0.022677409 -0.02529726 0.040583394 -0.028521324
-0.024890304 0.04203219 -0.026250862 -0.031371113 0.041124757 -0.028274747 0.044396695 -0.025304554
-0.024028815 -0.021090046 0.051515747 -0.024924878 -0.02459235 -0.016693903 -0.024403248 -0.027439274
-0.028160447 0.04675454 -0.028888555 0.043175455 0.026224386 -0.028414598 -0.024036128 -0.024994113
-0.026895842 -0.03282982 -0.025638647 0.033098593 0.050152913 -0.0028315014 0.051246636 0.031798705
0.05076937 -0.028014313 -0.025432229 0.03696287 -0.028673468 -0.027876535 -0.026478423 0.01664372
-0.027352419 -0.025447775 -0.009756742 0.029912116 -0.033391617 0.034203485 -0.019605305 -0.026925154
00000000: 8847 2a3d cbf1 443d b147 dbbc 20eb 253d
00000010: f129 97bc a813 463d b5aa 363d 1200 cabc
00000020: 2d5f 383d 98e2 0c3d 760c e8bc f897 e9bc
00000030: e2de 2dbc b361 283d eff0 dbbc 92db 3e3d
00000040: db0d dbbc 27f3 453d b3bb f6bc ffdd 2f3d
00000050: 4860 2f3d 3dda 343d faea e8bc ce9e 213d
00000060: 0416 ecbc e7f6 c1bc 3048 2c3d 364a b1bc
00000070: 53c2 06bd 016c 143d 4aa3 cbbc b26b 283d
00000080: 6bde a7bc 2561 c4bc e04f 313d 3c14 303d
00000090: 46c5 233d 33bd 4f3d 916b c4bc cc7d 163d
000000a0: b732 dfbc e903 d8bc 88d0 1c3d 1a4e 363d
000000b0: b7e6 2a3d 4990 dfbc 43f1 353d 1f2c f8bc
000000c0: 4142 2c3d 3df6 263d 3e32 dabc 1f3b 513d
000000d0: 7af3 07bd 338d 3a3d 97ef 103d 07d4 8dbc
000000e0: 4fa0 063d 585a d9bc 89c3 bcbc c49e 00bd
000000f0: 45cb 073d ea25 103d dc5e cc3c f102 a6bc
00000100: d524 e8bc 46b8 4b3d 011b 1b3d 6b9b ccbc
00000110: e597 c1bc 4a3a d9bc 67a7 0d3d f3b6 cfbc
00000120: c97c 04bd b575 2d3d 8e3f e5bc e3b0 9dbc
00000130: f9c5 b9bc 333c cfbc c63a 263d 8da5 e9bc
00000140: c0e6 cbbc f229 2c3d 0c0c d7bc ff7e 00bd
00000150: 6f72 283d 71a0 e7bc 4fd9 353d 7f4b cfbc
00000160: 14d8 c4bc 08c5 acbc 2d02 533d 422f ccbc
00000170: e575 c9bc a7c1 88bc 52e9 c7bc 54c8 e0bc
00000180: bdb0 e6bc b081 3f3d b1a7 ecbc bfd8 303d
00000190: 86d4 d63c bbc5 e8bc 6ae7 c4bc 74c0 ccbc
000001a0: ab54 dcbc 9078 06bd 2408 d2bc 6492 073d
000001b0: 246d 4d3d b690 39bb fee7 513d 5c3f 023d
000001c0: 8bf3 4f3d 467e e5bc 4057 d0bc 6166 173d
000001d0: 9fe4 eabc 555d e4bc 47e9 d8bc 6958 883c
000001e0: 2e12 e0bc da77 d0bc beda 1fbc 410a f53c
000001f0: a6c5 08bd f418 0c3d 4e9b a0bc 2492 dcbc

action_model._discrete_distribution.branches.0.weight f4 [25, 128]
-0.02538223 -0.032404426 0.03789313 -0.04316626 0.0041240193 -0.02880792 -0.03713361 0.022308305
-0.04602571 -0.030475292 0.04152624 0.048236985 -0.004013116 -0.044953134 0.03340955 -0.019606119
0.017219363 -0.012187731 0.026531108 -0.028515797 -0.0365304 -0.029624527 0.05597313 -0.0397876
0.03384993 0.034432713 -0.032378867 0.031499945 0.034117058 -0.038773898 0.017024668 -0.037796445
0.038551386 0.04643579 -0.02343615 -0.03225527 -0.045286153 -0.03621157 0.026678704 -0.04560567
0.028156452 0.0216874 -0.030973895 -0.027427346 -0.035443094 0.013989883 -0.03607338 0.020392288
-0.043876797 -0.027213536 0.026216593 -0.03902172 0.013694125 -0.00946252 -0.03864699 0.030793505
-0.023306066 0.033171233 0.041387025 0.018195082 -0.042668827 -0.030052025 -0.034830738 0.028047545
0.035112873 -0.033661686 -0.023589596 0.0362207 0.028257582 0.028397694 -0.034459677 0.039026808
0.025668329 -0.031483453 0.035195775 0.015577592 0.03600058 0.040596195 -0.027139463 0.040087465
0.015346473 -0.023518596 0.020124868 0.024261825 0.0018382472 0.025747018 -0.04003557 0.03447002
0.02718706 0.018208886 -0.019580673 0.046362706 0.020000374 0.03686364 0.030682111 0.038592845
0.025687141 -0.031094415 0.023650603 -0.026729817 -0.026805418 0.02731747 0.028806224 0.007706957
0.01835523 0.029533818 0.026961593 -0.03500804 -0.043881338 -0.002164203 -0.034913424 -0.026956042
-0.032768402 0.037484817 0.028812092 -0.013765958 0.025266876 0.020304043 0.040506653 -0.01409034
0.02207456 0.047468144 0.0134755075 -0.030047994 0.015656557 -0.03877479 0.0057920404 0.05368302
-0.018843994 -0.02500933 0.030673612 -0.027353054 0.014004321 -0.023271913 -0.029689007 0.019627025
-0.028303241 -0.026592886 0.033720165 0.02552501 -0.009016455 -0.027010005 0.026199432 -0.02557965
0.028481308 -0.027782194 0.016326584 -0.026955403 -0.03410568 -0.03340475 0.028959967 -0.02616426
0.0332433 0.0323879 -0.008591072 0.018392984 0.008816863 -0.021467099 0.042522427 -0.022043485
0.016827144 0.02046673 -0.0148554975 -0.028160932 -0.023623535 -0.01573292 0.018208312 -0.023649842
0.028886463 0.023577757 -0.01727598 -0.023630684 -0.024418697 0.033324353 -0.03305779 0.02801302
-0.010236857 -0.027564943 0.025006073 -0.022021627 0.03647516 -0.036830213 -0.01131138 0.022649402
-0.025933247 0.029580537 0.03876565 0.034247667 -0.03141482 -0.020804293 -0.026554538 0.01835667
0.024946185 -0.01236274 0.008458473 0.00025715822 0.0148486495 0.020067388 -0.0058017513 0.011330637
0.03313669 -0.016350511 0.023687715 0.022762066 0.0029102368 0.031431977 -0.02969084 0.036035992
0.022870883 -0.039161243 0.033310357 0.019941542 -0.02421108 0.023524866 -0.030537363 0.019424314
0.020370372 0.0042207404 -0.033301286 0.0420652 0.026928835 0.018139362 0.023899356 0.01869528
0.02827857 -0.035178203 0.017663438 -0.03513229 -0.019409772 0.038681332 0.019600386 0.01004612
0.024104966 0.020192966 0.022367522 -0.032963112 -0.03295593 0.006363792 -0.016206581 -0.034072574
-0.026587313 0.0026304512 0.024691889 -0.0042302236 0.029729316 0.016353464 0.019918181 -0.009107905
0.025613705 0.015760351 0.022596415 -0.027479453 0.033953037 -0.02439573 0.02422337 0.043297336
00000000: 65ee cfbc 81ba 04bd d435 1b3d 1bcf 30bd
00000010: c822 873b 96fe ebbc 6a19 18bd e8bf b63c
00000020: 7485 3cbd 52a7 f9bc 6b17 2a3d 2594 453d
00000030: 7580 83bb c720 38bd 74d8 083d 039d a0bc
00000040: 9f0f 8d3c 0daf 47bc c457 d93c f699 e9bc
00000050: e7a0 15bd 23af f2bc 1544 653d 53f8 22bd
00000060: 39a6 0a3d 5109 0d3d b49f 04bd 1606 013d
00000070: 54be 0b3d 61d1 1ebd 5177 8b3c 72d0 1abd
00000080: 0fe8 1d3d 7433 3e3d 2bfd bfbc 1a1e 04bd
00000090: f97d 39bd 9552 14bd 4c8d da3c 03cd 3abd
000000a0: 5ca8 e63c c6a9 b13c f7bc fdbc 50af e0bc
000000b0: c72c 11bd d235 653c aec1 13bd ba0d a73c
000000c0: 28b8 33bd ecee debc 2ec4 d63c 3dd5 1fbd
000000d0: 535d 603c af08 1bbc 4e4c 1ebd a942 fc3c
000000e0: 5dec bebc 8fde 073d 7185 293d da0d 953c
000000f0: 82c5 2ebd aa2f f6bc adaa 0ebd f7c3 e53c
00000100: 84d2 0f3d d6e0 09bd f83e c1bc 285c 143d
00000110: 727c e73c 48a2 e83c 9725 0dbd 93da 1f3d
00000120: 6346 d23c cbf4 00bd 7229 103d 2839 7f3c
00000130: 5875 133d 3248 263d 9453 debc c132 243d
00000140: c66f 7b3c 12aa c0bc e8dc a43c bcc0 c63c
00000150: 57f1 f03a 69eb d23c 56fc 23bd 7030 0d3d
00000160: 66b7 de3c cd2a 953c a667 a0bc d2e6 3d3d
00000170: d3d7 a33c 54fe 163d 0d59 fb3c 8813 1e3d
00000180: d76d d23c b7b9 febc e9be c13c 7df8 dabc
00000190: 0997 dbbc e3c8 df3c 08fb eb3c a48a fc3b
000001a0: b55d 963c e8f0 f13c 8fde dc3c 9764 0fbd
000001b0: ebbc 33bd 4dd5 0dbb 6101 0fbd ebd2 dcbc
000001c0: 2938 06bd ae89 193d 5607 ec3c 9d8a 61bc
000001d0: 7bfc ce3c aa54 a63c 4eea 253d 2bdb 66bc
000001e0: b5d5 b43c f56d 423d 60c8 5c3c 3627 f6bc
000001f0: 2e42 803c 50d2 1ebd 28cb bd3b bae2 5b3d
00000200: b85e 9abc 5ee0 ccbc 3a47 fb3c 8313 e0bc
00000210: 6172 653c bda4 bebc 5c36 f3bc dbc8 a03c
00000220: 33dc e7bc 53d9 d9bc 281e 0a3d d319 d13c
00000230: c1b9 13bc 1644 ddbc 31a0 d63c 6a8c d1bc
00000240: a251 e93c 7c97 e3bc 54bf 853c 94d1 dcbc
00000250: 66b2 0bbd 6bd3 08bd 743d ed3c 6e56 d6bc
00000260: 202a 083d 2da9 043d 91c1 0cbc e2ac 963c
00000270: 9b74 103c c5db afbc ff2b 2e3d 8a94 b4bc
00000280: 14d9 893c d8a9 a73c 7964 73bc c1b1 e6bc
00000290: 2586 c1bc 53e2 80bc 9929 953c 50bd c1bc
000002a0: 4ea3 ec3c 2426 c13c 5b86 8dbc 2395 c1bc
000002b0: b809 c8bc 1e7f 083d 9b67 07bd 907b e53c
000002c0: 7eb8 27bc e0cf e1bc 89d9 cc3c b366 b4bc
000002d0: fa66 153d 47db 16bd 5e53 39bc 3d8b b93c
000002e0: f671 d4bc e252 f23c bbc8 1e3d 4847 0c3d
000002f0: d4ac 00bd c46d aabc e788 d9bc ba60 963c
00000300: f15b cc3c 178d 4abc 6895 0a3c 31d3 8639
00000310: c047 733c 5d64 a43c 9e1c bebb 23a4 393c
00000320: 56ba 073d 82f1 85bc bd0c c23c 8377 ba3c
00000330: acb9 3e3b d1be 003d 343a f3bc 7a9a 133d
00000340: b85b bb3c 8a67 20bd 7170 083d 725c a33c
00000350: 5156 c6bc 38b7 c03c 7e29 fabc bd1f 9f3c
00000360: c4df a63c 234e 8a3b ee66 08bd 8f4c 2c3d
00000370: dc99 dc3c 0099 943c 95c8 c33c d826 993c
00000380: 76a8 e73c 0517 10bd eab2 903c e0e6 0fbd
00000390: 3e01 9fbc 5170 1e3d fd90 a03c 7b98 243c
000003a0: c777 c53c b86b a53c 183c b73c 5404 07bd
000003b0: ccfc 06bd 5b87 d03b aac3 84bc af8f 0bbd
000003c0: a3cd d9bc a663 2c3b a546 ca3c b09d 8abb
000003d0: e58a f33c b3f7 853c 742b a33c 5339 15bc
000003e0: d5d3 d13c da1b 813c 1e1c b93c 971c e1bc
000003f0: 5712 0b3d 8ed9 c7bc 1770 c63c 8c58 313d

action_model._discrete_distribution.branches.0.bias f4 [25]
-0.023566497 -0.02121383 -0.0029936421 0.016008085 0.020844316 -0.023220547 -0.01845551 -0.0048537455
0.0056201247 0.04022637 -0.022314768 -0.019845635 -0.0038702374 0.0063513215 0.036840364 -0.022985155
-0.016165119 -0.007482155 0.0023254233 0.031827554 -0.021480199 -0.021407316 -0.010987361 0.009291609
0.0117010055
00000000: 870e c1bc a0c8 adbc fb30 44bb 6323 833c
00000010: b3c1 aa3c 0439 bebc 0230 97bc 2b0c 9fbb
00000020: 0629 b83b 68c4 243d 76cd b6bc 5093 a2bc
00000030: cfa3 7dbb bf1e d03b ece5 163d 5d4b bcbc
00000040: b66c 84bc de2c f5bb 2166 183b 9c5d 023d
00000050: 3ef7 afbc 655e afbc 5504 34bc d53b 183c
00000060: 93b5 3f3c
