Assets/Env5/Brains/MoveToBridge.onnx (onnx, 154966 bytes, 8 tensors)

network_body._body_endoder.seq_layers.0.weight f4 [128, 12]
00000000: f5df 53be 2dcd bebd cad9 b43e 080e 16bc
00000010: e2f0 aabe ce90 dd3b ba10 d5bd 12d0 16be
00000020: 66cf c1be 8599 a33e 03c1 773d 3ce4 873e
00000030: 6513 863d f75b 22be 9740 01be e2de e53e
00000040: e233 a63d e9b9 c8be 11c6 8a3e 1fd4 4e3e
00000050: af78 42be 13fc dabd 2e6f 6fbc 896f a23e
00000060: c39a 86be 66e4 d63e 7b45 7d3e fb5d 433e
00000070: 8753 47ba 9de5 4d3e a26a c53e 1d58 3abe
00000080: 5d43 33be 60bb 263f 043b f03d d9d0 e5be
00000090: b958 87bd f905 54be 0b6d 3bbe 063c 933e
000000a0: 160e ab3e cfc0 a13d a8cc ab3e 67ca a13e
000000b0: 7627 d0be fd26 08be 51dd 543e 4d32 ddbc
000000c0: 2158 af3e 7539 04bd 6e1a 013e 2ba8 debd
000000d0: 20c5 9c3e 84f9 683e b0a4 cebe d789 fb3d
000000e0: 266d e9bc 22af 613e bc80 c03e aecc 603e
000000f0: d9e3 a73e f9fb 83bd 683a 8b3e 5573 853e
00000100: ef29 8d3e 5346 963e d3bc a13d 9f54 c93c
00000110: 23eb 843d 9339 acbe 2544 7d3e 4489 c23d
00000120: 21cf 9c3e 0c26 9bbe 14c0 693f 020b 8cbd
00000130: e5ff 26bd 590a c93c 1f1d 51bf 2d79 19bf
00000140: c803 3cbd 3742 bd3e b44c 65be c56a 393f
00000150: d03c 5d3d b688 803e 90ab dd3c f61f 8cbd
00000160: c978 083f ba0d e83d 89dd a4be cb6a 81bd
00000170: 2cb9 15bf ff78 d33e 6423 32be 7885 bc3d
00000180: 5012 803e a030 1dbf 1442 9c3e 4f3e 7fbe
00000190: f735 063f 6123 0abe 0141 d33e 721f cf3e
000001a0: b9f8 a1be 9d11 393e dfa3 95bd 25f0 e5be
000001b0: 6939 e03d d5bc 9d3e bbe8 123f 2ae0 02be
000001c0: 891b 963e 62e7 d6bd 3842 04be 29fb 94be
000001d0: 3026 1cbe 9993 883e 8959 a23e 1067 c63e
000001e0: 74e5 59bd 27af 01bf c124 813d 89aa 42be
000001f0: 3ceb e13d c38f 1ebd fbd1 88bd de82 063d
00000200: ec80 25be ed10 583d 6c6a d2bc 6d90 a63d
00000210: 0810 2bbe c655 3b3d 35dd 2e3e ea30 bbbe
00000220: 201e 11be aca1 38bd 1baf 703d 4eb6 c3bc
00000230: 210e 283e d0ed adbe ff89 1c3f e151 613e
00000240: b66f 873d 5d8e adbe da7b 99be 124e e4bd
00000250: c050 0ebe 098b 4abe 78cd 603d bb84 903e
00000260: 2024 5cbd 21c8 403e 5cd5 80be bcbe 463d
00000270: 957a 9cbe f58e 30be 35f6 b33e 6d1e 013e
00000280: 4e7b 963d 3564 f5bd bfe1 553e 93fb f8bd
00000290: 9f39 06be d3ce af3e 9659 ac3e 39b5 2b3e
000002a0: fc1c bbbe a57a 96bd 43e9 c63e 2476 7dbe
000002b0: dba0 6e3c f788 15bf e46f f2be 781c a4bc
000002c0: 86ea e03e 4658 f33e 0293 993e 4450 1dbe
000002d0: c661 373e c8e2 8abd 0e64 dd3d 6658 8d3e
000002e0: e497 a8bd 9fae e7be bd69 833c 65c1 30bd
000002f0: 4460 6ebe 1b51 81be 63f7 0a3f f197 703e
00000300: 6683 953d 7a74 c23e 78c7 413e ea55 d4bb
00000310: 3ca5 67be 1b8a 85be e39e 81be fd43 94be
00000320: 2724 82be 1f20 ccbe 595f c03e 419c 0e3e
00000330: a095 af3e 29fa 81be dd11 a5be 4dac 02bf
00000340: 19c4 b3bc ada0 c9be 8296 44be 8b99 8abe
00000350: db53 51be a0f0 d23c c604 83be 9cca 633e
00000360: b0c5 c7be c0d5 a13e a2c0 08bf fe5d 253e
00000370: 9094 dc3d c09f 423d 5e42 dfbd 8a84 c33e
00000380: 6270 8f3d cb64 dd3c e40d 0d3f 8597 99be
00000390: 5ddf 3fbe 2293 a03c e8d8 613d f70a 0f3f
000003a0: adde b53e 79f4 c6be 18c4 093f a1cd a63e
000003b0: 30b2 303e 1d25 963d e20f 18bd 2061 7dbd
000003c0: 6908 4e3f 9fc2 41bc 8723 9abd 475c d63c
000003d0: ea0a 813f f289 6dbe 1396 b73e f493 51bd
000003e0: c9dc 493c 2b30 cdbe ea52 87bd c13c af3d
000003f0: 3f92 733e bc9f 81be 9a79 af3e a1dd f3bd
-0.20690902 -0.09316478 0.3532241 -0.009158619 -0.33386904 0.006761647 -0.10403581 -0.1472781
-0.37853545 0.31953064 0.060486805 0.26541317 0.06546668 -0.15855394 -0.12622295 0.4489661
0.081153646 -0.39204338 0.27104238 0.20198105 -0.1899135 -0.106926106 -0.01461391 0.3172572
-0.2628995 0.4197113 0.24733536 0.1907882 -0.0007603694 0.20107122 0.38557917 -0.18197675
-0.17506166 0.6512966 0.11730006 -0.448859 -0.066087194 -0.20705403 -0.18303315 0.28756732
0.33409184 0.078981034 0.33554578 0.31599733 -0.40655106 -0.13296123 0.2078755 -0.027001524
0.34246925 -0.032281358 0.12607738 -0.10871919 0.30619144 0.22751433 -0.40360022 0.1228215
-0.028494429 0.22039464 0.37598217 0.21953079 0.3279102 -0.06444544 0.27192998 0.26064554
0.27571055 0.29350528 0.078973435 0.024576483 0.06490161 -0.33637676 0.24733026 0.094988376
0.30626777 -0.30302465 0.9130871 -0.06838037 -0.040771384 0.024541067 -0.8168506 -0.59950525
-0.045902044 0.3696458 -0.22392541 0.7242854 0.054013073 0.25104302 0.027059346 -0.068420336
0.53309304 0.11330743 -0.32200268 -0.06319197 -0.58485675 0.4130325 -0.17396313 0.09205145
0.2501397 -0.6140232 0.30519164 -0.24926113 0.52426094 -0.13490058 0.41260532 0.40453678
-0.31635073 0.18073125 -0.073066466 -0.44909778 0.1094845 0.3080813 0.5738637 -0.12780824
0.29317883 -0.104933515 -0.12915885 -0.2909787 -0.15248942 0.26675108 0.31708935 0.38750505
-0.05319734 -0.50657886 0.063058384 -0.19010366 0.110311955 -0.03871132 -0.066806756 0.03283965
-0.16162461 0.052750517 -0.025685512 0.08133016 -0.16705334 0.045736097 0.17076571 -0.36560756
-0.14171648 -0.045076057 0.058760744 -0.02389064 0.1641164 -0.339705 0.61148065 0.2200389
0.06613104 -0.33897677 -0.29977304 -0.11147703 -0.13897991 -0.197796 0.05488345 0.28226265
-0.05374539 0.18826343 -0.2516278 0.048521742 -0.30562273 -0.17242034 0.3514878 0.12609263
0.07347737 -0.119820036 0.20886897 -0.12157359 -0.13107918 0.34337482 0.336621 0.1676835
-0.3654555 -0.07347611 0.3884984 -0.24752098 0.014564718 -0.58412117 -0.4735099 -0.020033106
0.43928927 0.47528285 0.2999497 -0.1536265 0.17908391 -0.06781536 0.108100995 0.27606505
-0.08232096 -0.45250413 0.01604163 -0.043153185 -0.2327891 -0.2525719 0.5428373 0.23495461
0.07300453 0.3797949 0.18923748 -0.0064799683 -0.22621626 -0.2608193 -0.25316533 -0.2895812
-0.25418207 -0.39868256 0.37572744 0.13926794 0.34293842 -0.2538617 -0.3224019 -0.5104416
-0.021944093 -0.39380398 -0.19198039 -0.2707027 -0.20442145 0.025749505 -0.2558958 0.22245258
-0.3901801 0.3160839 -0.53418934 0.16149136 0.107705235 0.04751563 -0.109013304 0.38187057
0.07003857 0.0270256 0.5509932 -0.29998413 -0.1873755 0.019601408 0.0551385 0.55876106
0.3552145 -0.38858393 0.5381484 0.32578757 0.17255473 0.073312975 -0.037124522 -0.061860204
0.8048158 -0.011826186 -0.075263076 0.026167048 1.0081456 -0.23197153 0.35856685 -0.05116649
0.012320706 -0.40075812 -0.066076115 0.0855651 0.23786257 -0.2531718 0.34272462 -0.11907507

network_body._body_endoder.seq_layers.0.bias f4 [128]
00000000: 0e5e 723c 56dd 1b3d f8b1 933d 0ec4 563d
00000010: 034b 68bd 9f38 1fbd b533 4b3d f293 263d
00000020: 4f19 a3bc cc40 c0ba a2f5 f1bb 6bfe 34bd
00000030: 47dd d9bc d7bb da3c 8fa1 1d3d cc56 113d
00000040: 1f9e e43c a65f 2bbd 173e 203d 6320 803d
00000050: 199a 55bd 308c 43bd 4ce0 2b3d 264b 43bd
00000060: ce15 813b 80ad 533d fd5a 543d 61cd ab3d
00000070: 611f 383d 3e44 40bd 38cc 223d 400d 67bd
00000080: 2dd5 073d 36a2 1c3d 0bee 1ebd 40c2 9b3b
00000090: 2634 f33a 7d8f 193d 2f6c 4b3d 1736 053d
000000a0: cdd3 113c 3263 1dbd 41b4 30bc 7210 1d3d
000000b0: b11f 513d d4c0 583d 9f6e b53c 0f0f 45bd
000000c0: 7bfb 7abd 9fb4 3c3c 8566 e23b 1fce 833b
000000d0: e5ad 523d 451a b43d e5f7 133d 74fd 5a3d
000000e0: d9a9 c7bc f984 913d 85fe 0abc 3fdd 4e3d
000000f0: 4cd9 e83c ce55 d03c a2b9 87bd cdf3 afbb
00000100: d83e 3a3d 6461 5e3c e035 6c3d 104c 9b3c
00000110: dd22 993c bdef 8b3c 7721 2cbb ac2d ca3c
00000120: f829 9fbd dbb4 203d 5f94 d73c a01e 6a3d
00000130: a21c 1f3d ea56 253c 7a8e 6ebc 3671 853c
00000140: 76bd 043d 5dd6 283d 1a83 61bc 62a3 833c
00000150: dea2 123d 3093 473c b67f 6a3c e425 d23c
00000160: 4cf8 98bd 81a3 4abd c628 35bd 2e79 e83c
00000170: 2255 7d3d af0a b4bc df91 93bc da74 9bbc
00000180: 3efe 903d 3103 d03c b424 d73c 2d92 0b3d
00000190: a53a 593d ff47 593d f096 cbbc ac1e c83c
000001a0: a523 8fbd 3ae3 2b3d 85e7 7a3d 4c85 d23a
000001b0: 2c6b 1a3d 9dbe 05bd 4c4e 0d3c e83a 11bd
000001c0: e068 7fbd b899 fd3c 130a 1a3d e5aa 423d
000001d0: c926 073d 962f 563d 06e7 653d 8090 d93c
000001e0: 7b64 0b3d 7bc4 053d d212 f83c 4841 e7bc
000001f0: 751d bbbc 6b11 0abd 6d63 24bd aa8f 713d
0.014792932 0.03805288 0.07211679 0.052433066 -0.05671216 -0.038872357 0.04960986 0.040668435
-0.019909529 -0.0014667748 -0.007384018 -0.044187944 -0.026594771 0.026700897 0.038484152 0.035483167
0.02790743 -0.041839264 0.039121713 0.06256177 -0.052148912 -0.047741115 0.041961953 -0.04767909
0.003939367 0.051679134 0.051844586 0.08388782 0.0449518 -0.04694008 0.03974554 -0.05640912
0.033162285 0.038240634 -0.038801234 0.004753381 0.001855497 0.037490357 0.04966372 0.032522287
0.008900595 -0.03842468 -0.010785163 0.03834576 0.051055614 0.05291827 0.022147475 -0.048110064
-0.061274987 0.011517673 0.006909194 0.0040223743 0.05143537 0.08794073 0.036125083 0.053464368
-0.024372982 0.07105441 -0.008483534 0.050503965 0.028423928 0.02543154 -0.066272035 -0.0053696395
0.04547009 0.013573024 0.057668567 0.018957168 0.018693382 0.01708209 -0.0026265064 0.024679981
-0.07771677 0.039234977 0.026315866 0.057158113 0.038845666 0.010091523 -0.014560336 0.016289335
0.032407247 0.041220058 -0.013764167 0.016069118 0.035799854 0.012181088 0.014312675 0.025652833
-0.07469234 -0.049472336 -0.044228338 0.028378095 0.061848767 -0.02197775 -0.018013893 -0.018976618
0.07079743 0.025392147 0.026262619 0.03407495 0.053034443 0.053047176 -0.024852246 0.024428688
-0.069892205 0.041964747 0.06125595 0.0016061454 0.037699863 -0.032652486 0.008624624 -0.035456568
-0.062355876 0.030957088 0.037607264 0.04752626 0.032995973 0.052291475 0.056128524 0.02655816
0.034031373 0.03265808 0.030282412 -0.02822937 -0.022841195 -0.033708017 -0.040133882 0.0589749

network_body._body_endoder.seq_layers.2.weight f4 [128, 128]
00000000: a476 4cbd 298e dc3d ed75 3cbc e6ad d93d
00000010: 42b5 b93c 9d1f 15be d441 24bd 765d 06be
00000020: d0c6 a9bd 4a8e 81be 0b13 59bd c568 edbc
00000030: c35e 013c fd93 0abe 7b70 9fbd e3e4 a5bd
00000040: 5d8a 2bbe 79e1 023e aa31 4c3c cf3c 993d
00000050: a805 b3bd 71c3 9d3d fb4d 6b3e ce6f 17bd
00000060: 2503 56be 566a ef3d 8420 023d e189 3d3d
00000070: 4fc5 173e a445 52bc d55f 4b3e 24fd f2bd
00000080: 92c4 533d cd6e f03c c71f 0dbe e9fe 583d
00000090: 8a34 413d c5b1 4ebe 2321 923d 90df 0abd
000000a0: 39de 19be 65cc f7bd 660f e53d 2b6f cfbd
000000b0: 990f 263e 19e4 95bd 3070 7bbe edfc 1dbe
000000c0: 130a a3bd c723 35bc 533c b63d 5e30 62be
000000d0: e539 313d 764e 8e3c 9afd 0cbe 69b8 503e
000000e0: 4839 72bd c834 323e 536f 25bd 2eac d73d
000000f0: c596 babd 5d05 963d 89be 71bd 2bce 1e3e
00000100: 53de 993d 8b63 0d3d caa8 7739 1fe6 443c
00000110: 7214 083e f74e 1a3e 3a31 8d3d 527c 833d
00000120: e1b4 e5bd 0d90 e93d 0dda 813d ea90 47bd
00000130: e276 1a3e af40 413d a03c 8ebd 145e 45be
00000140: a0fd 0abe 6d7f fb3d 25bc 1bbd 742c a8be
00000150: 81cb a33d af58 71ba 1b6d 963d f13a 3dbd
00000160: a27f d5bd eb39 44bd bc35 f03c f05a e93b
00000170: ce99 4abd ded2 cfbc beea 16bd eb78 bbbd
00000180: b60e e93d 0827 8f3d 2226 07be f5f6 12bb
00000190: db0b 093e 396e 343e 2263 c2bd 1e87 ec3d
000001a0: eaf8 e7bd 8fc2 a43d 91aa 333e 121d 9cbd
000001b0: 842f d9bc 939f dfbd 32f5 d5bd 1a70 06bd
000001c0: 873e 0dbd d9f3 1ebe dd76 34bb d82e daba
000001d0: 2f3d d83d 4f23 4d3d 7e7b 8ebc 3c34 9abd
000001e0: e1fe 063e 5605 843e c5d5 003e 733c 183d
000001f0: 393a debc 198e 96bd bcf2 02bd 3938 d3bc
00000200: 4822 b3bd 409a a4bd 8931 22bc 2809 773d
00000210: c08a 233b 8cfb a7bd 997c 223c 8379 b9bd
00000220: 2864 f0bd 95e1 38be 873e 0bbd d47f 523d
00000230: 5382 8ebd 4493 c4bd e0f2 5fbd 3cb4 353d
00000240: 13aa 023d 078b 80bd 9f14 633c a525 573c
00000250: 09e9 833d 09c2 a9bd 1ea7 323e de3a b13c
00000260: 12b8 e3bd 24ad f83d 939b 4a3d ef5f babc
00000270: 395f d13d 7970 9dbe bd9a 553d c691 6cbd
00000280: 84d5 1d3d 351b 253e 5806 39bd b114 a93d
00000290: a533 a03d a456 903d b3c4 42bd b0ba 09bd
000002a0: 1666 16bd cf88 103e 4ade 813d 840a 2c3d
000002b0: 68bc 1d3e 1d4f 253e a98c e03d 3172 0bbe
000002c0: 6628 38be 6137 dd3d 0fb2 0f3d 3dd1 c9bd
000002d0: 225b a8bd fe79 37bd eb33 943d 7224 433e
000002e0: e639 22be ba52 e53d fd06 b6bd 27f0 ddbd
000002f0: fe24 973d 7109 84bd 13f8 90bd f113 3d3e
00000300: 4917 08bd 36d4 fc3d e41d f13d 85d8 a93c
00000310: 9034 633d 2dfc 3d3d 1363 d2bd fe57 533d
00000320: 7a87 743d fac6 113e 8677 ba3c 86e9 4abd
00000330: 0e45 5f3d 93e2 603d ae51 f6bd 7ff2 123b
00000340: 8f46 01be 13ed c2bc bf02 683d 2f29 93bc
00000350: 0fa9 76bd aab4 e8bd 6c9b 163d 6841 9f3d
00000360: 6769 f53c 8a3f 933c 9bdf 60bd 0116 973d
00000370: d36a 8cbd 6836 e939 96cd 9b3c 38fd 383d
00000380: 029c 253d 4739 0cbe d70f f53c fbf0 7f3e
00000390: 1031 8f3d 77c0 033e e7d4 1a3e 0701 223e
000003a0: 71f8 e23c 780d 593d 0869 4d3e 48c7 203d
000003b0: 8cb9 afba afc7 b6bc b021 a83b 7675 01be
000003c0: 7d73 d03d 9297 b23d c082 f438 dd7d 0b3d
000003d0: 7e95 833d bd7a 713d f531 47bd a92c b73d
000003e0: 7d06 2f3e 5332 a33d 415f 14bc a7ba 233d
000003f0: 6dce ab3d 99bc c8bd a5ff ea3d 36d6 ea3d
-0.049917832 0.107693024 -0.011502725 0.106288716 0.022669438 -0.14562841 -0.04010184 -0.1312159
-0.082898736 -0.2530387 -0.052996676 -0.028980622 0.007896128 -0.13533016 -0.07785126 -0.08100297
-0.16752 0.12781323 0.012463013 0.074823014 -0.08741313 0.07703293 0.22978966 -0.03697186
-0.20899637 0.11690204 0.03176929 0.04627407 0.14821361 -0.012833986 0.19860776 -0.11864689
0.051701136 0.029349709 -0.13781653 0.052977476 0.047169246 -0.20185001 0.071352266 -0.033904612
-0.15026177 -0.12099532 0.11184578 -0.101286255 0.16216888 -0.07318897 -0.24554515 -0.15428515
-0.07960906 -0.011055893 0.08898225 -0.22088763 0.043268103 0.017371397 -0.13768616 0.20382847
-0.05913666 0.17402947 -0.04038937 0.105308875 -0.09110788 0.07325242 -0.0590196 0.15508334
0.07513108 0.03451876 0.00023618634 0.012017756 0.1328905 0.15069185 0.06894155 0.064201966
-0.112161405 0.11404429 0.06340418 -0.048722185 0.15084413 0.047180828 -0.06945157 -0.19274169
-0.13573313 0.12280164 -0.038021225 -0.32846415 0.079978 -0.00092066353 0.07345029 -0.04619879
-0.10424735 -0.047906797 0.029322498 0.0071214363 -0.049463086 -0.025369104 -0.03684496 -0.09153923
0.11379759 0.069898665 -0.1319814 -0.002242503 0.13383429 0.17620172 -0.09491564 0.11549209
-0.113267735 0.080449216 0.17545535 -0.07622732 -0.026511915 -0.10919108 -0.10447158 -0.032821752
-0.03448346 -0.15522708 -0.0027536668 -0.0016646041 0.10558545 0.0500825 -0.01739287 -0.07529494
0.13183166 0.2578532 0.12581547 0.037167024 -0.027127372 -0.07351322 -0.03196977 -0.025783645
-0.08746773 -0.08037233 -0.009899505 0.060311466 0.0024954528 -0.08202276 0.009917402 -0.0905638
-0.11737853 -0.18054803 -0.033995178 0.051391438 -0.06958451 -0.09598401 -0.054674983 0.044361338
0.031900477 -0.06276517 0.013859897 0.013131534 0.06440932 -0.082889624 0.17446563 0.021634515
-0.11119093 0.12142399 0.049464773 -0.022750823 0.102232404 -0.30749872 0.052149523 -0.057756208
0.038533702 0.1612366 -0.045172065 0.082559 0.078223504 0.070477754 -0.04755087 -0.033625305
-0.03671845 0.14114688 0.063412264 0.042002216 0.15403903 0.1614346 0.10964329 -0.1361778
-0.17984161 0.10801578 0.03508192 -0.09854362 -0.08220507 -0.044794075 0.07236465 0.19056872
-0.15842399 0.111974195 -0.08888052 -0.10836821 0.073801026 -0.06447113 -0.070785664 0.18464638
-0.03322533 0.123451635 0.11773279 0.020733127 0.05547005 0.04638307 -0.10272803 0.051597588
0.059699513 0.1423606 0.022762071 -0.04953911 0.054509215 0.054903578 -0.12027298 0.002242237
-0.12624572 -0.023794686 0.056643244 -0.017963974 -0.06021982 -0.11362584 0.036769316 0.07776147
0.029957486 0.017974634 -0.054900747 0.07377244 -0.068563126 0.0004448176 0.01901893 0.045163363
0.040431984 -0.13693725 0.02991478 0.2499427 0.0699178 0.12866388 0.15120278 0.15820704
0.027706357 0.05299136 0.20059597 0.03925255 -0.0013406738 -0.022312013 0.005130969 -0.12642464
0.10178278 0.08720316 0.00011659181 0.03405558 0.06424998 0.058954943 -0.048631627 0.08944065
0.17092319 0.07968583 -0.009055913 0.039972927 0.08388982 -0.09801597 0.114745416 0.11466639

network_body._body_endoder.seq_layers.2.bias f4 [128]
00000000: ba27 3b3d fc44 c03c 5fa1 913c 2a4c 8a3c
00000010: f46a 9b3b d249 983c 7bb2 133d 2a74 dd3c
00000020: bb70 a1bc ea69 743d 4ba4 813c 2c44 f33b
00000030: 6478 3d3d 0948 243d f6e2 93bb c7dd 303d
00000040: 4290 b93c 83f4 df3c 97ba 4f3c 9c0d 8fbc
00000050: 71f1 553c 17a6 913c 1464 bab9 63e8 613c
00000060: 10ed 9c3c 38d8 ddbc 88bb ccbb 83be 013d
00000070: 3384 773d bbfd 9f3c 02dc b7bb 9061 e63c
00000080: aed7 fabc a8da 37bc 7a8f 16bd 8048 d53c
00000090: 7489 3f3d cdfd ea3b 2cb5 8bbc b148 163d
000000a0: bed5 363d 9d6d e73c a72b 023c 8329 2f3d
000000b0: 3502 6c3d d247 5c3c ec21 20bd 4840 0dbd
000000c0: 3e14 263d 77e1 c63c f7af 553d 41e9 163d
000000d0: 2cb5 2b3d 7452 5d3c 747c ab3c 125c 1b3d
000000e0: 4cea fd3c fff4 113c bcb0 b9bb 9a2c 9fbc
000000f0: 19c7 543d 1311 bd3c de51 393d 5eb2 3d3d
00000100: a178 00bd 7850 98bc ddda 173d 61d6 f43a
00000110: ca12 093d 386a 933d 79eb 643d 258f 0c3d
00000120: a4e0 30bc 4b11 08bd 86ca 453d eee0 183d
00000130: f218 c73c 9ed0 ac3b 90ba 0e3d 032c fdbc
00000140: 6e4e 4e3b 3c78 fc3c c817 d93c 0577 053d
00000150: 7ab0 de3c 1fc1 173d 5754 2e3d acbb d8bb
00000160: b8ad 423d 79fc 35bb 9200 abbb b088 f4bc
00000170: 5f6e 023d ac85 253d 3272 433d 629c 12bd
00000180: 9f5c c83b 96da 4f3d bc1d 873c 01a4 ec3b
00000190: 1857 3cbd 0e9a 373d f966 153d 0620 043d
000001a0: b1cc 1b3b aada c73c bd06 3b3d 8c66 12bd
000001b0: d43c 5a3d b1eb c83c 7c6f 6f3d b731 683c
000001c0: 06e6 293c 90a1 75bc d2ed 133c 8782 ad3c
000001d0: 4636 50bd 6489 9a3c 6095 503d 70d2 79ba
000001e0: 780d 0fbc c5cd 1e3d ac20 dd3c 4a68 a43c
000001f0: b3fb d33c 5a85 193d 2990 873c 566f febc
0.045692183 0.023470394 0.017777143 0.016882021 0.0047429744 0.018589888 0.036058884 0.02703293
-0.019707074 0.05967132 0.015825411 0.007423898 0.04625739 0.04010776 -0.00451314 0.043180253
0.022651795 0.027338272 0.012678764 -0.017462544 0.013058052 0.017779393 -0.0003555125 0.0137883155
0.019156009 -0.02708064 -0.0062479414 0.031675827 0.06042881 0.019530168 -0.005610944 0.028122693
-0.030620422 -0.011221565 -0.036757924 0.026035547 0.046761945 0.0071713687 -0.017054163 0.036690418
0.044637434 0.02825051 0.007944978 0.042764198 0.057619292 0.013444858 -0.03909485 -0.03448513
0.04054665 0.024277432 0.052169766 0.036843542 0.041920826 0.013508428 0.020933367 0.037929602
0.03099551 0.008908509 -0.0056668203 -0.019430447 0.051947687 0.02307943 0.04524409 0.046312682
-0.03136504 -0.018593058 0.03707396 0.0018679613 0.033465184 0.07197994 0.055888627 0.0343162
-0.010795746 -0.033219617 0.048288845 0.037323885 0.024303887 0.0052738925 0.03484589 -0.030904775
0.0031479853 0.030819051 0.026500598 0.03258421 0.02718376 0.03704941 0.0425609 -0.006614169
0.047528952 -0.0027768894 -0.005218574 -0.029850334 0.03184354 0.040410683 0.047716327 -0.03579367
0.006114557 0.05074557 0.01649367 0.007221699 -0.045981497 0.044824652 0.036475156 0.032257102
0.0023773129 0.02439626 0.045660723 -0.035742328 0.053280666 0.024526449 0.05845593 0.014172009
0.010369783 -0.014992133 0.009028869 0.021180404 -0.05083301 0.018864341 0.050923705 -0.0009529954
-0.008731239 0.038770456 0.026993118 0.02006926 0.025876855 0.03748069 0.016548233 -0.031058948

network_body._body_endoder.seq_layers.4.weight f4 [128, 128]
00000000: f403 8bbc 445d 5c3d df8d 8e3d 23f1 b5bd
00000010: eb80 2e3d 2996 173d 6a83 b0bb 9629 923d
00000020: f037 5f3d ad7a 823d 13f6 173c 98b5 4e3b
00000030: 2527 82bd 6a7f 863c 90f9 363d 7acc 893d
00000040: afaf c93d cf10 563d 68da 223e 15a9 213e
00000050: 51bd 163e 9dd7 b4bd 0fcf 41bc e7e7 22bd
00000060: 3438 8fbd b364 6fbd 43d2 30bd cc54 8d3d
00000070: f10f 463d e610 cdbd 3cfd d4bc 4dfc 0a3d
00000080: 3375 1f3e c5e4 a1bd 8163 90bd 551b ab3c
00000090: 80e8 ad3d 2494 d93c 5b75 b73b f3da 89bd
000000a0: 61e2 82bd 371b f03d 4bad 63bd bdcf bebd
000000b0: 42f7 35bc 9d41 2b3e e966 f2bb 1844 283e
000000c0: feb9 b4bd 4e85 8dbc 419a 143e 05a7 ae3d
000000d0: 2c1c a83d f230 383d 7224 2bbd 881a 81be
000000e0: db40 ccbd 84f7 59bd f6c4 0ebe 143c 013e
000000f0: f4e8 5fbd 57a2 9f3e adb2 babd 97a1 a33d
00000100: a70f aabc fc3f cd3c 82ce 50bd 15a5 8d3d
00000110: 1fab a1bd 0e55 c03d 6d07 41bd f8d6 e5bc
00000120: dc4b 463d fdd6 ed3d 29af f23c 7dbf 233d
00000130: 3b9f f7bd b1bc 343d d731 0a3e dfc8 943d
00000140: dbc9 ccbc 645c 213d 7437 b73d 79f5 943c
00000150: 4b7e aebd f137 d5bd 18e3 85bd 0777 f03d
00000160: a2f5 dfbd 6adb cdbd 16c4 85bb 7f62 973d
00000170: 9e5a 4039 4d0d 813d 0179 cf3c 3535 813d
00000180: faf1 163d fc3c b5bd bd2b c33d c03c cbbd
00000190: 2e2d a73d 5190 aebd cc22 90bc 5ed1 b53d
000001a0: 9b4d 07be 4501 0ebe 3a39 12be 7ba2 84bd
000001b0: 40c9 03be 246e ba3d a282 b13c c524 efbd
000001c0: 55d2 2c3d 2f57 92bd e75f b6bc 82c7 b03d
000001d0: ce64 ed3d 4287 7fbd 430f cd3d d07f 11bc
000001e0: 6015 1a3e c97e 033d a537 af3d cd08 26be
000001f0: 8b71 d1bc 45b7 263e 4bce a1bc 57e9 9bbc
00000200: 5aa4 1c3e 34d8 d83d 492d 3f3b 3df8 6abc
00000210: 7498 663c feeb 433d 85ac a93d 09df 203e
00000220: d05e 34be 2c2b 27be 4ad6 253d 344a 253e
00000230: 4f83 a83c b5bb 9f3d 69ae 09bd 7559 ddbd
00000240: e802 e03c b89a 00be d8d3 e93d 7176 b63d
00000250: f81a bbbc 6d80 0c3d 34de 12bb 63f2 8fbb
00000260: 92ef d8bd bb96 423e cdf5 123e df1b 353d
00000270: 8932 d73d cfde 89bd b31c a83d 093e 96bd
00000280: 48fb d0bd 0714 13bd 44a0 013d 65ed 19bd
00000290: d03a 193d f5b6 cf3b 6bf8 c6bd a5f8 ef3b
000002a0: 79a8 d83d 0970 b73c ec0d 92bd 3dde f93d
000002b0: aaa1 e6bc c461 66be e188 1d3e 6757 a2bd
000002c0: 8bcf 96bc b6d4 543e 2ec2 f43c 4a25 7e3d
000002d0: f0ec 46be 34df af3d 489f 7c3c e488 cabd
000002e0: 22dc 66bd c6aa b6bd 4285 393d f49d 56bd
000002f0: e5c5 aa3d d37b 683d 5775 0cbe 7302 91bd
00000300: fcdb 233e 8979 41be 052e db3d 34c1 f63c
00000310: aca4 d93c e968 97bc 408f 883d 40e7 78bd
00000320: a38b 0f3c dff2 82bc 3883 1abd 5b6c 9a3d
00000330: 32b5 bd3d c11f 383d 3c0b 9839 4a55 b2bd
00000340: 3e9b 10be c8c4 403d 3e4b f43c 28e2 663c
00000350: 5490 333e 0821 ec3b 5c83 39bd 4619 163d
00000360: 23a8 cc3d 929a b8bd 4608 d93c 1c43 a93d
00000370: 8324 5ebc f43a 0e3e cf70 90bb ee0f fbbc
00000380: 37d4 5c3d 47a2 1abe 56f5 c23c 1f5d 6c3d
00000390: 0769 653d e077 e1bd 9a06 fc3c 0341 b13d
000003a0: a065 e23c a908 ae3b 5b12 88bd 656f 963d
000003b0: ee65 edbc 4d28 c8bc d332 813c 3879 60bc
000003c0: b554 e43d 4c38 a23d 8db7 ae3a bdf7 773b
000003d0: 3e0c e0bd fa04 183c 994a 3dbd 155a 5e3d
000003e0: 1720 37bd 208c 92bd 08ab 9b3d a982 19bd
000003f0: 7c37 fa3d 8cd1 8cbd 0d03 e2bd fe81 3c3c
-0.016969658 0.053799883 0.069606535 -0.08883884 0.042603415 0.03700844 -0.0053867595 0.07136838
0.054496706 0.06371055 0.009274977 0.0031541344 -0.063551225 0.016418178 0.044671595 0.06728454
0.09847962 0.052262124 0.15903628 0.15787156 0.14720656 -0.088301875 -0.011829152 -0.03977194
-0.06993142 -0.058445644 -0.04316927 0.06900939 0.048355047 -0.10012989 -0.025999658 0.03393202
0.15572052 -0.079049625 -0.07050229 0.020887056 0.084916115 0.026559897 0.0055987067 -0.067312144
-0.063908346 0.11723941 -0.055585187 -0.09316967 -0.011106314 0.16724248 -0.0073975218 0.16432226
-0.08824538 -0.017275479 0.14511968 0.0852795 0.08208498 0.044968553 -0.041782804 -0.25215554
-0.09973308 -0.053214565 -0.13942322 0.12620574 -0.05466552 0.31178543 -0.09116111 0.07989805
-0.020759417 0.025054924 -0.05097819 0.069162525 -0.07893967 0.09391223 -0.047126222 -0.028056607
0.04841219 0.116132714 0.029624538 0.03997754 -0.12090918 0.044125263 0.13495575 0.072648756
-0.024998596 0.03939475 0.08946124 0.018183457 -0.08520182 -0.104110606 -0.06537455 0.11741453
-0.109355226 -0.100516155 -0.004082213 0.073918335 0.00018344304 0.06301365 0.025326254 0.063089766
0.03685186 -0.088495225 0.09529827 -0.099236965 0.08162914 -0.0852362 -0.017594717 0.08877824
-0.13213198 -0.13867672 -0.14279643 -0.06476303 -0.1286974 0.09103039 0.021668736 -0.11676935
0.042192776 -0.07145535 -0.022262527 0.08631803 0.115914926 -0.06238485 0.100126766 -0.0088805705
0.15047216 0.032103334 0.08555535 -0.16214295 -0.025566837 0.1628085 -0.019751688 -0.019032164
0.1529707 0.105881125 0.002917128 -0.014341411 0.014074434 0.04783248 0.082848586 0.15710081
-0.17614293 -0.16325063 0.040487565 0.16141587 0.020570425 0.07799474 -0.033613596 -0.10808078
0.027345136 -0.1255902 0.11417359 0.0890931 -0.022840008 0.034302164 -0.0022410275 -0.0043929084
-0.105925694 0.19002812 0.14351578 0.044216033 0.10507686 -0.067319505 0.08208599 -0.07336051
-0.10204178 -0.03590777 0.03164698 -0.037579913 0.037409604 0.006338949 -0.09715351 0.007323342
0.105790086 0.02239229 -0.07131562 0.12200592 -0.02815326 -0.22498232 0.15384246 -0.07926827
-0.018409511 0.20784268 0.029877748 0.06204728 -0.19426322 0.085874945 0.015418835 -0.09889391
-0.05636228 -0.08919291 0.0452931 -0.05239673 0.08338527 0.056758713 -0.13716637 -0.07080545
0.16001886 -0.18894018 0.10702137 0.030121423 0.02656778 -0.018482642 0.06667948 -0.060767412
0.008761319 -0.01598495 -0.037722796 0.075401984 0.09263076 0.044952158 0.0002900007 -0.08707674
-0.1412172 0.047062665 0.029821035 0.014092006 0.17535526 0.007206086 -0.04529129 0.036645196
0.09993007 -0.09013857 0.026493203 0.08264753 -0.01355851 0.13889676 -0.004407979 -0.030647244
0.05391332 -0.15100966 0.023798626 0.057705995 0.056008365 -0.110091925 0.030764867 0.08654978
0.02763635 0.005311091 -0.06644126 0.073454656 -0.028979268 -0.02443328 0.015771305 -0.013700776
0.11148969 0.07920894 0.0013329849 0.0037836873 -0.10939835 0.00927853 -0.04621372 0.054285128
-0.044708338 -0.07155633 0.07600981 -0.037478123 0.12217614 -0.068759054 -0.11035738 0.011505602

network_body._body_endoder.seq_layers.4.bias f4 [128]
00000000: 4dc6 883b fc4b 0bbc 674a 1c3d f12f 8e3b
00000010: b4b0 453c 79f8 493d 32e2 45bc e6e6 943c
00000020: 843f 36bc c693 223d ec5d 2b3d 1d81 333d
00000030: 28ee 8c3a 3c84 7a3d f7a9 8c3c 376e 2f3d
00000040: 7ce0 98bb c6ad 423c 19ee 623c 918a a53c
00000050: 94a0 143c 0865 113a 3241 383d a5bb a13c
00000060: 0784 643b b64c 1dbc 7763 043b 0471 de3c
00000070: 4740 1f3d 8c78 093c d381 ac3b 97b2 e8bb
00000080: eaa2 2b3c 6db6 323c 22db 3c3b c0d6 4a3d
00000090: a903 103d 78f9 d23c 0d5f ce3c bab3 b23c
000000a0: 9724 52bb 74d9 3e3c 7658 c33b ce1e a83b
000000b0: 3dbc 2b3d 3fda af3c e1b3 6c3c bf2c 893c
000000c0: c255 8f3c eb58 a1bb fbee b93c 5fef 4dba
000000d0: a09b 743c dcbd f83c 91a4 3f3c 2de1 693d
000000e0: 4b24 2e3d aca5 d43c f0e3 623c b1a7 1e3d
000000f0: 64f0 1b3d f903 ca3c 99f4 0c3d 61fc 5cbc
00000100: 48f9 0e3d cabf ecba 8e12 6a3b 36ff 063d
00000110: bc62 ad3a 0a76 df3c e48f b73b e7aa 833c
00000120: 07b8 883c a608 d63c dbba 823c 4b72 a2bb
00000130: fa47 af3b a77f 01bc 9d1d d03b 4f57 ce3c
00000140: cc1b f93c 3832 7f3c e554 243d c556 aa3c
00000150: 26c9 553d 4c89 14bc 9563 f83c 1551 a53c
00000160: 12a2 3a3c 972a bd3c 7313 b93a 54e5 083d
00000170: 8f02 15bb 014a 373d 244f 90bb 7c04 523d
00000180: 1e80 333d c14d 8e3c 622e 023b 8e05 d03c
00000190: 7080 353b ef56 a23c 41e2 f33c 7953 003d
000001a0: bc40 f23b d8b6 cc3c c063 4dbb 1caa a53c
000001b0: 0728 c73c 10e7 253d 05cb 8d3c b549 183d
000001c0: 0698 773d 5d75 0d3b 574d 483d ca51 4b3d
000001d0: fabf ccbb 4fe0 cd3b 0a1b 513c b673 73bb
000001e0: 32d6 6bbb e8e3 f7ba 9572 ef3c 93ba 303d
000001f0: 7f58 3d3c 5c94 bc3b 4caf aa3c 359d d139
0.00417403 -0.008502003 0.038156893 0.004339211 0.012066055 0.049309228 -0.012077855 0.018176507
-0.011123542 0.03969171 0.041837618 0.043824304 0.0010752128 0.061161265 0.01717089 0.04282972
-0.0046654325 0.011882251 0.013850712 0.020207675 0.009071488 0.0005546366 0.04498405 0.019742796
0.0034868733 -0.009600809 0.0020200887 0.0271535 0.03887966 0.008390557 0.0052644997 -0.0071013677
0.010475853 0.0109077515 0.0028817137 0.049521208 0.03515974 0.025753722 0.025191808 0.021814216
-0.0032065266 0.011648525 0.005961473 0.0051306253 0.041927565 0.021466373 0.014447183 0.01674497
0.017496947 -0.00492393 0.022696963 -0.00078557985 0.014929682 0.03036397 0.0116969505 0.05709951
0.04251508 0.025957905 0.01384829 0.03873414 0.03807105 0.024660097 0.034412954 -0.013487906
0.034905702 -0.0018062529 0.0035716626 0.032958232 0.0013228278 0.027277965 0.00560187 0.016072704
0.016689314 0.02612717 0.01595824 -0.0049574724 0.0053491564 -0.00790397 0.0063511864 0.025188116
0.030408762 0.015575938 0.040120024 0.020793328 0.052193783 -0.009065937 0.030320922 0.020180264
0.01139118 0.023091597 0.0014120176 0.03342183 -0.002273712 0.04474831 -0.0044039655 0.051273808
0.043823354 0.01737106 0.0019864072 0.025393274 0.0027694963 0.019816844 0.029770972 0.031329606
0.007392971 0.02498953 -0.0031339973 0.020222716 0.024311079 0.04050356 0.017308721 0.037179668
0.060447715 0.0021584847 0.048901882 0.049638547 -0.0062484713 0.006282843 0.012762794 -0.0037147827
-0.0035985825 -0.0018912526 0.029229442 0.04314668 0.011556744 0.0057549905 0.020835541 0.00039980715

action_model._discrete_distribution.branches.0.weight f4 [25, 128]
00000000: 23ed 823b 3b38 4cbc 198b 49bd 3d1a 973a
00000010: 24fb b6bc 9d98 66bd bf19 063c 1142 35bd
00000020: 69ac d73b be72 00bd c21b 463d 380d 6cbd
00000030: 5d8f edbb 26d4 933c 053d f23b be8e 78bd
00000040: 99fa 13bc 2be5 c93c 5d92 27bd c738 803c
00000050: 9f44 2dbd e147 e03c a989 123d 43f9 9e3b
00000060: 3ab7 843b 28f6 723c 5040 e33c cb99 3d3d
00000070: 31db 49bd 99ef 913b 4a1c 6abc 324a 90bc
00000080: 93c2 c8bb 2ef3 7a3c 2590 8f3c bb38 1a3d
00000090: ad77 7e3d 5fd5 7cbd 2ae4 d23c ded4 403d
000000a0: 8bfc 4cbc b41c 7f3c 0b2d b6bc b177 91bc
000000b0: 6f42 373d a185 e5bc d503 94ba 7819 6cbc
000000c0: 918b 20bd 57b3 9bbc d5f6 e33c c597 63ba
000000d0: 0bc4 be3b 8239 70bd 65b6 013d babd 0d3d
000000e0: 16bf 95bd 761d 633c 9c5e 2bbd f058 5bbd
000000f0: 9a34 843d 9e96 19bd a36f 9bbd 37a9 a6bc
00000100: 938a 243d c9ad 61bc 6b3d 1abd 75c4 5bbd
00000110: 4aca bdbb 4cbf 49bd db9e 09bd dd50 45bd
00000120: 8332 cd3b fd2e fd3c f600 68bc 8635 20bc
00000130: e3fd 9d3c 3466 48bc 7d3b ce3c abc8 173d
00000140: 9d6d 6b3d 7bb1 0a3d d018 223d df58 5ebc
00000150: 1092 373d ed3b da3c 83fd dc3c 2385 733d
00000160: a0a1 d1bc 6918 a63c 8b13 9cbb 341b 8abd
00000170: 30ff 1e3c 7c2c 31bd e738 443b 9dbe 53bd
00000180: aac5 93bd c48b 5ebd ddae d83b 984b 52bd
00000190: c350 d73c 2ce3 41bd 1467 42bd 2042 3fbd
000001a0: 54d0 1f3c c2f6 82bc 7455 ccbb cd53 ab3c
000001b0: d6f3 6ebd 3682 133d d4ae b6bc 6065 1fbd
000001c0: 5e9d a9bc 9fa3 1fbc 7b45 84bd f8c8 9f3c
000001d0: 1f9b 563b 33ed 01bc ec08 a13c 1380 f53b
000001e0: 51ab baba ca4f 533d 0ce1 babc 8b8d c63c
000001f0: 29a1 f9bb 25bc 2a3c 86c6 073d ed05 8ebb
00000200: 1455 df3c 6a65 283c 597d 4dbd fbc7 00bc
00000210: 1aee 8cbc ecf5 84bd e032 593b 29da 1abd
00000220: c74e 023c d6c3 f0bc 30d4 3c3d f240 84bd
00000230: 1cf7 973c 7630 f23c a2ce 363c 1db8 8bbd
00000240: 44a2 a1bc d183 283c 42fd 7bbc 4e75 e03b
00000250: d395 eabc 60e0 323d c167 3d3d db70 793c
00000260: 7903 f53b c0bc 8f3c d8b8 963c deeb 0b3d
00000270: 68fb 11bd 87a6 373c ad88 dcbb 1908 eebc
00000280: 3490 02bc 4652 3e3c 9c54 d43c 3657 433d
00000290: 91f9 4c3d 5587 4ebd 1d97 c23c 1932 173d
000002a0: 219e 30bc fb36 b13c 42c0 a6bc 009b 39bc
000002b0: e0fa 013d 3fa2 f3bc 9b8d 39bc ad88 94bc
000002c0: c471 0dbd bc3f adbb aff6 b13c 3883 253c
000002d0: 9e40 953b e13c 8abd c0bd f73c bb34 403d
000002e0: 1d77 6fbd 51f1 fd3c c94c 073c 5e63 44bd
000002f0: 9ebe e23c 9626 adbc 90fc 6abd 8bc0 eabb
00000300: a391 d43c c804 89bc a7ab 93bc 2297 5ebd
00000310: 7943 38bc 227b b9bc d3e8 bebc 113f d1bc
00000320: d3a9 9db9 16a6 e23c cf16 4fbc 07e7 d9bc
00000330: ef71 8d3c 133e ecbb e1b8 013c bfe2 cb3c
00000340: 3939 653d c432 9c3c 8cb8 cd3c f2bb 923b
00000350: 981c 033d 0894 7ebb d629 2d3d 3f19 5a3d
00000360: 31d5 56bc 721c 1d3d e80f 3b3c 68e2 50bd
00000370: 439e a43b e759 4fbd 9d49 9e3c f36f 53bd
00000380: 6a67 67bd 0886 1dbd 25cb ba3c 2eff 39bd
00000390: dbc7 213c c050 2fbd 3a65 12bd c20c 40bd
000003a0: fd9a a33c 8528 fabc 1c66 4dbb d126 363c
000003b0: 0e8b 40bd d033 0b3d 426b 0fbc 33ac adbc
000003c0: 70bb c0ba b3df c7bb b7a7 35bd 3064 cd3c
000003d0: f4f8 aeba 252b 83bc dfdd ec3c aa63 4cbc
000003e0: cbcc 093b 565b 123d b5e3 8ebc 18bc 323d
000003f0: 1fe7 853c 670d 5b3b 7779 f83c 89dc 2dbc
0.003995554 -0.012464578 -0.04920492 0.0011528205 -0.02233655 -0.056297887 0.008184849 -0.04425246
0.006581832 -0.031359427 0.048366316 -0.057629794 -0.0072497563 0.018045496 0.007392528 -0.060683005
-0.009031915 0.024645409 -0.040911067 0.015652074 -0.04230177 0.027378025 0.035775814 0.0048514917
0.0040501626 0.014829196 0.027740628 0.046289247 -0.049281303 0.004453611 -0.014288971 -0.017613504
-0.0061267107 0.015316768 0.017524788 0.03765176 0.06212585 -0.061726924 0.025743563 0.047078006
-0.012511383 0.015570808 -0.022238275 -0.017757269 0.04474109 -0.02801782 -0.0011292646 -0.014410369
-0.0391956 -0.019006414 0.02782766 -0.0008681978 0.00582171 -0.058648594 0.031668086 0.034604765
-0.073118374 0.0138620045 -0.041838273 -0.053551614 0.064553455 -0.037497155 -0.075896524 -0.02034436
0.040171217 -0.013774344 -0.03765623 -0.053654153 -0.005791937 -0.0492547 -0.033598762 -0.04817282
0.006262125 0.030906195 -0.014160385 -0.009778386 0.019286102 -0.012231398 0.02517485 0.037056606
0.057477582 0.033860665 0.039574444 -0.013570993 0.04481703 0.026639903 0.026976353 0.05945314
-0.025589764 0.020275312 -0.004763072 -0.0674347 0.009704396 -0.043255314 0.0029941143 -0.051695455
-0.07215436 -0.05433251 0.006612642 -0.051341623 0.026283627 -0.04733579 -0.047461584 -0.04669392
0.009754259 -0.015986804 -0.0062357727 0.020913983 -0.05833801 0.03601285 -0.022300161 -0.038915038
-0.020704921 -0.0097436 -0.06458565 0.019505009 0.0032746268 -0.007930088 0.019657575 0.0074920743
-0.001424173 0.051589765 -0.022812389 0.024237415 -0.0076180887 0.010420834 0.03314831 -0.0043342025
0.027262248 0.010278085 -0.05016837 -0.007860179 -0.01720338 -0.064922184 0.0033141896 -0.03780571
0.007953352 -0.029390257 0.046100795 -0.064577 0.018550448 0.029564124 0.011157664 -0.06822226
-0.019730695 0.010285334 -0.015380206 0.0068499213 -0.028635895 0.043671012 0.046241526 0.015224661
0.0074772206 0.017546058 0.018398687 0.034160487 -0.03564015 0.011209137 -0.00673016 -0.029056596
-0.007968951 0.011616295 0.025919251 0.047690593 0.050042693 -0.05042203 0.023753697 0.03691301
-0.010779888 0.021632662 -0.020355348 -0.011328459 0.031733394 -0.02974045 -0.011325265 -0.018131578
-0.034532323 -0.0052871387 0.021724073 0.010102086 0.004554822 -0.06749893 0.030241847 0.046925288
-0.058463205 0.030998858 0.008258053 -0.047946326 0.027678784 -0.021136563 -0.05736977 -0.007164066
0.025948351 -0.016725913 -0.018026186 -0.05434335 -0.0112465555 -0.022641722 -0.023304379 -0.025542768
-0.00030071902 0.027667087 -0.012639715 -0.02659942 0.017266242 -0.0072095483 0.007917614 0.024888394
0.055962775 0.019067176 0.025112413 0.0044779712 0.03200969 -0.0038845558 0.042276226 0.053246733
-0.013112352 0.038357206 0.011417367 -0.050997168 0.005023749 -0.050622847 0.01932221 -0.051620435
-0.056495108 -0.0384579 0.022801945 -0.045409374 0.009874309 -0.04280162 -0.03574107 -0.046887167
0.019971365 -0.0305369 -0.003134138 0.011117653 -0.047007613 0.03398496 -0.0087536 -0.021200275
-0.0014704298 -0.006099665 -0.0443494 0.025072187 -0.001334934 -0.016011784 0.02891439 -0.012474934
0.0021026607 0.035731636 -0.017442564 0.04363641 0.016345559 0.0033424736 0.030331356 -0.010611662

action_model._discrete_distribution.branches.0.bias f4 [25]
00000000: 6a6e 9dbb 0765 80bb b7ef 3c3c affe 303c
00000010: 4f8a 3cbb bb01 34bc 4ea0 b5ba 3851 993b
00000020: ace0 7b3c 7c3b 8cbb 13fc abbb 7d16 27bc
00000030: 59bb 183c 81a1 89bb 51f6 b7bb 9a5a 0cbc
00000040: 977d 11bb 1008 0cbb 2fe4 53bb 3c45 1d3b
00000050: 885b 3039 921f be3b d440 623c 0911 543c
00000060: d34a b7bb
-0.004804422 -0.0039182934 0.011531762 0.010802909 -0.0028768962 -0.010986741 -0.0013856979 0.0046788715
0.01537339 -0.004279552 -0.0052485554 -0.010198233 0.009322011 -0.004200161 -0.00561408 -0.008566523
-0.0022200102 -0.002136711 -0.0032332053 0.0023997566 0.00016818766 0.0058021033 0.013809402 0.012943515
-0.0055936365
