Assets/Env5/Brains/MoveToTrigger1.onnx (onnx, 154966 bytes, 8 tensors)

network_body._body_endoder.seq_layers.0.weight f4 [128, 12]
0.10432509 -0.5555893 0.10444811 -0.001796653 0.09941462 0.026141195 0.74312335 -0.14437763
0.5388079 0.14352067 0.0046065343 0.22660066 -0.080873944 -0.09691144 -0.17401445 -0.6139388
-0.0067897225 -0.4381278 -0.3994305 0.5753228 0.3809993 0.38577 -0.06515216 0.19288544
-0.14363384 0.28643948 -0.22256757 0.2515192 -0.20569564 -0.12312399 -0.31465662 -0.013299327
-1.1193811 -0.4518209 0.0018649049 -0.055672422 -0.1305543 0.8021169 -0.03477021 -0.508653
0.14890213 -0.028157244 -0.096419245 -0.20802306 -0.6603705 0.08966247 0.11146618 -0.39239123
-0.30061245 -0.18182133 0.5869207 0.21149175 0.15082972 0.11234462 0.41392127 -0.21180177
-0.59692895 -0.038420137 0.291391 -0.19239196 -0.124776594 0.43053365 -0.015528336 -0.34524935
0.12337295 0.43739057 -0.16673133 0.33449027 -0.74771297 -0.28891948 -0.593955 0.10978327
0.635763 -0.077200465 0.18254748 0.009209755 -0.13910986 -0.1472931 0.04329973 0.24987529
-0.7365882 -0.3183068 0.15707092 0.36421025 -0.011684074 0.20533471 -0.23818867 -0.24991201
-0.021881642 0.32618225 -0.3191437 0.5267751 -0.072415575 0.024202934 -0.30476573 -0.33516204
-0.06401164 -0.024575306 0.19856074 0.14120565 0.40111497 0.12601018 -0.36521992 -0.21874557
0.36673504 -0.32085192 -0.41983104 -0.16702284 0.29776424 -0.016854336 0.07915685 0.017482623
0.13809897 -0.4028737 0.67007226 -0.26180094 0.0020693636 0.1326735 -0.17485516 -0.06392335
0.46813768 0.21899022 -0.15217827 0.4215319 -0.2769079 0.131202 0.10160584 -0.06592648
-0.44804838 0.0026822388 -0.39934942 -0.3964371 -0.18992563 -0.1525879 -0.29314986 -0.021155188
-0.15893432 -0.0909199 0.36861897 -0.51492226 0.16560908 0.27302682 -0.19936195 0.5088355
0.100020215 0.49989256 0.22066309 0.12167652 -0.2658361 -0.2679935 0.33846593 -0.34143436
0.28713122 0.28172234 -0.018368747 0.3974723 -0.14932615 -0.34627935 -0.017446226 -0.0008773226
0.09873398 -0.1324071 0.42670786 0.13089198 -0.528625 0.119494736 0.763701 0.011471856
-0.030374877 -0.030865362 -0.17673707 0.37140962 0.29130888 -0.09433585 0.3826298 -0.05738556
-0.58185077 -0.3281521 0.30082068 0.47932944 0.44330183 -0.45717156 -0.12263835 -0.19448134
0.17119887 -0.0048251897 -0.39526528 0.25646716 -0.49097043 -0.17801169 0.3276729 0.10666981
0.27306813 0.044552993 0.11479207 -1.0549597 -0.040887024 -0.11452748 -0.43550062 -0.29190546
-0.64592135 -0.6564032 -0.06402495 0.17346354 -0.21527484 -0.20818391 -0.41218776 -0.017976128
0.19423977 0.18919328 0.48611924 0.19292192 -0.8813585 -0.49059743 0.3964691 0.099251665
0.05864385 -0.18329969 0.07001339 -0.673768 0.19575934 -0.026462711 0.29660735 -0.02386051
-0.54591954 -0.1927983 0.009677262 0.14460886 0.03662212 -0.15166806 0.057310663 -0.5839954
0.11644863 -0.1873331 0.28579956 -0.029509952 0.47794893 -0.23172188 0.2029062 -0.22009556
0.22764339 0.20159945 0.209553 0.08769656 -0.11556937 0.030895988 0.3098034 -0.20591587
0.1647639 -0.00019402898 0.11611965 -0.5282931 0.17053828 -0.33103552 0.025885515 0.4386539
00000000: 65a8 d53d 1a3b 0ebf e4e8 d53d ac7d ebba
00000010: e499 cb3d 0f26 d63c 553d 3e3f bbd7 13be
00000020: 51ef 093f 15f7 123e 69f2 963b 010a 683e
00000030: 3da1 a5bd 8179 c6bd d830 32be 182b 1dbf
00000040: 527c debb 4952 e0be 2882 ccbe 5b48 133f
00000050: 5712 c33e a583 c53e 7f6e 85bd c383 453e
00000060: c014 13be 32a8 923e c1e8 63be 20c7 803e
00000070: e1a1 52be 6e28 fcbd ac1a a1be 6ce5 59bc
00000080: e147 8fbf 1255 e7be d36f f43a c408 64bd
00000090: 07b0 05be 8857 4d3f 356b 0ebd 1537 02bf
000000a0: cd79 183e 05aa e6bc 7477 c5bd ff03 55be
000000b0: 0b0e 29bf f5a0 b73d 6148 e43d 81e7 c8be
000000c0: e0e9 99be 5f2f 3abe 6f40 163f 4b91 583e
000000d0: 1b73 1a3e f014 e63d 7ded d33e 90e2 58be
000000e0: 56d0 18bf 6f5e 1dbd 3331 953e 6602 45be
000000f0: df8a ffbd e86e dc3e 906a 7ebc 86c4 b0be
00000100: f5aa fc3d a8f1 df3e 9ebb 2abe 4f42 ab3e
00000110: 1e6a 3fbf 41ed 93be 6f0d 18bf 0dd6 e03d
00000120: 5dc1 223f 471b 9ebd baed 3a3e 83e4 163c
00000130: d172 0ebe 01d4 16be 0f5b 313d 4fdf 7f3e
00000140: 0b91 3cbf 1cf9 a2be 33d7 203e c479 ba3e
00000150: 8f6e 3fbc 4343 523e bbe7 73be efe8 7fbe
00000160: 2141 b3bc 5c01 a73e ce66 a3be bcda 063f
00000170: 9e4e 94bd 3b45 c63c 410a 9cbe 5c9a abbe
00000180: 8918 83bd 2752 c9bc 8253 4b3e 3798 103e
00000190: f15e cd3e d008 013e 1bfe babe d7fe 5fbe
000001a0: b2c4 bb3e b446 a4be 18f4 d6be 0908 2bbe
000001b0: 8e74 983e 1b12 8abc fd1c a23d b837 8f3c
000001c0: d169 0d3e 7645 cebe db89 2b3f c60a 86be
000001d0: 299e 073b 90db 073e 3b0d 33be 3fea 82bd
000001e0: beaf ef3e f93e 603e 9fd4 1bbe 07d3 d73e
000001f0: dfc6 8dbe d159 063e b916 d03d 7604 87bd
00000200: 9966 e5be 80c8 2f3b 8777 ccbe cef9 cabe
00000210: dd7b 42be 0140 1cbe bd17 96be a54d adbc
00000220: aebf 22be 3634 babd a0bb bc3e f2d1 03bf
00000230: 6d95 293e 2cca 8b3e 8a25 4cbe 0b43 023f
00000240: 66d7 cc3d ebf1 ff3e 81f5 613e 8a31 f93d
00000250: ab1b 88be 7236 89be 684b ad3e 7cd0 aebe
00000260: dd02 933e e93d 903e 0e7a 96bc 7d81 cb3e
00000270: f4e8 18be 874b b1be 63eb 8ebc 20fc 65ba
00000280: 0a35 ca3d ba95 07be 7479 da3e 8c08 063e
00000290: f853 07bf a8b9 f43d e981 433f 74f4 3b3c
000002a0: bcd4 f8bc 5bd9 fcbc 90fa 34be 6729 be3e
000002b0: 7026 953e 2733 c1bd 0ee8 c33e 1f0d 6bbd
000002c0: 2cf4 14bf 8d03 a8be 2b05 9a3e ab6a f53e
000002d0: 75f8 e23e 6412 eabe d129 fbbd 1e26 47be
000002e0: c24e 2f3e a01c 9ebb 3660 cabe aa4f 833e
000002f0: 7a60 fbbe b248 36be bec4 a73e b475 da3d
00000300: 96cf 8b3e 337d 363d 1b18 eb3d eb08 87bf
00000310: 2779 27bd 628d eabd f0f9 debe a274 95be
00000320: 1a5b 25bf 0a0a 28bf 831f 83bd 6da0 313e
00000330: 0271 5cbe 2a2e 55be 460a d3be ac42 93bc
00000340: cae6 463e e2bb 413e 9fe4 f83e 538d 453e
00000350: b6a0 61bf 962f fbbe fffd ca3e 7544 cb3d
00000360: 8934 703d eab2 3bbe 2e63 8f3d 0f7c 2cbf
00000370: 2375 483e 54c8 d8bc ebdc 973e 1e77 c3bc
00000380: 62c1 0bbf eb6c 45be 618d 1e3c 5814 143e
00000390: 1301 163d df4e 1bbe 96be 6a3d b980 15bf
000003a0: 9f7c ee3d 40d4 3fbe 5254 923e dbbe f1bc
000003b0: b9b5 f43e 8048 6dbe a5c6 4f3e bb60 61be
000003c0: 591b 693e 1670 4e3e 1095 563e 419a b33d
000003d0: a2af ecbd 9519 fd3c 8d9e 9e3e 9cdb 52be
000003e0: deb7 283e 4274 4bb9 24d0 ed3d 373e 07bf
000003f0: 96a1 2e3e 7d7d a9be dc0d d43c 3e97 e03e

network_body._body_endoder.seq_layers.0.bias f4 [128]
-0.027492298 0.04337134 0.050018188 0.028352307 0.031073494 0.06959842 0.06906703 0.039480973
0.044247515 -0.0016893361 0.0055924384 -0.01159868 -0.03071869 -0.0013104673 -0.014783706 0.028432524
0.043783482 0.06331885 0.014797612 0.06505241 0.053226765 0.08004643 0.06017906 0.0383829
0.003339693 0.052354693 -0.02588079 0.04047717 0.05235379 -0.10092291 -0.062940694 0.012760217
-0.029192673 0.07249991 0.07743603 0.01325691 0.08987186 0.040924687 0.04943251 -0.004801059
-0.028164975 -0.04555518 0.023622312 0.06641649 0.09425239 0.046124335 0.2005625 0.0354458
0.105256535 0.059531283 -0.100656204 0.09037388 0.047180418 0.07537374 0.12712152 -0.053136222
0.0702831 0.06981153 0.0030964864 -0.004281508 0.04090704 -0.15428615 0.028326835 0.020713298
0.12527221 0.017969334 0.046925537 0.0033148706 0.042832293 0.083762564 -0.045037463 0.029507611
0.052643094 0.15082042 0.080200754 0.015145193 -0.0519552 0.10185597 0.061957944 0.019595355
0.026963744 -0.005855836 0.06087816 0.02016837 -0.086523384 0.045106884 0.10144257 -0.040654868
0.08116672 0.117740415 0.020373205 0.054859716 0.04725986 0.010524557 -0.10891852 0.017493065
0.02138548 0.060309302 0.045597155 0.025797486 0.04538844 0.033574082 0.050979406 0.01698861
0.05444722 -0.019616665 0.030510746 0.07067096 0.030047528 0.02098703 0.08547058 0.017010015
0.03795304 0.061324988 0.015643477 -0.0072858185 0.030841613 0.11534471 0.036462326 0.09995948
-0.01070498 -0.026614364 0.0465899 0.031298354 0.0082971165 0.01678521 0.011692975 0.070833035
00000000: 8737 e1bc 25a6 313d dfdf 4c3d 1943 e83c
00000010: d78d fe3c 9e89 8e3d 0473 8d3d cdb6 213d
00000020: e23c 353d b76c ddba c640 b73b 6408 3ebc
00000030: c3a5 fbbc fcc3 abba 5b37 72bc 53eb e83c
00000040: 4f56 333d 50ad 813d af71 723c 333a 853d
00000050: 4f04 5a3d 62ef a33d 517e 763d 6337 1d3d
00000060: c0de 5a3b e071 563d f303 d4bc 64cb 253d
00000070: ed70 563d acb0 cebd 0de7 80bd 3b10 513c
00000080: 7925 efbc d57a 943d c896 9e3d 8333 593c
00000090: bd0e b83d a5a0 273d be79 4a3d 3452 9dbb
000000a0: 3cba e6bc 1298 3abd 9483 c13c 5e05 883d
000000b0: 6607 c13d dfec 3c3d 4260 4d3e 9d2f 113d
000000c0: bd90 d73d 13d7 733d d724 cebd f115 b93d
000000d0: 4140 413d 8c5d 9a3d 252c 023e 5ea5 59bd
000000e0: 96f0 8f3d 59f9 8e3d 6cee 4a3b e44b 8cbb
000000f0: 248e 273d 30fd 1dbe ae0d e83c efae a93c
00000100: 5c47 003e 6d34 933c fe34 403d 4d3e 593b
00000110: ea70 2f3d b58b ab3d 3479 38bd f2b9 f13c
00000120: 49a0 573d ab70 1a3e 4b40 a43d 8b23 783c
00000130: face 54bd dd99 d03d 9dc7 7d3d 7086 a03c
00000140: 12e3 dc3c 50e2 bfbb 615b 793d 2338 a53c
00000150: 2c33 b1bd ffc1 383d 1fc1 cf3d b885 26bd
00000160: bd3a a63d e321 f13d b5e5 a63c 95b4 603d
00000170: 8e93 413d 316f 2c3c ac10 dfbd 9e4d 8f3c
00000180: 9a30 af3c e306 773d 15c4 3a3d 4055 d33c
00000190: 3be9 393d fa84 093d c8cf 503d b32b 8b3c
000001a0: 0c04 5f3d 21b3 a0bc acf1 f93c f0bb 903d
000001b0: 3c26 f63c feec ab3c 330b af3d 9658 8b3c
000001c0: a674 1b3d e92f 7b3d c026 803c e0bd eebb
000001d0: 8da7 fc3c d939 ec3d 8559 153d 8eb7 cc3d
000001e0: f163 2fbc 5e06 dabc 0dd5 3e3d b432 003d
000001f0: a1f0 073c 2381 893c e493 3f3c e910 913d

network_body._body_endoder.seq_layers.2.weight f4 [128, 128]
-0.2972179 0.024601532 0.049408413 -0.062564515 -0.13637413 0.25948197 -0.004086044 0.09417837
-0.004035823 -0.14451297 0.061867334 0.050978344 -0.013887838 -0.09927912 -0.09821357 -0.115893126
0.04102247 -0.09797469 -0.13164252 0.037258454 -0.03207608 0.20086889 0.063633196 0.03815653
-0.18419085 0.023469834 0.01213472 -0.002054366 0.13789912 0.0873575 0.015703375 0.0699862
-0.030184843 -0.12672621 0.23010819 -0.10101321 0.051153984 -0.035322554 0.18753238 -0.061372153
-0.16550365 -0.055540133 0.06886606 -0.016383287 0.22216225 0.13450521 -0.018942714 0.07576803
0.24145453 0.15914047 -0.055269536 -0.1673473 0.07143375 -0.004020549 0.26947704 0.13746406
0.06519591 0.12025744 -0.019456966 -0.10506168 0.03504838 0.1846823 0.061216854 -0.062057275
0.041673977 -0.04172467 0.22115195 -0.38391984 -0.000690732 0.0992047 -0.17869516 -0.14042497
0.051866055 0.14412098 -0.047860056 0.018315634 -0.015623932 0.057190806 0.012857607 -0.07261381
-0.08510881 -0.15377815 0.04815331 -0.1330147 -0.028379384 -0.2609833 0.09123866 -0.028842296
0.13674855 -0.048299924 -0.1168149 0.07857856 0.13918483 0.10823975 0.12317181 -0.15233698
-0.04400322 0.15858395 0.20584421 -0.14519104 0.09659914 -0.18083447 0.079079896 0.031048596
-0.10245674 -0.15157442 0.24771282 -0.023496369 -0.060386885 -0.10816507 0.002888747 0.13158223
0.02829092 -0.009899137 -0.10519748 0.042703282 -0.18740416 -0.008893905 0.05646237 0.13331912
-0.014653827 0.05263973 0.16668577 0.0719853 -0.005682039 0.25276884 -0.16683161 0.066126846
0.026759429 0.03493614 -0.30533257 -0.05656281 0.018359916 -0.13898964 -0.020922659 0.07623937
-0.04755573 0.048836295 0.028020881 0.0077557727 -0.08833821 -0.10089529 -0.06485306 -0.06609436
-0.042707037 -0.1109188 -0.08823468 0.12415585 0.023405435 0.14843707 -0.0694278 -0.016375551
0.07702937 0.21069673 -0.07398517 0.22908823 -0.14647444 0.060980458 0.09279065 -0.11776996
-0.18918456 0.09766199 0.09461374 -0.053507708 0.030987449 -0.13703854 0.14330421 -0.14929694
-0.10609662 -0.11904907 -0.0138226375 0.08716303 -0.11411307 0.18879355 0.11656667 0.08370911
0.042882174 0.029237509 0.031155674 -0.027250338 0.12715073 -0.122759245 0.21078967 0.07977619
-0.047377296 0.00548955 -0.31533444 -1.2811983e-05 0.1254338 0.10952233 0.022568544 -0.13743547
0.117569216 0.08637248 0.08306566 0.07216211 -0.1957539 -0.0316099 -0.08704626 0.16688284
-0.14414854 -0.054958344 0.011096745 -0.0498875 -0.14494985 -0.061516955 0.010790245 -0.16783644
-0.013028003 0.05928012 0.07094613 -0.21764551 0.0012802212 -0.09429281 -0.07000494 -0.0097329
0.09220487 -0.020637939 -0.07247294 -0.04480648 0.06556697 0.098042995 -0.050040726 0.046836905
-0.04955611 0.07684627 0.04134528 -0.14953682 0.08831693 0.032111388 0.14205657 0.05471433
-0.07425496 0.03178957 -0.10655994 -0.23996624 0.10866261 -0.046536587 0.047644295 -0.1003739
-0.11032188 0.07663578 -0.09744776 -0.031304188 0.083123416 -0.0043156515 0.081828505 0.045051835
-0.13564935 -0.15968828 -0.15474926 0.10758627 -0.0111662755 0.054411065 -0.33889678 0.1737196
00000000: f22c 98be 2789 c93c 7a60 4a3d d321 80bd
00000010: a9a5 0bbe d2da 843e 39e4 85bb 97e0 c03d
00000020: f03e 84bb 35fb 13be 9a68 7d3d abce 503d
00000030: d189 63bc da52 cbbd 3224 c9bd 6059 edbd
00000040: 2d07 283d f4a6 c8bd 4ccd 06be 529c 183d
00000050: 3562 03bd 93b0 4d3e 1f52 823d 064a 1c3d
00000060: 879c 3cbe cf43 c03c b4d0 463c 8ba2 06bb
00000070: 6d35 0d3e 7de8 b23d 5da4 803c ed54 8f3d
00000080: 3446 f7bc 84c4 01be 7ba1 6b3e 04e0 cebd
00000090: d786 513d 62ae 10bd 7d08 403e 5e61 7bbd
000000a0: ca79 29be 0d7e 63bd a609 8d3d 3e36 86bc
000000b0: 807e 633e bcbb 093e c02d 9bbc 452c 9b3d
000000c0: db3f 773e b8f5 223e 4f62 62bd 175d 2bbe
000000d0: dc4b 923d cfbe 83bb e5f8 893e 61c3 0c3e
000000e0: 6f85 853d 8849 f63d 3764 9fbc 942a d7bd
000000f0: e48e 0f3d 5b1d 3d3e 86be 7a3d c52f 7ebd
00000100: 55b2 2a3d 7de7 2abd a875 623e 2491 c4be
00000110: 3d12 35ba d52b cb3d ddfb 36be 90cb 0fbe
00000120: 8071 543d 7394 133e e808 44bd ab0a 963c
00000130: 85fb 7fbc e840 6a3d b6a8 523c 8db6 94bd
00000140: 874d aebd 0578 1dbe 683c 453d 0135 08be
00000150: e27b e8bc 9a9f 85be 56db ba3d ae46 ecbc
00000160: d007 0c3e 24d6 45bd a63c efbd cced a03d
00000170: 7886 0e3e cdac dd3d 8041 fc3d 3afe 1bbe
00000180: b83c 34bd d563 223e d3c8 523e f6ac 14be
00000190: c5d5 c53d ac2c 39be a4f4 a13d a059 fe3c
000001a0: d7d4 d1bd 5336 1bbe 6ea8 7d3e 757b c0bc
000001b0: 3d58 77bd a685 ddbd 2251 3d3b 7ebd 063e
000001c0: 5cc2 e73c fd2f 22bc c771 d7bd a3e9 2e3d
000001d0: e0e6 3fbe beb7 11bc 1645 673d cf84 083e
000001e0: 9b16 70bc c29c 573d adaf 2a3e 076d 933d
000001f0: 6630 babb eb6a 813e e8d5 2abe 836d 873d
00000200: 9736 db3c 3319 0f3d 8d54 9cbe 68ae 67bd
00000210: 8967 963c 4d53 0ebe ff65 abbc 6323 9c3d
00000220: ccc9 42bd 9108 483d 0c8c e53c 2324 fe3b
00000230: aaea b4bd 31a2 cebd aed1 84bd 7b5c 87bd
00000240: 93ed 2ebd 6529 e3bd 62b4 b4bd 6c45 fe3d
00000250: c1bc bf3c e3ff 173e 2a30 8ebd 0526 86bc
00000260: 93c1 9d3d e2c0 573e 8985 97bd 1b96 6a3e
00000270: 65fd 15be a5c6 793d 0609 be3d 6031 f1bd
00000280: 99b9 41be 0203 c83d d9c4 c13d e62a 5bbd
00000290: 64d9 fd3c d553 0cbe 57be 123e 4ce1 18be
000002a0: 2f49 d9bd 00d0 f3bd 5878 62bc 8882 b23d
000002b0: 1db4 e9bd 1953 413e 82ba ee3d af6f ab3d
000002c0: 38a5 2f3d 8083 ef3c 2f3a ff3c 1a3c dfbc
000002d0: cd33 023e 3369 fbbd 3fd9 573e b361 a33d
000002e0: b20e 42bd afe1 b33b 8473 a1be 0cf3 56b7
000002f0: b871 003e 3e4d e03d abe1 b83c e2bb 0cbe
00000300: 21c8 f03d 0ee4 b03d 541e aa3d bac9 933d
00000310: b673 48be 6279 01bd 4f45 b2bd 56e3 2a3e
00000320: ad9b 13be 001c 61bd 1fcf 353c d656 4cbd
00000330: bc6d 14be 34f9 7bbd 91c9 303c 51dd 2bbe
00000340: 6873 55bc b6cf 723d 344c 913d 77de 5ebe
00000350: 18cd a73a 971c c1bd c05e 8fbd be76 1fbc
00000360: e8d5 bc3d e510 a9bc b16c 94bd 0087 37bd
00000370: fa47 863d c4ca c83d 81f7 4cbd 0ed8 3f3d
00000380: 59fb 4abd 9461 9d3d ab59 293d 2e20 19be
00000390: 82df b43d 3b87 033d 4777 113e 221c 603d
000003a0: fc12 98bd c835 023d 193c dabd b6b9 75be
000003b0: 818a de3d 269d 3ebd aa26 433d d590 cdbd
000003c0: 70f0 e1bd 38f3 9c3d b192 c7bd d238 00bd
000003d0: 9c3c aa3d 4f6a 8dbb b495 a73d 4688 383d
000003e0: aae7 0abe 5385 23be 9776 1ebe 3156 dc3d
000003f0: c1f2 36bc 23de 5e3d e183 adbe 8de3 313e

network_body._body_endoder.seq_layers.2.bias f4 [128]
0.08663957 0.022076402 0.07756387 0.055554196 0.07064108 0.06301641 0.06053263 0.06056679
0.018153144 0.061986446 0.02178688 0.22822583 -0.015907982 0.014440262 0.07729645 -0.016941987
0.049711533 -0.04606281 0.019933566 0.11184511 -0.0054923687 -0.013512373 0.06667369 0.09474242
0.018432563 0.069520526 0.07530985 0.008104082 0.09169916 0.02154271 -0.02996002 0.07822221
0.059855245 0.008728068 0.034410574 0.19919668 0.110736065 0.012230726 0.011676568 0.098240994
0.039905526 0.05537068 0.04201827 -0.003468463 0.03451696 -0.018486867 0.062725574 -0.052561685
0.07490152 0.022073273 0.031389274 0.10216189 0.08360918 0.054964095 0.029678887 0.036523435
0.05109343 0.048148673 0.03270087 0.06893942 0.03541851 0.039869636 0.024500297 0.03697764
0.022147197 0.07303308 0.04560734 0.065147884 0.039615218 0.040067285 0.06602923 0.065614656
0.07244782 0.045245167 0.043335725 -0.03837507 0.054494783 0.058428448 0.068911545 0.021878172
0.023140313 0.09565765 0.0097572785 0.044853445 0.08590324 0.07847295 0.08922597 0.057099916
0.030642701 0.031483043 0.021950454 0.01238033 0.09183122 0.048824586 0.08491799 -0.0038052422
0.017257534 0.03370293 0.051596012 0.0737762 0.076686874 0.051249694 0.08691184 -0.009844503
0.077804945 0.009015427 0.06446452 0.066776685 0.067959465 0.07451759 0.06237663 0.05610841
-0.012352924 0.11337609 0.12211436 0.048832856 0.0049247337 0.07319798 0.0433244 0.0058150436
-0.07636053 0.038382966 0.08531212 -0.025532829 0.0399836 0.039004356 0.05259168 0.0122018745
00000000: 1670 b13d 92d9 b43c ced9 9e3d cc8c 633d
00000010: 45ac 903d bf0e 813d 10f1 773d e214 783d
00000020: e7b5 943c 80e5 7d3d 667a b23c 08b4 693e
00000030: 7551 82bc d996 6c3c 9a4d 9e3d ecc9 8abc
00000040: 529e 4b3d 5bac 3cbd b84b a33c 0d0f e53d
00000050: 54f9 b3bb 0063 5dbc 378c 883d 5008 c23d
00000060: e3ff 963c c760 8e3d 0d3c 9a3d fcc6 043c
00000070: c5cc bb3d 567a b03c b76e f5bc f732 a03d
00000080: c62a 753d 2c00 0f3c 1af2 0c3d 37fa 4b3e
00000090: 97c9 e23d 6263 483c 134f 3f3c 9332 c93d
000000a0: fa73 233d 5ecc 623d 591b 2c3d 274f 63bb
000000b0: a861 0d3d c571 97bc 4476 803d ec4a 57bd
000000c0: f865 993d 02d3 b43c 0a92 003d 413a d13d
000000d0: 4a3b ab3d 0822 613d 2321 f33c 9999 153d
000000e0: 5847 513d 8b37 453d 59f1 053d 1c30 8d3d
000000f0: 0013 113d 584e 233d d9b4 c83c de75 173d
00000100: 0a6e b53c 5e92 953d c3ce 3a3d 416c 853d
00000110: 9143 223d 981d 243d 553a 873d fa60 863d
00000120: 865f 943d ff52 393d cd80 313d 2d2f 1dbd
00000130: ec35 5f3d ab52 6f3d 7f21 8d3d da39 b33c
00000140: c190 bd3c 28e8 c33d fedc 1f3c 3fb8 373d
00000150: 0aee af3d 6db6 a03d 1bbc b63d 9ae1 693d
00000160: 6706 fb3c 5df4 003d 70d1 b33c ded6 4a3c
00000170: 0212 bc3d 4afc 473d 7ce9 ad3d 5f61 79bb
00000180: ac5f 8d3c 150c 0a3d 5756 533d fa17 973d
00000190: 020e 9d3d 33eb 513d d6fe b13d d74a 21bc
000001a0: 3358 9f3d 71b5 133c f905 843d 37c2 883d
000001b0: 552e 8b3d ae9c 983d a37e 7f3d efd1 653d
000001c0: eb63 4abc b931 e83d 1817 fa3d f604 483d
000001d0: a95f a13b d3e8 953d ed74 313d 1f8c be3b
000001e0: e962 9cbd 7537 1d3d 1fb8 ae3d 392a d1bc
000001f0: d8c5 233d 08c3 1f3d 606a 573d 5fea 473c

network_body._body_endoder.seq_layers.4.weight f4 [128, 128]
0.015131363 -0.12653024 -0.048685793 0.17557696 0.21954827 0.19355963 -0.17379746 -0.011728159
-0.0614149 0.3251172 0.021596694 0.007216285 0.079966635 -0.034910068 -0.10173221 0.045778714
0.17693642 -0.1528374 0.09149869 -0.06511732 -0.06479767 0.13935013 -0.14570373 -0.069518134
0.19219694 -0.051020127 0.030510232 0.028456815 0.09603626 0.015507807 0.033673465 0.03816415
0.051826734 0.021306477 0.008051601 0.1131018 -0.06009751 -0.0030506023 0.31717065 -0.09697497
0.16907705 0.096797906 0.18261598 0.100338876 0.21178028 0.06177014 0.18796696 0.049562223
-0.045966875 -0.050731633 0.05292909 -0.1698812 0.17865047 -0.03330391 0.23917271 0.34658793
-0.042962186 0.14122184 0.116572864 -0.10594549 -0.2641962 0.27861512 -0.10925274 0.08125554
0.31404045 0.21861301 -0.3169373 -0.0424992 0.15614828 -0.04494888 -0.3814182 -0.29237166
0.0036495423 -0.2352959 0.013180239 0.0030518295 -0.25891232 -0.19189084 0.21750031 0.12388546
0.1657452 -0.14123821 0.030262724 -0.049660463 0.10158349 0.037462536 0.23990647 -0.23228325
-0.031627804 0.07135969 0.10642782 -0.035983138 0.11189941 -0.19043195 -0.3071222 -0.13256067
0.06475959 0.1391925 -0.11713595 0.049948335 0.020679872 0.064473726 -0.13331634 0.101346076
0.0050595505 -0.12512597 0.06682005 -0.13177118 0.09223261 0.26649842 -0.2654276 0.037876774
0.03954598 0.17564835 0.10621326 0.38027635 0.028008265 0.14743827 0.100494236 0.0664979
-0.002903434 0.08126575 -0.05306447 0.05832171 0.1790895 -0.25170296 0.12820694 -0.050210245
0.17084165 0.06279075 0.07922864 0.08761005 -0.05572741 0.0011569341 0.18062432 0.20257106
0.19169803 0.020168817 0.158414 0.14378156 -0.12198827 -0.0543578 0.12599228 -0.15360694
-0.07286851 -0.15190034 -0.2132341 0.25388893 -0.09400638 -0.09758418 0.22170621 -0.03509329
-0.07966743 0.086044714 0.051396076 -0.066390194 -0.039154608 -0.12056284 -0.12002555 -0.10584489
-0.068599135 -0.11934619 -0.038660213 0.12161403 0.042576328 -0.072930716 -0.18426056 0.33892962
-0.3451491 -0.086600214 0.015067818 -0.34487468 -0.040514957 -0.11059865 -0.032691598 -0.19327709
0.19446193 -0.24174242 -0.1066129 0.025991142 0.15766227 0.13653755 -0.24465573 -0.13026178
-0.084573135 -0.19351068 0.0014722066 0.17406519 0.20425947 -0.0013071864 -0.040711235 -0.24462439
0.008532021 0.016710898 0.1609054 0.18635805 -0.093867406 -0.052836467 0.050730485 0.12335624
0.08848407 0.026098441 0.050541256 -0.24778129 0.20127088 0.31265578 0.09641461 -0.107915476
-0.010687876 0.06370273 -0.1367099 0.030772023 0.30902997 -0.06149695 -0.13763484 0.1560641
-0.006000779 -0.21068896 -0.07033624 -0.14406879 -0.008114946 0.14074062 0.085444786 -0.14886032
0.0014941556 -0.23595361 0.041951302 0.10307527 -0.044482045 0.03103309 0.06201643 0.06018324
0.11963957 0.025061244 -0.048669692 0.055932403 0.13190082 -0.03647569 0.2343626 -0.20830832
-0.17823896 0.11512996 -0.08837191 -0.12059814 -0.16499096 0.09550216 -0.15894471 -0.1730527
0.051684223 -0.18963791 0.12723719 -0.004593719 -0.16732712 0.04898266 -0.27846426 0.065141946
00000000: 89e9 773c 2591 01be c16a 47bd 72ca 333e
00000010: 43d1 603e 7f34 463e f6f7 31be 7727 40bc
00000020: 318e 7bbd c375 a63e 8deb b03c 9676 ec3b
00000030: 8cc5 a33d dcfd 0ebd fa58 d0bd 7682 3b3d
00000040: d22e 353e 6881 1cbe aa63 bb3d 3b5c 85bd
00000050: a4b4 84bd cdb1 0e3e 5c33 15be 865f 8ebd
00000060: 46cf 443e 7bfa 50bd 98f0 f93c 441e e93c
00000070: a9ae c43d 7514 7e3c 30ed 093d 0352 1c3d
00000080: 4548 543d ec8a ae3c ddea 033c eba1 e73d
00000090: cf28 76bd 9dec 47bb 3164 a23e d09a c6bd
000000a0: 8922 2d3e fb3d c63d afff 3a3e 787e cd3d
000000b0: eedc 583e b002 7d3d 697a 403e c201 4b3d
000000c0: c347 3cbd f9cb 4fbd 2ccc 583d 56f5 2dbe
000000d0: 26f0 363e ae69 08bd b1e9 743e f973 b13e
000000e0: 1ef9 2fbd 759c 103e c1bd ee3d f3f9 d8bd
000000f0: b944 87be a4a6 8e3e e7bf dfbd 4e69 a63d
00000100: e9c9 a03e 17dc 5f3e 9b45 a2be a413 2ebd
00000110: 56e5 1f3e 511c 38bd 3f49 c3be bdb1 95be
00000120: 292d 6f3b 69f1 70be eef1 573c 3401 483b
00000130: 2890 84be 087f 44be 67b8 5e3e a9b7 fd3d
00000140: 1cb9 293e c0a0 10be 88e9 f73c c568 4bbd
00000150: 010b d03d 5172 193d 0baa 753e a9db 6dbe
00000160: 288c 01bd 0725 923d d4f6 d93d 0e63 13bd
00000170: 852b e53d 9800 43be 1f3f 9dbe fcbd 07be
00000180: ada0 843d 7b88 0e3e f9e4 efbd a096 4c3d
00000190: d668 a93c cd0a 843d 1484 08be 888e cf3d
000001a0: 96ca a53b 0621 00be f3d8 883d 06ef 06be
000001b0: 73e4 bc3d 7b72 883e 20e6 87be ad24 1b3d
000001c0: f7fa 213d 29dd 333e 5686 d93d 95b3 c23e
000001d0: 9771 e53c 0ffa 163e eccf cd3d 0d30 883d
000001e0: 8a47 3ebb a86e a63d 215a 59bd bfe2 6e3d
000001f0: 3d63 373e 36df 80be ae48 033e 42a9 4dbd
00000200: 1df1 2e3e 7098 803d a042 a23d e66c b33d
00000210: 6d42 64bd 44a4 973a 95f5 383e ca6e 4f3e
00000220: 7d4c 443e 1339 a53c 4837 223e 793b 133e
00000230: fcd4 f9bd 49a6 5ebd 1f04 013e 234b 1dbe
00000240: 163c 95bd c38b 1bbe 0a5a 5abe bbfd 813e
00000250: 6b86 c0bd 37da c7bd f406 633e fbbd 0fbd
00000260: ad28 a3bd 3638 b03d b184 523d 95f7 87bd
00000270: 9560 20bd a6e9 f6bd f5cf f5bd 35c5 d8bd
00000280: b47d 8cbd c66b f4bd 2c5a 1ebd c710 f93d
00000290: 8464 2e3d b35c 95bd cdae 3cbe 2f88 ad3e
000002a0: 62b7 b0be 745b b1bd 02df 763c 6a93 b0be
000002b0: 03f3 25bd 8c81 e2bd a0e7 05bd 6eea 45be
000002c0: 0721 473e 538b 77be dd57 dabd 60eb d43c
000002d0: 3872 213e 80d0 0b3e 0887 7abe 5863 05be
000002e0: ae34 adbd aa27 46be 0ef7 c03a 253e 323e
000002f0: 6529 513e e655 abba d3c0 26bd d17e 7abe
00000300: e4c9 0b3c 4be5 883c 63c4 243e a5d4 3e3e
00000310: 8e3d c0bd 0d6b 58bd c5ca 4f3d 32a2 fc3d
00000320: 2337 b53d 66cc d53c 5904 4f3d 61ba 7dbe
00000330: f419 4e3e 6b14 a03e 0675 c53d ca02 ddbd
00000340: 331c 2fbc 9476 823d aefd 0bbe 9c15 fc3c
00000350: 2d39 9e3e 3ae4 7bbd 26f0 0cbe 44cf 1f3e
00000360: 2fa2 c4bb d9be 57be 720c 90bd c586 13be
00000370: 8df4 04bc 4f1e 103e adfd ae3d d76e 18be
00000380: 8bd7 c33a d39d 71be 21d5 2b3d 2119 d33d
00000390: ce32 36bd 1b39 fe3c f104 7e3d b382 763d
000003a0: 9705 f53d 3d4d cd3c df59 47bd 6019 653d
000003b0: 0211 073e 8867 15bd c0fc 6f3e c74e 55be
000003c0: 4684 36be 42c9 eb3d 55fc b4bd 28fc f6bd
000003d0: 64f3 28be a396 c33d 67c2 22be ba34 31be
000003e0: d6b2 533d 7130 42be 774a 023e e886 96bb
000003f0: cd57 2bbe 0ba2 483d de92 8ebe 2469 853d

network_body._body_endoder.seq_layers.4.bias f4 [128]
0.07507326 0.08830343 0.070782565 0.010257065 0.09110015 0.07914822 0.11918849 0.037014484
0.074994035 0.06798721 0.07535796 0.07844381 0.10003387 0.071076505 0.07820187 0.06635395
0.07390291 0.08682873 0.081309475 0.053729508 0.09809471 0.07543217 0.08967145 0.05358093
0.069540076 0.05973931 0.034604922 0.07226369 0.05628372 0.0716172 0.054240007 0.069471724
0.061053805 0.043919656 0.087763324 0.037220787 0.047140345 0.07341323 0.059675653 0.06856458
0.090920225 0.070936985 0.085720114 0.09991708 0.04480833 0.056941286 0.06886556 0.12420406
0.06569578 0.056040008 0.06116537 0.03002112 0.07838257 0.05474508 0.051591724 0.07582815
0.12569176 0.062001042 0.043433506 0.096181855 0.06873091 0.089518264 0.033243835 0.08108671
0.11860827 0.10778273 0.038795184 0.06725471 0.07789974 0.0616387 0.067766175 0.072618894
0.055233993 0.04942131 0.09091041 0.046094567 0.07734596 0.08029936 0.0824393 0.06607734
0.051824916 0.07024624 0.046808064 0.078287646 0.08168923 0.06664215 0.07745747 0.020884242
0.07776998 0.102701984 0.08241622 0.049761813 0.09000676 0.078140095 0.07035679 0.07412248
0.045748886 0.08089485 0.101109944 0.08844317 0.08214407 0.07127772 0.07972113 0.08634615
0.054708406 0.04910318 0.067200966 0.07562592 0.06276446 0.06918816 0.09977882 0.11031882
0.09028936 0.086647265 0.079999246 0.08878035 0.066394314 0.057260685 0.060227506 0.07064941
0.088592805 0.06495057 0.10662891 0.09496289 0.10000117 0.0840364 0.083476275 0.05367941
00000000: 02c0 993d 6ed8 b43d 73f6 903d 400d 283c
00000010: b792 ba3d 7618 a23d 1819 f43d 809c 173d
00000020: 7996 993d e13c 8b3d 4655 9a3d 26a7 a03d
00000030: 8fde cc3d 8f90 913d 4d28 a03d 94e4 873d
00000040: 695a 973d 43d3 b13d 9585 a63d 7913 5c3d
00000050: e1e5 c83d 2e7c 9a3d aaa5 b73d ad77 5b3d
00000060: 076b 8e3d 35b1 743d e4bd 0d3d fcfe 933d
00000070: c289 663d 0aac 923d c52a 5e3d 3147 8e3d
00000080: 8e13 7a3d 19e5 333d 42bd b33d d374 183d
00000090: 3c16 413d ad59 963d 756e 743d 966b 8c3d
000000a0: 6234 ba3d 6947 913d 078e af3d 53a1 cc3d
000000b0: f088 373d 443b 693d 6309 8d3d b35e fe3d
000000c0: 828b 863d 358a 653d 8a88 7a3d daee f53c
000000d0: 0a87 a03d 613c 603d d851 533d ca4b 9b3d
000000e0: 57b5 003e cef4 7d3d 55e7 313d fefa c43d
000000f0: cbc2 8c3d 5a55 b73d b02a 083d ca10 a63d
00000100: e5e8 f23d 31bd dc3d b3e7 1e3d d6bc 893d
00000110: e689 9f3d dd78 7c3d fec8 8a3d 37b9 943d
00000120: 0a3d 623d 006e 4a3d 3d2f ba3d a8cd 3c3d
00000130: 8f67 9e3d fe73 a43d f0d5 a83d 8e53 873d
00000140: 5d46 543d 43dd 8f3d d0b9 3f3d 4655 a03d
00000150: af4c a73d ae7b 883d 06a2 9e3d 6e15 ab3c
00000160: de45 9f3d 6b55 d23d d6c9 a83d 0bd3 4b3d
00000170: 7755 b83d ea07 a03d 3917 903d 87cd 973d
00000180: 2f63 3b3d 33ac a53d bb12 cf3d b121 b53d
00000190: 263b a83d 0efa 913d d544 a33d 40d6 b03d
000001a0: ec15 603d 6b20 493d a9a0 893d c3e1 9a3d
000001b0: a78a 803d 86b2 8d3d d758 cc3d d5ee e13d
000001c0: a1e9 b83d 1f74 b13d a5d6 a33d 79d2 b53d
000001d0: bef9 873d 2e8a 6a3d 1eb1 763d a3b0 903d
000001e0: 2570 b53d ce04 853d 4260 da3d e77b c23d
000001f0: 6acd cc3d 471b ac3d 9cf5 aa3d f1de 5b3d

action_model._discrete_distribution.branches.0.weight f4 [25, 128]
0.045553945 -0.0053423117 0.06296941 0.006742042 0.04637215 -0.052707992 -0.11027363 0.024355337
-0.022120867 -0.07793447 0.04433324 -0.0051230616 -0.09362352 0.045208294 0.027249785 0.026244655
-0.08852524 -0.049342982 0.059022505 0.0124272695 -0.038047332 -0.068046324 0.040406443 0.04532648
-0.05777524 -0.07826 0.038723152 0.062148742 0.067812406 0.017360901 -0.070722744 0.055568784
-0.031354412 0.02157883 0.06677903 -0.0720554 0.050234795 -0.06387813 -0.06261007 0.070801504
-0.025286054 -0.070946656 -0.08321834 -0.08598866 0.033000607 -0.062020797 0.02069218 -0.093439646
0.05605935 0.0073604747 0.017324558 -0.033784814 0.06535366 0.03293155 0.088931605 0.008023896
-0.0904268 0.041751016 0.0137022715 -0.08382962 0.06905332 -0.08084663 0.034557573 0.06289102
-0.121946305 -0.08192728 0.05179003 0.06475286 -0.0667449 0.027437182 -0.06766535 -0.0529294
0.048356082 0.049875293 0.06725858 -0.014586413 -0.00616982 -0.04181938 -0.049435474 -0.027616477
0.008759564 0.06664159 0.017056191 0.06012604 -0.073457785 -0.0062681846 0.07756895 -0.05178409
0.065660596 -0.05889256 0.018322792 0.015217156 -0.065076984 -0.073420055 0.05019704 -0.00090478145
0.05983955 0.0060341465 -0.058614563 0.019871565 0.0658336 -0.09215006 0.06993474 0.059450414
0.04888188 0.00792083 0.063193925 -0.007944314 -0.018151084 -0.053986296 -0.017863434 -0.0969067
-0.080595486 -0.024583613 -0.084859155 0.019130113 -0.0074016387 -0.0322473 0.039532106 0.056359816
0.031955644 0.051465463 -0.11087213 -0.027889833 0.039880518 0.03360072 0.060220834 -0.015259836
0.053303663 -0.0302627 0.04084834 0.047190037 -0.008276613 -0.06733813 -0.070737645 -0.002938688
-0.071748 -0.025004197 -0.0070169317 -0.017273799 -0.076784305 0.0629986 0.03937425 0.050856337
-0.040865373 -0.068621404 0.059962764 0.046633102 -0.07163788 -0.019921215 0.055696152 0.018648554
-0.04694075 -0.024598634 0.01812753 0.024830637 0.04814695 0.020387731 -0.025032684 0.04946294
0.010301802 0.03346623 -0.003436242 -0.026667086 0.02811775 -0.038081344 -0.0067368154 0.0550372
-0.0748736 -0.026318371 -0.04403814 -0.041836187 -0.0066632573 -0.030570865 -0.022694444 -0.07134449
0.05074873 0.034514945 0.002019383 0.016979719 0.025051411 0.021979325 0.03939929 -0.014586033
-0.084751084 0.024043929 0.036460996 -0.084918864 0.018422622 -0.06090042 0.05560686 0.010573887
-0.06282465 -0.050939362 0.0144085195 0.06387334 -0.043684196 0.04501399 -0.058902506 -0.02628131
0.050298203 0.04423428 0.043758094 -0.035086554 -0.056092083 -0.03601561 0.005447126 -0.034364082
-0.007031887 0.043365 0.054579835 0.060206786 -0.049842037 0.026869185 0.040945884 0.009429179
0.027248116 -0.056137294 -0.031994477 0.05672686 -0.054683693 0.0022465654 0.02746403 -0.021152655
0.0475682 -0.03582257 -0.07272406 -0.029778289 0.0088984715 -0.041437738 0.031129407 0.06671111
0.008393903 -0.030031264 0.04314449 -0.055353604 -0.028167594 -0.0301148 -0.06098014 -0.066834226
-0.04755216 -0.030560602 -0.04926237 -0.026381401 0.0420862 0.02204658 0.050288267 0.061572604
-0.007900357 0.08370836 -0.06943173 -0.06406374 -0.018911103 -0.008220112 0.02164147 0.016024448
00000000: c696 3a3d 8f0e afbb 1bf6 803d 59ec dc3b
00000010: b9f0 3d3d 56e4 57bd 24d7 e1bd d884 c73c
00000020: d236 b5bc 1b9c 9fbd c596 353d 5bdf a7bb
00000030: b0bd bfbd 552c 393d f13a df3c 08ff d63c
00000040: b94c b5bd de1b 4abd 95c1 713d bf9b 4b3c
00000050: 85d7 1bbd df5b 8bbd 3a81 253d 42a8 393d
00000060: bba5 6cbd c746 a0bd 2b9c 1e3d ae8f 7e3d
00000070: 3be1 8a3d 7338 8e3c 16d7 90bd 189c 633d
00000080: 7c6d 00bd 16c6 b03c 72c3 883d c891 93bd
00000090: 00c3 4d3d 89d2 82bd b539 80bd 6100 913d
000000a0: b324 cfbc 7b4c 91bd 616e aabd d31a b0bd
000000b0: a52b 073d 8509 7ebd a682 a93c 495d bfbd
000000c0: 7d9e 653d 2330 f13b 3bec 8d3c f261 0abd
000000d0: 24d8 853d 3ce3 063d c621 b63d a976 033c
000000e0: b031 b9bd 1d03 2b3d 7e7f 603c ddae abbd
000000f0: d46b 8d3d eb92 a5bd 3e8c 0d3d 02cd 803d
00000100: fcbe f9bd 7dc9 a7bd c821 543d 269d 843d
00000110: 8db1 88bd f1c3 e03c 2294 8abd 80cc 58bd
00000120: 0711 463d 094a 4c3d debe 893d dafb 6ebc
00000130: 342c cabb cc4a 2bbd da7c 4abd f33b e2bc
00000140: 4684 0f3c 637b 883d 6db9 8b3c b946 763d
00000150: 0971 96bd 5865 cdbb 78dc 9e3d 8e1b 54bd
00000160: 1079 863d 5339 71bd ae19 963c 6151 793c
00000170: 1547 85bd 415d 96bd 699b 4d3d db2e 6dba
00000180: 511a 753d 17ba c53b d315 70bd b1c9 a23c
00000190: c4d3 863d 2cb9 bcbd f239 8f3d 4782 733d
000001a0: 5e38 483d 5ec6 013c d16b 813d de28 02bc
000001b0: 95b1 94bc bc20 5dbd 5656 92bc 0577 c6bd
000001c0: 3f0f a5bd 9363 c9bc a3ca adbd c1b6 9c3c
000001d0: 7289 f2bb bf15 04bd 6bec 213d 8dd9 663d
000001e0: ece3 023d 73cd 523d ed10 e3bd 3879 e4bc
000001f0: c159 233d e9a0 093d 1faa 763d 6404 7abc
00000200: f154 5a3d 7be9 f7bc 9750 273d 574a 413d
00000210: a29a 07bc 93e8 89bd e6de 90bd 0197 40bb
00000220: 9ef0 92bd 9ad5 ccbc 4aee e5bb c881 8dbc
00000230: 1741 9dbd 6905 813d e546 213d bc4e 503d
00000240: 7362 27bd 6189 8cbd 849b 753d 5a02 3f3d
00000250: e1b6 92bd d131 a3bc a621 643d dac4 983c
00000260: f244 40bd 1383 c9bc 3080 943c 9f69 cb3c
00000270: bc35 453d 2c04 a73c 5811 cdbc a799 4a3d
00000280: e4c8 283c e313 093d 9332 61bb ef74 dabc
00000290: 3257 e63c 2ffb 1bbd 81c0 dcbb b06e 613d
000002a0: 5457 99bd a099 d7bc 5661 34bd 6c5c 2bbd
000002b0: 7457 dabb c06f fabc b3e9 b9bc 0f1d 92bd
000002c0: e6dd 4f3d 8b5f 0d3d a057 043b 0d19 8b3c
000002d0: 9e38 cd3c fc0d b43c 2661 213d 42fa 6ebc
000002e0: fa91 adbd c6f7 c43c 2058 153d f1e9 adbd
000002f0: 0aeb 963c b872 79bd 05c4 633d 193e 2d3c
00000300: 36aa 80bd cba5 50bd b611 6c3c 07d0 823d
00000310: 33ee 32bd 9760 383d c143 71bd e74b d7bc
00000320: 7d05 4e3d 012f 353d b03b 333d ebb6 0fbd
00000330: d0c0 65bd 1b85 13bd ce7d b23b 5ac1 0cbd
00000340: be6b e6bb 809f 313d 1b8f 5f3d 649b 763d
00000350: 2a27 4cbd c41c dc3c dfb6 273d d87c 1a3c
00000360: 7137 df3c 38f0 65bd a40c 03bd 6d5a 683d
00000370: 02fc 5fbd 1d3b 133b 3ffc e03c 5548 adbc
00000380: dfd6 423d b0ba 12bd 5af0 94bd 99f1 f3bc
00000390: e5ca 113c 9eba 29bd 1903 ff3c d69f 883d
000003a0: 9586 093c 2004 f6bc 47b8 303d 76ba 62bd
000003b0: babf e6bc 50b3 f6bc 50c6 79bd 62e0 88bd
000003c0: 0ec6 42bd 3a5a fabc 57c7 49bd cf1d d8bc
000003d0: 9462 2c3d 089b b43c 12fb 4d3d 8e33 7c3d
000003e0: 8070 01bc 4a6f ab3d 3932 8ebd da33 83bd
000003f0: 75eb 9abc a6ad 06bc 7449 b13c b445 833c

action_model._discrete_distribution.branches.0.bias f4 [25]
0.020123534 -0.019228393 0.039997946 0.0089256475 0.0041721133 -0.0026920368 -0.0057339547 -0.017900337
-0.017548459 -0.0044697467 0.023655254 -0.039601542 -0.04480464 -0.034452394 -0.0067498153 0.042510062
-0.005059962 -0.021832507 -0.020087263 0.00366808 -0.001196602 0.035633076 -0.000365826 0.018822525
-0.0071218917
00000000: 1cda a43c dd84 9dbc e3d4 233d e13c 123c
00000010: 39b6 883b e26c 30bb e6e3 bbbb baa3 92bc
00000020: c9c1 8fbc f476 92bb aac8 c13c 3a35 22bd
00000030: 1285 37bd f41d 0dbd 8e2d ddbb 081f 2e3d
00000040: 0ace a5bb 16da b2bc 0b8e a4bc 2c64 703b
00000050: 4dd7 9cba fdf3 113d 56cc bfb9 b231 9a3c
00000060: c25e e9bb
