Assets/Env5/Brains/MoveToTrigger1.onnx (onnx, 153430 bytes, 8 tensors)

network_body._body_endoder.seq_layers.0.weight f4 [128, 9]
00000000: ea9d 97be fb88 5ebe 3b6c e53e 9f6b 9a3e
00000010: 542f 8cbe e9ab a1be be65 a5bd d412 dbbe
00000020: 8920 4e3e 4f06 93be eeff 253e c1f0 d13e
00000030: c554 15be fe03 a13c c4f9 703e 0d33 42be
00000040: c133 78bd c352 453e 3442 d6be ac23 873e
00000050: 5a72 c1be 3b2f 453f a83a d0be e4d0 2a3f
00000060: 9ea0 da3e e85c a0bb 427d 86be 113c b43d
00000070: 9775 b23c e304 b63e 26a8 23bf 48a0 223e
00000080: 7476 10bf 8049 f43d f3e8 55be 4453 c23d
00000090: 35d9 d03e 543e 0b3e 21e3 263e c884 bebe
000000a0: 24ce 353e eaab a0be 72d1 b8bc 62dc 843d
000000b0: abbb 33bd 510f 5bbe 0009 cc3e f18d efbd
000000c0: c46a 523d c271 2d3c 66b5 913e c584 963e
000000d0: 90c6 c5be 1894 d2be 28d8 223f e88b e63e
000000e0: 2795 89be 369a 89bc 3ff1 afbe 60da e63e
000000f0: 2f4b 463e 2bba f0be fd45 0c3e 7569 1e3e
00000100: 6438 98be dc5e d4be dfe6 963f f0ce b73d
00000110: f160 edbe 9478 103e c742 8e3d fef5 c5be
00000120: 7df1 f7be 986b 9cbe 1952 0abd 2f1c 9b3d
00000130: 6700 1fbf c002 e5be 2aef 5d3e 48bd 06bd
00000140: f81d d6be 78b0 ca3d f778 02be aaa3 2e3e
00000150: d29d ad3e 8b1d 91bd 6028 d03e 5fd1 04bd
00000160: ff5b a03d 6497 ae3d 3b92 293f f697 3f3d
00000170: 78cc afbe 3bab 7e3c 5660 bd3e 93fa f7be
00000180: 8490 31bf c3f2 ad3e 780b 6d3c 0665 b2be
00000190: 862c 5e3d c601 063e 3a73 6bbe 5d7a e6be
000001a0: db02 d93e c48b cfbd 0ff8 9dbe 8300 a8be
000001b0: 4827 4b3f 0b2e 1a3d b431 0dbf b5d9 853e
000001c0: 0eab 2d3e 9289 0f3f 1a35 2cbe 2cb9 043d
000001d0: bb3d 8bbe 5560 ef3e 008a 4c3e ea31 73bd
000001e0: 36b2 4cbf a6a3 a1bc d1e8 4b3e dc1c 65ba
000001f0: 829e 34be 49c0 653e 0fa4 99bd 8083 3fbe
00000200: 45d4 c4be f210 033f 3dda 5bbe 4816 413f
00000210: 8fd5 003f 0d4a e53e ec75 38be 96aa 023f
00000220: 5f29 923d 41be 54bc bcdf 333e e29b 9a3e
00000230: c3cd 6a3e 99d6 413e 4031 f3bd 1190 bd3d
00000240: 04ee 7abe 45ff 0a3f 9d23 693e 3192 be3e
00000250: 9a77 f3be 3886 10bf 9ac8 303f 5d20 4e3e
00000260: 3d7e 55be aded 183f a5a8 0b3e 59b6 74be
00000270: 1949 01bf 9770 28bc 3149 4d3e 136c 5d3d
00000280: a76a f5be 2c8f 3abe e166 193d d3ba 553e
00000290: 72c3 91be 444a 67bd c752 da3d 3b3c 393f
000002a0: 800b b2bd 3904 09be 0d98 e9bd 78e6 2ebf
000002b0: 5473 f6be 9e46 003e 4a2f c3bd 874b 10be
000002c0: 0235 203f 4269 abbe e812 84bd dcfb 33bb
000002d0: 83a2 633c ee7c 0c3c 2d69 d8be 71cd bfbe
000002e0: 56b0 093f 1385 10be ee9c 0c3e 3d4c 2cbd
000002f0: f7a9 df3e fbed 31bc 488a 1dbf dff5 873e
00000300: 6bf4 b13e 95fa c1be 1299 903c fb21 65be
00000310: 0451 163f 8b34 febc fe2b 393e 22e9 163f
00000320: df5e 6f3d 1d47 26be 28a5 9d3e 6cdb 1f3e
00000330: bd1c cc3e 9e26 e13e 81df 0dbf 00bf c13e
00000340: 17c5 07bf f710 9dbd 17ad 783e 02a2 57bd
00000350: 4cb9 b8be b3c7 033e 761a 9abe 6c7d d6bd
00000360: 8ae9 36bd a308 cdbe fc0d 453e e110 01bf
00000370: 6223 c83e a931 5e3f abc2 1b3e 3f7d 063d
00000380: 535e 45be f807 433f f4b9 993e 0953 8a3c
00000390: f42e 3ebf c0d8 2c3f 068e f43e 9442 003e
000003a0: c238 413c e232 90be 950a 32bd 2dbf dfbe
000003b0: 82d1 3b3e 4924 3bbe f15b 773e c2c0 a0be
000003c0: 3235 acbe 6a52 b9be 532d a73d c4d4 3c3d
000003d0: b127 c43e a8fd c1be e756 c7be 352d 7cbe
000003e0: 31d7 34be 7218 a73e f9de 9abe d0d6 063f
000003f0: de82 66bd dba8 173e 83e3 7b3c 38d6 bf3c
-0.29612666 -0.21731941 0.44809136 0.30160233 -0.27379858 -0.3157647 -0.080760464 -0.42787802
0.20129599 -0.2871575 0.1621091 0.41003993 -0.14583118 0.019655224 0.23532778 -0.18964787
-0.06059623 0.19269852 -0.41847384 0.26394403 -0.37782556 0.7702519 -0.4066975 0.6672499
0.42700666 -0.004893888 -0.2626744 0.08800519 0.021784587 0.35550603 -0.6392845 0.15881455
-0.56430745 0.119280815 -0.20889644 0.09488538 0.40790716 0.13597995 0.1629758 -0.3721068
0.17754418 -0.3138116 -0.022560809 0.06487347 -0.043880146 -0.21392561 0.39850616 -0.11696995
0.05137135 0.010586204 0.2845871 0.2939817 -0.38628054 -0.41128612 0.6361108 0.45028615
-0.26871607 -0.016797166 -0.34363744 0.45088482 0.19364618 -0.47017035 0.13698573 0.15469916
-0.29730523 -0.41478622 1.1789206 0.08975017 -0.46363023 0.14108497 0.069463305 -0.3866424
-0.48426428 -0.30550838 -0.0337697 0.07573735 -0.6210999 -0.4472866 0.21673265 -0.032895356
-0.4181974 0.0989694 -0.12741457 0.1705462 0.3390947 -0.07085713 0.40655804 -0.032426234
0.07830047 0.08524969 0.66238755 0.04677578 -0.34335685 0.015543754 0.3698756 -0.4843336
-0.6936114 0.33974275 0.014468066 -0.348427 0.05424168 0.13086614 -0.22993174 -0.4501523
0.4238499 -0.1013408 -0.30853316 -0.3281289 0.79356813 0.037641566 -0.55153966 0.2614266
0.16959783 0.5606929 -0.16817132 0.032403156 -0.27195534 0.46753183 0.19974518 -0.059373774
-0.7995943 -0.019731354 0.19913031 -0.0008739957 -0.17638591 0.22436632 -0.07501995 -0.18702507
-0.384432 0.5119773 -0.2146997 0.75424623 0.50325865 0.4478306 -0.18013734 0.51041543
0.07136797 -0.012984813 0.17565817 0.30197054 0.22930054 0.18929519 -0.11874628 0.09255994
-0.24504858 0.5429576 0.22767492 0.3722091 -0.47552186 -0.564548 0.69056094 0.20129533
-0.20848937 0.59737664 0.13638552 -0.23897685 -0.50502163 -0.01028075 0.20047452 0.054058146
-0.47932932 -0.18218678 0.03745163 0.20872049 -0.28469425 -0.05646731 0.1066032 0.7235753
-0.086936 -0.13380517 -0.114059545 -0.6832042 -0.48134863 0.12526938 -0.09530504 -0.14091311
0.62580884 -0.33478743 -0.064489186 -0.0027463352 0.013893726 0.008574707 -0.42267743 -0.37461427
0.5378469 -0.14113264 0.13731739 -0.042064894 0.4368436 -0.010859962 -0.61539125 0.26554772
0.3475679 -0.3788649 0.017651115 -0.22376244 0.5871737 -0.031030914 0.18083188 0.5894948
0.058440086 -0.16238065 0.30790067 0.15611047 0.39865676 0.43974775 -0.55419165 0.37841034
-0.5303511 -0.076692514 0.24284779 -0.052644737 -0.3607887 0.12869148 -0.30098313 -0.10473141
-0.044656314 -0.40045652 0.19243616 -0.5041638 0.39089495 0.86794525 0.15210979 0.032834288
-0.19274263 0.76184034 0.30024683 0.016885297 -0.74290395 0.67518234 0.47764605 0.12525398
0.011793317 -0.2816382 -0.043467123 -0.43700543 0.1834164 -0.1827556 0.24156167 -0.31397063
-0.33634335 -0.3619569 0.08162942 0.046101347 0.38311532 -0.37888837 -0.3893349 -0.2462662
-0.17660214 0.32635838 -0.3024824 0.5267153 -0.05627715 0.14810507 0.015374067 0.023417577

network_body._body_endoder.seq_layers.0.bias f4 [128]
00000000: 4031 2bbb 7f26 233b d24c aa3c f922 0b3d
00000010: af85 5d3d 7420 c73c 0173 073d dec8 1b3d
00000020: e2aa 353d 9b5b 72bc be55 503d df4a ee3a
00000030: 201b bc3c b1ab 9f3d 4c9e fe3c 6d74 433b
00000040: 87af 0b3d 92b2 963d 5de0 973c da65 913c
00000050: dbd1 873d 8946 41bd f882 5b3d 72ac 783c
00000060: 3ec4 293d e04b 5c3d 0f13 9dbb c4e8 343d
00000070: f659 9d3b f6cd 603d 1216 ed3c 3cc7 283b
00000080: 8c9b 663d 8926 483c 9ff6 6ebc 4d7e 5f3d
00000090: 1007 0f3d d99b 4a3d f8ea dab9 8b91 143c
000000a0: 295a a63d cb05 cb3c 9b1f 02bd 0028 0bbc
000000b0: 26ec 123b c33c 383d b5be 213d 1bc6 cf3c
000000c0: 1c9e c73d 840f b53b e426 96bc d10c fc3c
000000d0: d80e 033c aa70 373d 0452 333d 8424 153d
000000e0: 463a 1d3d 839a f03c 87f9 073d 67a7 c5bc
000000f0: 7a38 a13b 40ce 07bc 1b3f 3d3d 155c 263c
00000100: 7f2c 0d3d 048c 8f3c 0485 753d e44d 0d3d
00000110: 7055 723d efa0 01bb 26e9 ac3b 7896 873d
00000120: de90 9fba 459d 39bd 5144 83bb 6d1c 893c
00000130: a4d4 093d 12f7 39bd 9101 393d 3a49 823c
00000140: 7fb0 ca3b cda9 483d 2ef6 383d 981a 6fbc
00000150: cfef 7e3d c3ae 6e3d 0367 953c 1cd6 5b3d
00000160: 5af7 0d3b 789e 7d3c eb1a 383c 0490 423c
00000170: f81e bfba b984 223c 0f49 5fbc d1cc cf3c
00000180: 4f3d 3fbd 1658 1cba da59 86bd 66ae 113c
00000190: ef4f 46bd 2200 533d 114d 1a3d 556c a93c
000001a0: abde 0f3d 1730 d03d bcae ce3d c427 bf3c
000001b0: f8c7 8b3d b040 653d 6250 d43c ff32 263d
000001c0: fe66 e0bc e045 523d fdbf 8d3c 1c1c 093d
000001d0: a403 233d 6fbf 373d 882a 143d 40df df3b
000001e0: bf4f d03c bfb2 1e3d 3ca8 2d3d 4f74 88bc
000001f0: 1d72 f03c 7748 da3c f453 88bb 03df 8a3d
-0.0026121885 0.0024894772 0.020788584 0.0339689 0.05408257 0.024307467 0.03306866 0.03803336
0.04435242 -0.014792348 0.05086302 0.0018180272 0.022962153 0.077964194 0.031081341 0.0029824034
0.034102943 0.07358278 0.018539602 0.017748762 0.06631824 -0.04718641 0.0535917 0.015177833
0.041446917 0.053783298 -0.0047935317 0.044167295 0.004801984 0.05488392 0.028941188 0.0025753519
0.056300685 0.012216219 -0.014585166 0.05456381 0.034918845 0.049465034 -0.00041755266 0.009067903
0.081226654 0.024783036 -0.031768423 -0.008493423 0.0022418587 0.044979822 0.039488513 0.025363019
0.09746954 0.0055255312 -0.018329091 0.03076783 0.0079991445 0.04478518 0.043779388 0.036411777
0.038385652 0.029370552 0.033196952 -0.024127675 0.0049200626 -0.00828892 0.04620276 0.01015379
0.034466263 0.01752282 0.059941307 0.03449811 0.05916351 -0.0019779762 0.005276817 0.066204965
-0.0012173911 -0.045316 -0.0040059467 0.016737187 0.033650056 -0.04540164 0.04516751 0.015904058
0.0061855908 0.04899006 0.04515665 -0.014593743 0.062240418 0.058272135 0.018237596 0.053670987
0.0021662326 0.015479676 0.0112368865 0.011875156 -0.0014581373 0.009919339 -0.013628258 0.025366219
-0.046689328 -0.00059640536 -0.065601066 0.0088916775 -0.048416074 0.0515138 0.037671153 0.02068154
0.035124462 0.101654224 0.10091922 0.023334391 0.068252504 0.055969894 0.025917236 0.040575977
-0.02739286 0.05133617 0.017303461 0.033474073 0.039798394 0.0448603 0.036173373 0.0068320334
0.02542865 0.038744684 0.04239677 -0.016657023 0.029351288 0.026645882 -0.0041603986 0.06780817

network_body._body_endoder.seq_layers.2.weight f4 [128, 128]
00000000: e6a3 ed3b 2c72 123e 624f 3fbc 1481 9fbd
00000010: 7951 adbd 8a5e d53c 3e2a 9f3d 5a2a d0bc
00000020: 1cce 8f3c dfb9 6abd eff4 853b 9155 e83d
00000030: 5c0e 9dbd a6dd 2e3e 65af 503d 4acb de3d
00000040: 1973 b53c 4729 82bd df3b 1bbd 9a22 643d
00000050: 2ef9 0e3e d070 f63c b240 0d3e f33d 32be
00000060: bcbe dc3e 9c5d b9bd aa8f dcbd a5b4 b3bd
00000070: 9293 f2bd 5e3a e6bd 444e 3f3e 73f2 0d3e
00000080: 6aa5 263d f517 473d 17e0 a7be a51c 143e
00000090: eb8b 553d 33d6 203c 6d1e adbd fb95 fc3d
000000a0: 35f2 653d 25d5 093e b9bd 93bd 60bd d03d
000000b0: 226d a53d 9f4f bfbd 2f92 11be 352b 423e
000000c0: 528b ad3d ba60 1b3e 1131 d43d c4f0 663b
000000d0: 6535 ccbd 68f0 213e 33ce e63d 2bfa 0f3d
000000e0: d25e a03d 2a4a d4bd e4b8 ea3d f264 8b3e
000000f0: b096 5c3d d535 123d 44f8 e5bc ebd0 dd3d
00000100: 6c34 133d e798 283e 4717 04be f676 103e
00000110: 92f2 2f3e 4a22 b13d 51ae 0cba 0e16 bdbd
00000120: 2b30 bebd 47e8 8a3d 5297 eabd e4e7 bcba
00000130: 573d 45bd 8e4e c3bc 529b 10bd 3a32 4f3e
00000140: 618e 523d 4f9d 32bd ada7 20bd 014f 88bd
00000150: ebda 1ebd c01b 91bc 920a fe3d 49ff b6bd
00000160: 5c14 58be 8bbb 10be c4d8 4b3d 728c 023e
00000170: f68f 1d3e 3a80 28be 5268 d43b 55da 203e
00000180: 8e21 ba3a d25a 313e cc30 083d 549d 6bbe
00000190: 2814 003e 5cbb bc3d b651 61bd bac9 30bd
000001a0: 7228 993d fb0a 0fbe 45bc 1a3e b4a8 22bd
000001b0: c4f0 d43d 9040 853d f6a9 d8bd eadb 57bc
000001c0: 590b e83d cb3b cd3d c5d6 3c3d 69bf dbbd
000001d0: d0d5 a63c 2383 8f3d 431a 4f3e cfdf 8abd
000001e0: 9641 3f3e 53f9 3ebd 33a4 e13d 3c1c 54bc
000001f0: c2ed 9e3d 0a1a 01be 1233 e83d 613c 163d
00000200: c0bb e5bc 1c4f aebd 0dd0 b53c 87f8 5c3d
00000210: 66df a53d 736d 25be 360c 903d 5b50 403e
00000220: cda0 663e e3a2 07be d133 393e 796e aabc
00000230: 7af1 a13c ccbc e2bb bc31 54bd 5e2f 6abe
00000240: d361 393d b37d babd 69ca 5dbe aa0b b43d
00000250: e52d 253e 9e93 9dbb 04f5 77bd b3d9 cb3d
00000260: 6688 1cbe e18e 99bd 3310 4e3d 9c91 953d
00000270: a9b9 163e 2f53 123e 5f96 293e 2527 103d
00000280: f17d e83b 33ad 15be ca61 353e 0fca cabc
00000290: 3558 893d 326c 1e3e 611e 7e3e f3e8 8abd
000002a0: 1911 23bd fffd adbd b244 b63d ef33 953d
000002b0: 9288 72bd f499 273e e1c0 a2bc 7c61 9bbd
000002c0: e6fd 163d d3e2 d03c 0815 0d3e e18b 9f3c
000002d0: ad7d 983d 2e13 b63c f17d 58bc 0727 2a3e
000002e0: 527e 13bd 9e21 92bb 18be 0c3c b956 fdbc
000002f0: bbb0 a03c 796b e9bd fe78 ba3d cd9a 31be
00000300: 417d 403c d3ce b6bc b022 9e3d 700b 8abc
00000310: 892b e9bd 6e7e f2bd 1157 cbbc 1efa 9f3d
00000320: 4f97 6c3c 1c65 d2bd f95e 95bc ecfe 57bd
00000330: a602 fdbc 3ee2 9c3d 59c6 193d ead6 22be
00000340: 3112 713c 933b 3c3d dcda 1fbe 48bc 1abd
00000350: a568 643d bfcf a43c c4a3 2bbb de9b 75bc
00000360: 5f91 e33b 3881 583e 1a40 153d b978 07be
00000370: 22da 74bd a240 983d 020b 8c3d 560e 763e
00000380: f222 b9bd 277c bebd efc3 e6bd 0713 e6bb
00000390: 538f ac3c e0f1 9bbd 6c6a 6a3d 193e 623e
000003a0: 1276 ca3d 0d73 f43d f1b8 4dbd 9c57 d33b
000003b0: d30b df3c 9812 4b3d 0896 e53d 098f 11bd
000003c0: 5582 e93c 70a2 433e d227 343c dab8 093e
000003d0: a4d6 643d e9ee 3dbe 005e 883d 4dd8 d13d
000003e0: 47d5 20be 86c7 a73c adc5 b0bd 3654 0a3e
000003f0: 559b 14be d9aa 723e 140e c3bb 948b 923c
0.007252204 0.14301366 -0.011676641 -0.077882916 -0.08462805 0.026046056 0.07771729 -0.02541082
0.017554335 -0.057306167 0.0040880363 0.113444455 -0.076687545 0.1707674 0.05094852 0.10878618
0.02214961 -0.06355529 -0.037898894 0.05569706 0.13962242 0.03008309 0.1379421 -0.17406444
0.4311427 -0.09051058 -0.10769589 -0.087746896 -0.11844553 -0.112416014 0.186822 0.13862018
0.040685095 0.04860683 -0.32788154 0.14464052 0.05213539 0.009816694 -0.08453069 0.12333294
0.05613919 0.13460214 -0.07213921 0.101923704 0.08077456 -0.093413584 -0.14215921 0.18961795
0.08473839 0.15173617 0.10360921 0.0035238722 -0.09971122 0.15814364 0.11269798 0.03515069
0.078305855 -0.10365708 0.11461046 0.27225453 0.053854644 0.03569587 -0.028072484 0.108308636
0.035938665 0.16464578 -0.12899505 0.1410788 0.17182377 0.08649118 -0.00053665513 -0.09232722
-0.09286531 0.06782585 -0.11454643 -0.001441237 -0.0481542 -0.023841169 -0.035304375 0.20234004
0.051405314 -0.043607052 -0.039222408 -0.06655694 -0.038782995 -0.017713428 0.1240436 -0.089354105
-0.21101516 -0.14134042 0.04976727 0.12748888 0.15386948 -0.16455165 0.0064821625 0.15708287
0.0014200674 0.17319801 0.03324966 -0.23009235 0.12507689 0.092154235 -0.055009566 -0.04316113
0.074784175 -0.13969032 0.15110882 -0.03971167 0.10397485 0.06506455 -0.105792925 -0.01317499
0.113302894 0.1002117 0.046103258 -0.10729868 0.020365626 0.07007434 0.20224862 -0.06780969
0.18677363 -0.046624493 0.11017647 -0.012946185 0.077601925 -0.1260759 0.11337866 0.036678676
-0.028043628 -0.08511183 0.022193933 0.05394795 0.080992505 -0.16155033 0.07033579 0.18780653
0.22522278 -0.1324573 0.18086173 -0.02080463 0.019768465 -0.006919479 -0.051805243 -0.22869632
0.045259308 -0.091060065 -0.21659245 0.08791287 0.16130789 -0.004808857 -0.0605364 0.09953632
-0.15286407 -0.07497955 0.050308418 0.073031634 0.14719261 0.14289545 0.16561268 0.03519358
0.0070950915 -0.14616852 0.17713085 -0.024754552 0.06706277 0.1547096 0.24816276 -0.06782713
-0.039811227 -0.084957115 0.08899821 0.07285296 -0.059212275 0.16367322 -0.019867362 -0.07586953
0.03686323 0.025498783 0.13777554 0.01947588 0.07445846 0.022225942 -0.0132136205 0.1661645
-0.03600914 -0.004459574 0.008590244 -0.030925142 0.019615522 -0.11397452 0.09105109 -0.17344208
0.011748613 -0.022315418 0.0772146 -0.016851157 -0.11385257 -0.11840521 -0.02482179 0.07811378
0.014440372 -0.10273191 -0.018233763 -0.052733347 -0.030885052 0.0766034 0.037542675 -0.15902296
0.01471381 0.045955252 -0.15610832 -0.037777215 0.05576386 0.020118592 -0.0026190141 -0.014990775
0.00694482 0.21143043 0.036438085 -0.13229646 -0.05977834 0.07434203 0.06838037 0.24028906
-0.090398684 -0.09301024 -0.1126784 -0.007021311 0.021064436 -0.07614493 0.057230398 0.22094001
0.098858014 0.11936007 -0.050225202 0.006449653 0.027227318 0.04957828 0.11210257 -0.0355368
0.02850453 0.19104934 0.010995822 0.13449422 0.05586876 -0.18548168 0.06658554 0.10246334
-0.15706359 0.020480882 -0.08631454 0.13508686 -0.1451238 0.23697986 -0.005952606 0.017888822

network_body._body_endoder.seq_layers.2.bias f4 [128]
00000000: fb4c 403d aebd 823c 19c9 613d 6bd0 ce3b
00000010: b7c5 083c 1516 6c3d 3f42 453d f2f9 2b3b
00000020: 8ee4 e53c bc59 a83d f9a1 593c 1296 c53b
00000030: d7d0 f13c e1aa c53c 3550 6a3d 1cd7 1f3d
00000040: 3c84 643d 8b37 463d d738 223d 06ea 923d
00000050: 8602 7e3d b1fa 763d 9579 1f39 d12e 903c
00000060: d549 7f3d b7d6 893d f9cf 3e3d 9758 4cbb
00000070: 5daa f5bc 1618 993c f80f 173d 4d88 093d
00000080: bb26 883c 4287 043e a9b1 c23d 482e 113d
00000090: bf75 2dbc fe51 3a3d 33e7 c13a 06fa a13d
000000a0: 802b 0b3d 2965 943c 31e6 1b3d 22db 883c
000000b0: ecc7 723d b268 823c 7d1b 543d 1942 bfbc
000000c0: 619c 533c f694 073d 3ffa 253d d4b5 563d
000000d0: c5ac d63b dd68 7a3d 66e0 743c 4d93 c93d
000000e0: d921 27bb 1c1e 3cbc cafe 0a3d 4302 4d3d
000000f0: cde4 9d3d 709f 813d cfa7 c7bc 371c f1bb
00000100: f40b 7e3c cd14 bfbb 9773 443d d606 323d
00000110: 04de af3d b6f4 6dbd 7585 c93b 46ee 43bd
00000120: fa02 923d 7763 e7bb e4fd 653d 0434 303d
00000130: 7bce d83c c261 0e3d cf8c 233d d2ca 323d
00000140: e354 c13c d0fd 713d fa65 ad3d cf57 b93d
00000150: b909 bf3d aaad 303c 38d8 503d 90b0 803d
00000160: 6931 2dbd 7b17 9a3d 39a7 cc3b 7ef4 e6bc
00000170: 9636 983c 168d 193c aa1b e13c a792 d83c
00000180: c47a 8e3d a887 6f3d 4713 1e3d 1345 8b3d
00000190: f3dd 9a3d 215f b4ba 852b 413d 5609 893c
000001a0: 1582 8ebc 50c9 c13b 6219 db3d 08b5 d83c
000001b0: 4634 983c 2942 843c 520e 9f3d 9f28 7e3c
000001c0: e9b8 5b3d 62b5 7bbd 42cb 303d 0cdf 1b3c
000001d0: 7ff8 563d a1c3 c8bc 2e3b d53c 5acc 943d
000001e0: 234f 1f3d 8da6 3c3c 9448 2e3d 4e89 37bb
000001f0: d0a3 363d c9b8 eb3b 4077 5d3c c73f 873c
0.046948414 0.015959587 0.055123422 0.0063114665 0.00834792 0.057638247 0.04815888 0.0026241508
0.028063085 0.082202405 0.013283246 0.0060298527 0.029518528 0.024129333 0.057205398 0.039023504
0.05579017 0.048392814 0.039604988 0.07173543 0.062014125 0.06029767 0.00015208714 0.017600449
0.06232627 0.06730407 0.046585057 -0.0031180733 -0.029988462 0.018688243 0.036880463 0.033577252
0.01662003 0.12942222 0.09506542 0.035444528 -0.010587155 0.04548835 0.0014793634 0.07909016
0.03397703 0.018114643 0.038061325 0.016706053 0.05927269 0.015919063 0.051784027 -0.023346948
0.012915702 0.033101045 0.040521856 0.0524195 0.0065513575 0.06113516 0.014946079 0.098425485
-0.0025502353 -0.011481788 0.033934392 0.050050985 0.07709656 0.063292384 -0.02437201 -0.0073581
0.01550578 -0.005831337 0.047961798 0.04346355 0.08587268 -0.058094703 0.0061499425 -0.047834657
0.07129474 -0.0070614177 0.056150332 0.043018356 0.026465645 0.034761198 0.039929207 0.043650456
0.023600047 0.059079945 0.08466716 0.09049951 0.09328026 0.010783592 0.050987452 0.062836766
-0.04228345 0.0752401 0.0062455204 -0.028192755 0.018580716 0.009372016 0.027479012 0.026437117
0.069570094 0.05847898 0.038592603 0.06800284 0.07561865 -0.0013761261 0.047160644 0.016728085
-0.017396012 0.005913891 0.10698201 0.02645351 0.018579613 0.016144829 0.07766403 0.0155126145
0.05364314 -0.061452277 0.04316259 0.009513628 0.052483078 -0.024507346 0.026029196 0.072655395
0.03889383 0.011514318 0.042549685 -0.0028005424 0.044589818 0.007193659 0.013517201 0.016509904

network_body._body_endoder.seq_layers.4.weight f4 [128, 128]
00000000: a0e6 6ebc 0954 853e ac7c 3bbc 61cf 883d
00000010: b553 0f3e 900e 6e3d 5382 3fbc c690 d3bd
00000020: 15c7 cabd 8afc 093a 614a 053e 557e a1bd
00000030: 93ae 19be 1711 d83d 142c 8ebc 95cb 0f3d
00000040: d737 1abe dd88 1d3e beb6 fe3c 7b58 97bd
00000050: d3fe 95ba 4669 ca3b 893b 023e 14d9 84bd
00000060: 0c14 70bd 7097 8e3e d6c0 663e abcc 36bd
00000070: aeb2 433d e04f fb3d bcf3 cbbd 122e d8bc
00000080: e3dc 0ebd f4bc 5d3c db3c 753d 02dd df3d
00000090: ed44 33be f64f e5bd 476d 493c 9048 31bb
000000a0: e173 f5bb 0626 a53c 034d 93be 8d23 28be
000000b0: eb8a afbd 805a d63d 8911 013e 0f8a dfbc
000000c0: e88e 4f3d d0c3 90be 1da5 8cbe 47bd 173e
000000d0: c32a e7be c644 24be a989 5a3e cab8 873e
000000e0: 1cbc 19be 4b21 d3bd 2184 ec3d d6ab 453e
000000f0: aed8 903e 8c34 853d 7a1f 853d d885 723d
00000100: 4a10 a7bc aa9b a53d ae5a 95be eeba c43c
00000110: 4256 c9bd 5178 3fbd 8068 c8bd 178b 0fbe
00000120: 861f 403c deed bc3d 8266 283e f648 2ebe
00000130: ac54 213e 9e99 99bc 905d 88bd 77fa 943e
00000140: 60bd 40bd ff29 19be cee6 8c3d 266e 3d3d
00000150: fbb1 ea3c f5e5 613e a830 abbd 0d61 51be
00000160: 2b8f 2abe c852 efbd 7881 87bd a331 fbbd
00000170: 3db0 3d3e 6d3b 0f3e f2a0 373e de97 dd3d
00000180: 7cd4 d73d 5204 99bd 2876 bb3c 3d82 733b
00000190: 407c ba3e dfb4 28bb 1296 c0be 2d6d d13d
000001a0: a39c 0a3e b7bf a33d 5745 873d e7eb 2abe
000001b0: 39b1 26be 7e24 5cbe fcad 8c3e 2a51 92be
000001c0: ae5b 483e 04d7 2ebd e326 0ebe 76bf 06bc
000001d0: 2d49 093e 879e e8bd 0c08 223e 8f05 21be
000001e0: 529d af3c 2f1a 543e ee58 fd3c 237f 973c
000001f0: 3377 bc3c 0707 dfbd 910b 22be 3317 9c3c
00000200: 4e38 0e3e 96f6 a9bd ed6e 2dbe 165f 523d
00000210: f24c e33d 0c9e 96bd 59ef 213e 95f7 e33d
00000220: 59d6 2fbd b773 f2bd dc8f acbc ea6a 18be
00000230: f404 6b3e b270 273e 1c10 31be 9a7b 2fbd
00000240: 88d9 01bd 99d3 47bb 04e3 8b3d 33d8 11be
00000250: 7f2a 21bd 9acc 40bb bcc9 67bc 4e6f 05be
00000260: 39d5 373e d4bd 70bd 230a d43b fca9 113e
00000270: d59d 20be 6fa3 3fbe 4660 953d a430 05bd
00000280: 7be6 103e 003a bbbd b699 31be 0c89 7c3c
00000290: f46c d1bc 2bbb a93c 0b8d 923c 4b9c 16be
000002a0: b41b 1e3d d182 ffbd 8f9e 473e 4c19 9f3d
000002b0: 4a5c 06be 937d 883e 0a35 6fbe 57c0 1c3c
000002c0: 5dfe 1ebe cdab 463e 6666 933d adff 443e
000002d0: eb0e 153e d8a1 1dbe c7d0 073e f723 1bbd
000002e0: 30ab 5c3e c585 123e 4770 e4bd 0f45 1cbe
000002f0: 3bf2 8dbd 88a5 e63c ba01 163e e9f1 5bbb
00000300: 629e 39be 0b2b 1abb 9e3e 793c 27fb dcbc
00000310: 202b 083e adec 2fbd add5 7c3d f059 803e
00000320: 0881 17be 6c8a 743e bc2f 06be d5e9 003e
00000330: 25d0 90bb c015 e9bd 6ae1 543d 411f 0bbe
00000340: ac08 753e e3e8 153d 4151 5c3d 9e84 d63c
00000350: 8bed 513b a785 3bbe 6997 153c 61e6 4b3e
00000360: 854b 05be 61cc 6dbd fd83 b33d 9071 a8bc
00000370: 2a8d 933d 1bdd 4bbd 5a04 85be 881e 5bbd
00000380: 4c28 9cbd 8f13 44be a52a dfbd 5927 2b3e
00000390: 5639 143b b6a8 cd3b 49ff 0e3e 97d4 183e
000003a0: f8a7 1abc 6935 cd3d f1b0 0f3d aa10 3a3e
000003b0: 2fdc 163e 76ba d33c 0c28 463d 1b5e 113e
000003c0: 2e04 c3bd d9a0 c73d 8862 283e e9a0 e13a
000003d0: 14a2 50bd dfd7 e7bc 3796 3a3d 22c6 023e
000003e0: ed25 2bbe 30af 99bd c3cf 98bd 4ff4 2e3e
000003f0: ed30 10bd b25c 283e fedd 06be 8663 2d3e
-0.0145813525 0.26040676 -0.011443298 0.066801794 0.13996775 0.058119357 -0.011688787 -0.10330348
-0.09901253 0.00052637665 0.13016655 -0.07885424 -0.15008001 0.10550135 -0.017355002 0.03510626
-0.15060364 0.1538424 0.031092998 -0.07389923 -0.0011443741 0.0061771004 0.12718023 -0.06486717
-0.05861287 0.27849913 0.22534499 -0.04462878 0.047777824 0.12271094 -0.09958598 -0.026389156
-0.034878623 0.0135338195 0.05987249 0.10930826 -0.17506762 -0.11196892 0.01229412 -0.0027051307
-0.0074906205 0.020159733 -0.28769693 -0.16419812 -0.085714184 0.1046648 0.12604345 -0.027287511
0.050673395 -0.28274393 -0.2746972 0.14818297 -0.45149812 -0.1604186 0.21341576 0.2650817
-0.15013164 -0.103090845 0.11548639 0.19303831 0.28290313 0.06504163 0.06500144 0.059209675
-0.02039351 0.08086331 -0.29170746 0.024014916 -0.098309055 -0.046745602 -0.09785557 -0.14017902
0.011726266 0.09225057 0.16445354 -0.1702002 0.15754956 -0.018750008 -0.06658471 0.2909734
-0.047055602 -0.14957426 0.0687996 0.046247624 0.02864932 0.22060378 -0.0835889 -0.20447178
-0.16656177 -0.11685711 -0.06616491 -0.12265327 0.18524261 0.13987513 0.1793249 0.10819982
0.10538575 -0.07471527 0.02288349 0.0037156485 0.3642292 -0.0025742573 -0.37614495 0.10225902
0.13536315 0.07995551 0.066050224 -0.16691552 -0.16278543 -0.21498296 0.2747649 -0.28577548
0.19566223 -0.042685524 -0.13882022 -0.008224359 0.1340682 -0.11358362 0.15823382 -0.15724777
0.02143732 0.20713113 0.030926194 0.01849324 0.023006057 -0.10890012 -0.15824725 0.019054031
0.13888666 -0.08298986 -0.16936846 0.051360212 0.110986605 -0.07354364 0.1581396 0.11131207
-0.042929027 -0.11838477 -0.021064691 -0.14884534 0.22951108 0.16351584 -0.17291301 -0.042842485
-0.031701595 -0.0030491112 0.06830409 -0.1424263 -0.039347168 -0.0029418827 -0.014147218 -0.1303074
0.17952432 -0.058774784 0.006470935 0.14225 -0.15685208 -0.18714689 0.07293753 -0.03251709
0.14150421 -0.09141922 -0.17343792 0.015413534 -0.025564648 0.020719131 0.01788952 -0.14708059
0.03860064 -0.12476123 0.19494079 0.07768497 -0.13121143 0.26658306 -0.23360077 0.009567342
-0.1552672 0.19401474 0.07197265 0.19238158 0.14556472 -0.1539377 0.13263236 -0.037876096
0.21549678 0.14308842 -0.11154228 -0.15260719 -0.069309674 0.028155103 0.14649096 -0.0033560938
-0.18126824 -0.002352419 0.015212683 -0.026975228 0.13297701 -0.04295032 0.061727215 0.25068617
-0.14795315 0.23880929 -0.13104147 0.125892 -0.004419344 -0.113811016 0.051972784 -0.13586141
0.2392909 0.03659905 0.053788427 0.026186284 0.0032032456 -0.18312703 0.009130337 0.19912101
-0.1301709 -0.05805624 0.08765409 -0.020561963 0.07204659 -0.04977141 -0.25979882 -0.053495914
-0.076248735 -0.19148086 -0.10896806 0.16714229 0.0022617183 0.0062762154 0.13964571 0.14924847
-0.009439461 0.10019953 0.035080854 0.1817042 0.14732431 0.025845747 0.048378035 0.14196055
-0.095222816 0.09747476 0.16443837 0.0017214093 -0.05093582 -0.028301178 0.045553412 0.12770894
-0.16713686 -0.075041175 -0.074615024 0.17085384 -0.03520291 0.1644161 -0.13170621 0.16932496

network_body._body_endoder.seq_layers.4.bias f4 [128]
00000000: 38a7 873d fdc0 263d 302f 493d f585 783d
00000010: 0b37 903d 6ff0 b43d 46ec 393d 3757 4c3d
00000020: 1b3c 3f3d 2b81 523d dc84 a03d b85f 503d
00000030: 707c b83d e019 9d3d 30e8 633d c02e 7e3d
00000040: b511 243d b38c 993d 55b7 893d 7232 913d
00000050: 880f 3d3d 0dd9 063d 8d8f 083d 31f7 583d
00000060: 5f85 773d e04e 673d 3344 843d c9fb 883d
00000070: 33e9 553d 7477 6f3d 1f64 873d 9d10 213d
00000080: 5690 3e3d d063 1a3d a444 9c3d 3688 073d
00000090: a8ed 1b3d cd09 5d3d efc2 993d 84ec 663d
000000a0: 910b 5e3d c835 903d ffda 8b3d ef8c 4d3d
000000b0: b5eb e53c 2fc6 5f3d 1cc9 a43d 2594 723d
000000c0: 5e98 a73d 27c7 c33c 4218 1b3d 2a2d 303d
000000d0: 66a8 3d3d 3b85 2d3d 6a63 e33c 0478 363d
000000e0: 08cf b03d 92cf e83c 0366 6d3d 0284 e43c
000000f0: 3a01 7e3d 2144 813d 8e44 8e3d a9f8 123d
00000100: 4105 643d 25e4 683d cfe7 553d 4f46 943d
00000110: d049 853d 9499 443d eb74 9e3d 2225 163d
00000120: 24c1 f73c 7f86 6e3d 880c 7c3d edf2 7e3d
00000130: 980c 833d 02f6 a33d 7747 fe3c 6ff2 8a3d
00000140: 9c68 9b3d c313 a03d 39f3 5b3d 86ce 623d
00000150: 87d8 9c3d efb8 883d c80f 553d c4da 8f3d
00000160: eab4 103d 43ce 423d 58ba 163d c8db 653d
00000170: b205 983d ba3e a73d 23f8 433c 4b43 543d
00000180: a5fe 3c3d 075f 433d 7db2 5c3d 83a6 3f3d
00000190: 4808 9f3d 6530 953d caa0 293d 1cde 713d
000001a0: c104 ae3d ae96 2a3d 6173 b93d fcfc d23c
000001b0: 882a 923d 095e 343d 339d 273d 6393 ee3c
000001c0: c147 b83d ef7b 113d 4470 4b3d 57ae 9a3d
000001d0: 6fa6 1b3d e8f4 653d 2434 343d 18f8 673d
000001e0: b164 523d da81 893d e120 8f3d 2288 853d
000001f0: 5f3a 213d e9fe 643d 71ab 793d c514 353d
0.06623691 0.04071139 0.049117267 0.060674626 0.070417486 0.088349216 0.045391344 0.049887862
0.04668818 0.051392715 0.07837841 0.050872535 0.090081096 0.07670951 0.055641353 0.062056303
0.04005595 0.07497539 0.06724421 0.070897 0.04615739 0.03292184 0.033340026 0.052970115
0.060429927 0.056471705 0.064583205 0.06688649 0.05222435 0.05846353 0.066108935 0.039322484
0.04652437 0.037692845 0.0763028 0.033088885 0.038068444 0.053964425 0.07507884 0.056377903
0.05421025 0.07041508 0.068288796 0.050183233 0.028066495 0.054632362 0.08046171 0.059223313
0.081833586 0.023898674 0.03786493 0.04301182 0.046303175 0.042363387 0.027757365 0.04454805
0.08633238 0.02841929 0.057958614 0.027894977 0.06201289 0.06311823 0.069466695 0.035881672
0.055669073 0.0568582 0.052223023 0.07239973 0.06508219 0.047998026 0.07737144 0.036656506
0.030243464 0.058233734 0.06153539 0.06224339 0.063988864 0.08005907 0.031039936 0.06784522
0.07588312 0.07816269 0.053698752 0.055372737 0.07658487 0.06675898 0.052017003 0.07024148
0.035328783 0.047559988 0.036798805 0.056117803 0.07422961 0.08166261 0.011961016 0.051821988
0.046141285 0.047698047 0.053881157 0.046789657 0.077652514 0.07284621 0.041413106 0.05904971
0.084970005 0.041647606 0.0905521 0.025755398 0.071370184 0.04403499 0.0409214 0.029123014
0.08998061 0.035518583 0.04966761 0.07552784 0.03800052 0.056141764 0.043995038 0.056633085
0.051365558 0.0671422 0.06988693 0.06520106 0.039362308 0.055907164 0.060954515 0.04420926

action_model._discrete_distribution.branches.0.weight f4 [25, 128]
00000000: f80e 263d 7780 9fbd c343 fb3c 7f18 4d3d
00000010: f117 6fbd c2b1 e03c dec0 cbbd ff55 8dbd
00000020: a177 8fbd d20f 543d 671c 2abd 7adc 46bd
00000030: 89aa 42bb a306 01bd af77 323d 33c4 4c3d
00000040: cb70 403d 7f8b 2b3d 7746 5a3d 5c61 13bd
00000050: 7972 52bd 1ca0 54bd ada8 a0bd 47c1 183c
00000060: 3ed7 063d 10c9 3c3d 877a 80bd a2fb 803d
00000070: 20ac 1e3d 5827 5b3d ae8b 8ebd ad6c 76bd
00000080: cd46 043d 2eaf b3bd 792a 5d3d 3624 043d
00000090: 7bd3 fb3c dd38 753d 2179 833d 9987 243d
000000a0: ccbe 9bbd 3398 783d 0de8 2b3d 8022 643d
000000b0: 812d ce3c af46 e33c c5a9 5ebd a993 d33c
000000c0: 76c3 7e3d b6da a1b9 6c0f 323d 9c02 8ebd
000000d0: 8b74 373d d7af 683d 7dfe a0bd 4283 96bd
000000e0: 7a9a 203d c945 163d b443 283d 991c 303d
000000f0: 4d4e 483d f13e 7dbd da0c 09bd ac44 313d
00000100: 07fe b9bd 28ba 853d 5381 933d 4c71 b13c
00000110: 19df 99bd cc11 313d 23ee aabc 3945 71bc
00000120: 41df f43c 9d47 98bd 38e3 97bd 7b50 0abd
00000130: 0494 65bd 9ad7 b93a 3154 3e3d 0b1b 913d
00000140: c4cc 6e3d 1c56 e8bc 0d84 453d 45f8 4a3c
00000150: 86f6 823d 338e 74bc c160 593d ef3c ccbd
00000160: b711 4cbd 3174 123d 19f9 92bd 06e1 333d
00000170: 8005 c2bb 3699 b2bd 30f4 823c 83a2 9dbd
00000180: 7146 3b3d 761d 6f3d 83de 323d cd4c 803d
00000190: 9ca1 e1bc 3152 12bd 36a2 1e3d 27eb d6bb
000001a0: 13a5 0abd 82a6 b4bd 69e9 3a3d 4a41 1d3d
000001b0: 2201 903d 4522 acbd e28d b8bd 88a9 bdbd
000001c0: 24d4 803d 6d10 723d 400e d23c d134 b0bd
000001d0: 984b 663d ae60 cfbc 23eb 81bd 7cc7 153d
000001e0: 82e6 bebd 86ff 723d acfc 863d 54f7 8ebd
000001f0: d3e0 e8bc c94a 9ebd 1b44 193c 36f4 6bbd
00000200: 891e 613d b257 bfbd 8c8c 373d ee34 6a3d
00000210: 0753 94bd 4603 1abb 1cc6 8ebd 5698 85bd
00000220: 8404 31bd 24e4 d03c ab39 6cbd 859f 0dbd
00000230: 17f1 10bd 2f48 57bd 3052 853d e6d4 6f3d
00000240: e9f3 3c3d 1146 463c a479 3b3d 902c 3ebd
00000250: 4655 50bb 6766 86bb 504e 72bd 1dec c63c
00000260: b8d9 363d c0ec 683d f91f b8bd 2c33 933d
00000270: d251 233d 9bc0 913d 51c4 9abd eeb1 80bc
00000280: 91fe 0a3d 8e17 07bd a580 693d efe9 0f3d
00000290: a1d1 413d 0d5f 6f3d 90a9 733d e72f 9c3d
000002a0: d40b 9fbd c18d 3c3d 39f8 423d cbf3 e13c
000002b0: 8c38 533d 84fb a7bb fd1a 9ebd 24a0 093d
000002c0: 3f57 5d3d 9f3d 8dbc 5df7 7b3d c753 08bd
000002d0: f7dd 3d3d c675 3b3d e301 a1bd dc1d 94bd
000002e0: 8eaa a23b a8da 853d ca1b 453d 3c22 753d
000002f0: fc16 3d3d 962d aabd ec6e 7fbd 1933 283d
00000300: a062 6dbd 4e41 663d 2a13 893d d318 0dbc
00000310: e3e9 81bd fea7 463d 188b 49bd acc9 97bc
00000320: 1434 c33c 1ca1 a2bd 49d0 86bd 0ff3 72bd
00000330: 9968 a5bd b13b 1bbd 0888 823d ae21 143d
00000340: b34e 713d d08f 9dbd a248 4b3d a10e 8ebc
00000350: d526 983d 9d28 6abd c890 523d c368 90bd
00000360: 935b a4bd e8ec 643d e5f0 7ebd a6bc 333d
00000370: 6995 e2bc 1259 9fbd 3d39 063d 0f10 a8bd
00000380: efb9 653d d89c 253d e8a4 753d 7989 813d
00000390: a28f f9bc eddf 8cbd 2277 6f3d 6916 793c
000003a0: 6eff 3ebd ffb4 85bd 7470 833c cfd6 003d
000003b0: 686f 5b3d db22 8ebd 8d37 7ebd 65ef 23bd
000003c0: 7856 833d de82 283d 74dc 6b3d 2f35 c4bd
000003d0: 7a8f 613d e5f4 743a 5fa5 c2bb a4a1 533d
000003e0: 6277 b8bd e8a0 303d 409d 3d3d 59b0 7abd
000003f0: 9503 813b efa1 81bd f0b1 183d 096c 78bd
0.04054162 -0.077881746 0.03067196 0.05007219 -0.05837244 0.027428512 -0.09948896 -0.06901168
-0.07005239 0.0517729 -0.041530993 -0.048550107 -0.0029703698 -0.03150047 0.04357117 0.049991798
0.046982568 0.04188108 0.053289857 -0.03598152 -0.0513787 -0.051910505 -0.07844672 0.009323425
0.032920115 0.046090186 -0.0627337 0.06297995 0.03873837 0.053504318 -0.069602355 -0.060162235
0.032294083 -0.08773647 0.053995583 0.032261096 0.03074049 0.059868682 0.06419588 0.04016838
-0.07604751 0.060692023 0.041969348 0.055696964 0.025168182 0.027743666 -0.054361124 0.025827246
0.062198125 -0.00030871265 0.04347174 -0.069340914 0.04478888 0.05680832 -0.0786104 -0.07349254
0.03920982 0.036687646 0.04108019 0.042996023 0.0489028 -0.061827604 -0.03345952 0.04327838
-0.09081655 0.06529647 0.07202401 0.02166047 -0.075132556 0.043229863 -0.020865506 -0.014725977
0.029891612 -0.07435534 -0.074163854 -0.03376816 -0.05604936 0.0014178634 0.04646701 0.07085236
0.05830075 -0.028361373 0.048221637 0.012388294 0.06394677 -0.014926481 0.053070787 -0.0997256
-0.04982158 0.03575534 -0.07176418 0.04391577 -0.005921066 -0.08720629 0.015985578 -0.07697012
0.045721475 0.058377706 0.043669235 0.062646486 -0.027542882 -0.035722915 0.038728915 -0.006558794
-0.033848833 -0.08820821 0.045632754 0.038392343 0.07031466 -0.08404974 -0.09011437 -0.09260851
0.062904626 0.059097696 0.02564156 -0.08603824 0.056224436 -0.025314655 -0.06343677 0.036567196
-0.093213096 0.059325717 0.06591162 -0.06980768 -0.028427517 -0.07729108 0.0093546165 -0.057605945
0.05496076 -0.093428984 0.04481177 0.057179384 -0.07242399 -0.0023500486 -0.0697138 -0.065231964
-0.043217197 0.02549941 -0.057672184 -0.034575958 -0.03538617 -0.052559074 0.06509817 0.058552645
0.04613105 0.012101666 0.045770302 -0.046429217 -0.0031789108 -0.004101563 -0.059156716 0.02428251
0.044641227 0.056866407 -0.08990473 0.07187495 0.03987295 0.07116815 -0.07556976 -0.015709843
0.03393418 -0.032981448 0.05700745 0.035135206 0.04731906 0.058440257 0.05948788 0.07626324
-0.07765928 0.046033625 0.047600005 0.02758207 0.0515676 -0.0051264185 -0.07719991 0.033599988
0.054038282 -0.017241297 0.0615152 -0.03328302 0.04635426 0.045766614 -0.07861688 -0.07232258
0.0049641794 0.06535846 0.048122205 0.0598471 0.046164498 -0.08309476 -0.062361643 0.041064356
-0.057955384 0.056214623 0.066931084 -0.008611876 -0.063434385 0.048500054 -0.049204916 -0.018528782
0.023828544 -0.079408854 -0.06582696 -0.05931383 -0.08076591 -0.037898723 0.06373602 0.036164932
0.058912944 -0.07693446 0.049629815 -0.01734096 0.074292816 -0.057167638 0.051407605 -0.07051232
-0.08025279 0.055889994 -0.062241454 0.04388108 -0.027659135 -0.07780661 0.03276943 -0.08206188
0.056085523 0.04043278 0.05997172 0.06325049 -0.030463997 -0.06878648 0.058463223 0.015203097
-0.046630315 -0.06528663 0.016044833 0.031454857 0.053573042 -0.06940242 -0.062064696 -0.040023226
0.06412977 0.04114043 0.057583287 -0.095804565 0.05506847 0.00093443535 -0.005940124 0.051667824
-0.090071455 0.043122202 0.046292543 -0.061203334 0.0039371946 -0.063297145 0.03727907 -0.060649905

action_model._discrete_distribution.branches.0.bias f4 [25]
00000000: 045d 043d 2fde 953c 892b b5bb 108c a4bb
00000010: d278 52bc 2d34 5e39 a0d2 933b db0f 0abc
00000020: ab99 8cbc b8c5 e1bb 65d5 563c 864a 7dbc
00000030: 1d72 b5bc 0478 cfbc 4144 17bc 788b 9e3c
00000040: bc0f b0bb 396c 01bc ce96 babc 8f4b 9cbb
00000050: 6a4d 153d deb2 ed3c a248 78ba c076 893a
00000060: f8d8 fc3b
0.03231527 0.018294422 -0.0055288714 -0.0050215796 -0.012846189 0.00021191007 0.0045111924 -0.008426632
-0.017163118 -0.006890025 0.013112401 -0.015459662 -0.02214914 -0.025325783 -0.009232582 0.019353613
-0.0053729694 -0.007899337 -0.022776987 -0.0047697495 0.03645078 0.029015955 -0.00094712724 0.0010487661
0.0077162944
