Assets/Env5/Brains/MoveToButton2.onnx (onnx, 153430 bytes, 8 tensors)

network_body._body_endoder.seq_layers.0.weight f4 [128, 9]
00000000: 2fb0 8cbe a65c e73d 76be aa3d b7d0 05bf
00000010: 5304 91be ffb9 24be f217 453d 9e78 e0be
00000020: a8e4 34bf ebc4 5e3f 8565 9e3d d9e1 5a3d
00000030: f9a4 b6be 1d94 373e 1a7a b23b 61ca fd3e
00000040: 6a2f 95be 7bfe fdbe 5ec6 fd3e 2853 083f
00000050: 88b1 41bf 1c1a a8be cfb7 bf3b 5ce7 0fbd
00000060: 5f00 7d3f 5789 62be 71b6 a3be 6ef7 ab3e
00000070: 2a42 533e 6607 a5bd 17b6 bd3e 8be8 cabe
00000080: 3fa4 803e ee81 07bf cbd7 223f 8ce8 a3be
00000090: 236d 5a3e fa0c 9ebe 3207 043e 0718 223d
000000a0: d848 be3e 6109 943e 1aa9 42bf 89f5 a3be
000000b0: 43d6 57bd ada8 2a3e 3730 25be b40c c8be
000000c0: 0c6e e83e e010 663e f873 e6be f481 a93d
000000d0: 3c85 a5be 9011 e43e e988 03bf c212 1d3e
000000e0: fe4d e1bc 5f4f 33bf 8a80 a2be 54bb 88be
000000f0: 1ba9 eabe 29b9 f0bd 362f 5dbf c343 12be
00000100: 1bd1 633d de21 63be 5675 9c3e 348c afbd
00000110: 8f7b 35be fbb9 c33e 5d18 4d3f 1558 b43e
00000120: 5b52 f3be f56f 9bbd db3d 16be 2c4e 2a3e
00000130: 32c7 3e3e 1204 0cbe c129 51be 88ec 493e
00000140: 42a3 943d f824 a8be 5db5 21bf 3468 f8ba
00000150: 1b1b cc3d 6a5d 9b3c 0722 d13e 411c 183f
00000160: 1d3f a93d 58ba 573e 6073 513d 94f2 96be
00000170: bc3c 67be d16d 60bf 5e1f 33be 7c58 eb3e
00000180: a12f 36be dc72 b6be cd1a 1dbf ca04 ec3d
00000190: 6100 0b3f 6ddd 26bd e92d 39bf 180c 9fbe
000001a0: e5c2 f5bd f181 be3d ae1e ccbe 7b50 093f
000001b0: 1d15 433e 0571 92be 70a2 15bf a8a4 803d
000001c0: bc38 14bf dfcd bbbe df1b 853e 926a 44bf
000001d0: 68b7 2a3f 1929 1cbf 4742 9abe 7237 d53e
000001e0: 8cee 043e 9b1b a8be d763 72be c416 b83e
000001f0: e34f 60be 730f f33e 8e72 c83e 194a 4ebe
00000200: cf26 02bf 6b5c f1be a715 613f 9f17 a83d
00000210: f0b9 c33e c552 773e cccc ea3e 0130 b83e
00000220: cd8e 9a3e 9527 eb3e c739 c83d d282 663e
00000230: 5902 f5be a5fc 97be 6d05 5b3e 30de 2a3e
00000240: bb71 93be 0231 3d3d bd65 9b3d e85f 4bbe
00000250: 47fd 1ebe 31d0 923e 04df eebd e380 e53e
00000260: 6a0e aa3e cff5 d5be 6642 203e cf76 e03d
00000270: 3f4d 1fbf c656 3cbe 4ce8 af3d 408a c5bd
00000280: d99c 0d3d 6de3 743d 7a51 cc3e eef1 113e
00000290: 9a89 fe3e 5504 33be 14bc 643e 4114 6bbe
000002a0: 68c5 3f3e cdd2 cdbe cc67 f0be 0bb1 cfbe
000002b0: 918a 9d3e 7986 0cbf c2c5 9c3e 35be 22bf
000002c0: 9567 a83e 2fb5 b23e ef0b 39bd 8a44 8c3e
000002d0: 80bb da3e fd3a e0bd a096 9a3e 837f 2abf
000002e0: 4a57 82bd f4a0 223f 17e3 ba3d 476e a23e
000002f0: 4de2 65bf 360d e7be d879 8abe 6530 893c
00000300: 522d 07bf 3b41 74be 87f4 e1bd 2528 93bd
00000310: b541 0f3d 0e5d ec3e 9e87 553f 560d 06be
00000320: 15b5 d0bd 3cd0 ef3e b8c9 4d3e 1470 9bbe
00000330: 7ad2 9c3e 0f3f 323e c270 bebe 1304 1fbd
00000340: 4fb2 e1bd 3168 b03c 8fda 0bbd 0676 8b3e
00000350: 65b1 8f3e 21e6 82be 9419 14bf c318 e63e
00000360: 6ecf 8dbe 0511 5f3e c212 70bf 3279 cb3b
00000370: 6144 bd3e 1185 0bbe fd23 36bf 4812 153f
00000380: fb1d d5be bd5c b93e 4eea 53bf 42a3 9c3e
00000390: f3e4 a13e 4f7f 3f3e 5a67 f7be eac9 e9be
000003a0: df8f 3ebe bde4 8bbe 9ed2 56bf 68cc febd
000003b0: 2fed de3e cc62 4cbe c006 73be 56e2 1dbe
000003c0: 0864 8abe 6f08 773e 62d1 f03e 0b79 503e
000003d0: 63d3 be3b 7c3c 8bbd f73d 083d f575 1ebe
000003e0: 0837 8abe df42 c2bd cc5b 103f f5a0 113f
000003f0: 72ae ab3e 6724 48be 864d 9abe 7a53 80be
-0.27478167 0.11296968 0.08337109 -0.522716 -0.28323612 -0.16086577 0.04811854 -0.43842024
-0.706614 0.8701922 0.07734207 0.05343804 -0.3567274 0.17927594 0.0054466845 0.49568465
-0.29137737 -0.49608216 0.49565405 0.53251886 -0.75661516 -0.3283242 0.005850769 -0.03513275
0.9882869 -0.22122703 -0.3197513 0.3358721 0.20630708 -0.08058052 0.37052986 -0.3963054
0.2512531 -0.5293263 0.63610524 -0.32013357 0.21330695 -0.30869275 0.1289337 0.039573696
0.3716495 0.28913406 -0.7603928 -0.32023266 -0.05269457 0.16665907 -0.16131674 -0.39072192
0.4539646 0.22467375 -0.45010352 0.0827674 -0.32328212 0.4454465 -0.51380783 0.15339187
-0.02750301 -0.70042986 -0.31738693 -0.2670542 -0.45832142 -0.117540665 -0.86400163 -0.14283662
0.05561934 -0.22180888 0.3055827 -0.085716635 -0.17722915 0.3822783 0.801153 0.3522345
-0.4752377 -0.075897135 -0.14672033 0.16631383 0.18630674 -0.13673428 -0.20426084 0.19719136
0.072577015 -0.32840705 -0.63167363 -0.0018951953 0.099661075 0.018965442 0.40846273 0.5941811
0.08263991 0.21067178 0.05113542 -0.29481947 -0.22581762 -0.87667567 -0.17492434 0.45965946
-0.17791606 -0.35634506 -0.6136902 0.11524351 0.54297453 -0.04073851 -0.7233568 -0.31063914
-0.12000064 0.09302128 -0.39867157 0.5363843 0.19051023 -0.28601852 -0.58450985 0.06281406
-0.5789907 -0.36680505 0.25997826 -0.76725113 0.66686106 -0.6100021 -0.3012869 0.41643864
0.12981623 -0.3283356 -0.23670898 0.3595487 -0.21905474 0.47472724 0.39149898 -0.20145454
-0.5084047 -0.47140822 0.87923664 0.0820763 0.38227797 0.24152668 0.45859373 0.35974124
0.30187073 0.45928636 0.09776645 0.22510841 -0.47853354 -0.2968494 0.21388789 0.1668632
-0.28797707 0.046189316 0.075877644 -0.19860804 -0.15526305 0.28674462 -0.116636306 0.44824895
0.33214122 -0.417891 0.15650329 0.10960161 -0.62227243 -0.18392476 0.08589229 -0.0964551
0.03457341 0.059787203 0.39905912 0.14252445 0.49714357 -0.17482121 0.22337371 -0.22956945
0.18727648 -0.4019989 -0.4695419 -0.4056476 0.3076978 -0.5489269 0.30619627 -0.6357148
0.32891527 0.34903857 -0.045177396 0.2739604 0.42721176 -0.10948751 0.30193043 -0.6660082
-0.06364305 0.63526845 0.09125345 0.3172476 -0.8979843 -0.45127267 -0.27046084 0.01674671
-0.5280353 -0.23853008 -0.11032968 -0.07185391 0.034974772 0.46164745 0.8341006 -0.13091025
-0.10190789 0.46838558 0.20096481 -0.30358946 0.3062933 0.17406867 -0.37195402 -0.038822245
-0.11020338 0.021534057 -0.03414398 0.27238482 0.2806503 -0.255662 -0.5785153 0.44940767
-0.2769732 0.21783836 -0.9377862 0.006209516 0.3696623 -0.1362498 -0.71148664 0.5823102
-0.41624436 0.36203566 -0.82779396 0.30593306 0.31619987 0.18700908 -0.48321038 -0.4566186
-0.1860957 -0.2732295 -0.83915126 -0.12441331 0.43540332 -0.19959563 -0.23733044 -0.15418372
-0.27029443 0.24124311 0.47034746 0.20358674 0.005823539 -0.06798646 0.03326222 -0.15474685
-0.2699511 -0.09485411 0.5639007 0.56886226 0.3353153 -0.19545136 -0.3013727 -0.25063688

network_body._body_endoder.seq_layers.0.bias f4 [128]
00000000: cb25 a8ba 0865 373d 24a2 973d 8313 c93c
00000010: b0f1 f43a 04d9 04bc ad6b 503d d4c5 12bc
00000020: 2754 babd f953 31bd 8fa1 e53c 80a0 223d
00000030: 413d 333d 56fd b4bc c539 253d 79b6 983d
00000040: 65ee f9bc 4732 cdbd c65f 153d 5f51 08bd
00000050: 9679 f33c da17 6fbd 6afb c33d ab06 d13c
00000060: 3819 a6bc 2d14 9ebb 94c0 73bd 34d4 153d
00000070: 7acb 203d 974a 7abd c7ca 263d 942b f43c
00000080: e3f4 483d 0c75 87bc 692c 463d 4087 3c3c
00000090: 5b55 13bd 561c 563d 6458 d4bd fb8e 093d
000000a0: 823d 5f3d af34 923d 2301 7e3d 4faa 143d
000000b0: 9641 a33d 311d 033d 8e8c 1cbd 3c41 03bb
000000c0: 8834 4d3d 253a 593d c1c4 f5bd 1a71 6f3d
000000d0: 333d d83c b668 4fbd b7c5 443d c7ae ff3c
000000e0: 61d9 b8ba 0110 e73c 89df 453d 4daf 1ebd
000000f0: b5ac 3f3d dde9 ee3c 8abf a23d 2aa0 dfbc
00000100: 0564 cebc 59b3 473c d004 0e3d f719 633d
00000110: 2b92 893d 8528 3d3d 45a2 8c3d 1558 c53c
00000120: e656 3dbd cdc4 8c3d 2bb4 68bd 6ebe 0abc
00000130: 3e48 48bc 6310 4bbc 9155 413d 4720 013d
00000140: dc05 de3c f4fa ae3c 821e 793d 8ea4 1a3b
00000150: 4845 803d c01a ee3b d0b2 e6bd e638 87bc
00000160: 94a4 92bd 6b9b 293d 4241 6e3d d0e7 283d
00000170: 3d19 8abd 9b01 753d cd22 a3bd 86f6 0e3d
00000180: 198a bc3d 4b76 b6bd 3dc7 d4bc 8dcc 253d
00000190: 4ec0 843c bdf2 8e3c 10e2 a7bc 8dd8 a73c
000001a0: bfec ff3c 58b8 babd 4fc9 993d 1425 9b3d
000001b0: cd0b 1b3d 752b e73d bc6d 04bd 1558 c13c
000001c0: eb94 f93c 414a 413c 1980 2f3d 2f6c 3d3d
000001d0: ce1a dc3b 664f 05bd adc7 e43c 8558 8e3d
000001e0: 4f73 173c 3578 8039 abe2 0e3d 1483 c2bd
000001f0: 3cb6 623d f20c 5d3d 80cc cf3d 1fa9 5c3d
-0.0012828646 0.044774085 0.07403973 0.024545437 0.0018687751 -0.008108381 0.050883938 -0.008958299
-0.09098082 -0.043292973 0.028031139 0.039703846 0.04375959 -0.022093456 0.040338296 0.07456679
-0.030509183 -0.10019355 0.03646829 -0.033280727 0.029721063 -0.058372356 0.09569438 0.025515875
-0.020275697 -0.0048241825 -0.05950983 0.036579326 0.03925655 -0.06110629 0.040720727 0.029805936
0.049061667 -0.016535304 0.048382197 0.0115068555 -0.035970073 0.052273117 -0.10368422 0.033583622
0.054502018 0.07138955 0.062012803 0.03629523 0.07971494 0.03201026 -0.03821998 -0.0020027896
0.050098926 0.053033967 -0.120004185 0.05845747 0.02639637 -0.05063697 0.048040118 0.03121127
-0.001410287 0.028205873 0.048308883 -0.0387414 0.046795566 0.02916425 0.079466894 -0.027298052
-0.025194177 0.012188756 0.03467256 0.055444684 0.067173325 0.04618122 0.06866888 0.024089852
-0.04622545 0.06873474 -0.056812447 -0.008468254 -0.012224255 -0.012394044 0.047200743 0.031524923
0.027102403 0.021359898 0.06082011 0.0023596617 0.06263214 0.0072663724 -0.112645745 -0.016506623
-0.07160297 0.041407984 0.058167703 0.0412367 -0.06743095 0.059815984 -0.07965622 0.03490307
0.092060275 -0.08909281 -0.02597391 0.040478278 0.01620498 0.017449731 -0.020493537 0.020489002
0.031240819 -0.09117192 0.075091 0.075754315 0.03785305 0.11287586 -0.032331213 0.023601571
0.030466517 0.011797489 0.042846773 0.04624575 0.0067170626 -0.032546423 0.027927244 0.069504775
0.0092438 0.00024503624 0.034884136 -0.094976574 0.055349573 0.053967424 0.10146427 0.053872224

network_body._body_endoder.seq_layers.2.weight f4 [128, 128]
00000000: e16c e3bd cbea 0cbe 7134 9e3d 79c0 a5bd
00000010: 5a74 31be 34d9 353c 48eb b1bc ec0d 613d
00000020: c0df 80bd 2a63 bbbd 20f5 1abc 9d12 9a3d
00000030: 926e 2f3e 807d 503d 24ca 983e 7b0e 043b
00000040: b681 213d 4316 51bd ca6c 653d e0b3 ecbc
00000050: f840 43be 27f7 243d 7b11 2fbd 408d 3a3e
00000060: 412a 5fbd edbb 36bc 7a36 1bbc b56f 663c
00000070: 4997 283e 06d0 d2bd 1615 02bd b8a3 9f3d
00000080: 1b6c 7abd 8997 28bc 93fa 753d 0729 75bd
00000090: c0a1 2dbc 0e2d febd 5fe3 933c d137 b23c
000000a0: 8d5e f0bd 3eda 813d 6c3f ed3d b0b8 61bb
000000b0: c309 183e 970d 923c 4b15 c73d 111e 06be
000000c0: b257 a1bc 51ce f3bc 1f3f bd3d 32d4 9bbd
000000d0: 5ca6 3cbe d474 29be 4486 1d3e f74f 423e
000000e0: 8359 edbd 285e 163d de2e be3d 7bde ec3b
000000f0: d359 043e 9502 91bd 1cab bb3d b082 50bd
00000100: 3812 1b3e 5b00 cf3c e13d 313e 486b 513d
00000110: cf05 dabc 198b 06bd 3fb1 8ebd e9c6 f4bc
00000120: 0eaa 7cbe 432b b33c b2e4 f7bd d868 683e
00000130: e4ef 4b3c 4a01 99bd 78cc 313d e92f 8b3e
00000140: dd54 c3bd 7916 2a3e 1480 8a3e 42ec f03b
00000150: 4583 3cbc 2232 ffbc 856a b8bb 8659 8c3d
00000160: 5292 f43d 1471 1c3e 9a3e 613c 5a88 36bd
00000170: 8d73 e2bc 5b68 d83d 1c4c abbe 27f2 09be
00000180: 5213 453d 8e91 3ebe f59a 0cbe beba 4e3d
00000190: f333 9abd 6780 0cbd b008 523c fb10 e7bd
000001a0: 3130 e5bd 02d3 aebd f147 9fbb 9dde 88be
000001b0: cae5 503e a8bf 563c d7fc 373d fa8d 893c
000001c0: 309c 1b3d 0bf3 acbb 0a4e 66bc 50ce 8e3e
000001d0: 05e4 b3bd e273 cebd b881 4f3d 9ad9 01be
000001e0: a184 8a3e 3014 e63c 8423 093e 1bc5 34bd
000001f0: a548 153c 9ce7 873d 6b3e 8abc fa25 f7bd
00000200: e040 1e3c 6bfb b6bc ddc3 10bd 8055 f53c
00000210: 2778 353b a2ca fa3d b7fb 0ebe d2ea 2a3d
00000220: c9a8 b4bb 83bc dd3c 22d8 b739 044d 623c
00000230: 2818 1bbd 68b2 3cbd f545 a43d 12e9 933d
00000240: 934a 433e 162d 673c a0ca 1ebe c5b1 013d
00000250: c090 43bd 5de0 9c3d 9129 8d3c 846d 833d
00000260: 0197 113c 3eb1 2dbd 2d8d b33c ad9e 883e
00000270: 0b99 efbd de84 cdbd a991 9ebd 8972 e33d
00000280: c408 e63c 9c74 16be 4dde 953c 8815 dbbc
00000290: 4935 343d ce7a b0bd 8052 7dbc 5769 863c
000002a0: d502 f63c 4616 963d 1448 703d 89b8 f73d
000002b0: 1e1a bebc 7da3 67bd 8c1d 7ebd 2ff9 5bbd
000002c0: a831 b6bd 1c64 1d3e 715f 5ebd 247c 25be
000002d0: 2311 f9bd 47f0 7d3d c46a 713d a650 113c
000002e0: 73b5 613d 54e5 c43d e638 233d 6087 ab3d
000002f0: d0dc 913e aa08 e23c a5bb 0cbd 3807 86bd
00000300: e366 5f3e dcab 5fbd 778c c93d 163c 4abd
00000310: 78c0 1d3d ab96 efbd 2bf0 83bd 9776 df3c
00000320: b62e bb3d 424c e83d 6400 b1bc ce6e 8abd
00000330: 72e6 55bb a8de 943d cbe1 00be 58b9 053e
00000340: 7112 083d 84f7 c73d 1624 74bd 4695 af3d
00000350: 0fd3 bdbc 01c7 b0bd 0af1 7cbc b98e ed3c
00000360: 7090 3d3e 6477 bdbd 83cd c3bc 89cd 70bd
00000370: d438 833b 1986 a4bd 0993 a23d 712d 10be
00000380: 177e 07bd a6c9 b0bc f199 11be 305e 833b
00000390: 7d2b afbb 8c42 2a3d 192d c23d 49ae ae3d
000003a0: 78fe 2dbe 4aee 603c c58a dcbc 256c 053e
000003b0: 0f04 efbc e4c8 6b3d 3b21 913d fafa e5bd
000003c0: e360 4fbd 10b5 b83c d09e aa3d 7e02 813d
000003d0: bd04 d1bd 6c43 733c 3a38 263e 9897 643d
000003e0: 7390 c2bd e403 9ebc 10c3 c03d e2f5 103e
000003f0: 24fc b9bd 71c5 89bd 630f c1bd ec00 b5bd
-0.111047514 -0.13761441 0.07724846 -0.08093352 -0.17329541 0.011099149 -0.021718636 0.054944918
-0.06292677 -0.091497734 -0.009457856 0.075230815 0.17132023 0.050900936 0.2984172 0.0020150233
0.039430343 -0.05104662 0.056011952 -0.028894365 -0.19067752 0.040274765 -0.04274128 0.18217945
-0.054483656 -0.011153203 -0.009473437 0.014064719 0.1646396 -0.102935836 -0.03175839 0.07794899
-0.061138254 -0.010290035 0.06005342 -0.05985358 -0.010597646 -0.12410937 0.018052755 0.021755131
-0.11736784 0.063404545 0.115843624 -0.0034442358 0.14847474 0.017828746 0.09720858 -0.13097407
-0.019695137 -0.029761465 0.09240555 -0.076088324 -0.18422836 -0.16548473 0.1538325 0.18975817
-0.11589339 0.03671089 0.09286283 0.00722867 0.1292489 -0.070805706 0.09163496 -0.050905883
0.15143669 0.025268724 0.17308761 0.051127702 -0.026614098 -0.032847498 -0.06967401 -0.029880004
-0.24674246 0.021871215 -0.12104167 0.22696245 0.012447331 -0.07470949 0.043407887 0.2718499
-0.09537671 0.16610135 0.2705084 0.007352383 -0.0115059065 -0.031151835 -0.0056279325 0.06853013
0.11941971 0.15277511 0.0137478355 -0.04456363 -0.02764299 0.10566779 -0.33456504 -0.1347128
0.04811413 -0.18610212 -0.13730986 0.05047106 -0.0752944 -0.03430214 0.012819454 -0.11282536
-0.111908324 -0.0853634 -0.004860871 -0.2673234 0.20400158 0.013107218 0.04491886 0.016791333
0.03799075 -0.0052779964 -0.014056692 0.2789178 -0.08783726 -0.10080697 0.05066082 -0.12680665
0.27054313 0.028085798 0.13392454 -0.044133287 0.009111558 0.06635973 -0.016875466 -0.1206779
0.009659022 -0.022336682 -0.03534304 0.029947996 0.0027690025 0.122456804 -0.13963209 0.04172785
-0.005513285 0.027067428 0.00035065511 0.013812307 -0.037864834 -0.04606858 0.08021156 0.07222189
0.19071417 0.01410987 -0.15506983 0.031663675 -0.047745466 0.076599814 0.017231734 0.06417373
0.0088861 -0.04240536 0.021917904 0.2668356 -0.116991125 -0.10035108 -0.07742626 0.1110583
0.028080352 -0.1469292 0.018294478 -0.026743665 0.04399613 -0.08617173 -0.015461564 0.016407652
0.030030647 0.07328467 0.05866249 0.12095744 -0.023205813 -0.0565524 -0.062039897 -0.053704437
-0.0889619 0.1537022 -0.05429024 -0.16160637 -0.12161472 0.061996724 0.05893971 0.008869326
0.055104684 0.09614053 0.039849184 0.0837543 0.2848878 0.027592022 -0.03435864 -0.065443456
0.21816592 -0.054607257 0.09841245 -0.04937371 0.03851363 -0.116986595 -0.06442293 0.027278228
0.09139769 0.1134267 -0.021606632 -0.067594156 -0.0032638577 0.07269031 -0.12586133 0.13058984
0.033220712 0.09764007 -0.059604727 0.085733935 -0.02317193 -0.08631707 -0.015438328 0.02899872
0.1851213 -0.092512876 -0.023901707 -0.058789764 0.004004577 -0.080333896 0.07938201 -0.14079835
-0.033079233 -0.021580528 -0.1421888 0.0040090308 -0.0053457604 0.04156737 0.09481258 0.08529336
-0.16991603 0.013728688 -0.02692164 0.13029535 -0.02917674 0.05756463 0.07086416 -0.112295106
-0.050629508 0.022547275 0.08331072 0.062993035 -0.10205982 0.014847618 0.16232386 0.055808634
-0.09500208 -0.019288965 0.09412205 0.14156297 -0.09081295 -0.06727112 -0.09426763 -0.088380665

network_body._body_endoder.seq_layers.2.bias f4 [128]
00000000: 846a f73c ed5b c8bc 1f83 74bc d814 5c3d
00000010: f64c 113c e2d7 0fbd d0e2 803d 7d46 db3c
00000020: 22d4 443d 4078 653d 583c b33b 3930 353d
00000030: 3230 2bbd 4685 ee3c 94a4 b43c a211 bb3d
00000040: 26d3 3e3d 1b5d d93c 4390 783d 886d 153d
00000050: 05e6 193d c108 52bc 111c 44bb 9db1 3c3d
00000060: 0680 1b3d 31a6 903d ca47 563d bae8 aabb
00000070: 5024 243d 32b8 3c3d 94cd 433d 5391 5b3d
00000080: d939 af3d 5574 b13c 03d7 5abd f532 bb3c
00000090: 7cde e43c b2c4 96bb 9614 913d e02f 3b3d
000000a0: 57ff 643d b668 40bd b1c5 6e3d 78e1 273d
000000b0: a43b 563d 94c2 49bc ccda 51bc de6b f83c
000000c0: 822f 5a3c 2ed4 4d3d 682c c13c 76e0 083d
000000d0: afa0 1b3d c7d0 b13c 26bf 343c 2258 523d
000000e0: bfa8 0cbd 6cb9 be3c e366 e1bc 1c9e 3e3d
000000f0: b60c cf3c 5f21 8e3d 53e1 3b3d 7801 50bd
00000100: 914c bfbc 932e 6fbd 4158 853d ff7e 333d
00000110: 33a5 123b 2680 ff3c ac9e 0f3d 31a9 333d
00000120: 033c 493d 61e7 0e3d a66f 9a3c bcc4 e83c
00000130: cab9 e53c 6ee1 3b3d 24a1 353d 6c41 6b3d
00000140: d496 7cbb 653c e6bb 3723 2a3d ef69 8e3d
00000150: 9fdc 91bd e213 3e3d 569c 393c dc22 533d
00000160: d9d7 76bd e8ce 2e3d 89f1 213d 3ba2 323d
00000170: 5fbc 65ba c2d3 e53c b55d 3a3d a08d 90bc
00000180: 3581 fb3c d697 7d3d 4fc3 96bb 1638 f33c
00000190: df44 57bd 91ad 0d3d f0df 013d a1c3 29bd
000001a0: 29e9 193d 0a36 223d 0e35 5c3c 64f4 82bd
000001b0: f752 313d 15b4 283d 616c 403d d82f 62bd
000001c0: 919a 553d e806 8a3c e6c6 cfbc a86e d33c
000001d0: e471 503d 65a4 683d e77c 4b3d 19d9 863c
000001e0: bc82 dd3d d166 783c 77f2 46bc 2af1 8dbc
000001f0: dec7 253d 0457 efba f0c3 8c3d 61de 533d
0.030202158 -0.024457896 -0.01492384 0.053730816 0.008868447 -0.03511799 0.06293261 0.02676701
0.048053868 0.056022882 0.00546984 0.04423544 -0.04179401 0.029116284 0.022051133 0.091342226
0.046588086 0.026533654 0.060684454 0.03648141 0.03757288 -0.01281947 -0.0029923955 0.046067823
0.03796389 0.070629485 0.052314557 -0.0052157314 0.040073693 0.0460741 0.047803476 0.05360539
0.085559554 0.021661917 -0.053427707 0.022851447 0.02793812 -0.0046010846 0.070840046 0.045699954
0.055907574 -0.04697486 0.058294002 0.040986508 0.05230297 -0.012314457 -0.012808513 0.030324873
0.013316991 0.05025118 0.023580745 0.033417188 0.037995037 0.021705998 0.011031901 0.05135358
-0.034340616 0.023281775 -0.02751488 0.046537504 0.025274616 0.06939959 0.045869183 -0.05078265
-0.02335194 -0.058394026 0.06510974 0.043822285 0.0022376298 0.031189036 0.03506343 0.043862525
0.049129497 0.03488863 0.018852066 0.028414123 0.028042693 0.045869283 0.04434313 0.057435438
-0.003854205 -0.0070262426 0.04153749 0.06953799 -0.07122158 0.04640568 0.011328777 0.051546916
-0.060264442 0.04267779 0.039536987 0.043611746 -0.0008763726 0.028055076 0.045499522 -0.017645657
0.03070126 0.06191238 -0.0046009193 0.02968983 -0.052555915 0.034589354 0.031707704 -0.041446332
0.037575874 0.039602317 0.013440384 -0.0639427 0.043292012 0.041187365 0.04697836 -0.05522141
0.05214936 0.016848996 -0.025363397 0.025809601 0.050889865 0.056797404 0.049679663 0.016460942
0.10815951 0.015161232 -0.012142769 -0.01732691 0.04047381 -0.0018260186 0.068733096 0.05172575

network_body._body_endoder.seq_layers.4.weight f4 [128, 128]
00000000: 0d0a 063e 5b99 ddbc 5469 87bb 2dc9 813d
00000010: 3a09 91bc d004 87bd 6537 23bc 4827 943b
00000020: 8942 f1bd d420 b43b 47fa c73d 82dd b4bc
00000030: ad59 9dbc b48c b23d 07f4 b2bd 53f3 eb3d
00000040: 5442 313d 9f3f 023d fdf8 2bbd 9608 563d
00000050: 93f9 25bd 5c32 83bd b51b 2ebe 5587 ddbc
00000060: 2e91 2cbe dd64 aebc 0de2 fc3d efaa 8fbe
00000070: b97a c13d 36bd dbbc 3a4c 82bd cdc3 8c3d
00000080: 64aa 793c 409c 2a3d 5a9a 473d 7aad 4a3e
00000090: 715a 32bd bd38 0f3d f937 033c f7d4 883d
000000a0: 0a33 983c 8ec8 b5bb 20e8 e8bc ef8b ba3d
000000b0: 4b7a b8bc 4ff6 65be e579 f53d 2409 e0bd
000000c0: 2ded 473e fe7e b7bd a940 f6bd 1928 0c3e
000000d0: c593 4bbd c764 09be d797 d0bd 40a3 073e
000000e0: 76bb 903d 7ec9 053d acd5 2abe 1bf3 f83d
000000f0: 285d 563e a1f3 973e e097 fa3d 47e2 053d
00000100: 2d1c b9bd 7d46 ed3c 8495 88bc af04 79bd
00000110: 856c 0cbd 40dd 053e b159 a6bd b9fc 94bd
00000120: 277f babd 3334 a13c 6927 2b3e dfa4 91bc
00000130: 2889 adbd 6568 1c3e bc9a 8f3d 40d5 7abd
00000140: 6532 aabd a867 de3d 237b 1bbe b8e1 b83c
00000150: b382 f0bd 4be4 22bd e6c5 aa3d c1ec f73b
00000160: d111 31bd 74ab b73e e233 3bbe ee6c e03c
00000170: 281d cb3d 8d82 433e 6342 143e 1004 873d
00000180: d98f 9cbe db3d 0abe c3ad 353d 3c54 32bd
00000190: 60a4 12bd 6ada ad3d b176 95bd 9c64 733d
000001a0: c097 f43d ee57 1d3e f888 923d 4494 89bd
000001b0: 2770 243c c681 243d cab7 0b3d 022e 5f3d
000001c0: d77a 48be 175f e73d 9b75 04be cf11 103e
000001d0: ba6f 12be a248 143e 4b36 2d3e ce69 dd3d
000001e0: c6a6 8f3d c2ac 253e 7a2e f4bd ea74 79be
000001f0: 01d4 f33d 2fd2 2fbe dccd 033c a78f cd3d
00000200: 2ddd c0bd f8ec 413c 4a89 a93d 20fe 073d
00000210: 57e8 4c3e 7a7d 103e cd07 60bc 0fa1 7b3d
00000220: 8e9c 913e b758 4fbe 6065 6b3d 9a97 5e3e
00000230: 82ce 37bd 782f 263e 6c17 5b3e cf96 15bd
00000240: 6ba7 d5bb d2c1 f7bc 3db0 8d3e b94c ddbc
00000250: 76f2 2eba 02cd 83bc d8c3 2bbd 0f93 4e3d
00000260: 03d2 c5bb 7e3a 1abc 77a0 0fbe 7cbf 073e
00000270: 1405 8f3c 4a65 5f3e 0c86 e13d adc4 c23b
00000280: 1eef 08bd a429 053e d33d 303c 7e2d 1abe
00000290: bc44 2f3d cfe7 e7bd d3d3 433e face 8abd
000002a0: e1e0 2abe 97a1 2a3d d537 9a3d f2c0 92bd
000002b0: b5de 9cbd f1d9 e03d 6894 6a3d b4dd 6d3d
000002c0: f875 6abe 3dd9 babb 2a7d 00be 578d 1d3d
000002d0: 9009 143e 62fa 33be 8862 983d 96d6 4dbb
000002e0: c56e 0fbe 41e1 183e 320a 663d 32f6 423b
000002f0: 24fe d1bd 6741 053e 453c 71bc 0e28 e2bd
00000300: fcc6 713c 7442 f2bd 0d27 dd3d 07a1 d93c
00000310: 886c 023d 4b4a 43be ca85 383d 1601 823d
00000320: 4c42 09bc 2ce6 413c 9bea 763c 175a 36be
00000330: 42e0 093d 8f35 66bd 478e 07be 3c8c 313e
00000340: bf3c c1bc 78b8 5cbd 9002 2a3e d62e b0ba
00000350: 556d bebd bf22 b13d 59f4 98bd b138 aa3d
00000360: 67b9 143b a0de 343c b820 3abd a4b0 bf3d
00000370: 47b9 513d 76a5 f1bc 8e62 393c 8dd9 47be
00000380: 4b88 c1bc 46e2 1bbc 206a 3abe cada 423c
00000390: bb04 02bd 42fa 18be 1a3e b1bd 3ef8 a3bd
000003a0: 2a52 f3bd 9f05 4bbe af11 30be f5e6 83bd
000003b0: 76f1 973d 2faa 6dbe 7308 0abd 0a57 5dbc
000003c0: ff2a 7d3e 164a 52be b858 29bc 0e55 d23d
000003d0: b35c 0fbe 3710 8dbd cc8b 82bd 4165 b7be
000003e0: 40ab 4d3e 78d1 093e 159c 513d 1f67 d93d
000003f0: 44d6 b4be 6f8b 073e 74aa 833e cecd ab3d
0.13089772 -0.027050665 -0.004132429 0.06337199 -0.017704595 -0.06592715 -0.009961938 0.0045212843
-0.11780269 0.0054970775 0.097645335 -0.02207828 -0.0192078 0.08718243 -0.08737951 0.1152102
0.043276146 0.031798955 -0.0419855 0.052254282 -0.040521216 -0.0640609 -0.17002757 -0.02704207
-0.16852257 -0.02128833 0.12347803 -0.280601 0.094472356 -0.026823621 -0.06362195 0.068732835
0.015238378 0.041652918 0.048731185 0.19792739 -0.043543283 0.03496622 0.00800895 0.06681245
0.018579025 -0.0055475896 -0.028430998 0.091087215 -0.022519251 -0.2245724 0.1198614 -0.109392434
0.19524069 -0.08959769 -0.12024052 0.13687171 -0.04970147 -0.1341735 -0.10185211 0.13245869
0.07067005 0.03266286 -0.16683072 0.12155744 0.20933974 0.29678062 0.12235999 0.032686498
-0.09038577 0.028964275 -0.016672857 -0.060795482 -0.03428318 0.13072681 -0.08122576 -0.072747655
-0.09106284 0.01967821 0.16714253 -0.017778812 -0.08473426 0.15274198 0.07011935 -0.061238527
-0.08310393 0.108596146 -0.15183692 0.022568569 -0.11743679 -0.0397685 0.083385274 0.007566065
-0.04322988 0.35872996 -0.1828151 0.027395692 0.099176705 0.1909277 0.1447845 0.06592572
-0.30578497 -0.13500158 0.044355165 -0.043537363 -0.03580129 0.08488925 -0.07298029 0.05942212
0.119430065 0.15365574 0.07155031 -0.067177325 0.010036505 0.040162824 0.03411082 0.054487236
-0.1957811 0.11297434 -0.12935488 0.14069293 -0.14300433 0.14480832 0.16915242 0.10811196
0.070142314 0.16179183 -0.11922927 -0.24361005 0.11905671 -0.17170022 0.008044686 0.10037165
-0.09417186 0.011836283 0.08278139 0.033201337 0.20010506 0.14110366 -0.013673735 0.061432894
0.28439754 -0.20248686 0.057469726 0.21737519 -0.044874676 0.16229045 0.21395653 -0.036520775
-0.006520202 -0.030243788 0.27673522 -0.027014123 -0.0006673703 -0.016088966 -0.041934818 0.050433215
-0.0060369982 -0.00941336 -0.14026056 0.13256639 0.017458476 0.21815982 0.110118955 0.0059438557
-0.033431165 0.13004166 0.010756928 -0.15056416 0.04279016 -0.11323511 0.19123773 -0.06777759
-0.16687347 0.04165801 0.0753018 -0.07165708 -0.076596655 0.10979069 0.057270437 0.05807276
-0.22896564 -0.0057021664 -0.12547746 0.03846487 0.14456773 -0.17575982 0.07440668 -0.003140842
-0.14007099 0.14929678 0.056162067 0.0029748795 -0.102535516 0.1301323 -0.014723842 -0.11042796
0.014756914 -0.11829081 0.10798464 0.026566042 0.031841785 -0.1907131 0.045049466 0.063478634
-0.008377623 0.011834662 0.015070583 -0.17807804 0.033661135 -0.05620342 -0.13237868 0.17338651
-0.023588536 -0.05388686 0.1660254 -0.0013441693 -0.09298197 0.086492054 -0.074684806 0.08311594
0.0022693516 0.011039406 -0.04544136 0.093598634 0.051202085 -0.029497843 0.011315001 -0.19516583
-0.02362456 -0.009514397 -0.18204546 0.011892984 -0.031742793 -0.14939216 -0.08654423 -0.08006333
-0.11880906 -0.19826363 -0.17194246 -0.06440536 0.07419102 -0.23209451 -0.033699464 -0.013509521
0.24723433 -0.20536074 -0.010336094 0.10270129 -0.14000206 -0.06887858 -0.063743204 -0.35819438
0.20084858 0.13458812 0.051174242 0.10615372 -0.35319722 0.13236783 0.25715983 0.083888635

network_body._body_endoder.seq_layers.4.bias f4 [128]
00000000: 6448 143d 16e6 f33c 4775 493c a04b 3d3d
00000010: bedd c63c 72ea a63c 4591 c43c 1b0f 153d
00000020: c758 353d 155b 843c 2b1d d03c f01e 0a3d
00000030: eb86 ec3c 1670 d43c 3e7f 333d ac29 41bc
00000040: 7397 11bc c149 193d 0f7a 373d ecb7 0e3d
00000050: d592 113d 687f a13c 8e63 4e3d b719 123d
00000060: a64e ae3c 14b2 9a3c 10ea 103d 3151 123d
00000070: 508b ed3c ca19 1e3d eafc 3d3d 464c 0b3d
00000080: 257c 163d ce63 173d 4475 373d 0524 093d
00000090: 20c4 233d 7e15 1c3d 3f38 cbbb 5ccd 0f3d
000000a0: ba26 903c db80 8e3c 0144 e53c 06a0 023d
000000b0: 542c 2d3d 4c74 203d 5814 2f3d b6cc 1d3d
000000c0: 1eb9 1f3d f85a 563d 21de 1d3d d079 f13b
000000d0: 1105 073d 5ebb 8ebb 736e a33c f148 153d
000000e0: 16fb 2d3d 288c 0b3d f94c ec3c b12f 08bd
000000f0: 611a 073d 696f d13b eafb 0c3d ffbd 803c
00000100: e857 d33c ec2e a23c 39b7 233d 7ca5 ec3c
00000110: c556 1f3d 5316 063d 3495 493d b106 373d
00000120: 6bbe 613c b2f9 4a3c 65c4 633d b0f7 ad3c
00000130: 7f57 133d f700 1f3c a6b9 2c3d 4ebe ce3c
00000140: 7e9c 2f3d 3000 403d 51d5 a83c e017 643c
00000150: a61c bb3c da32 dc3c 2ca6 083d 8d1f b73b
00000160: 9c03 d63c 3f43 d23c 2dff 273d c6c5 d73c
00000170: 5a7f 4d3d 7d30 a33c f145 263d 139d 3f3c
00000180: 8461 883c ffeb 5c3c b17f 8fba 6cee 1f3d
00000190: 54c2 01bc e3e1 2e3c 6187 92bc 3246 2b3d
000001a0: 2c94 ec3c fb5b f43b 1e51 c13c 38ef 043d
000001b0: de09 b53c bce9 463c be2e 043d bf8c 223d
000001c0: 2471 183d 2246 483d 719f 4b3d 4593 9a3c
000001d0: f417 16b9 3335 f63c 0510 2c3d 168c db3c
000001e0: ee0d 213d ee86 e63c 4124 353d 93c8 273d
000001f0: e2dc 103d d5ad a53c d44c 073d 40f6 c83c
0.03620185 0.0297728 0.0122960275 0.0462147 0.024275657 0.020375464 0.023995051 0.03639136
0.044274118 0.016156713 0.025404533 0.03372091 0.028872928 0.025932353 0.04382252 -0.0117897205
-0.008886206 0.037423853 0.04479414 0.03484337 0.03554042 0.019714072 0.05038791 0.035669055
0.021277737 0.018883742 0.03537947 0.03572196 0.028997093 0.038598813 0.046383776 0.034008287
0.036739487 0.036960416 0.044789568 0.033481617 0.03998196 0.038106434 -0.0062017734 0.035107955
0.017596591 0.017395427 0.027986528 0.03189089 0.042278603 0.03917341 0.04274401 0.038525306
0.0389949 0.05233285 0.038541917 0.0073692575 0.032963816 -0.004355832 0.019950127 0.036446515
0.042475782 0.03406921 0.028845297 -0.033248607 0.03298414 0.006391455 0.03441993 0.015715597
0.025798753 0.019797765 0.039969657 0.028887503 0.03890111 0.032736134 0.049214557 0.044684116
0.013778309 0.012388634 0.05560722 0.02123627 0.035972115 0.00970482 0.042169236 0.025237229
0.042873852 0.04687518 0.02060953 0.013921708 0.02284081 0.026879717 0.0333616 0.005588478
0.026124768 0.025666831 0.04101484 0.026339423 0.05017028 0.019920582 0.040594045 0.011695164
0.016648062 0.013484 -0.0010948089 0.039045736 -0.007919867 0.010673973 -0.01788682 0.04181499
0.028879248 0.007457254 0.02359825 0.0324547 0.022099432 0.012140688 0.03227114 0.039685007
0.037217274 0.04889501 0.049712602 0.018869052 -0.00014314038 0.030054664 0.042007465 0.026800197
0.039319925 0.028140511 0.044224028 0.040962767 0.0353669 0.020224491 0.033032253 0.024531484

action_model._discrete_distribution.branches.0.weight f4 [25, 128]
00000000: 2ba0 f2bc c084 4b3d a6ad 8bbd 4457 83bd
00000010: c15d dcbc 5252 553d fce6 793d 465f e1bc
00000020: d9dc 0fbc d2fd 28bd aad9 493d 858d abbc
00000030: 7635 13bd d4f2 803d 0481 69bd 93a5 e43b
00000040: ef85 d03c aa36 47bd e631 b5bd 7b5b 5bbd
00000050: 829e 69bd 2d81 0dbd 6fe4 87bd 8800 3bbd
00000060: ec8a 483d e7e6 2c3d e022 af3c dc47 06bd
00000070: b804 2dbd 83a4 f5bc a573 213d 7513 30bd
00000080: 681e 01bc 9bbe 25bd 28b0 9cbd 8034 64bd
00000090: 9825 66bd ff76 be3c 7256 0b3d 56c7 11bd
000000a0: 03dd b23d 0314 dd3c 218b 5dbd b029 863d
000000b0: 8167 8b3d 4a6b 11bd 8577 7c3d 7ab6 57bd
000000c0: 6516 b6bd ab59 9b3d 5dae fe3c 5cd7 24bd
000000d0: 95e8 49bd f4a1 073d df92 723c 977f 5abd
000000e0: 057e 14bd dd43 8ebc 4a76 6ebd 7fb4 863c
000000f0: c0aa 08bd 85f5 41bd c9e6 0cbd 9344 853d
00000100: ac3b adbc 047d 233d b50d 883d 8883 7bbd
00000110: b813 803d 576a 4cbd 8ea7 2c3d 9547 aebd
00000120: 144c 503d ff3f 8e3c 970f 96bc 75ac 353d
00000130: 97b6 113d 203d 393d b2bf 513d 23ad d5bb
00000140: d512 3dbd 1cc5 e03c c3b2 d1bc e956 533d
00000150: b088 46bc 17c0 6d3d a0cd 093d 5b62 1d3d
00000160: 3ed0 19bd 2bb4 6a3d 72e4 c53c 554b 853d
00000170: 2792 86bd 5b40 e4bc 690f 67bd 6518 4a3d
00000180: 7b16 8c3d e7ef 873d 46f6 153d b35f b2bc
00000190: 4519 2a3d 148b 6d3d b646 1c3b 4774 68bd
000001a0: 73f7 d5bc a25a 293d 1614 2fbd 2d31 2c3d
000001b0: 9825 aabc 81f6 11bc 5436 a53d 3e20 3b3d
000001c0: bddb 81bd 66e3 9ebc 1155 49bd ced5 633d
000001d0: 2262 cdba 0dd8 77bc 525a 64bc 9162 6c3c
000001e0: 15a3 503d 8782 963d 6ea0 573d 243e 92bd
000001f0: 1e82 823d c214 2cba 80f4 623d bd5a 71bd
00000200: cf83 3cbd 2166 883d 7e4c 3abd 2de1 edbc
00000210: f68d 6bbc 8b24 543d 7483 f03c 2b3a ae3b
00000220: c59c f9bc ea60 90bc b9d9 3d3d 3693 45bd
00000230: c92e f8ba 3a81 583d 8d43 56bd 5bef 183c
00000240: 3599 a43c 0a77 6fbd 1ee6 b9bd 6c12 5ebd
00000250: 8ca2 07bd d0f3 31bd d782 84bd 74c2 4bbd
00000260: 1259 153c e412 663d 1eee afbc 8309 a4bd
00000270: a093 54bd 50cc 953b 2232 7c3d 4b8f 0fbd
00000280: 19d2 593c 9883 59bd ae0a 61bd 317e 2fbd
00000290: 374d bcbc 5174 79bc 6971 e13c 1f59 11bd
000002a0: 785d 733d 285c b93c 8c6e 11bd 2fc8 703d
000002b0: 0079 523d 4743 61bb d335 403d ea5b 11bd
000002c0: 9462 a2bd 5eb5 723d 6592 fc3c 9ba8 33bd
000002d0: cdd9 d2bc e0e5 e93c ac0f cb3c 1eea 67bd
000002e0: 0e1e 85bd 3f4d 4dbb 9a33 f8bc 6cbd 26bc
000002f0: ac2f 263b cb95 0dbd c2a5 46bd a664 143d
00000300: ac9d 1d3b 20e0 82bb d11d 873d eb1e 5ebd
00000310: 4abc 8b3d 38a1 1dbd edd1 763d 2aac b1bd
00000320: 998e ef3c 949a 9abc f7ae 1cbd ad26 b73c
00000330: 89f3 583d 0ec3 3d3d d4c8 393d d8e3 143c
00000340: 5ac2 993a 47f9 0c3d b411 70bd 7508 fc3c
00000350: 6b69 fa3b 9298 0f3d 1d7e 093d f5a6 9ebb
00000360: 9e7d 94bc 2e79 673a 2e2d ef3c d4cd 953d
00000370: 4526 a2bd e8a2 03bd 1492 84bd f6ed 133c
00000380: 744b 1c3d d3ab 0f3d 26eb 7bbb 1c76 153d
00000390: 89ad c53c c558 083c cf0f 82bc 6e94 3bbd
000003a0: a034 69bd a73d 2e3d 1063 21bc 147a 183d
000003b0: 17ef 693c dd15 28bd febf 923d 0645 833d
000003c0: fc5e 55bd 1cf5 42bd ebc2 cebc 4591 7a3d
000003d0: b0cc 56bc 0a49 3fbc 88f4 e83c 82db 133d
000003e0: 7e25 7c3d c3f4 603d 37f1 683d b030 03bd
000003f0: 2621 8b3d af71 013b 25fd 303d db97 20bd
-0.02961739 0.049687147 -0.0682023 -0.06413129 -0.026900174 0.05208046 0.0610113 -0.02751125
-0.0087806815 -0.041257687 0.049279846 -0.020941505 -0.035939656 0.06296316 -0.057007805 0.006977746
0.02545449 -0.048636116 -0.08847408 -0.05355404 -0.05703593 -0.03454702 -0.06635367 -0.045654804
0.04896061 0.042212393 0.021378934 -0.032783374 -0.04224083 -0.029985672 0.039416928 -0.042987306
-0.007880785 -0.04046498 -0.07650787 -0.05571413 -0.056188196 0.023250101 0.034017988 -0.035590492
0.08733561 0.026987081 -0.05408776 0.0655092 0.06806851 -0.03550271 0.06163742 -0.052664258
-0.0889099 0.07585462 0.031089002 -0.040244445 -0.049294073 0.033113435 0.014805525 -0.053344335
-0.036252994 -0.017366344 -0.058218278 0.01644349 -0.033365965 -0.047353286 -0.03439978 0.0650722
-0.021146618 0.039914146 0.066432394 -0.061404735 0.06253761 -0.0499061 0.04215198 -0.08509747
0.050853804 0.0173645 -0.01831798 0.04435392 0.035574522 0.04522431 0.051208206 -0.0065208836
-0.046160538 0.02743774 -0.025597936 0.051596556 -0.01211755 0.05804452 0.033643365 0.038423877
-0.03755211 0.057300728 0.024156783 0.06508509 -0.06570845 -0.027862718 -0.05641118 0.04933967
0.06840225 0.066375546 0.036611818 -0.021774149 0.041528005 0.057993963 0.0023845858 -0.056751516
-0.02611897 0.0413462 -0.042743765 0.042039085 -0.02076988 -0.008908869 0.08067003 0.045685045
-0.0634074 -0.019395541 -0.04915339 0.055623822 -0.0015669505 -0.015127194 -0.01393755 0.014427797
0.050936777 0.07349115 0.052643232 -0.07140759 0.06372474 -0.00065643725 0.055408955 -0.058924425
-0.04602414 0.066601045 -0.045483105 -0.029038036 -0.014377108 0.051792663 0.029359557 0.0053169928
-0.030470261 -0.017624337 0.046350215 -0.048236094 -0.0018934842 0.052857615 -0.052310515 0.009334411
0.020092586 -0.058463134 -0.090770945 -0.054216787 -0.033114 -0.04344541 -0.06470268 -0.04974599
0.009115474 0.05617036 -0.021475848 -0.08009627 -0.0518986 0.004571475 0.061571248 -0.035048764
0.01329472 -0.053104013 -0.054941826 -0.042844955 -0.022986038 -0.015225486 0.027519898 -0.035485383
0.05941531 0.022626951 -0.035505816 0.05878466 0.051384926 -0.0034372376 0.04692633 -0.035488047
-0.079289585 0.059254996 0.030831525 -0.043861967 -0.025738621 0.028551996 0.024787746 -0.056619756
-0.06499873 -0.003132656 -0.030298043 -0.010176998 0.0025358004 -0.03456668 -0.048497923 0.0362288
0.0024050279 -0.003994003 0.06597484 -0.054228704 0.06823023 -0.03848383 0.060258795 -0.08675416
0.0292428 -0.018872537 -0.038252797 0.02235731 0.05296663 0.046328597 0.04535754 0.009087525
0.0011730895 0.034417417 -0.058610633 0.030765751 0.0076419613 0.03505761 0.033567537 -0.00484168
-0.018126305 0.0008830008 0.029196348 0.07314649 -0.079174556 -0.03213778 -0.06473175 0.009028902
0.038157895 0.035075974 -0.003843972 0.03648959 0.0241306 0.008321946 -0.015876679 -0.04579585
-0.056934953 0.042539265 -0.0098502785 0.037225798 0.014278195 -0.041036475 0.07165526 0.064096496
-0.052092537 -0.047597036 -0.025239429 0.061173696 -0.013110325 -0.011675129 0.028436914 0.03609801
0.061559193 0.054920923 0.056870665 -0.032028854 0.06793432 0.0019751599 0.043210167 -0.03920732

action_model._discrete_distribution.branches.0.bias f4 [25]
00000000: 021a a9ba fc60 65bb e578 9b3c bf01 123c
00000010: 560c a13c 7133 a1bc d8e0 37bc f1f3 9cbc
00000020: 69d0 b2bb 686b 813c e7d2 6ebc 69ad bebc
00000030: 2b98 81bb feaa 1dbb 8203 243c 1dc6 98bb
00000040: 2472 8cbc b54f b53b 5dd2 42bb 755b 0a3c
00000050: 584b c739 ca7d a63c 380e 673b a665 4a3c
00000060: 7076 aab8
-0.0012901428 -0.0035000434 0.018978545 0.008911549 0.019659203 -0.01967785 -0.0112230405 -0.01915929
-0.0054569733 0.015798286 -0.01457665 -0.023276048 -0.0039549074 -0.0024058218 0.010010602 -0.004662289
-0.01714427 0.0055331835 -0.0029727437 0.008444657 0.00038012373 0.020323653 0.0035256278 0.012353336
-8.1282924e-05
