Assets/Env5/Brains/MoveToButton2.onnx (onnx, 154966 bytes, 8 tensors)

network_body._body_endoder.seq_layers.0.weight f4 [128, 12]
00000000: fba2 223e 9640 223e 612f b73d 2db7 183f
00000010: fbe3 dabe 2f95 6bbe f289 14be 2a75 f83d
00000020: ca33 95bd 9ea4 813e f401 d8be 8147 85bd
00000030: 178f 16be 39c9 33be fad3 b5be 2d73 06bf
00000040: b5cb 093f 75a5 32be d160 babe 461e 60be
00000050: 2d17 6c3d 7df7 65be bdf2 813e 9e9d e0bc
00000060: ff86 0bbf 2ced 66be 0992 9dbe 25ca b8be
00000070: 5b03 05bf ad61 83be bb34 b83e 57f6 4f3e
00000080: 38a7 15be 52d7 79be 10b7 53be e218 003f
00000090: 1380 183e 4bc2 583e d35b 4fbe cc0e 11bc
000000a0: 82fd a23d f741 d8bd 6506 91be 3a87 8cbd
000000b0: 5a08 8f3e 6bb0 e43d 57c9 2dbe 87e5 903d
000000c0: 541d 5a3e bbec 5abd 026d 3fbd bae2 0e3e
000000d0: 8156 55bd b8a7 7cbe 8373 75bd 859a 903e
000000e0: a10f 403d 0ae7 fb3d cb3f 48be d81f 343e
000000f0: 96a0 b83e 8bfe 7b3e 524c 823e 0a88 913d
00000100: d721 58be 0c4e 7b3e 2451 243e 90a8 8fbe
00000110: d546 c5be e7b5 143d 9870 9cbe c629 54bc
00000120: a9c0 863e da8d b43d a0c3 ecbe 807b a8be
00000130: 948b 433f c29c 42be b8d5 e9be 37ef 49be
00000140: 9124 a63e 9c0c 733e 4685 85be 12f3 9ebe
00000150: 3529 38be 810d f43d 1190 c6bc da1e 09bf
00000160: c5be c4be 2896 143e 59cc 12be 3132 e8be
00000170: 1a0e 873e 6f17 b7bd 5377 12be b875 8f3c
00000180: 3bdc 5c3e 7edf d1ba 72c4 273e 8faf 483f
00000190: aff8 a4be fe09 4dbd 2b05 033c 1920 0e3f
000001a0: d347 43be da8c 02bd edc6 4fbe 3bca 84be
000001b0: f5fd 6fbe 63cc debe 17fd 843c 2652 8c3d
000001c0: c041 4cbe 0846 cabd 5c22 5dbe d947 8dbd
000001d0: f0ff aebd c707 f5be b16d f2bd 2c98 893e
000001e0: a082 afbe 87aa 8dbd 4178 debd 0eef 08be
000001f0: 0431 053e 4da9 15bd d652 db3e fa89 61be
00000200: 0a98 963e c25b 94bd d65a 413e 265a e8be
00000210: 4554 be3c cc33 483e 18fb b5bd cde7 fbbc
00000220: f480 623e a621 233f fd12 043f 940d 333e
00000230: 4b97 bdbe 71ba f03d f019 b53d af8b 1b3f
00000240: a7d9 debe fae1 883e 17b1 32be a4f5 4bbe
00000250: f749 2ebf 8eae 823e 528f b0bd 2e4f 62bd
00000260: 404a 31be 7ccc be3d 2847 f23c 0e79 283e
00000270: f1cb cfbd 2cf6 b9bd bbcb ae3e ebbf e9be
00000280: b801 623e 3cb0 47be 9910 23be d084 84bd
00000290: bb6d 8c3e ff67 58be aaad 2bbf 368a 9d3e
000002a0: abc6 a8bd fa17 953e 24c7 553e 1ebc 42be
000002b0: 099b f5bd 54af 033e b505 313e 4a19 91bd
000002c0: 614f 14bf af42 c6bd 3e3b ba3d 8001 923d
000002d0: 34eb 99bd 0561 583d 78c7 3f3f ab6f b4be
000002e0: 2dc2 d9bc cc0e b3be dfd9 c3be 7d89 653e
000002f0: 2a71 abbe fb2a d53d f4ed 3b3e cf0c 37be
00000300: b3cf 1f3e f7cc 61bf 1a3e babc 361d 9b3d
00000310: 2ce0 1cbe 7ae0 973e a452 ed3d d487 833d
00000320: 773a edbd 6710 c0be b698 033f 914f 58be
00000330: 2f8d 20be 8307 8a3e 2a53 16be 3d57 063f
00000340: df2f 6cbc efe5 19bf 7d78 02bf 9679 873e
00000350: e014 343f bec3 2a3e b4b7 363e 7717 283e
00000360: 184e 693e cc63 cabe d527 0f3e 18c5 4c3e
00000370: 4bff 74be 401e 09be 21af 67bd a2c0 4dbe
00000380: 9562 9dbe be51 0fbd ce3f c33e d0db 85be
00000390: 0f29 46be 4c5c 01bf 31a1 a4be b42e 80be
000003a0: 67d9 17bf 7f4b e13e ff20 0b39 efe2 92be
000003b0: e49f 02be 06a5 59be 7095 4d3e 0fc1 2f3e
000003c0: ae0a bfbe 9a8c 5a3f ab94 4abd a463 343e
000003d0: e622 cd3c d711 553e 1da4 d03c cf8f 1abe
000003e0: af31 0a3b f854 6e3e 4b8b 9a3e 35fd 01be
000003f0: bab2 82be e68e e83e 2b17 8c3e 1d30 313e
0.15882485 0.1584495 0.08944584 0.59654504 -0.4275206 -0.23006128 -0.14505747 0.12131722
-0.072852686 0.25320905 -0.4218899 -0.06507779 -0.14703022 -0.17557229 -0.35513288 -0.52519494
0.5382646 -0.1744593 -0.3640199 -0.21886548 0.05763929 -0.2245769 0.25380507 -0.027418908
-0.5450286 -0.22551411 -0.30775478 -0.36091724 -0.51958245 -0.25660458 0.3597773 0.20308815
-0.1461457 -0.24398544 -0.20675302 0.5003797 0.14892606 0.21167867 -0.20249872 -0.0088536255
0.07958509 -0.10559457 -0.2832519 -0.0686173 0.2793606 0.111664616 -0.16971336 0.07075029
0.2130025 -0.05344842 -0.046734817 0.13953677 -0.05208445 -0.24673355 -0.059924614 0.2824289
0.046889905 0.122999266 -0.19555585 0.17590272 0.36060017 0.24608819 0.25448853 0.071060255
-0.21106659 0.24541491 0.16046578 -0.2805829 -0.38530603 0.036306288 -0.30554652 -0.012949413
0.26318863 0.088161185 -0.46243 -0.32906723 0.76384854 -0.19005111 -0.45670867 -0.1972016
0.32449773 0.23735279 -0.26078242 -0.31044823 -0.17984469 0.11916638 -0.024238618 -0.535627
-0.38426796 0.14510405 -0.14335765 -0.45350793 0.26377946 -0.089400165 -0.14303331 0.017512187
0.21568386 -0.001601204 0.16383532 0.7839288 -0.3222098 -0.050058357 0.007996838 0.5551773
-0.19070368 -0.031872608 -0.20290728 -0.2593554 -0.2343672 -0.4351531 0.016233964 0.06851606
-0.19946957 -0.09876639 -0.21595138 -0.068984695 -0.0854491 -0.47857496 -0.11837328 0.2687391
-0.34279346 -0.06917291 -0.1086278 -0.13372442 0.13006979 -0.03653841 0.42836636 -0.2202529
0.29412872 -0.07244064 0.18882307 -0.45381278 0.023233542 0.19551009 -0.08885783 -0.03075018
0.22119504 0.6372322 0.51591474 0.17485648 -0.3702949 0.11754311 0.08842838 0.60760015
-0.4352543 0.26734906 -0.17450367 -0.19917923 -0.6808161 0.255238 -0.08621086 -0.055251293
-0.1731348 0.09316346 0.029574946 0.16452429 -0.101463206 -0.09080157 0.3413981 -0.45654234
0.22070968 -0.19500822 -0.159243 -0.064706445 0.27427468 -0.21133421 -0.67061865 0.3076951
-0.08241018 0.29119855 0.20876747 -0.19017074 -0.11992461 0.12859851 0.17287333 -0.07084902
-0.5793362 -0.09680688 0.09093331 0.07129192 -0.075155646 0.0528269 0.7491374 -0.35241446
-0.026581848 -0.34972227 -0.3825216 0.22415729 -0.33484775 0.104085885 0.1835249 -0.1787598
0.15606575 -0.88203377 -0.02273469 0.07573931 -0.1531989 0.2966345 0.11588028 0.064223915
-0.11583417 -0.37512514 0.51404893 -0.21124102 -0.15678857 0.26958856 -0.14680162 0.52476865
-0.01441571 -0.60116476 -0.509651 0.2645995 0.7034435 0.16676232 0.17843515 0.16415201
0.22783697 -0.39529264 0.13980038 0.1999706 -0.23925512 -0.13390446 -0.0565635 -0.20093015
-0.30739275 -0.034990065 0.38134617 -0.26144266 -0.193516 -0.5053146 -0.3215423 -0.25035632
-0.59316105 0.4400291 0.00013268365 -0.28688762 -0.12756306 -0.21254358 0.20076537 0.1716349
-0.37312835 0.8537079 -0.049458187 0.17616135 0.025041055 0.20807587 0.02546888 -0.15093921
0.0021086743 0.232746 0.30184397 -0.12694247 -0.25526983 0.45421523 0.27361426 0.1730351

network_body._body_endoder.seq_layers.0.bias f4 [128]
00000000: 35e6 303d acc8 d03c f197 afbc 8469 003d
00000010: 60b2 b33c 019d e33c 65be c63c 2527 ccbb
00000020: 4ec9 c33c ba8e 56bc 0cf6 3cbd 0567 fd3c
00000030: 06f6 553b 06ca 10bd ec07 89bc 18ec 063d
00000040: e1e5 013a 0523 9c3b ab25 113d 17d1 073d
00000050: 8f6a 87bc 0999 eabc cad7 42bd 639d 323d
00000060: 8ee0 2b3c 9b2b 753c 672b 333d 5f72 9abc
00000070: 81d8 28bc 0f90 ff3c 3e5b 133d 836f 02bd
00000080: a8b3 863c e5ff 2abd 5333 c7bb f5ac febc
00000090: d3a6 003c 181e 1e3d bf67 ec3c 93fa 173d
000000a0: 19dd 66bc f590 203d bcc2 4b3c bf5c 16bc
000000b0: 95ef 293d 4450 c23a 4a05 1c3d bac7 4ebd
000000c0: c512 743c eb71 1cbd 88f8 3bbd fbc1 2d3d
000000d0: 33fd a93c 6c5d f03c cc4a 3bbd 5def bb3c
000000e0: e9df 663b 6ed4 053d 1b62 223d 5833 6bba
000000f0: c63a a83c 3118 783c 05df 093d 4436 df3b
00000100: 33f1 e83c 6039 0e3d bc11 8fbd f3f1 f83c
00000110: acfb 223d d9bb 113d 2af7 203d 1baa 34bd
00000120: c91d 1dbd bc3b 1a3d 9cef 243d 9690 55bd
00000130: 7b72 38bd 6771 1fbd a1c4 d9bb 218e 443c
00000140: 905d 1d3d 8979 e83c e9c5 ef3c 3221 03bb
00000150: d6d6 3c3b 04f8 a83c 90bb b6bc 8770 093b
00000160: 9b81 2fbc 99c4 c9bc 7670 cbbb 6f5e 2cbd
00000170: a83b 023d 83b2 773b d631 5fbd d511 773c
00000180: 2876 0d3c e502 263c 04aa 97bb a868 a4bc
00000190: b53f f43c 6ce2 a53c 3af9 21bb 81b1 0a3d
000001a0: 8731 2c3d 9c3a 783c b869 c43c 1b50 3b3d
000001b0: 6440 cf3c 610a 303d 0bc4 e43c f5f2 5ab9
000001c0: 0d47 83ba 86b4 75bd c1a9 4cbd a814 5fbd
000001d0: 13a9 2a3d da10 9f3c 8ded 833c 9840 813b
000001e0: 013f 05bd 4170 933c ecad 58bd b988 3a3d
000001f0: 6446 163c 82cf 1b3d 1537 8bbc dd3b 293d
0.043188293 0.025486313 -0.021434756 0.031350628 0.021935642 0.027784826 0.024260709 -0.0062302523
0.0238997 -0.013095552 -0.046133086 0.030932913 0.0032647862 -0.035348915 -0.01672741 0.03294
0.0004955214 0.004764917 0.035436314 0.033158388 -0.016530303 -0.028637426 -0.047569074 0.043607127
0.01049055 0.01496401 0.043742564 -0.018853365 -0.010305525 0.031196622 0.035975687 -0.031844627
0.016443089 -0.041747946 -0.0060791164 -0.031088332 0.007852274 0.03860292 0.028858064 0.0371042
-0.0140908 0.03920074 0.012436565 -0.009177386 0.04148825 0.0014824946 0.03809098 -0.050483443
0.014897053 -0.03819458 -0.045891315 0.042421322 0.020750618 0.029341422 -0.04572563 0.022941286
0.0035228676 0.03267329 0.039644342 -0.00089721894 0.020535838 0.015142486 0.033659954 0.006811889
0.028435325 0.034722686 -0.069858044 0.030388808 0.039790794 0.035579536 0.039298214 -0.044107538
-0.038358483 0.037654623 0.04026757 -0.05213984 -0.045031052 -0.03892651 -0.0066457544 0.011996777
0.038419306 0.028378265 0.029269176 -0.00200088 0.0028814576 0.020626076 -0.022306234 0.0020971613
-0.010712053 -0.024629878 -0.0062084747 -0.042082246 0.031795174 0.003779561 -0.054490887 0.015079935
0.008634128 0.010132526 -0.0046284217 -0.020069435 0.029815534 0.020249568 -0.00247152 0.033860687
0.04203942 0.015150692 0.023976192 0.04573069 0.025299259 0.042978648 0.027925512 -0.00020880609
-0.0010015682 -0.059986614 -0.049966577 -0.05446306 0.041665148 0.019417215 0.016104484 0.0039444678
-0.03253079 0.017997863 -0.05290024 0.045540545 0.009172056 0.03803969 -0.016994039 0.041316856

network_body._body_endoder.seq_layers.2.weight f4 [128, 128]
00000000: 69f2 d63c dec0 d23d e70d 8abd b34c 103c
00000010: 8ad4 47bd c576 6ebc dcd2 773c 7b74 403e
00000020: 258f 1ebe e64c b93c e193 10bd 1c8b a83c
00000030: 9dad f5bc 3b84 09bd ef4e b3bc 381f 303d
00000040: 74c8 3fbb f119 f0bd 53d6 2f3b e98b 9e3d
00000050: d0f0 5ebe 15fb 9f3c 3717 263d 0496 99bc
00000060: 944f 403d 083d d0bd b850 2bba d626 75bd
00000070: 0f02 143e 767f aebb 7293 8ebd 6656 94bc
00000080: 67ad 063e ea49 4f3d a116 d6bd aad5 a03c
00000090: e054 c2bd 3480 663c 2068 bfbd 0fe6 00be
000000a0: 833c b6bd 0fb1 4bbd f747 95bd aa2c ea3d
000000b0: ce1d f93c dfc7 12bd bba0 1b3d 19d4 623e
000000c0: 03b8 9bbd fe25 5db7 317c 233c 664e 233d
000000d0: 62f2 3cbd 0104 60bd 744a 01bd f9e0 df3c
000000e0: e2c4 95bd 5dc9 9abd a4f7 1a3d cca3 4dbd
000000f0: a16d b6bb d1d8 4c3d 4b91 ecba 4088 95bd
00000100: e9b7 aa3d 5a97 4e3d 289e e43d ba80 0a3e
00000110: b651 b13c 601a 1a3e 0ed5 0b3e 3fe6 a4bd
00000120: 7a30 c9bb 69c9 6e3e 3642 b7bd 8e3c 64bd
00000130: 5018 85bd 6727 5cbd 1258 53bd 9968 1fbd
00000140: 74a1 e13c 6908 013d e930 9d3d fff4 ce3d
00000150: 017c 1d3c 7368 e7bd fa99 b3bb fb2f 6c3d
00000160: 60cb 303d a54a 1c3e 6ebf 73bd 2a84 dcbb
00000170: 2f11 61bd b915 a43c f0ee e43d 4812 ffbd
00000180: 34d2 19be a89a 0a3e 5d26 763d bc9a bdbd
00000190: 09e6 3a3d 0565 53be 1c75 92bc 4863 47b9
000001a0: b619 223d 7388 eabd 2c37 3bbe ad35 d33d
000001b0: 7f06 9cbc 08c3 83bd 038d 1bbe b7e0 82bd
000001c0: 591f 8a3c bc54 b1bd 3092 e13a 8a53 79bd
000001d0: 130b bf3d cb0e cd3d 3aff 6c3d 8b60 25be
000001e0: e266 9f3d fc51 1c3d f091 9abb 5237 4ebe
000001f0: 6a9b 8b3c 6798 53bd 0a14 dfbc d4d4 33be
00000200: 1a16 613d c7ac 15be 0087 833d 17ad 923d
00000210: 9911 55bd 0fa0 20bd 4fad 823b 7607 af3d
00000220: fd4f 853d 1f9a 64bc f458 2dbe f9bf 9c3d
00000230: 49e8 363c f445 81bd f151 21bd c332 813d
00000240: 1127 b7bd 4e36 4fbd f835 193e 8183 0c3e
00000250: 227f f8bd 5dbb e6bd 758c 13be 0f19 e43d
00000260: 25bc 153e cbfd 9abd 290a adbd 7128 a1bd
00000270: a74d 693a 0fbf 65bd 51be c0bd 94e9 2b3c
00000280: f8fc 92bc bbaa 9a3d b5d8 b6bc 8e61 32bb
00000290: be3b aabd 1caa a83c 0551 f23d 6686 50bc
000002a0: 8403 023e 43f0 4d3c a744 a33d 9353 8e3d
000002b0: df47 443d 6ee6 87bd 1523 4dbe 7d3c 83bc
000002c0: 24d0 e3bd a49d 12bd 401c d63d 9e49 3d3d
000002d0: 3078 37be 99dd f2bb b779 c2bd d058 c43d
000002e0: 6dbb aebc 9d54 1f3e e4d3 96bc cd43 bb3d
000002f0: 4216 4b3d 189a c03d e73e cf3d cf06 58bd
00000300: 1da5 263e 732a b63c 47e9 bebc 07bc b13d
00000310: 6c38 043e d4e2 92bd f0b8 293d 23fc 253e
00000320: 651a 26bc e3bd 72bd 1cf1 40bc 03d4 9abc
00000330: efb3 973d c4e3 56be 3be8 aebc f5fc b03d
00000340: c5e1 14be 5500 b23c fd99 18be acf6 0dbd
00000350: 5cac 483a 88b6 80bd 339f 543d ac47 a23d
00000360: 7045 fd3c 0b59 0dbd 6d7a 59bd 4406 37bb
00000370: 801a 55be a52b 0cbe 8ddf 8abd 527a 893c
00000380: 88ec 9abd 5aa4 abbd 2da0 923c b40a 6abd
00000390: d078 bfbd beac 03be c28f e83d 748e bb3c
000003a0: 3b25 ecbd 9bc2 d5bd 1859 59be 92b8 c63c
000003b0: f66d 63bd f506 dbbd 5f9c dfbd ea5b 0fbe
000003c0: 3351 13be 5298 9dbd aeed 17bd 5106 043b
000003d0: 9428 1a3e ef1b e7bb 5958 8ebc 70ca 01be
000003e0: 87d4 ae3d fa54 54bd b6ea 1ebe fec7 8bbd
000003f0: e1a8 1d3d 70d2 18bd 5cf8 64bd e764 a03d
0.026238637 0.10290693 -0.06740933 0.008807349 -0.048786677 -0.014554684 0.015125956 0.18794434
-0.15484293 0.022619676 -0.03529728 0.020574145 -0.029990012 -0.03357337 -0.021888224 0.042998523
-0.0029263766 -0.11723698 0.0026830628 0.077415295 -0.2177155 0.019528905 0.040549483 -0.01874829
0.04695089 -0.10167891 -0.00065351604 -0.05985149 0.1445391 -0.005325253 -0.06961717 -0.018107604
0.13152085 0.0506076 -0.10453535 0.019633133 -0.09488845 0.014068652 -0.09346032 -0.1258776
-0.088982604 -0.049729403 -0.07289117 0.114343 0.03040972 -0.035835143 0.03799508 0.22151221
-0.07603457 -1.3181472e-05 0.00997834 0.03986969 -0.04612959 -0.05469132 -0.031565145 0.027328955
-0.07312943 -0.07557938 0.037833825 -0.050205037 -0.005567268 0.05001146 -0.0018048672 -0.07301378
0.08335859 0.05043731 0.111629784 0.13525668 0.021645408 0.15049124 0.13655493 -0.080517285
-0.006139812 0.2331902 -0.089481756 -0.055721812 -0.06498778 -0.053748515 -0.051597662 -0.03891811
0.027542807 0.03150216 0.076753445 0.10105323 0.009612084 -0.11299219 -0.005481002 0.057662945
0.043162704 0.1526285 -0.059508733 -0.0067296224 -0.05494803 0.02002989 0.11178386 -0.12454659
-0.15021592 0.13535559 0.06009518 -0.09258029 0.045629535 -0.20644005 -0.017878108 -0.00019015104
0.0395753 -0.11451807 -0.18282765 0.10312972 -0.019046066 -0.06433684 -0.1519051 -0.06390517
0.01686065 -0.0865874 0.0017209705 -0.060870685 0.09328284 0.10012587 0.05786059 -0.1615011
0.07783295 0.038164124 -0.004717104 -0.2013829 0.01704188 -0.051659014 -0.027231235 -0.17561656
0.05495272 -0.1461669 0.064222336 0.071619205 -0.052018736 -0.039215144 0.003987945 0.08546345
0.06509397 -0.013952761 -0.16928464 0.076538034 0.01116378 -0.063121706 -0.039384786 0.0630851
-0.08942998 -0.0505889 0.14961994 0.1372204 -0.12133624 -0.112662055 -0.14409049 0.11137592
0.14622553 -0.075679384 -0.084492035 -0.07869042 0.0008899816 -0.05609041 -0.094113 0.010492701
-0.01794289 0.075520955 -0.02232013 -0.0027218792 -0.08312176 0.020588927 0.118318595 -0.012727356
0.12696654 0.01256949 0.07972079 0.06949534 0.047920104 -0.06635748 -0.20032914 -0.016020054
-0.11123684 -0.03579487 0.10454607 0.046212785 -0.17916942 -0.0074116704 -0.094958715 0.09587252
-0.021329606 0.15559621 -0.018411584 0.09143791 0.049581774 0.09404391 0.101194195 -0.05274087
0.16273923 0.022237038 -0.023304595 0.086784415 0.12912148 -0.0717217 0.041436136 0.16209464
-0.010138129 -0.05926312 -0.011776235 -0.018899923 0.074073665 -0.20985323 -0.02135097 0.08641998
-0.14539249 0.021728674 -0.14902492 -0.034659073 0.0007655078 -0.06284815 0.051909637 0.079238266
0.0309169 -0.034508746 -0.05309527 -0.0027927319 -0.2081089 -0.13688524 -0.0678092 0.01678196
-0.07564646 -0.08380957 0.017898643 -0.057139114 -0.09349215 -0.12858865 0.113555446 0.022895075
-0.11530539 -0.10437509 -0.21225393 0.024257932 -0.05552479 -0.10694686 -0.10918497 -0.13999906
-0.14386444 -0.076950684 -0.037091903 0.0020145366 0.15054542 -0.0070528905 -0.017376112 -0.1267488
0.0853663 -0.051838852 -0.15519223 -0.06825255 0.038491134 -0.037310064 -0.055900916 0.078317456

network_body._body_endoder.seq_layers.2.bias f4 [128]
00000000: 6947 223c 96c1 193c 2252 debc 6ba1 6c3c
00000010: 0964 c23c d557 e03b f1f9 d0b8 e922 bbbc
00000020: 031c bcbc bbb6 e53c 3399 773b 030d fdbc
00000030: 84cf 113d 64e1 0dbd 7f65 b33c 0f7c 173d
00000040: c17a 283d 5f83 2dbd 22da a33c 72a2 2e3c
00000050: 2c22 c0bb ef8a e2bc 461e c33c 6ef0 e8ba
00000060: 632f 22bd 54a7 003d a4f8 d43c 1c51 a9bc
00000070: 794c 7c3a edc8 a93c fd87 263d 172e b6bc
00000080: 4d18 0cbd 07b2 dd3c 8bb9 213c a89d f33c
00000090: 2f7c b63c 74ba 363a a7c4 d83c e087 fdbc
000000a0: 08c5 5d3b 7e23 12bc 7dc1 88bc ba1a 0fbd
000000b0: b92b d5bc 06b0 a63c c261 bdbb aec0 2bbd
000000c0: 4a1c 443c 45d3 7d3c c43f 0cbd 0c0c 8c3c
000000d0: 547c 453d e811 c7bc b38d fdbc b1af a03c
000000e0: 3377 a6bc 8f38 8f3c 4970 ae3c 95b4 1b3c
000000f0: 8644 ff3c 035a 063d 231c 513c 5e08 e2bb
00000100: c81f 093d 0f5f 033d f771 cc3b f91c 1d3c
00000110: daeb 153d 6e06 95bc 5cdf bdbc 40d4 f93c
00000120: dcf5 5dbc 2cb1 84bb 3498 4a3d d770 ed3c
00000130: 9811 173d 0820 423c 1136 0f3d f709 0b3d
00000140: dc6c 173d a441 dc3c 5ca0 0e3c a635 f13c
00000150: 963a 5f3c 522e a93b 0cee d53c 84f8 a53c
00000160: f5f7 4bbb 15d9 de3c 8a0d 113d 9f29 1a3c
00000170: c558 26bc ab70 d83c 5b63 0bbd a996 1f3d
00000180: f8aa 953c 5266 8e3b 38af b73c 6237 a33c
00000190: c13e a23b e5fe 3a3c 7135 d33c 27f9 d83c
000001a0: 5dce 5a3d caad 2c3c 2fb4 143d 6716 e33c
000001b0: efcc 8bbc 3fc5 de3c 9874 15bd bef6 2b3c
000001c0: 4032 12bd d9ea 6cbc bc97 203d f015 003d
000001d0: 76c3 cf3c 21ba a8bc 2701 623c c8a7 a53c
000001e0: dc04 8c3c 6b42 0fbd 11a4 a13c 4d59 fa3c
000001f0: 4f00 f2bc c721 a13c 9b15 863c d1a6 2bbc
0.009904721 0.009384533 -0.027138773 0.014442782 0.023729341 0.006846408 -9.964768e-05 -0.022843795
-0.022962576 0.028041234 0.0037780523 -0.030889994 0.035598293 -0.034638777 0.021898983 0.036983546
0.041132692 -0.042361613 0.020001475 0.010658847 -0.0058634486 -0.02765414 0.023818146 -0.0017771849
-0.039595973 0.031409577 0.025997467 -0.020668559 0.00096244324 0.020725692 0.040657032 -0.022238774
-0.034202863 0.02706243 0.009870897 0.029738262 0.022276012 0.00069705327 0.026460959 -0.03094858
0.0033839364 -0.008919595 -0.016693825 -0.034937598 -0.026021825 0.020347606 -0.005779476 -0.0419318
0.011969635 0.015492265 -0.0342405 0.017095588 0.04821427 -0.02430053 -0.030951357 0.019615026
-0.02032051 0.017483024 0.021293776 0.009503503 0.031160604 0.032800686 0.012763056 -0.00689797
0.033477575 0.032073077 0.0062391716 0.009589427 0.03660188 -0.018191542 -0.023177795 0.030496716
-0.013547387 -0.004049441 0.04946156 0.02898447 0.036882013 0.011848457 0.03496367 0.03394505
0.03696905 0.026886769 0.008705225 0.029444527 0.013624808 0.0051629925 0.026114486 0.020260103
-0.0031123136 0.027203122 0.035413302 0.009409337 -0.010153 0.026420912 -0.0340303 0.03896204
0.01827 0.0043456936 0.022422418 0.01992387 0.0049513285 0.011413311 0.025782319 0.026485993
0.05341946 0.010539481 0.03630465 0.027720643 -0.017065493 0.027193664 -0.036488146 0.01049584
-0.035692453 -0.014460289 0.039207205 0.03127092 0.025361758 -0.020596566 0.01379422 0.020221606
0.01709216 -0.03497545 0.019731553 0.03056016 -0.029541163 0.019669427 0.016367724 -0.010476784

network_body._body_endoder.seq_layers.4.weight f4 [128, 128]
00000000: 1a87 113e 4fb3 4bbd 6ee7 043d 5da6 173d
00000010: 7f8c abbd e381 07be 4a4b 343d 7383 083d
00000020: 288b 283d 7b33 343d 466e 883d 074d d2bc
00000030: be8c 0e3d e3ba b3bd 08c7 afbd e314 253d
00000040: dc12 a3bd c026 083e c250 b63d 9a28 0bbe
00000050: ac2f 16be a77a 41bd 7acf a7bd 757c 0e3e
00000060: 45d8 113d bf53 19bd e4eb dcbd 6abf d13d
00000070: 5251 223e 8e91 85bd f6de 1cbe 9f79 753e
00000080: b60b da3d b087 9a3c 2961 b2bd d388 65be
00000090: a51b c33d bfcf f13d 069b 22bd 4871 9a3c
000000a0: 96e2 bdbb 400c f53c 7af3 8cbd 24b1 cb3d
000000b0: 1315 013e 9094 d9bd da65 383e 982b 9b3d
000000c0: e7a5 27bb e5af 52bd 7a3f 9e3d 4e34 883d
000000d0: 7a1d 10be 77ce 383e 0f9d e0b9 cd35 573d
000000e0: 66db 68bd 6c16 a53d dd82 37be 21c7 2c3c
000000f0: 1767 f93c f9fa 0bbe a775 5ebd a26c 083e
00000100: 2c4f 3ebe 74e7 dc3d 4ffe f33c 2f88 bcbd
00000110: da01 02be 4fd6 4bbd 2041 1cbd 8192 1abe
00000120: 76a4 0b3d 9732 b63d d90c c2bd 3709 28bb
00000130: a1ec 6fbd db9b 7bbd 3128 9abd e632 05be
00000140: 2578 aabd 6364 223e 57a3 033e 9a92 75bb
00000150: d4d8 a53d 7c8d 1b3e 3104 babc 91b9 c6bd
00000160: c499 073d 2c98 873c ba93 513e feb6 03be
00000170: d6e6 debc 9b8a b23d 9ac4 44bd aabb 883c
00000180: 119d a0bd 3a22 9abd 71b1 91b9 180e 963d
00000190: 3b84 04bd 4c9e 14bd bd2a d9bd 4340 4e3d
000001a0: d031 323e b057 133d 40ec 3b3d 1419 1cbe
000001b0: faf6 e83d 33e9 48bd 5dc7 943d a80c c8bd
000001c0: de30 963d ca4a 01bd ac63 1bbe 1f42 8abd
000001d0: a5a1 8abd 9194 31bd 1c71 34b9 6d83 59be
000001e0: f2a2 a63a 0ad2 b63d 3127 bcbc 367c c93d
000001f0: 0ad5 5cbc 6fb3 ca3d 9ed6 a8bd 2716 243e
00000200: bcf0 b5bd 2564 37be c45c debd 30f2 e8bc
00000210: 4c63 e2bc 6a3c 7a3d cc72 c83d 4cd8 d33d
00000220: 50ee 133d 2b95 683d 4dea b8bc 1d7b 0c3c
00000230: 932b 2f3d 32c3 c9bd 5b24 b83c 8fde b13c
00000240: 366a 633c 9490 01bb f296 07be f0a6 a33c
00000250: 2686 4dbd 3f74 05be decd 4a3e 9db8 eb3d
00000260: ff28 b73d 1ce4 f23c e533 f13d c8e4 923c
00000270: 2b5f a8bd 75c6 f13c 3b9d 503d 53bf 433d
00000280: 38f0 c0bd de8c ea3d aceb be3d a325 f2bc
00000290: 0600 0fbc 935c 8cbd bb6f 613d 7a05 d8bd
000002a0: 5612 4bbd bb8d c1bd 2eb0 49bd c4f5 f3bd
000002b0: ef12 b1bc bf2c da3d 2ceb 0fbe 703f 85bd
000002c0: 2032 923d 43f7 06be aafa 483e dedb bebd
000002d0: 23e4 62be 9ced 4a3d 633a c73d 7a6b 06bd
000002e0: 94ae 2e3d 33a6 803d 3dea b93c b82b bebd
000002f0: 7352 8b3e 89be af3d 05b1 7b3d b23d 453e
00000300: f043 2c3e 7632 833c 8d54 ce3d 7aaf 5bbc
00000310: 368d c53b 81f0 b4bd e7c5 8e3b 0450 c1bd
00000320: 0b18 e23c 3ba9 ebbd c22c 19bd 1881 383c
00000330: 1a90 cd3d a706 9b3d e75a 98be 0460 46bd
00000340: 7487 743d 98c9 673d 151f 92bd 1da9 423e
00000350: 7cd1 9d3d 4a15 53bd b71d 89bd 30cb 943d
00000360: 184e d33c 4240 843d 6eae f03d 511e 1e3e
00000370: 2834 cf3d c81d 143e e651 c9bd 3f79 f53b
00000380: f55f fcbd 487d 4fbc 8e90 51bd 7910 89bd
00000390: 82f3 9d3d 11a7 bb3d 1004 3bbe 5240 9c3b
000003a0: 8136 1dbd e11f 01bd 6904 63bd 4041 31bd
000003b0: db17 0bbe 0f43 31bd f0fe 6b3d 90de be3d
000003c0: bfd0 aebc 0a16 bfbd c036 5e3c a8eb 1ebe
000003d0: 8833 12be 4889 36bd c962 4cbd 3de2 8b3d
000003e0: 9a73 253e 85d0 3f3d 4e72 2b3a d6e5 2e3c
000003f0: 2e16 a73c f676 6fbd 0568 853c a129 e73d
0.14211693 -0.04973155 0.03244727 0.03702389 -0.08376407 -0.13233142 0.044017114 0.033328485
0.041148335 0.043994408 0.06661658 -0.025671495 0.03480219 -0.0877588 -0.08582884 0.040303122
-0.079625815 0.13296032 0.08902122 -0.13589707 -0.14666623 -0.04723611 -0.0819387 0.13914664
0.03560664 -0.037433382 -0.1078718 0.102415875 0.15851334 -0.06521903 -0.15319428 0.23972176
0.10646765 0.018863529 -0.08709938 -0.22415476 0.09526757 0.118072025 -0.039698623 0.018852845
-0.0057948334 0.029913068 -0.06882377 0.09945896 0.12605695 -0.10624039 0.18007603 0.07576674
-0.0025581063 -0.051437277 0.07726951 0.06650601 -0.14073744 0.1804751 -0.00042841627 0.052541543
-0.05684986 0.08060917 -0.17921014 0.010545523 0.030444665 -0.13669957 -0.05431142 0.1332269
-0.18584889 0.10786334 0.02978435 -0.092056625 -0.12696019 -0.049764927 -0.038148046 -0.1509495
0.03409239 0.08896368 -0.09475107 -0.0025640258 -0.058575276 -0.061427932 -0.07527197 -0.13007697
-0.08323697 0.15858607 0.12855278 -0.0037471415 0.08097997 0.15190691 -0.022707077 -0.09703363
0.033105627 0.016552053 0.2046651 -0.12862775 -0.02720968 0.08717843 -0.048039056 0.016691048
-0.07842458 -0.075260594 -0.0002778876 0.07326907 -0.032352667 -0.036283776 -0.10603855 0.050354254
0.17401814 0.035972297 0.045879602 -0.15243942 0.11375232 -0.04905052 0.07264588 -0.09768039
0.073335394 -0.031565465 -0.1517474 -0.06750893 -0.067691125 -0.043354575 -0.00017208274 -0.21241541
0.0012713356 0.089267805 -0.022967907 0.098381445 -0.013478527 0.098975055 -0.0824406 0.16024075
-0.08883807 -0.17909296 -0.108575374 -0.028435796 -0.027635239 0.06109277 0.09787521 0.1034399
0.036115944 0.056782883 -0.02257266 0.008574274 0.042766165 -0.09851684 0.022478273 0.02171257
0.013880303 -0.0019770013 -0.13241175 0.019977063 -0.050176762 -0.13032626 0.19805095 0.115098216
0.08943366 0.029649787 0.11777476 0.017931357 -0.08221277 0.029513577 0.050931197 0.047789883
-0.09420818 0.114526495 0.093222946 -0.029558962 -0.008728033 -0.06853595 0.055038195 -0.105479196
-0.049578033 -0.09450861 -0.049240284 -0.119121104 -0.021615474 0.10653066 -0.14054555 -0.0650624
0.07138467 -0.1318026 0.19626871 -0.0931928 -0.2215734 0.04954301 0.09727933 -0.03281734
0.04264696 0.062817 0.022694701 -0.092856824 0.2721134 0.085812636 0.061448116 0.19261816
0.16822791 0.016015273 0.100747205 -0.013408536 0.0060287965 -0.08834935 0.004357088 -0.0943909
0.027599355 -0.115068875 -0.0373962 0.011261247 0.10037251 0.07569628 -0.29756853 -0.04843141
0.05969949 0.05658874 -0.07134835 0.19009824 0.077059716 -0.051533975 -0.06695121 0.072653174
0.025794074 0.06457569 0.1175202 0.15441252 0.1011737 0.14464486 -0.09830074 0.0074912603
-0.1232299 -0.012664147 -0.05116325 -0.06692595 0.07712461 0.09162725 -0.18263268 0.0047684098
-0.038382057 -0.031524543 -0.055424128 -0.043275118 -0.13583319 -0.043276843 0.057616174 0.09319794
-0.021339772 -0.093303755 0.013562858 -0.15519583 -0.1427747 -0.044564515 -0.049898896 0.06830261
0.1615738 0.04682972 0.0006540165 0.010674914 0.020396318 -0.05846306 0.016284952 0.11287237

network_body._body_endoder.seq_layers.4.bias f4 [128]
00000000: bf0c cbbc c47a 4c3c 3e04 2f3b 685f 823c
00000010: bb5c 8a3c 78e4 903c f468 d5bc 6585 643c
00000020: 7476 a43c 3bd1 7f3c bd6f a63c 7ddf f03b
00000030: b5d1 7bbb 4b43 893c 0003 9cbc 2a67 af3b
00000040: de57 3d3c 5ca2 d43c cd36 963c 8704 933c
00000050: 3bde ca3c 5715 9bbb 525c 88bc c2b5 a6bb
00000060: 2b64 f03c a245 c4bc 7c10 573c 066d b03c
00000070: f944 dabc 4de1 8e3c 5c03 3abc 4fba ca3c
00000080: 8454 2f3c e4e4 b4bc fcd5 6abc 7e8a 13bc
00000090: 4c0e a73c 5c60 5e3c 1d7f a93c e153 86bc
000000a0: d1c4 933c 2ebd 013d 32e9 543c c282 98bb
000000b0: 162b 60bc 24ce debc 0061 5b3c e3da b03c
000000c0: 424d 1a3c 1b6c c43c 3bf7 81bc 25da b83c
000000d0: aa97 57bc 52e4 ca3c d38e 18bc abe8 2abc
000000e0: 2456 4e3b cd32 ed3c cc56 d03c 2595 73bb
000000f0: bcbb 47bc f353 6bbb 3871 c63c 2388 853c
00000100: 19de 5f3a c852 8cbc 0258 d73c 1d2a 83bc
00000110: 4238 b33c 6ee4 aa3c 08f1 fd3c 88a7 883c
00000120: 1132 5dbc d960 97bc 1d9c 713c 5734 0b3d
00000130: 220a d7bc 4497 80bc 0ef8 a53c 040d c8bc
00000140: 0e59 943c a8b4 5a3c 8b65 d33c 9c01 c13b
00000150: 0a05 d03a c96e 2cbc feeb 913c 4330 88bc
00000160: 8cae 8a3c 57fa 653c faa4 023d da5d 57bc
00000170: 4358 9d3c d1bb 9cbc 4720 063d 8043 9a3b
00000180: c217 c33c cd54 5f3c 4542 fc3c bbbf bd3c
00000190: 3410 973c d344 a13c 3e79 053c 160f 423c
000001a0: 9a3a 833c 1d43 313c bf78 c0bb 33eb 1a3c
000001b0: 92fb 043c e7d1 c8bc 613a a6bc 8cff c0bc
000001c0: 5230 f13c afdd 1b3d e2c6 d0bc c012 223c
000001d0: c056 423c bc97 763c 43ba 6fbc 8d7c 533c
000001e0: e063 c83c cf92 d73c d401 4b3b de0d 6f3c
000001f0: daf7 603c e383 233b b86f 823c ac97 913c
-0.024786351 0.0124804415 0.002670541 0.015914634 0.01688992 0.017687067 -0.026051022 0.013947819
0.020076014 0.015613849 0.020316953 0.0073508606 -0.0038424556 0.01675572 -0.0190444 0.0053528743
0.011556594 0.025956325 0.018336678 0.017946495 0.02476417 -0.0047327685 -0.016645584 -0.005087585
0.029344639 -0.023958985 0.013126489 0.021536361 -0.026644217 0.017441416 -0.01135334 0.024747042
0.010701302 -0.0220818 -0.014333244 -0.009005187 0.02039256 0.013572779 0.020690495 -0.016397418
0.018038185 0.031674556 0.012995051 -0.0046542594 -0.0136821475 -0.027197905 0.013389826 0.021588748
0.009417834 0.02397733 -0.015864959 0.022564957 -0.013158718 0.024767075 -0.009311396 -0.010431449
0.003148445 0.028954888 0.025432013 -0.0037167754 -0.012190755 -0.0035908192 0.024223909 0.016300267
0.000853987 -0.017129317 0.026287083 -0.016011292 0.021877412 0.020860877 0.030998722 0.016681448
-0.013500706 -0.018478798 0.014746693 0.033985462 -0.026249949 -0.01569713 0.020259883 -0.024420269
0.01810887 0.013348736 0.025805255 0.0058900844 0.0015870642 -0.01052446 0.017812725 -0.016624575
0.016928934 0.014036736 0.031895615 -0.013144935 0.019207126 -0.019132527 0.032745626 0.0047077537
0.02381504 0.013631058 0.030793319 0.023162713 0.018440343 0.019686138 0.008146582 0.011844417
0.016019154 0.010819224 -0.005873769 0.00945549 0.00811662 -0.024514152 -0.02029151 -0.023559354
0.029441986 0.03805321 -0.02548546 0.009892166 0.011861503 0.015050825 -0.014631811 0.012908113
0.024461687 0.026315121 0.0030976431 0.014590709 0.013730967 0.0024950437 0.015922412 0.017772518

action_model._discrete_distribution.branches.0.weight f4 [25, 128]
00000000: f05b 9d3c 8cf0 55bc b095 093c e440 9c3c
00000010: 9b3f 9ebc 3e1d 373d e3f9 2f3c aac9 053d
00000020: af43 01bc 8bcb 393d 37f1 fa3b bb3a e4bb
00000030: 79cd e63b 1681 c9bc 4f49 803b df36 bc3b
00000040: c98f 83bb 4f57 38bd 66c3 e6bc c372 b2bc
00000050: 04aa c1bc e028 5bbc c45d 80ba cbe2 d03c
00000060: e261 e2bc 5e78 8d3c 59c3 83bc 737b 3b3c
00000070: f7cc 493c 90a1 44bc f4e7 103c e4df a93c
00000080: 6e7f b6bb a110 993c 36bd 963c cbc3 14bc
00000090: bfc8 2ebc 51e9 c33c cf2a 523b 9e15 2f3c
000000a0: c2a7 9bbc 44c7 20bd eac1 863c 1f4f 803c
000000b0: c424 5a3c 47b6 d53c 4b20 b4bc 2e0e 83bb
000000c0: 1dec d4bc 6f7d 3c3d 6862 f9bb aa70 f6bc
000000d0: ac40 723c 5f4a 3d3c a498 323c aabe 383c
000000e0: e374 e2bb f2c6 29bd dbe2 e9bc c48d abbc
000000f0: a961 8d3c 4635 763c ea47 eabc 5f2e 19bd
00000100: fca0 a8bb 6c31 1f3c d368 863d f022 6e3c
00000110: 71cf 553d cd75 dfbc a415 f7bc 547c 4f3d
00000120: b027 633c 5834 e93b 80f8 bdbb bbd4 3b3c
00000130: 4ba2 883c 8e8b f63c bff3 0dbd cd6a cabb
00000140: f2ea 653c deb1 683c e0cd 01bd 26de 353c
00000150: 2fed c0bc 8193 953c b17b 96bc 2353 9abc
00000160: 58ac 64bc aa33 feba a705 f43c 1eac 533c
00000170: aecb 8e3b 6388 07bb b911 2dbd 06e3 883a
00000180: 202b 0bbd 529b aebc e034 943c 2235 6d3d
00000190: 8efd 8dbc 997a 1fbc 9241 3c3d e263 b9ba
000001a0: 047b adbc 473d 91ba 363c 7bbc dcec 183c
000001b0: 8597 dfbb 55dc 7f3c ae00 9f3c 8539 883c
000001c0: cd97 f03c 6897 3dbd 7d5d 843c bab2 debc
000001d0: 1df7 55bc 6c23 b43c 3677 843c 2122 08bc
000001e0: b37f c1bc f79c 203d 23b3 75bc 3273 0b3a
000001f0: 9299 c03c 46e9 7bbb 4335 74bc 7a13 60bc
00000200: 0b3d 133c e073 a9bc deef af3c 2fe5 963b
00000210: 02ab f4bc 5774 e83c 4bef 993b d7db 1e3d
00000220: 163c 8ebc df40 f13c d5d1 3b3c 7bf9 283c
00000230: 9b0b 153b 85f1 d4bb 781f 853c 227e 7ebc
00000240: 999d 69bb 242a 41bd 8560 b1bc 5199 20bd
00000250: 4855 64bd 7255 91bb c39d 833b 26b8 83bc
00000260: 49a1 76bd a83f 163d 2460 11bd 8ad9 593c
00000270: 2c39 9ab9 c155 bebb 0dc2 093c 47e4 033d
00000280: 67ea 8b3c 735c 45bb 6f47 193c b501 48bc
00000290: 7192 78bb 7bd7 c23b a249 873c 6c25 493b
000002a0: c54d dcbc f928 2abd b035 b03c fff0 1b3c
000002b0: e74f 833c e545 cb3c df54 29bd 0f8f 843c
000002c0: 77c4 3c3b 6d3c 433d eaa6 723b 1dc8 cabc
000002d0: e8d6 8b3c 0d42 ae3c 6525 643c 345a 6cbb
000002e0: c44e 8ebc 56af 69bd 41ba ccbc a2f2 96bb
000002f0: 8514 b93c 12f0 3e3c 356f 44bd f74a 54bd
00000300: f9fd b1bc 22a0 443c decb 0a3d 0b41 82bb
00000310: cf28 3c3d 395e a3bc f1a4 c2bc b5b2 433d
00000320: 49d0 24bc 7fde 883c ecae 083c bc47 f93c
00000330: 21c8 3b3c 0e76 4a3c 1aa6 57bd 2a83 383c
00000340: 975a df3b e520 94ba 4a6b 85bc 03ee 833c
00000350: 02e2 10bd 3369 853c 4012 b7bc fc94 99bb
00000360: 67bb b8bb 8aa2 c83b e30b 173d 92a1 c33c
00000370: bfdf 593b 7cee e5ba 88d9 81bd d8be a6bc
00000380: 66fa 3abd 613b 95bc 71e5 de3c 8f13 433d
00000390: ddc3 67bd a727 8d3b 2934 c73c 6108 133b
000003a0: 2d72 90bc 1885 543b 92ce 94bb 34a1 8fbb
000003b0: e9cd 3d3b 32a4 553b 1325 1f3c 97d4 1b3c
000003c0: fe40 d83c e0ec 79bd 6335 503b bff8 49bc
000003d0: 640e 6bb9 dff2 8c3c 1c36 393b 125b 54bc
000003e0: 379a f8bc f11a aa3c 38e4 f2bb d4d9 78bc
000003f0: 0d10 ad3c 438a a2bc 840f 18bd 4758 95bc
0.019208878 -0.013057839 0.008397505 0.019073911 -0.019317439 0.044705622 0.01074073 0.032663025
-0.007889672 0.04536013 0.0076581496 -0.006965009 0.007043537 -0.024597686 0.003914989 0.005743846
-0.0040149433 -0.04500514 -0.028169345 -0.021783238 -0.02364064 -0.013376445 -0.0009793569 0.025498768
-0.027634565 0.01726931 -0.01608436 0.011443007 0.012316934 -0.01200141 0.008844364 0.020736642
-0.00556939 0.018684687 0.01840077 -0.009079884 -0.010667979 0.023914965 0.0032068973 0.010686306
-0.019000892 -0.039252535 0.016449887 0.015662728 0.01331443 0.026087893 -0.021988055 -0.003999493
-0.025991494 0.04601806 -0.007610608 -0.03008302 0.014785927 0.011553376 0.01090065 0.011275927
-0.0069109066 -0.041449495 -0.028550556 -0.020941623 0.017258482 0.01502735 -0.028598744 -0.03739774
-0.005146144 0.009716373 0.065629624 0.014534697 0.052199785 -0.027277851 -0.030161686 0.050655678
0.013864443 0.0071168356 -0.005797446 0.011464293 0.01667895 0.030095842 -0.034656283 -0.0061772824
0.014033066 0.014202563 -0.03169048 0.011100328 -0.023550598 0.018258812 -0.018369528 -0.01883847
-0.013957106 -0.0019394059 0.029787851 0.012919454 0.0043577766 -0.0020680658 -0.04225323 0.0010443635
-0.033976674 -0.021314297 0.018091619 0.057912 -0.017332818 -0.009733819 0.04596097 -0.0014144147
-0.021176822 -0.0011080884 -0.01533418 0.009333815 -0.0068234825 0.015616496 0.019409504 0.01662899
0.02936926 -0.04628697 0.01615786 -0.027184833 -0.013059405 0.021989547 0.016170125 -0.008308918
-0.023620462 0.039212193 -0.014996323 0.00053195946 0.023510728 -0.0038438602 -0.014905277 -0.013676519
0.008986722 -0.020685136 0.021476682 0.0046049575 -0.0298667 0.028375788 0.0046977154 0.038783874
-0.017362636 0.029449878 0.011463602 0.010313387 0.0022742513 -0.006498518 0.016250357 -0.015533002
-0.0035646914 -0.04715933 -0.02165247 -0.039208714 -0.055745393 -0.0044352347 0.0040166094 -0.01607902
-0.060212407 0.0366818 -0.035492077 0.013296494 -0.00029415765 -0.0058085625 0.008408082 0.032200124
0.017079545 -0.0030114918 0.00935541 -0.012207438 -0.0037929083 0.0059460974 0.016514603 0.0030692471
-0.026892552 -0.04154298 0.021509975 0.009517907 0.016029311 0.024813602 -0.041340705 0.016181497
0.0028803626 0.04766505 0.0037025758 -0.024753625 0.017070249 0.02127173 0.013924931 -0.0036064507
-0.017371543 -0.05705198 -0.024991157 -0.004606561 0.022592792 0.011653917 -0.047957618 -0.051829305
-0.021727549 0.012001069 0.03388583 -0.003975039 0.045937356 -0.01994239 -0.02376029 0.04777785
-0.010059425 0.016707657 0.008342486 0.030429713 0.011461289 0.012357248 -0.05264864 0.011261741
0.006816219 -0.0011301307 -0.016286511 0.016104704 -0.035371788 0.016285514 -0.02234757 -0.00468695
-0.0056375745 0.006122892 0.03687657 0.023880754 0.0033244935 -0.0017542387 -0.06340319 -0.020354673
-0.045648955 -0.01821679 0.027209016 0.047626074 -0.056583274 0.0043077054 0.024316864 0.0022435414
-0.017632568 0.0032427963 -0.0045412267 -0.0043832306 0.0028961843 0.0032599089 0.009713429 0.009511135
0.026398178 -0.061016917 0.0031770102 -0.012327372 -0.00022416707 0.017205654 0.0028261011 -0.012961166
-0.030346973 0.0207648 -0.0074124597 -0.015188653 0.021125818 -0.019841319 -0.03712417 -0.01823057

action_model._discrete_distribution.branches.0.bias f4 [25]
00000000: 6a1b 2bbc dd2a 11bc 0c35 e73b b111 073c
00000010: 17bc 173c 8604 41bc 1b88 1cba cea8 90bb
00000020: 659d f43a 7854 443c 3a31 83bc 1783 903c
00000030: 833a c43b 7797 b5bb f40c 073c b79d 8cbc
00000040: d123 f4bb 147c e23b 3cd4 313a c5af 413b
00000050: 8ee6 64bc e4bf c3bb 89a4 b93a e929 3a3c
00000060: 5046 273c
-0.010443548 -0.008860317 0.007055884 0.008243964 0.009261153 -0.011780864 -0.0005971209 -0.0044146543
0.001866263 0.01198303 -0.016014684 0.017640634 0.0059884205 -0.0055417377 0.008242834 -0.017165048
-0.0074505587 0.006911764 0.00067836395 0.002955423 -0.013970984 -0.005973803 0.0014163415 0.011362531
0.010209635
