Assets/Env5/Brains/MoveToBridge.onnx (onnx, 154966 bytes, 8 tensors)

network_body._body_endoder.seq_layers.0.weight f4 [128, 12]
0.22340405 0.1717205 -0.59999216 0.44006017 -0.44668522 0.42760354 -0.46567193 0.14281808
-0.09667779 -0.33238325 0.78325874 0.36189023 0.077446654 -0.09080449 0.47438905 0.4893188
0.11072428 0.00069770415 -0.5095771 0.07038152 0.24448548 -0.5453268 0.030365985 -0.47305787
-0.48972043 -0.14282908 -0.28177112 0.02795514 0.020599684 -0.3349204 0.2882394 -0.7420079
0.49878648 0.04032256 0.47862136 0.090528555 -0.18184176 0.6773548 0.4541637 -0.23199737
0.005979387 0.20380142 -0.39791915 0.18641026 -0.34310076 0.01610497 -0.1290327 -0.5199403
-0.20531082 -0.39395776 0.3077014 -0.22866695 0.08581248 0.40587974 -0.39800665 -0.10218437
-0.026028134 0.4418196 -0.33689106 -0.4907453 -0.09370129 0.24580394 -0.25433302 -0.34510812
0.12049816 -0.04649263 0.07839654 0.31919298 0.07304849 0.5298382 -0.49084914 0.35459715
-0.105275355 0.45286056 0.31977728 0.23028345 0.034802333 0.5421605 0.0019837955 -0.1996767
0.7620732 0.35016742 0.20772898 0.44527975 0.37233827 -0.029825976 0.22826356 0.015926104
-0.5160006 -0.22487731 0.36229056 -0.05165373 0.12251522 0.20320971 0.6895896 0.04852835
0.09447267 0.085616775 -0.66376424 0.16496594 0.30596155 -0.23918074 -0.3282611 0.14154476
-0.14182888 -0.28548717 -0.48341644 0.19158785 0.2163851 0.018961063 -0.14115393 -0.39567962
-0.11978148 -0.16774167 0.44750297 -0.17757781 -0.06928242 -0.13659534 0.4389402 -0.28649205
0.36519507 0.4614644 0.39614502 -0.20719549 0.18192703 -0.10182521 -0.25592706 0.4032006
-0.57544494 -0.09860397 -0.34105703 -0.18134122 0.25123918 -0.26532665 0.35835296 -0.14300193
0.117082186 0.30519673 -0.2878049 0.25987056 -0.43289024 0.12925555 0.110995226 0.21909635
0.083696865 -0.0638043 -0.17986172 0.19110116 0.0045066206 -0.4803989 0.25998425 -0.36034027
-0.6254002 0.14514038 0.2915637 0.48189476 0.116557404 0.30294558 0.6519985 0.361951
-0.010443511 0.49083373 -0.16741759 -0.05210032 -0.1535792 -0.03360014 -0.5789692 0.14888768
0.15305582 -0.33933878 -0.08697264 0.07398876 -0.005570433 0.1120509 0.4377046 -0.055332385
-0.3641181 0.031486884 -0.22799695 0.7393945 -0.4811998 0.095772296 0.38594985 -0.070576645
0.4169883 -0.4050336 0.15183276 0.11209778 0.3536949 0.5254203 -0.09143597 -0.22701277
-0.004680197 -0.29907268 -0.12895232 0.39991388 0.1016375 -0.47340807 0.13679555 -0.3474212
0.14928822 0.12226326 0.031098668 0.5889964 0.04293015 -0.1792885 0.28417185 0.38583386
-0.34327772 -0.0078615295 0.2935453 0.19044071 0.2058251 0.3664497 -0.23553027 -0.23595333
0.6983552 -0.8041549 0.09239449 -0.33883792 -0.39849132 0.57167006 0.4592711 0.21420719
0.23084372 -0.08098848 0.6420807 -0.19892961 -0.19417836 -0.25295788 -0.4333725 0.6784946
0.027617171 -0.28011528 -0.042575598 -0.25961158 -0.40192625 -0.25739256 -0.54800546 0.636187
0.5093741 -0.7461912 0.09498672 -0.1082973 0.05005006 0.50561506 0.25800377 0.222879
0.12902795 -0.22051242 -0.039811417 -0.2433721 -0.21070704 0.016109854 0.0724721 0.31560472
00000000: 08c4 643e 80d7 2f3e 1699 19bf 914f e13e
00000010: edb3 e4be daee da3e 8d6c eebe e73e 123e
00000020: 01ff c5bd 232e aabe a583 483f ad49 b93e
00000030: 5a9c 9e3d b4f7 b9bd 1fe3 f23e fe87 fa3e
00000040: 69c3 e23d 22e6 363a a573 02bf 3024 903d
00000050: 675a 7a3e 8a9a 0bbf 16c2 f83c a434 f2be
00000060: a3bc fabe c941 12be 4e44 90be 2e02 e53c
00000070: abc0 a83c b07a abbe 1d94 933e 3bf4 3dbf
00000080: f160 ff3e 4529 253d dc0d f53e 0967 b93d
00000090: ba34 3abe 2067 2d3f 2588 e83e b890 6dbe
000000a0: bcee c33b 52b1 503e 0fbc cbbe 55e2 3e3e
000000b0: e7aa afbe 92ee 833c 2621 04be cf1a 05bf
000000c0: 003d 52be d5b4 c9be 0a8b 9d3e ab27 6abe
000000d0: 74be af3d 78cf cf3e 87c7 cbbe 0a46 d1bd
000000e0: f438 d5bc 2e36 e23e fc7c acbe f842 fbbe
000000f0: 76e6 bfbd 07b4 7b3e f037 82be 03b2 b0be
00000100: bdc7 f63d 0e6f 3ebd 5d8e a03d 436d a33e
00000110: 729a 953d 7aa3 073f 9450 fbbe c28d b53e
00000120: 9b9a d7bd 57dd e73e d9b9 a33e 6dcf 6b3e
00000130: e48c 0e3d 08cb 0a3f 9102 023b 0d78 4cbe
00000140: 3b17 433f 2549 b33e e8b6 543e b5fb e33e
00000150: 1fa3 be3e 9b55 f4bc ecbd 693e 7677 823c
00000160: 9e18 04bf 3d46 66be 267e b93e dd92 53bd
00000170: 42e9 fa3d 3516 503e f288 303f aac5 463d
00000180: e37a c13d d957 af3d 74ec 29bf d5ec 283e
00000190: fea6 9c3e cceb 74be d711 a8be 1cf1 103e
000001a0: 973b 11be 602b 92be 5c82 f7be 9b2f 443e
000001b0: 0e94 5d3e 3b54 9b3c a88a 10be 8596 cabe
000001c0: fe4f f5bd 79c4 2bbe 1c1f e53e f5d6 35be
000001d0: f1e3 8dbd a6df 0bbe c5bc e03e 16af 92be
000001e0: d9fa ba3e 1045 ec3e 85d3 ca3e 0e2b 54be
000001f0: 144b 3a3e bc89 d0bd df08 83be 4f70 ce3e
00000200: 5c50 13bf e1f0 c9bd 079f aebe 83b1 39be
00000210: 6ca2 803e e5d8 87be 0a7a b73e 196f 12be
00000220: c9c8 ef3d bf42 9c3e 2a5b 93be c10d 853e
00000230: caa3 ddbe 915b 043e 7751 e33d cb5a 603e
00000240: 4369 ab3d d4ab 82bd ac2d 38be 06b0 433e
00000250: 46ac 933b d8f6 f5be a81c 853e 857e b8be
00000260: 3a1a 20bf ae9f 143e d647 953e e9ba f63e
00000270: a6b5 ee3d af1b 9b3e 60e9 263f a451 b93e
00000280: 431b 2bbc 8f4e fb3e 846f 2bbe 2567 55bd
00000290: de43 1dbe 4da0 09bd 5337 14bf 0376 183e
000002a0: aaba 1c3e d0bd adbe b61e b2bd 6b87 973d
000002b0: 2e88 b6bb f17a e53d d11a e03e 36a4 62bd
000002c0: b06d babe 64f8 003d 0878 69be f548 3d3f
000002d0: d25f f6be 4424 c43d 389b c53e 7d8a 90bd
000002e0: 7e7f d53e 9060 cfbe 0c7a 1b3e 8593 e53d
000002f0: 7f17 b53e f281 063f c842 bbbd 0976 68be
00000300: 575c 99bb 0e20 99be 140c 04be 83c1 cc3e
00000310: 5227 d03d 8b62 f2be 2214 0c3e 31e1 b1be
00000320: 03df 183e 2965 fa3d a2c2 fe3c 78c8 163f
00000330: 86d7 2f3d 6897 37be f97e 913e 048c c53e
00000340: 19c2 afbe a5cd 00bc 924b 963e e402 433e
00000350: d1c3 523e 4c9f bb3e d92e 71be c09d 71be
00000360: 68c7 323f 18dd 4dbf 5339 bd3d 2a7c adbe
00000370: 0e07 ccbe f858 123f 9525 eb3e 2159 5b3e
00000380: 4c62 6c3e 4add a5bd 675f 243f 34b4 4bbe
00000390: b1d6 46be b283 81be 00e3 ddbe d2b1 2d3f
000003a0: 683d e23c 456b 8fbe c063 2ebd cfeb 84be
000003b0: 47c9 cdbe f5c8 83be 164a 0cbf 27dd 223f
000003c0: 5766 023f 6306 3fbf 6688 c23d faca ddbd
000003d0: 4b01 4d3d fd6f 013f 1219 843e 643a 643e
000003e0: e71f 043e 02ce 61be 4c11 23bd 8936 79be
000003f0: 96c3 57be d0f8 833c 416c 943d f196 a13e

network_body._body_endoder.seq_layers.0.bias f4 [128]
0.03670481 -0.011668171 0.052350514 0.041875355 0.010700757 0.024972819 0.06653457 -0.082852714
0.045888726 -0.10339914 -0.036688782 -0.05701803 0.036694396 0.032217253 -0.02811207 0.0051187663
0.045068573 0.008439315 -0.07102265 0.0058659012 -0.11227467 0.0787337 -0.06608648 -0.063525334
0.009492422 0.038240228 0.020098638 -0.008824371 0.02812038 0.06087449 0.056830227 0.05083617
0.02287361 0.012220464 0.0193835 -0.055243257 -0.123199016 0.08069231 -0.09261276 0.07489605
-0.10237617 0.082804166 0.09398195 0.049795378 -0.00016473878 -0.1117823 0.058374755 -0.019559182
0.010712508 0.016341694 0.068899505 0.058287192 -0.12389442 0.0025639518 -0.07356115 -0.016039591
0.024564402 0.06858387 0.073026605 0.08883482 0.069493406 0.03916969 0.05838123 0.017099475
0.053339053 0.05088668 -0.017846508 0.05468082 0.03125581 0.03701005 -0.061547656 -0.031205343
0.045096125 0.03430286 0.04924559 -0.05324419 0.008035004 0.013241129 0.043195933 0.038633335
0.039076205 0.045439932 0.05988521 0.060566425 0.10231317 0.048401576 0.027631579 0.066203095
-0.0035847516 -0.014310176 0.015989019 -0.0046563717 0.05709247 0.020218974 -0.07312998 -0.11189067
-0.027020905 0.04614137 0.052164722 -0.024649043 -0.086144924 0.06001304 -0.008204678 0.018380301
0.051765878 0.015863445 -0.02040232 0.07181205 0.07123464 0.006348462 0.023259604 -0.038506866
-0.019708494 0.05724427 0.04791314 0.048335273 -0.011796042 0.07275532 -0.017593492 0.02776153
0.06830686 -0.07140045 -0.030923862 0.07845838 -0.076835565 0.046713755 -0.09731611 -0.05611328
00000000: c857 163d db2b 3fbc 7e6d 563d 7e85 2b3d
00000010: 3a52 2f3c cc93 cc3c 4743 883d afae a9bd
00000020: d1f5 3b3d eec2 d3bd fa46 16bd bd8b 69bd
00000030: dd4c 163d 3df6 033d 494b e6bc 53bb a73b
00000040: d399 383d 0d45 0a3c 5374 91bd bf36 c03b
00000050: 43f0 e5bd 223f a13d 5958 87bd 9219 82bd
00000060: 1b86 1b3c c9a1 1c3d e6a5 a43c 1894 10bc
00000070: b65c e63c 8757 793d d0c6 683d 9639 503d
00000080: 7061 bb3c 5738 483c 25ca 9e3c c146 62bd
00000090: c44f fcbd 0342 a53d c2ab bdbd 1a63 993d
000000a0: 99aa d1bd 3b95 a93d 9c79 c03d 3df6 4b3d
000000b0: bbbd 2cb9 1eee e4bd 5e1a 6f3d 943a a0bc
000000c0: 8483 2f3c 04df 853c 2f1b 8d3d 8dbe 6e3d
000000d0: 5cbc fdbd f907 283b 3aa7 96bd 7665 83bc
000000e0: 493b c93c b375 8c3d f98e 953d 08ef b53d
000000f0: 8f52 8e3d 6670 203d 2821 6f3d 3314 8c3c
00000100: 0d7a 5a3d 8d6e 503d d732 92bc fff8 5f3d
00000110: 1806 003d da97 173d 6519 7cbd 59a2 ffbc
00000120: b7b6 383d 2881 0c3d beb5 493d 9416 5abd
00000130: 40a5 033c 52f1 583c 38ee 303d fd3d 1e3d
00000140: 5f0e 203d 391f 3a3d 324a 753d 8014 783d
00000150: 9189 d13d bb40 463d 9f5b e23c 7d95 873d
00000160: 27ee 6abb 3a75 6abc 67fb 823c 7a94 98bb
00000170: cbd9 693d 43a2 a53c 2cc5 95bd f026 e5bd
00000180: f25a ddbc bcfe 3c3d adaa 553d caec c9bc
00000190: c06c b0bd 3cd0 753d ea6c 06bc 4992 963c
000001a0: 7508 543d 0ef4 813c c422 a7bc 3212 933d
000001b0: 78e3 913d c206 d03b ed8a be3c 60b9 1dbd
000001c0: b573 a1bc f878 6a3d 9240 443d 35fb 453d
000001d0: 3044 41bc be00 953d 3a20 90bc 266c e33c
000001e0: 78e4 8b3d 663a 92bd 0a54 fdbc caae a03d
000001f0: f75b 9dbd ec56 3f3d ab4d c7bd 0ad7 65bd

network_body._body_endoder.seq_layers.2.weight f4 [128, 128]
-0.107118204 0.0984971 0.04640679 0.09518236 0.09931736 0.035791323 0.02490864 -0.065329835
-0.22159144 -0.10518736 0.046404354 0.10964393 -0.08280612 0.14184198 -0.12930584 0.035082176
-0.17043534 0.00066857465 0.022900531 -0.07409428 -0.0050020334 0.054214805 -0.1713713 -0.19169234
0.05951896 0.08609191 -0.030914601 0.06152116 0.048262622 -0.020172067 0.120002545 0.019013993
0.10987444 0.11757969 0.22419365 0.017235724 -0.1783942 -0.13237655 -0.042953793 0.17849745
0.023260966 0.009368623 -0.004510053 0.182868 0.104973495 -0.094794124 -0.05804253 0.20299375
0.27557212 0.0029968591 -0.07473793 0.07663457 -0.029423626 0.05214783 -0.24157847 0.031133879
0.03718221 0.12762427 0.19164272 -0.10940372 0.043833587 -0.25928718 -0.058462914 -0.26135144
0.010213917 -0.13282092 -0.0379782 0.09148755 0.100259654 0.07948071 -0.18234211 -0.0012883727
0.11176325 -0.07570909 -0.019002993 0.04276141 -0.10330851 -0.066462055 -0.026906125 -0.38060942
0.10622289 -0.25472596 0.07167892 0.062682815 -0.0023315137 0.13059732 0.116827734 0.02038066
0.124796234 0.11356179 -0.023446735 0.2449049 -0.2308787 -0.052875333 -0.07298474 0.054526765
-0.008551592 0.101067305 -0.012688832 -0.17311229 -0.2241874 0.009700137 0.09544403 0.20547949
-0.054036826 -0.08511478 -0.04075173 -0.010099275 0.06012944 0.25902385 0.12406268 -0.0049646194
-0.16970122 0.23807295 0.050105467 0.117468394 0.08611965 -0.13310343 -0.09802105 0.09321392
-0.015364607 0.018974083 0.020165924 0.09126842 0.04541824 -0.11364555 -0.019095318 0.016262563
-0.13530324 0.35060006 -0.19418982 0.16233872 0.13057669 0.0011708603 0.10993608 0.03347947
-0.21517919 -0.022872636 -0.073334925 -0.07410865 -0.033533305 0.02214467 -0.11070644 0.03283545
0.001985085 0.07479977 -0.10960706 -0.18871884 -0.027048534 -0.11466108 -0.06222643 -0.09986228
0.18228419 0.15142018 0.018464837 0.21012007 0.13583834 -0.13512729 0.10552962 -0.08182987
0.13907228 0.23045981 0.126406 -0.10034772 -0.027443623 0.16360208 -0.1379069 -0.1411918
-0.20068473 0.09511529 0.032145835 0.026183108 -0.062618375 -0.0034498605 -0.03893854 0.06266991
0.12978354 0.18744153 -0.11879553 -0.14977808 -0.06623037 0.06033501 -0.014464404 0.122266814
0.15334694 0.0002799423 0.068408035 0.12915596 0.06946458 0.1494997 0.19342643 -0.01571444
-0.034662746 0.06930385 -0.01705479 0.14288703 0.034934234 0.095341004 -0.09047727 0.06314938
0.019751078 -0.15290162 0.015215133 0.00023200182 0.11513816 0.10000755 -0.06988037 -0.22118147
0.07876252 -0.13049354 -0.052846085 0.11998664 0.007614376 0.14229263 0.026468491 0.04553103
0.0683025 -0.18791218 0.2257721 0.0029515822 -0.22788306 0.07988493 -0.11378688 -0.042393982
0.10919119 0.04679981 0.06619903 -0.07044085 -0.11732853 0.19341984 0.24706997 0.14494926
0.060595736 0.13623211 0.09718619 -0.15854783 0.07013704 0.1959216 0.123898216 0.0011222912
-0.18484847 0.11439907 0.002286928 0.09640626 0.055581708 -0.16435786 0.13006155 0.02782109
-6.335043e-05 -0.077244654 0.037473243 -0.07430533 0.045658354 -0.11884186 -0.05282056 0.013435881
00000000: ca60 dbbd d9b8 c93d 0c15 3e3d f8ee c23d
00000010: e666 cb3d ec99 123d 340d cc3c a6cb 85bd
00000020: dee8 62be 786c d7bd 7e12 3e3d ff8c e03d
00000030: 4196 a9bd 063f 113e c068 04be 54b2 0f3d
00000040: 9a86 2ebe 4943 2f3a e599 bb3c bebe 97bd
00000050: 19e8 a3bb 5810 5e3d f57b 2fbe ff4a 44be
00000060: 27ca 733d f550 b03d 9e40 fdbc 9dfd 7b3d
00000070: 07af 453d e43f a5bc e5c3 f53d 3cc3 9b3c
00000080: da05 e13d 9fcd f03d 0593 653e ef31 8d3c
00000090: f8ac 36be b88d 07be 51f0 2fbd 09c8 363e
000000a0: c88d be3c da7e 193c 11c9 93bb c041 3b3e
000000b0: 58fc d63d 6c23 c2bd 01be 6dbd 98dd 4f3e
000000c0: ca17 8d3e f466 443b 3310 99bd 96f2 9c3d
000000d0: d109 f1bc f798 553d 5960 77be 7a0c ff3c
000000e0: 5f4c 183d f0af 023e fd3d 443e 0f0f e0bd
000000f0: d98a 333d 4ac1 84be cf76 6fbd dbcf 85be
00000100: 4658 273c 3502 08be 078f 1bbd d35d bb3d
00000110: ef54 cd3d c8c6 a23d e4b7 3abe 9dde a8ba
00000120: 21e4 e43d 5e0d 9bbd 2aac 9bbc 9726 2f3d
00000130: 6993 d3bd 421d 88bd 3c6a dcbc 3ddf c2be
00000140: 638b d93d 716b 82be 66cc 923d d95f 803d
00000150: 4fcc 18bb 4ebb 053e 6143 ef3d 58f5 a63c
00000160: 2b95 ff3d 1593 e83d 5e13 c0bc 5ac8 7a3e
00000170: 776b 6cbe ce93 58bd 0679 95bd 7557 5f3d
00000180: fa1b 0cbc 60fc ce3d d2e4 4fbc 5944 31be
00000190: 6291 65be 53ed 1e3c 2978 c33d 3769 523e
000001a0: b855 5dbd a850 aebd 49eb 26bd 6e77 25bc
000001b0: 4a4a 763d c69e 843e 9314 fe3d 3fae a2bb
000001c0: 28c6 2dbe 65c9 733e 643b 4d3d 4593 f03d
000001d0: 805f b03d 444c 08be 43bf c8bd f1e6 be3d
000001e0: d5bb 7bbc 896f 9b3c 0233 a53c f0ea ba3d
000001f0: 7a08 3a3d 00bf e8bd c96d 9cbc 1139 853c
00000200: ef8c 0abe da81 b33e b2d9 46be 1f3c 263e
00000210: e5b5 053e 8d77 993a 2b26 e13d c521 093d
00000220: ef57 5cbe 655f bbbc 9f30 96bd 47c6 97bd
00000230: 385a 09bd bd68 b53c 0fba e2bd 777e 063d
00000240: 3318 023b 9f30 993d ab79 e0bd 833f 41be
00000250: e394 ddbc 6ed3 eabd 24e1 7ebd 9884 ccbd
00000260: b5a8 3a3e e40d 1b3e 9243 973c b729 573e
00000270: 3519 0b3e cf5e 0abe ea1f d83d 6b96 a7bd
00000280: f768 0e3e a8fd 6b3e 9370 013e 1b83 cdbd
00000290: 73d1 e0bc 4e87 273e 7737 0dbe 9594 10be
000002a0: 4c80 4dbe cecb c23d 5aab 033d f57d d63c
000002b0: 103e 80bd 0e17 62bb 057e 1fbd 1559 803d
000002c0: fae5 043e acf0 3f3e 124b f3bd 6d5f 19be
000002d0: caa3 87bd d821 773d 1cfc 6cbc 0667 fa3d
000002e0: fb06 1d3e 38c5 9239 8319 8c3d 7641 043e
000002f0: 7243 8e3d 7316 193e 9411 463e 92bb 80bc
00000300: 86fa 0dbd 2def 8d3d 7db6 8bbc fa50 123e
00000310: 3317 0f3d 2542 c33d 264c b9bd 7654 813d
00000320: 03cd a13c 3e92 1cbe e548 793c 8445 7339
00000330: 8ecd eb3d c2d0 cc3d 701d 8fbd 657d 62be
00000340: 3e4e a13d 19a0 05be 2375 58bd 8ebb f53d
00000350: 0482 f93b 29b5 113e 73d4 d83c bf7e 3a3d
00000360: 2ee2 8b3d 0d6c 40be cd30 673e 556f 413b
00000370: 2d5a 69be b69a a33d 1909 e9bd 50a5 2dbd
00000380: a19f df3d 28b1 3f3d 5b93 873d 4b43 90bd
00000390: f149 f0bd da0f 463e e9ff 7c3e 946d 143e
000003a0: 3c33 783d 6e80 0b3e 8e09 c73d 5d5a 22be
000003b0: 02a4 8f3d ac9f 483e 59be fd3d d819 933a
000003c0: eb48 3dbe 0f4a ea3d 49e0 153b a570 c53d
000003d0: a5a9 633d 6d4d 28be db2e 053e 0ee9 e33c
000003e0: 01db 84b8 7232 9ebd 8b7d 193d 652d 98bd
000003f0: 4104 3b3d 5c63 f3bd 5f5a 58bd 2b22 5c3c

network_body._body_endoder.seq_layers.2.bias f4 [128]
0.053975835 0.043337 0.08633295 0.058133855 0.05835265 0.008569322 0.08941191 -0.08625415
0.052425623 -0.093142524 0.029021408 -0.052309282 -0.046262287 0.05877671 0.044244654 0.045308754
0.057313606 -0.009785452 0.05731058 0.09599134 0.05044383 0.019921582 0.049987134 0.03331559
0.013748163 0.054390028 0.053143173 0.033721503 4.059969e-05 0.07413996 0.0447907 0.09568083
0.04682281 -0.029718025 0.06260264 0.05085141 0.032539427 0.09368459 0.076488346 0.026143622
-0.06110373 0.025413267 0.033702046 0.06632408 0.026536645 0.06892359 0.10044436 -0.04102822
0.019938815 0.06370751 0.054218736 0.03638803 0.023631733 0.03361542 0.04759466 0.044919822
-0.07311529 -0.06365419 0.072431326 0.08738879 0.07593334 -0.04866394 0.022384984 -0.049366795
-0.080655046 0.05574407 0.044686746 0.017633531 0.023652175 -0.042339087 -0.05429356 0.018211568
0.012931771 0.06171622 0.057405096 -0.016538743 -0.057981517 -0.07211649 0.029351197 0.041395266
0.054648384 0.040130403 0.0070547243 0.06828371 -0.032116596 0.015402263 -0.08153159 0.028576462
0.024556551 0.010489714 0.038204346 0.02717512 0.03828144 -0.059000254 0.0014774675 0.03679835
-0.037440114 0.018095277 -0.08746459 -0.10809273 0.030436225 0.045307897 0.017593842 0.01587357
0.02824537 0.043038107 0.07108173 0.031666346 -0.0053129545 0.019583218 0.05309417 0.018585034
0.06610918 0.007821101 -0.004707558 0.1130278 0.008813823 -0.08208101 -0.03377557 0.05066724
-0.033074297 -0.037592154 0.092018865 0.0070220595 0.008557157 0.024461709 0.028265202 0.100683324
00000000: c415 5d3d 2382 313d 54cf b03d c41d 6e3d
00000010: 3003 6f3d 5766 0c3c 971d b73d 04a6 b0bd
00000020: 40bc 563d 82c1 bebd 4ebe ed3c 4242 56bd
00000030: 867d 3dbd d9bf 703d e239 353d ac95 393d
00000040: acc1 6a3d 2953 20bc 80be 6a3d 1c97 c43d
00000050: 319e 4e3d 9632 a33c 4fbf 4c3d ee75 083d
00000060: fa3f 613c 14c8 5e3d a8ac 593d 8f1f 0a3d
00000070: 9649 2a38 b1d6 973d 7476 373d 50f4 c33d
00000080: 46c9 3f3d 3773 f3bc d035 803d 9149 503d
00000090: 1048 053d b5dd bf3d eca5 9c3d 262b d63c
000000a0: e847 7abd 7c2f d03c 280b 0a3d ebd4 873d
000000b0: 6163 d93c d027 8d3d c6b5 cd3d 350d 28bd
000000c0: ba56 a33c 1579 823d 7714 5e3d 9d0b 153d
000000d0: 5697 c13c 53b0 093d 9ef2 423d d9fd 373d
000000e0: 78bd 95bd 215d 82bd e056 943d e5f8 b23d
000000f0: f082 9b3d d753 47bd b760 b73c d634 4abd
00000100: 792e a5bd e553 643d 7309 373d 3274 903c
00000110: 35c2 c13c c06b 2dbd ed62 5ebd 6d30 953c
00000120: c7df 533c 26ca 7c3d 9b21 6b3d 427c 87bc
00000130: 077e 6dbd cfb1 93bd ec71 f03c 158e 293d
00000140: fcd6 5f3d c75f 243d 512b e73b 54d8 8b3d
00000150: b18c 03bd c659 7c3c 09fa a6bd 2f19 ea3c
00000160: d22a c93c 0ddd 2b3c 297c 1c3d 5b9e de3c
00000170: 00cd 1c3d 40aa 71bd 95a7 c13a deb9 163d
00000180: ce5a 19bd 8c3c 943c a320 b3bd b95f ddbd
00000190: 6455 f93c c694 393d f620 903c 4a09 823c
000001a0: d662 e73c ba48 303d 4c93 913d 92b4 013d
000001b0: 4b18 aebb fc6c a03c 4679 593d a43f 983c
000001c0: 4064 873d 1324 003c dc41 9abb 1f7b e73d
000001d0: da67 103c 171a a8bd 4158 0abd 7488 4f3d
000001e0: ea78 07bd 3bfa 19bd 6374 bc3d 4e19 e63b
000001f0: 5133 0c3c ec63 c83c 6d8c e73c 0f33 ce3d

network_body._body_endoder.seq_layers.4.weight f4 [128, 128]
0.09250888 0.023895703 -0.15123601 -0.1607841 -0.14686757 -0.025161942 0.015837017 -0.12203336
0.025605837 0.09444134 0.043566372 -0.073448665 -0.046549592 -0.03285751 -0.22799039 0.1084948
-0.095945835 0.006642924 0.08406992 0.08739106 0.13548292 0.18152939 0.02933289 0.049239382
-0.035357255 0.12490195 0.051459588 -0.09896844 -0.034136474 -0.025259076 -0.111266166 0.20258205
-0.042217664 -0.14394702 -0.1147396 0.0476698 -0.034508802 0.19129997 0.036162708 0.13788968
-0.09386159 0.10562013 0.06199059 0.030032363 0.035940893 -0.06502549 0.028893031 0.013403466
0.17380881 0.21361034 0.06707787 -0.18520492 0.07500476 -0.08162637 -0.14578281 0.031675793
-0.11236032 -0.03226426 -0.0130577395 -0.22170381 0.11324888 -0.13732086 0.03809729 0.11717409
-0.03022205 0.030861275 0.050367285 -0.019304639 0.047429804 -0.07876886 -0.046289597 -0.095519654
0.09284448 -0.1294328 -0.14885128 -0.06622648 -0.17936109 -0.0069434033 0.039265815 -0.110410616
-0.09912088 0.05448032 0.16118807 -0.10496393 0.04826597 -0.011073395 0.059221912 0.16469389
-0.066450715 0.1459111 0.07624925 0.06975019 0.09471857 -0.037424255 0.014017239 -0.14177969
0.12507486 0.077571295 -0.043803427 -0.22817637 0.04259487 0.041473974 -0.24840009 0.014855181
0.143907 -0.13195245 -0.06756435 -0.052757934 0.006403744 -0.0111203 -0.024675714 -0.11659611
-0.077471495 -0.11300192 -0.0108343195 -0.03441628 -0.07262874 0.0369402 0.019346185 0.037239987
-0.112105116 -0.13249484 -0.05165976 -0.0940889 -0.02818927 0.08967518 0.044699676 0.014251369
0.15331517 0.071152635 0.08487448 0.038790286 0.050714776 -0.10311401 0.067646414 -0.05763635
0.16600089 -0.061365135 0.079376996 0.0016220962 -0.03582073 0.027633062 0.038515687 0.09300544
-0.014058365 -0.0750348 -0.009404732 -0.057123248 0.08324371 0.05759388 0.19237997 -0.018854411
-0.014936564 0.087997325 0.1314446 0.11646025 0.07333768 0.139907 0.039234444 0.17752755
-0.067615874 0.104562916 0.018188313 0.035284508 -0.03704182 0.05656869 0.1098419 0.03598134
-0.08905978 0.0011618173 -0.029824229 0.249918 0.026980197 0.021552695 0.14098006 -0.09693844
0.010369287 -0.0055283825 0.050738584 0.019376148 0.12286438 0.024141807 -0.010946001 0.013539114
-0.14955655 -0.076823175 0.020107916 0.10330113 0.0009976327 -0.16296765 0.04839107 0.0024397478
-0.02905761 0.048847087 -0.008729517 0.039619617 0.06296554 -0.07712247 -0.14619982 0.13819636
-0.2650453 -0.062187325 -0.12094197 -0.08734653 -0.030940851 -0.042792875 -0.07260048 -0.02735648
0.009312697 -0.0981134 -0.09837417 0.07802992 -0.049252667 0.05380519 -0.16177467 -0.13923988
-0.13373277 0.12764733 0.04089773 -0.12161189 0.053097922 0.06555894 -0.04580463 0.094687596
-0.12829441 -0.065729596 -0.05427121 -0.08977041 0.040542293 0.018938081 -0.0039070663 0.048914842
0.03183685 0.078066856 0.10756422 -0.117189184 -0.02231273 -0.077231325 -0.13410376 -0.092627406
-0.15361342 0.028821105 0.07727491 0.1246908 -0.041446134 -0.13291025 -0.1726415 -0.03900718
-0.03600131 -0.112900704 -0.04365272 0.0067495746 -0.13306884 -0.109958485 -0.031709705 0.061202716
00000000: 4c75 bd3d ecc0 c33c 9ddd 1abe 96a4 24be
00000010: 7464 16be 6b20 cebc a2bc 813c a0ec f9bd
00000020: 55c3 d13c 766a c13d a772 323d 416c 96bd
00000030: c9aa 3ebd 9995 06bd 5076 69be 8632 de3d
00000040: 407f c4bd e3ac d93b da2c ac3d 16fa b23d
00000050: 09bc 0a3e d7e2 393e 874b f03c 3caf 493d
00000060: c5d2 10bd 98cc ff3d 4ac7 523d f7af cabd
00000070: b0d2 0bbd 1fec cebc 84df e3bd ab71 4f3e
00000080: 6eec 2cbd d966 13be 98fc eabd 6941 433d
00000090: 1a59 0dbd 24e4 433e 591f 143d f432 0d3e
000000a0: 813a c0bd 5e4f d83d d8e9 7d3d 6e06 f63c
000000b0: c236 133d 162c 85bd 14b1 ec3c 369a 5b3c
000000c0: f0fa 313e abbc 5a3e 1f60 893d 5ca6 3dbe
000000d0: 189c 993d ba2b a7bd 1748 15be 7abe 013d
000000e0: 2b1d e6bd 8727 04bd 21f0 55bc 5306 63be
000000f0: 07ef e73d d79d 0cbe e70b 1c3d f8f8 ef3d
00000100: 3c94 f7bc c9d0 fc3c ed4d 4e3d c324 9ebc
00000110: c145 423d 9151 a1bd 299a 3dbd cf9f c3bd
00000120: 3f25 be3d 088a 04be 786c 18be c0a1 87bd
00000130: 6faa 37be 7d85 e3bb 31d5 203d f61e e2bd
00000140: e3ff cabd c226 5f3d 7c0e 253e 54f7 d6bd
00000150: 8ab2 453d 2f6d 35bc ad92 723d 84a5 283e
00000160: 5017 88bd b869 153e 9128 9c3d 30d9 8e3d
00000170: cffb c13d 2d4a 19bd 90a8 653c b22e 11be
00000180: a013 003e b3dd 9e3d 396b 33bd 11a7 69be
00000190: f577 2e3d 9de0 293d 985c 7ebe 2563 733c
000001a0: 5b5c 133e 8b1e 07be 2e5f 8abd b418 58bd
000001b0: 80d6 d13b eb31 36bc b924 cabc f1c9 eebd
000001c0: 60a9 9ebd 8d6d e7bd 6e82 31bc 16f8 0cbd
000001d0: 60be 94bd 9b4e 173d e47b 9e3c f588 183d
000001e0: 5e97 e5bd baac 07be 2f99 53bd aeb1 c0bd
000001f0: 2fed e6bc 9fa7 b73d 0217 373d 937e 693c
00000200: a7fe 1c3e 79b8 913d acd2 ad3d 90e2 1e3d
00000210: 4cba 4f3d 702d d3bd 348a 8a3d 1814 6cbd
00000220: 23fc 293e 025a 7bbd 6890 a23d 849c d43a
00000230: c2b8 12bd bb5e e23c a0c2 1d3d a379 be3d
00000240: 0e55 66bc d8ab 99bd 4e16 1abc 11fa 69bd
00000250: ae7b aa3d 8fe7 6b3d 41ff 443e 9174 9abc
00000260: 7db8 74bc f137 b43d 6a99 063e b682 ee3d
00000270: 1132 963d c843 0f3e 4cb4 203d c8c9 353e
00000280: 317a 8abd 1525 d63d a8ff 943c 7d86 103d
00000290: 2ab9 17bd 92b4 673d caf4 e03d 2b61 133d
000002a0: f964 b6bd 1f48 983a f151 f4bc 81ea 7f3e
000002b0: 9305 dd3c 478f b03c 145d 103e a987 c6bd
000002c0: f1e3 293c 6f27 b5bb 43d3 4f3d baba 9e3c
000002d0: 52a0 fb3d 0ac5 c53c db56 33bc 29d3 5d3c
000002e0: 5a25 19be 7855 9dbd 5bb9 a43c 8b8f d33d
000002f0: 00c3 823a fee0 26be b735 463d 2de4 1f3b
00000300: 3a0a eebc e213 483d 4006 0fbc 2e48 223d
00000310: 14f4 803d 63f2 9dbd 68b5 15be 5983 0d3e
00000320: 04b4 87be 23b8 7ebd 6cb0 f7bd bde2 b2bd
00000330: ab77 fdbc 9547 2fbd 8faf 94bd b21a e0bc
00000340: 4894 183c aeef c8bd 6678 c9bd 27ce 9f3d
00000350: 2abd 49bd d562 5c3d 42a8 25be e694 0ebe
00000360: 3ef1 08be fbb5 023e 6184 273d a80f f9bd
00000370: 357d 593d c443 863d a39d 3bbd 92eb c13d
00000380: 9c5f 03be 3d9d 86bd 7d4b 5ebd 8cd9 b7bd
00000390: ad0f 263d 0924 9b3c d906 80bb ee5a 483d
000003a0: 5b67 023d 84e1 9f3d a14a dc3d e200 f0bd
000003b0: 30c9 b6bc 752b 9ebd 7f52 09be 70b3 bdbd
000003c0: d64c 1dbe 3d1a ec3c 4f42 9e3d e45d ff3d
000003d0: 6cc3 29bd a019 08be efc8 30be fec5 1fbd
000003e0: 1c76 13bd 7c38 e7bd 32cd 32bd 892b dd3b
000003f0: 3343 08be ea31 e1bd 09e2 01bd b3af 7a3d

network_body._body_endoder.seq_layers.4.bias f4 [128]
0.014914191 0.047997262 0.017972764 0.016774539 -0.0009263038 0.064248696 0.013385953 0.048273906
0.008126156 0.03949157 -0.034742735 0.004856531 -0.005080467 0.00053417694 0.050505154 0.04792606
0.0053685633 0.023099322 0.00840489 0.009254492 0.06690711 0.019791707 0.06874941 0.06971948
0.033842616 0.015525283 0.05308293 0.029766718 0.020037815 0.014849735 0.05596257 0.021250324
0.064709075 -0.016397178 0.016406864 0.0159878 0.03748851 0.05606839 0.03806547 0.06433969
0.031182261 0.0108187245 -0.0006925916 0.00881325 0.02977507 0.042085104 0.03276241 0.0134658385
0.004152186 0.040253725 -0.0030984208 0.018596876 0.0036174736 0.0068469094 0.02085089 0.00574183
0.024677766 0.003968718 0.06765076 0.05633644 0.015705967 0.063471615 0.057990756 0.037170257
0.011449658 0.016649479 0.0057526943 0.04778763 0.048455924 -0.005925622 0.038121227 0.03990794
0.00830874 0.031909864 0.05247602 0.029483292 0.06526539 0.014430918 0.057611562 0.0070893257
0.01832935 0.048878215 0.008937302 8.242577e-05 0.012799428 0.064118266 -0.001884654 0.030822735
0.024564873 0.033833753 -0.0052403924 0.031945568 -0.0026761843 0.065212876 0.018130679 0.0124940155
0.028093334 -0.008433459 0.02203921 0.033800684 0.06317586 0.03923714 0.038448595 0.07282676
0.009692578 0.060020205 0.039889 -0.030767165 0.003912149 0.050846074 0.062963195 0.018520094
0.0016700078 0.014490216 0.017746685 0.03455764 0.048974898 0.03147664 -0.006005886 0.0008803161
0.066834204 0.01647098 0.06467864 0.07084187 0.0750345 0.019268187 0.053030226 0.013026213
00000000: a75a 743c c798 443d 9e3b 933c c26a 893c
00000010: 32d3 72ba d294 833d c250 5b3c dcba 453d
00000020: 9223 053c eac1 213d 664e 0ebd 8923 9f3b
00000030: 0c7a a6bb 0208 0c3a 7ede 4e3d 1e4e 443d
00000040: c6ea af3b ca3a bd3c aab4 093c 27a0 173c
00000050: 9806 893d 3822 a23c 7ecc 8c3d 16c9 8e3d
00000060: 8e9e 0a3d c25d 7e3c 7d6d 593d 55d9 f33c
00000070: 5826 a43c 4e4c 733c 0239 653d 2915 ae3c
00000080: 3186 843d 6053 86bc b067 863c d9f8 823c
00000090: 8d8d 193d f8a7 653d 8aea 1b3d 87c4 833d
000000a0: f171 ff3c 0541 313c 098f 35ba 7365 103c
000000b0: d9ea f33c 6e61 2c3d e031 063d d29f 5c3c
000000c0: 100f 883b 17e1 243d e00e 4bbb 7a58 983c
000000d0: 2313 6d3b 0a5c e03b 7ccf aa3c f625 bc3b
000000e0: 0729 ca3c 050c 823b 7b8c 8a3d 0ac1 663d
000000f0: cda9 803c 68fd 813d b787 6d3d d73f 183d
00000100: 5997 3b3c 7d64 883c 1981 bc3b f6bc 433d
00000110: b879 463d b82b c2bb 0125 1c3d 8276 233d
00000120: 6221 083c ebb3 023d 18f1 563d f286 f13c
00000130: dca9 853d a86f 6c3c 1afa 6b3d 934d e83b
00000140: 6f27 963c 8634 483d c36d 123c 00dc ac38
00000150: b1b4 513c 7050 833d 7f06 f7ba f67f fc3c
00000160: 463c c93c 4395 0a3d 99b7 abbb 5bd9 023d
00000170: ec62 2fbb 548e 853d ca86 943c b3b3 4c3c
00000180: fe23 e63c 7e2c 0abc 938b b43c 9672 0a3d
00000190: 5862 813d 20b7 203d 467c 1d3d 3226 953d
000001a0: 9ecd 1e3c bfd7 753d a662 233d 6c0b fcbc
000001b0: 7c31 803b f943 503d d9f2 803d 74b7 973c
000001c0: 2ae4 da3a 5f68 6d3c 7f61 913c 508c 0d3d
000001d0: e799 483d a6ed 003d 06cd c4bb 03c5 663a
000001e0: 5fe0 883d 26ee 863c 3c76 843d 8b15 913d
000001f0: b0ab 993d 51d8 9d3c 3936 593d e66b 553c

action_model._discrete_distribution.branches.0.weight f4 [25, 128]
0.040421836 -0.031755168 -0.044133082 0.052351058 0.0061931997 -0.05812603 -0.015390833 -0.07085182
0.0151114445 -0.041858267 -0.01151072 0.023743927 0.010412073 -0.023051258 -0.029675283 0.032419767
0.024976008 0.057319704 0.016912427 -0.017786792 -0.07411235 -0.02232414 -0.06547836 0.053213093
0.058194213 -0.012089749 0.03333591 0.047627505 -0.03382158 -0.0013700953 -0.05501821 -0.013964938
-0.04931152 -0.0059026903 -0.01431992 -0.0192943 0.04536417 0.0364009 -0.010253059 -0.049876228
-0.022753265 -0.011994858 -0.01669218 -0.0018769423 -0.023307223 -0.018210381 0.033922836 0.0050340346
0.0314847 -0.032977924 -0.013620834 -0.010196272 0.02667769 -0.0073915645 0.02867889 -0.043578018
-0.016481856 -0.02256013 -0.064017184 -0.0400572 0.00091979746 -0.05025973 -0.059836436 0.046895742
0.010300119 0.01808336 -0.030863931 -0.045264367 -0.047824286 -0.02185297 -0.017414842 -0.015609161
-0.025774328 -0.026140004 0.03870741 -0.026323702 -0.061756823 -0.030028136 0.050803162 0.04000676
0.053753972 0.045290258 0.02524013 0.0014015192 0.026073655 -0.05291096 -0.015209949 0.0010635344
-0.0356252 -0.0202513 -0.0030636229 -0.030600358 -0.032261543 -0.05310516 0.018707644 -0.035712343
0.045734636 -0.025102237 -0.03655099 -0.029366095 0.046929974 0.049549382 -0.02422589 0.0634842
-0.030521628 0.054504637 0.05345041 0.00028043822 -0.01938284 -0.0459945 0.043849684 -0.00718161
-0.014008722 0.015781088 -0.017612057 0.05036154 0.042054467 0.015120075 0.0047357925 -0.019690195
-0.02338206 -0.011527084 0.024801327 -0.09037994 0.056522936 -0.00269319 0.06338904 -0.025199274
0.031273633 -0.005921406 -0.03906276 0.03709523 0.012646749 -0.092823654 -0.035525296 -0.107420415
-0.013344954 -0.107173584 -0.015587843 0.011181462 0.018829148 -0.017173102 -0.010813317 0.052082
0.026067667 0.046686865 0.010093004 -0.016512178 -0.07013731 -0.018976426 -0.085073024 0.08466072
0.07154478 -0.020450186 0.05534809 0.048648927 -0.082291216 -0.023510074 -0.10183385 -0.0069603375
-0.0858423 -0.02942219 -0.04030634 -0.039458904 0.044888332 0.07703204 -0.04273668 -0.066951014
-0.058176953 -0.0080247875 -0.015491053 0.032636557 -0.028530765 0.014573039 0.050840817 0.012066109
0.026211388 -0.054653503 -0.025463723 -0.050107166 0.01742335 -0.015830485 0.050319623 -0.019624388
0.004452266 -0.035215154 -0.10839888 -0.07224501 -0.012357587 -0.11132608 -0.11757309 0.053355526
0.029874705 0.0308908 -0.023844702 -0.10589165 -0.069321066 -0.025263265 -0.005457658 -0.06729941
-0.05453585 -0.061464194 0.06274354 -0.037723195 -0.097192176 -0.038647763 0.08109173 0.027957216
0.04731193 0.08906761 0.018505184 -0.03559537 0.040090736 -0.095500894 0.008487414 0.0012280402
-0.08245945 -0.06482862 -0.00081323687 -0.019309606 -0.028303243 -0.089128666 0.040244296 -0.05491506
0.07626108 -0.015279339 -0.05796816 -0.027982589 0.067936525 0.07128285 -0.057386063 0.09781899
-0.037296344 0.07613893 0.06852757 -0.025403611 -0.03409602 -0.020601466 0.06986083 -0.02088858
-0.00993775 0.0057809525 -0.06619711 0.059261 0.070166804 0.0370026 0.008263504 0.002125528
0.0038616308 -0.0025492336 0.045027204 -0.11197724 0.09082101 -0.016665764 0.07907891 -0.01318197
00000000: 5e91 253d b511 02bd e4c4 34bd 106e 563d
00000010: 53f0 ca3b 8f15 6ebd d529 7cbc c21a 91bd
00000020: fe95 773c 9373 2bbd 7597 3cbc a082 c23c
00000030: 6697 2a3c fed5 bcbc 9419 f3bc 97ca 043d
00000040: 7c9a cc3c 11c8 6a3d ee8b 8a3c 9bb5 91bc
00000050: 37c8 97bd 1de1 b6bc 8519 86bd f9f5 593d
00000060: 0e5d 6e3d 1514 46bc 3c8b 083d 0f15 433d
00000070: 7f88 0abd c594 b3ba c65a 61bd 32cd 64bc
00000080: e0fa 49bd 5b6b c1bb 199e 6abc 140f 9ebc
00000090: c8cf 393d 1c19 153d 72fc 27bc 044b 4cbd
000000a0: 0e65 babc 1586 44bc 0abe 88bc bc03 f6ba
000000b0: caee bebc f02d 95bc acf2 0a3d 8bf4 a43b
000000c0: 1af6 003d dc13 07bd eb29 5fbc 440e 27bc
000000d0: 2c8b da3c f034 f2bb feef ea3c dd7e 32bd
000000e0: f504 87bc 06d0 b8bc 711b 83bd 0513 24bd
000000f0: 901e 713a 26dd 4dbd 0d17 75bd c015 403d
00000100: d5c1 283c 8e23 943c 5bd6 fcbc 2167 39bd
00000110: 66e3 43bd 0005 b3bc 92a9 8ebc 91bd 7fbc
00000120: af24 d3bc 9023 d6bc a98b 1e3d cea4 d7bc
00000130: b9f4 7cbd 91fd f5bc fa16 503d 21de 233d
00000140: 202d 5c3d 4782 393d 64c4 ce3c 2eb3 b73a
00000150: 6b98 d53c 2ab9 58bd 2633 79bc 4b66 8b3a
00000160: bbeb 11bd 0ee6 a5bc 10c7 48bb 9aad fabc
00000170: ae24 04bd cc84 59bd c640 993c 1b47 12bd
00000180: 3e54 3b3d 35a3 cdbc 7eb6 15bd 2a91 f0bc
00000190: a539 403d 4bf4 4a3d 6075 c6bc 0104 823d
000001a0: 7e08 fabc 4140 5f3d d1ee 5a3d c807 9339
000001b0: c3c8 9ebc bb64 3cbd ba9b 333d b653 ebbb
000001c0: d784 65bc 5747 813c 2947 90bc e747 4e3d
000001d0: 4e41 2c3d 31ba 773c b52e 9b3b 554d a1bc
000001e0: bc8b bfbc 18dc 3cbc 272c cb3c 1e19 b9bd
000001f0: 9884 673d 3b80 30bb 1dd2 813d b56e cebc
00000200: c818 003d 5b08 c2bb 4600 20bd 2bf1 173d
00000210: 4f34 4f3c 541a bebd f982 11bd 3cff dbbd
00000220: cba4 5abc d37d dbbd 2764 7fbc 7332 373c
00000230: 963f 9a3c 9bae 8cbc 572a 31bc ef53 553d
00000240: dc8b d53c ba3a 3f3d 215d 253c 8c44 87bc
00000250: 26a4 8fbd 7374 9bbc c43a aebd 9962 ad3d
00000260: 1286 923d 2687 a7bc aeb4 623d 1944 473d
00000270: 4c88 a8bd 3398 c0bc 448e d0bd 8b13 e4bb
00000280: 16ce afbd ce06 f1bc 4318 25bd a99f 21bd
00000290: d4dc 373d f9c2 9d3d a80c 2fbd 9d1d 89bd
000002a0: f54a 6ebd 667a 03bc 30ce 7dbc e9ad 053d
000002b0: 5ab9 e9bc c1c3 6e3c 763e 503d eeb0 453c
000002c0: 44b9 d63c 5adc 5fbd 4c99 d0bc 2c3d 4dbd
000002d0: 6abb 8e3c efae 81bc f31b 4e3d 53c3 a0bc
000002e0: 50e4 913b c43d 10bd 3b00 debd 31f5 93bd
000002f0: 7a77 4abc eefe e3bd 29ca f0bd 538b 5a3d
00000300: ccbb f43c b40e fd3c f755 c3bc b9dd d8bd
00000310: 34f8 8dbd e8f4 cebc 27d6 b2bb 46d4 89bd
00000320: fc60 5fbd e1c1 7bbd af7f 803d a383 1abd
00000330: b10c c7bd 1e4d 1ebd 6c13 a63d 8806 e53c
00000340: 28ca 413d 1469 b63d 2f98 973c 73cc 11bd
00000350: 2f36 243d f995 c3bd cb0e 0b3c 31f6 a03a
00000360: 80e0 a8bd dec4 84bd 672f 55ba 2e2f 9ebc
00000370: 34dc e7bc 1789 b6bd 34d7 243d 9dee 60bd
00000380: c52e 9c3d 3156 7abc 0570 6dbd be3b e5bc
00000390: 4e22 8b3d befc 913d a60d 6bbd 5355 c83d
000003a0: 0dc4 18bd baee 9b3d 2f58 8c3d 3c1b d0bc
000003b0: 45a8 0bbd 68c4 a8bc 3213 8f3d 871e abbc
000003c0: f2d1 22bc 256e bd3b 5a92 87bd aabb 723d
000003d0: 9db3 8f3d 0a90 173d a663 073c 714c 0b3b
000003e0: 6a13 7d3b 0b11 27bb 726e 383d 5354 e5bd
000003f0: 5e00 ba3d a486 88bc 20f4 a13d 31f9 57bc

action_model._discrete_distribution.branches.0.bias f4 [25]
0.009986572 0.023804454 0.011898244 0.0126736155 0.00469407 0.007964852 -0.0049955733 -0.008018071
0.004207512 -0.0058822185 0.0065942043 -0.0037842188 -0.008668151 -0.0020269626 -0.007895676 -0.0044515096
-0.019319696 -0.012904709 -0.035432998 -0.0069531747 -0.0035996826 0.0015155292 0.03386653 0.017634105
0.0067363284
00000000: b89e 233c 8f01 c33c daf0 423c ffa4 4f3c
00000010: b7d0 993b 037f 023c e8b1 a3bb 3a5e 03bc
00000020: 2bdf 893b a0bf c0bb 3214 d83b a800 78bb
00000030: dc04 0ebc cad6 04bb de5c 01bc f8dd 91bb
00000040: 5744 9ebc 466e 53bc 3122 11bd 75d7 e3bb
00000050: a7e8 6bbb b9a4 c63a a1b7 0a3d 6675 903c
00000060: 6bbc dc3b
