Assets/Env5/Brains/MoveOverBridge.onnx (onnx, 153430 bytes, 8 tensors)

network_body._body_endoder.seq_layers.0.weight f4 [128, 9]
000000 19 ec 31 3e 55 ca 18 bf 88 38 92 bd ea b5 04 bd
       0.1737522 -0.59683734 -0.07139689 -0.03240005
000010 a3 c2 c9 be f6 08 2f 3e ba 90 e1 3e 23 4e df be
       -0.3940631 0.17093262 0.4405573 -0.436143
000020 82 76 7b bf 7d 4d 34 3e 5a d8 be be 1c 37 b5 be
       -0.98227704 0.17607684 -0.37274438 -0.35393608
000030 b3 4b f4 3e 47 5a 9a 3d 2b 17 55 be 15 3e a8 3e
       0.47714004 0.0753675 -0.20809619 0.32859865
000040 f7 e6 3e bd e8 84 59 bd 5c b4 c8 3d 0c b8 8b be
       -0.046606984 -0.053105265 0.09800026 -0.27288854
000050 81 ee 76 3f db 00 76 be 2b be 02 3f 19 df 2a 3f
       0.9645768 -0.24023764 0.51071423 0.6674667
000060 bf 73 29 3e c4 0b d9 3e 6f 4d 07 bf 1a 25 96 be
       0.1654806 0.4239179 -0.5285253 -0.2932518
000070 1a cf 48 bd bc b7 55 3f b2 ce 0d 3e 50 68 53 3f
       -0.049025632 0.8348348 0.13848379 0.82581043
000080 d5 91 c3 be ee 04 c1 be d6 80 17 be 57 5a 23 bf
       -0.381972 -0.37699074 -0.14795241 -0.6380972
000090 9c c5 05 3f cc 0b 13 bc 76 32 cd be a6 6a 8e be
       0.5225465 -0.008974981 -0.4007756 -0.2781574
0000a0 5d 7b cd 3d 2c 3c 51 be 04 ab 82 be de 18 2d be
       0.10033295 -0.2043311 -0.255211 -0.16904017
0000b0 a9 c4 7b be 7f 4f ab 3d 29 66 5f bf 44 2c 92 3d
       -0.24586739 0.08364772 -0.8726526 0.07137349
0000c0 ca c8 e9 3d 8c 0b c7 3e 7f f6 3a bf ff d2 09 3f
       0.114152506 0.38875997 -0.73032373 0.5383758
0000d0 d6 09 d1 3e 6e 01 ba be 34 d6 b9 be c1 71 0b 3c
       0.40827817 -0.36329216 -0.36296237 0.008511008
0000e0 a8 c2 1a 3e 3c f6 57 3e 55 22 b2 3b cf 48 81 3f
       0.15113318 0.21090025 0.0054362216 1.0100344
0000f0 7d f7 3b bd 20 5a cd be 5d 9b 21 3d 29 67 b6 be
       -0.04589032 -0.40107822 0.039454807 -0.3562558
000100 99 03 1b bf 83 ba 05 3f 18 19 78 3e 67 ef 43 3f
       -0.60552365 0.5223772 0.24228323 0.76537174
000110 63 58 03 3f 89 13 99 3c e7 09 9e bc 1d 07 83 be
       0.5130674 0.018686073 -0.019291831 -0.25591365
000120 bb 58 30 bd d1 a9 1e 3e 2c 76 0c bf 4a da 13 3e
       -0.04305337 0.15494467 -0.54867816 0.1443874
000130 68 9d 14 bd e1 6b 25 bf 01 5b c7 bd 2e 8b 57 be
       -0.036282927 -0.64617735 -0.097341545 -0.21049187
000140 dc 9a c2 3e ce 86 f1 3c 65 f0 3f be 30 04 a0 be
       0.38008773 0.029483225 -0.18744047 -0.31253195
000150 19 f2 bd be f7 89 c7 be 82 0c 1d be 0a 90 32 be
       -0.37098768 -0.38972446 -0.15336803 -0.17437759
000160 03 2e 8c 3c 3f c6 95 be ca d8 d0 be 5b 7a 5f bf
       0.017111784 -0.29252812 -0.40790397 -0.87296075
000170 34 30 d7 3d db 32 30 bf 0d bc 38 3d c4 59 29 3e
       0.10507241 -0.688276 0.045101214 0.16538149
000180 f7 2b 31 bf 59 fb 54 3d 87 46 6b 3e f6 f7 4f 3c
       -0.6920771 0.051997516 0.22976123 0.012693396
000190 2c 23 99 3e 4b 9f 2a be 0d 7a 41 be df 80 81 3d
       0.29909647 -0.16662328 -0.18894215 0.06323408
0001a0 7b 59 fe be ab fd 8b be c5 ca eb 3d 77 df 9f be
       -0.49677643 -0.2734197 0.115132846 -0.31225178
0001b0 73 61 fc 3e 69 b3 00 3e d8 a8 9d 3e d2 d1 23 bf
       0.49293098 0.1256844 0.3079288 -0.63992035
0001c0 97 73 bf 3e 4e 9d aa 3e 3f 5e a0 be 72 38 11 bd
       0.37392876 0.3332314 -0.31321904 -0.03545422
0001d0 63 0f d1 bd cb 59 2d 3e e7 9c 9c 3e 6f 12 35 bd
       -0.10208013 0.16928785 0.30588457 -0.044207033
0001e0 d5 87 91 3e c7 c2 f6 3e 6a b1 ae be 46 78 4d 3e
       0.28423944 0.48195478 -0.3411973 0.20065412
0001f0 31 dc 84 be 8b dc 33 3e 07 e4 b1 3d 4e df 3f bc
       -0.25949243 0.17564599 0.08686071 -0.011710955
000200 76 24 7c 3e 38 bc e9 be 60 dc 59 bd 7b b1 84 bc
       0.24623284 -0.45651412 -0.05318868 -0.01619791
000210 21 61 89 bd ea b3 e5 bd ac bf e7 3c 9d f3 01 bf
       -0.06707979 -0.112159565 0.028289638 -0.5076235
000220 f4 59 a1 be ae f6 32 3f b9 13 eb 3d 11 38 23 3f
       -0.3151394 0.69907653 0.11478371 0.63757426
000230 2c c4 2f be b5 02 05 bd 5b da 65 3f d1 42 d6 be
       -0.17164677 -0.032473285 0.8978631 -0.41847852
000240 23 af 2b 3f 45 cd b1 be 4a a3 71 3f bd 7e 01 be
       0.6706411 -0.3472692 0.94389784 -0.12646003
000250 26 f2 f6 3d 32 34 43 3e 81 66 5e 3e e0 72 08 be
       0.12057905 0.1906288 0.2171879 -0.13325071
000260 4f 5f de 3e 5e cd 4c 3e 01 8a 1f 3f 69 ba 42 bf
       0.4343209 0.20000216 0.6231995 -0.7606569
000270 c9 c5 b9 3c fd 3b 14 bf 37 eb d3 be a2 d9 a9 be
       0.02267732 -0.57904035 -0.41390392 -0.33173853
000280 c5 6b b7 be 8f 25 88 3f 13 34 f7 3d ce e3 37 bf
       -0.3582441 1.0636462 0.12070479 -0.7183198
000290 5b 18 11 be 38 a3 e1 3c 3c 72 51 be 19 19 2f 3f
       -0.14169447 0.02754365 -0.20453733 0.6839767
0002a0 7e 8c 52 be ad 7d f5 3e 7d 46 d3 be c7 2e 9c 3d
       -0.20561406 0.47947446 -0.41264716 0.076261096
0002b0 ce 4a 39 be b3 08 f8 3e 90 7c aa 3d eb 0a e7 be
       -0.18094942 0.48444137 0.0832454 -0.45125517
0002c0 6e 93 16 3e 87 2b 5a 3e 3b d2 ce 3e 2c 33 53 bf
       0.14704677 0.21305667 0.40394768 -0.8249996
0002d0 97 f7 ae 3e 83 c7 51 bd 6b 75 21 3e 35 61 30 3e
       0.3417327 -0.05121566 0.15767448 0.17224582
0002e0 ff 19 34 3c f1 3e dd 3e 6e 92 a8 3d fa c6 9c 3f
       0.010992526 0.43212083 0.08231054 1.2248223
0002f0 c5 b8 5d bf b0 09 0f 3f 1d dd 53 3e 6a 29 bb be
       -0.8661006 0.55874157 0.20689817 -0.36555034
000300 bd 88 3f bf 18 90 a7 3f e9 9d bd 3e 96 18 ff bc
       -0.7481802 1.3090849 0.37034538 -0.031139653
000310 0e 9a b2 3e f2 77 2c bf 48 c6 97 3b b7 6a 78 be
       0.3488316 -0.6737052 0.0046317913 -0.24259458
000320 7b 7e 34 bc 5e aa 3a 3f d9 e9 66 be 32 ad 6f bd
       -0.011016483 0.7291621 -0.22550143 -0.05851478
000330 2b 72 b9 be d7 42 d3 be 39 a8 a8 3e ba 0f f7 3d
       -0.36219916 -0.41261932 0.32940844 0.120635465
000340 d5 a7 4a bd 62 b9 53 3e 44 d4 ad 3e 03 43 aa be
       -0.049476463 0.20676187 0.33951008 -0.3325425
000350 e9 8f 31 3f 47 24 a2 3e 23 cc a4 3e fe 40 a3 be
       0.69360214 0.31668302 0.32186994 -0.31885523
000360 ec 3e 12 3e 97 ca 9d be c9 00 db bc 71 cf a1 3e
       0.14281815 -0.30818626 -0.026733773 0.31603578
000370 ea f1 80 3d b8 a6 aa 3e df 16 ea be 8f f1 fe bc
       0.062961414 0.3333032 -0.45720574 -0.031121043
000380 45 45 7b be 5b 6b 6b be 62 81 29 3e af 74 c7 be
       -0.24538143 -0.22990172 0.16553262 -0.3895621
000390 89 6f 0e 3e a6 cb 86 bc 45 16 ea be f1 5b f0 3e
       0.13909735 -0.016454529 -0.45720115 0.46945146
0003a0 f2 1f 26 3e 99 84 de be e2 7f 96 3e d7 8d 26 3f
       0.16223124 -0.4346054 0.29394442 0.6506018
0003b0 94 3d 06 3e 41 7b af 3e e7 98 fc 3d e7 fc 39 3f
       0.13109428 0.34273723 0.12333851 0.72651523
0003c0 64 f0 82 be ba 77 ec 3c 37 ab 39 bf 23 fd a6 bd
       -0.25574028 0.028865684 -0.7252688 -0.08153751
0003d0 0f b8 d2 3e e1 ac 86 3d 8f 34 12 3e d0 e8 fd bc
       0.4115605 0.06575943 0.14277862 -0.030994803
0003e0 03 61 11 3f 16 59 ef 3e 80 ea 0b be 7b c2 4f bf
       0.56788653 0.46747655 -0.13663673 -0.8115613
0003f0 2e 70 5c 3e cb 89 01 3e f8 4c 99 bd f9 51 88 bd
       0.21527168 0.1265022 -0.07485384 -0.0665626

network_body._body_endoder.seq_layers.0.bias f4 [128]
000000 05 2c 33 bd b2 c4 14 bc a9 64 df bc 4a 67 72 3d
       -0.043743152 -0.009080099 -0.027269678 0.059180535
000010 f2 87 f5 bb 59 b4 6b bd 10 c3 49 3d 2b 2e cf 3c
       -0.0074930126 -0.05754504 0.04925829 0.02529057
000020 cd 1f 48 3d de 1d 8d bd a1 d5 83 bd 08 e5 ac 3a
       0.048858453 -0.06890462 -0.06437231 0.0013190815
000030 00 41 11 bd 48 0b 52 3d fc e1 94 bd 87 7c 28 3d
       -0.03546238 0.05128029 -0.072696656 0.041134384
000040 21 08 58 bd 35 86 83 3d ba 7e 44 bd 2e 49 42 bd
       -0.052742127 0.06422082 -0.04797242 -0.04743307
000050 e3 66 0f 3d 5d 70 74 bd d9 5f 17 3d 15 6a a2 bc
       0.03501023 -0.05967747 0.03695664 -0.019825974
000060 1d 4e 58 bc 6b 41 4b 3d 5c ab 37 3d 23 4a 3f 3d
       -0.013202217 0.049622934 0.044841155 0.04670156
000070 70 af 52 3d 52 36 5c bd 4f 82 b8 bb 41 d8 5b bd
       0.05143684 -0.05376274 -0.0056307684 -0.053673033
000080 eb c4 25 3d 11 1c 95 3d 74 e0 81 3d d6 e8 0b 3d
       0.040471 0.07280744 0.06341639 0.034157597
000090 01 e8 86 bd 47 c7 73 3d 69 92 4c 3d 1e 89 4f 3d
       -0.0658722 0.059516218 0.049944315 0.050667875
0000a0 f2 87 61 3d 39 43 3e 3d 3d 4b 67 bd 3f e8 1a bd
       0.05506129 0.046450827 -0.056468237 -0.037819143
0000b0 df 00 e8 3c a4 d5 9a 3d 0e 63 89 bd 60 fe 34 3d
       0.028320728 0.0756028 -0.06708346 0.044187903
0000c0 98 25 58 3d fa 06 7f bd c4 a2 80 3d 1b b9 6e 3d
       0.052770227 -0.062262513 0.06281045 0.058282
0000d0 f0 9f 6e bd c6 ab 89 bd 0e ea 86 3d 9b 75 2f 3d
       -0.058257997 -0.06722216 0.06587611 0.042836767
0000e0 7f 26 47 bd 56 28 4b 3d 02 8a 21 bd 63 6d 87 3d
       -0.048620697 0.049599014 -0.039438255 0.06612661
0000f0 dc 7c 5a 3d 12 84 82 3d aa 68 74 3d 24 f9 41 3d
       0.05334173 0.06372847 0.059670128 0.04735674
000100 81 35 07 3d c1 b3 0d bd e5 8d 8f bd a8 01 76 3d
       0.03301001 -0.034595255 -0.07009486 0.060060173
000110 37 bd 90 bd 4f 92 83 3d af a8 70 bd af ec 6b 3d
       -0.0706734 0.064243905 -0.05875462 0.057598766
000120 79 df 1e bd 31 1e 97 3c 21 27 8f 3d 47 3b 8c 3d
       -0.03878734 0.018447014 0.06989885 0.06847244
000130 dd eb 85 bd 73 39 86 3d 49 d2 7e 3d 5c 5b d6 bc
       -0.06539128 0.06553926 0.062212262 -0.02616661
000140 e0 5f 9c bc 0d 56 5a 3d 90 b8 3c bd 22 94 70 3d
       -0.019088686 0.05330472 -0.04607445 0.05873502
000150 71 37 75 3d 05 31 50 3d 95 84 83 3d 8a c1 3b 3d
       0.059867326 0.050828 0.064217724 0.04583887
000160 75 18 8e 3d 0e 29 23 3d eb d4 13 bd 39 0c 83 3d
       0.069382586 0.039834075 -0.036091726 0.06398816
000170 a5 e5 85 3d 60 5d 14 3d e5 99 67 3d e1 99 78 bd
       0.06537942 0.03622186 0.05654325 -0.060693625
000180 3c 58 58 3d 91 45 29 bd 63 61 91 3d 16 77 4d 3d
       0.05281852 -0.04132611 0.07098653 0.050162397
000190 89 2b 9e 3c c6 0f 35 3d 62 28 27 bd a6 c1 72 3d
       0.019307869 0.044204496 -0.040809996 0.05926671
0001a0 74 a7 47 3d 22 0c 4c 3d 65 a5 40 3d a7 b1 cc bc
       0.04874368 0.04981626 0.047032733 -0.024987055
0001b0 a2 50 72 bd 99 af 55 3d 21 ea 72 bd fe de 3f bd
       -0.05915893 0.052169416 -0.059305314 -0.04684352
0001c0 b0 0a 20 bd 65 eb 99 bd e4 a9 84 bd e8 f1 3b bd
       -0.039072692 -0.07515601 -0.064777166 -0.045884997
0001d0 6a de 73 3d 1f 8e 00 bd 4f 7c db 3b 2c 94 45 bd
       0.059538282 -0.031385537 0.0066981683 -0.04823701
0001e0 02 bc 12 3d e8 c2 36 3d 12 62 8a 3d df 83 87 3d
       0.03582383 0.04461947 0.06756987 0.06616949
0001f0 9e c5 3f bd b6 5a 40 bd d1 ab db 3c 2a d7 64 bd
       -0.04681932 -0.04696151 0.026815327 -0.05586926

network_body._body_endoder.seq_layers.2.weight f4 [128, 128]
000000 81 c9 96 bd 6f 42 8a bd e0 02 c3 3d fe f5 80 3d
       -0.073626526 -0.067509525 0.09522033 0.06296919
000010 93 a2 11 bd 27 1a b6 3d 77 f8 2a 3e da 58 f2 3d
       -0.035555433 0.08891707 0.16696344 0.11833353
000020 7c af 56 bd 7f d3 7d bd 82 7e 66 3a 93 23 b6 3d
       -0.05241345 -0.061969277 0.0008792655 0.08893504
000030 10 40 19 bd 61 fc 97 3d b8 a3 5e 3d 69 03 ed 3d
       -0.03741461 0.07421184 0.054355353 0.11572916
000040 a8 9a cb bd 06 e8 f8 3c 93 87 b0 bd bc 58 3d 3e
       -0.09941608 0.030384075 -0.08619609 0.1849088
000050 5e a1 b8 3d 41 d3 95 bd 35 2c 00 3d 16 47 02 3d
       0.09015153 -0.07315684 0.03129216 0.031806074
000060 45 ca fd 3b 1e f4 28 be 6a 25 a6 3c 32 83 25 3d
       0.0077450597 -0.16499373 0.020281512 0.04040832
000070 2c 38 05 3d a9 15 fe 3d 0c 20 47 be 2c 5e 53 bc
       0.032524273 0.12406475 -0.19445819 -0.01290087
000080 f9 23 52 3e fe 77 94 3d f4 6b a8 3d 78 05 d8 3c
       0.20521535 0.07249449 0.082237154 0.026369795
000090 36 85 31 be 40 c2 1f 3c aa 63 25 bc e7 af ed 3b
       -0.17335972 0.009750903 -0.010094563 0.007253635
0000a0 8b a3 b4 3d a0 c3 11 3e bd 65 18 bb 12 a7 26 be
       0.08820256 0.14234781 -0.0023254 -0.1627467
0000b0 13 da 80 3c bb 8d 21 3d 2a 04 37 be 93 28 41 bd
       0.015728986 0.039441805 -0.17872682 -0.047157835
0000c0 07 a0 c6 3d 02 e8 b9 bc c9 d7 03 bc 34 ee 52 3d
       0.096984915 -0.022693638 -0.008047053 0.0514967
0000d0 1e c7 e9 3c 55 b2 4b 3d 8d d6 a9 3d 6b e4 16 3e
       0.02853733 0.049730618 0.082928754 0.14735572
0000e0 c7 52 2a 3c 1b df e8 3d da 56 fd 3d 6c af c6 bd
       0.010395712 0.11370679 0.12370081 -0.09701428
0000f0 f4 5d 13 3d ed dd b1 bd d9 ef 1f bc a6 17 3f 3e
       0.035978273 -0.08684907 -0.009761774 0.18661365
000100 91 82 12 be 3b 9c be 3c dc 0c dc bd 3e 60 ab 3c
       -0.1430762 0.023267856 -0.1074464 0.020919915
000110 28 1b 60 bd fb 46 8f 3c fe c3 b8 bc c9 70 37 bd
       -0.0547134 0.0174899 -0.022554394 -0.044785295
000120 4d 59 ca 3c 69 8a 58 3e 23 bd e3 3d 90 34 37 3d
       0.024700785 0.2114655 0.11120059 0.044727862
000130 b5 82 b3 3d 37 ff 20 3e 1b f5 d2 3d af ee 9b 3c
       0.08765165 0.15722357 0.103006564 0.019034712
000140 d5 93 0e be 05 bd 20 3e 1a 12 19 3d 22 17 38 3c
       -0.13923581 0.15697105 0.03737078 0.011235984
000150 21 48 27 3e a5 20 f4 3c 33 18 4a bb a6 ba 35 3d
       0.16336109 0.029800722 -0.0030837178 0.044367455
000160 ce 39 10 3e 0c 39 e3 bd 2b 87 d8 bc 6f 95 ec 3b
       0.1408455 -0.11094865 -0.02643164 0.0072199623
000170 f2 1b 84 3d 6e 8e 83 3e 9a 25 ab 3d c8 07 39 3e
       0.06450643 0.25694603 0.08356781 0.18069375
000180 01 57 a4 3c 6f 73 ea bd 5f 26 ac 3c 22 e2 81 bd
       0.020061018 -0.114477985 0.02101439 -0.063419595
000190 d4 6e 95 3d 89 8e 20 bc f3 f8 8d 3c 44 71 94 bd
       0.072965294 -0.009799608 0.017330622 -0.07248166
0001a0 63 8a bc bd 03 51 95 3d e2 db 67 bd 87 e0 35 3d
       -0.09206083 0.072908424 -0.05660618 0.04440358
0001b0 7a 7a 4d bd da 9e a0 3d 9f 4d 40 bc 6e a7 65 3c
       -0.05016563 0.078427985 -0.011737256 0.014016969
0001c0 17 ba ad bd 96 07 1f bb e7 34 62 bc bc d3 b7 3d
       -0.084827594 -0.0024265996 -0.013806558 0.08975932
0001d0 a1 1a e4 3d 0b b5 5c bd cd fa 06 3d 77 fe 0c be
       0.111378916 -0.053883594 0.032954026 -0.13768946
0001e0 57 a5 be 3c 59 26 10 3e 31 ba 89 bc ef fe ce 3a
       0.0232722 0.14077128 -0.016812416 0.0015792529
0001f0 94 cc f2 3c 74 f3 95 3d 6d 50 db 3d 7a 8b 94 bd
       0.029638566 0.073218256 0.107086994 -0.072531655
000200 a7 77 df 3b 93 f7 93 3d e2 1b e1 3c fe 8a 56 3d
       0.0068196836 0.072249554 0.027479116 0.052378647
000210 b0 98 d9 bc 7e 75 73 3e 59 2b 0b bd 8b b8 15 bd
       -0.026562065 0.23775288 -0.033976886 -0.036552947
000220 ba ef 5c 3d cd 60 0c 3c 72 45 f9 bb 10 e7 75 bd
       0.05393956 0.008568001 -0.0076071555 -0.06003481
000230 15 9d 19 be 72 1d 62 be 65 60 50 3d f3 d8 d9 bb
       -0.15001328 -0.22081545 0.05087318 -0.006648177
000240 11 fe e7 bb fe 96 71 bd 17 40 03 3d 20 be a0 bd
       -0.0070798476 -0.058981888 0.032043543 -0.078487635
000250 d4 e6 09 3d 97 b6 09 bd 57 28 32 be 61 67 d3 bd
       0.0336674 -0.033621397 -0.17398201 -0.10322452
000260 4f 93 1d 3e bf ae d8 bb 01 3c cf bd 29 63 00 3c
       0.15388225 -0.006612628 -0.10118867 0.007836142
000270 ba c3 32 3c 5e b3 c4 3d bd bd 02 3e 98 6b ce 3d
       0.010910923 0.09604524 0.12767692 0.10079116
000280 b1 a1 90 bc ca 3a b2 bd 6a 4e 88 bd 47 13 48 3b
       -0.017655225 -0.087026194 -0.06655581 0.0030529068
000290 94 c0 10 3e 2f 0b 84 be 52 b4 ed 3d ec e5 9e bc
       0.14135963 -0.25789782 0.11606659 -0.019396745
0002a0 7b af e8 bd 66 a7 1c be 2d 6b 70 3d 62 6c f3 3d
       -0.11361595 -0.15298232 0.05869596 0.11885907
0002b0 0c 34 d0 3d f3 23 ef bd 94 bb ec bc 79 76 7c be
       0.10166177 -0.11676779 -0.028898038 -0.24654569
0002c0 fa d8 da bd f9 c2 97 3d b9 11 4a be 3b f2 cf bd
       -0.10685916 0.07410235 -0.19733323 -0.10153624
0002d0 7f 9b 7d bd c6 52 70 bd 96 41 35 bd 39 b9 a5 bc
       -0.06191587 -0.05867269 -0.044252 -0.020229923
0002e0 ea b7 68 bd d3 59 c7 bd d4 b6 1f be b2 a6 20 bd
       -0.05681602 -0.097339295 -0.15597087 -0.039221473
0002f0 89 b9 32 be 10 99 88 3d 02 a8 b4 3d 9a 24 ad bd
       -0.17453589 0.06669819 0.088211074 -0.08454247
000300 04 c8 ad 3d 76 5a 30 3e 43 0b 41 3e cf 5c be bd
       0.084854156 0.17222008 0.18851952 -0.092950456
000310 01 bd c9 bd 56 be 89 bd 70 98 0f 3e d5 53 15 be
       -0.09850503 -0.06725757 0.14022994 -0.1458276
000320 00 f6 a6 3d 95 91 9f bd b1 83 41 3d eb 21 fd bd
       0.081523895 -0.077914394 0.04724473 -0.12359985
000330 07 1e 5e 3c c8 fa 39 be 44 d7 c1 bd 41 70 93 bc
       0.013556964 -0.18162072 -0.09464887 -0.017997863
000340 5d 11 dc bd b4 04 e0 3c 64 69 61 bc 79 10 3b 3e
       -0.10745499 0.027345993 -0.013758037 0.18268003
000350 0b 5b ef bd 39 5c e8 bd 66 9a 0c bc 55 de 11 bc
       -0.11687287 -0.11345715 -0.008581733 -0.008903106
000360 fa 71 aa bd 21 4c ad bd cd eb 1f 3e db 44 47 3b
       -0.083225206 -0.08461786 0.15617295 0.0030406031
000370 e4 f0 ca bd 38 54 a4 bd 29 88 47 bd 59 17 81 3c
       -0.099092275 -0.08023876 -0.048713837 0.015758203
000380 16 18 1d be 79 bc a9 3b 21 c4 45 bd b5 5e 7f bc
       -0.1534122 0.0051799384 -0.048282746 -0.015586545
000390 27 5b 9d bd 6e e4 80 3d fc 43 01 bc 81 ec 3e be
       -0.076834016 0.062935695 -0.007889744 -0.18644907
0003a0 4a e8 55 3d 4b e4 2f 3c e1 0e 5a be 3a ee c1 3d
       0.05222348 0.010735582 -0.21294738 0.09469266
0003b0 81 c9 33 3e 0f 56 8a be 60 74 9d 39 5f 77 b4 3d
       0.17557336 -0.27018782 0.0003003208 0.08811831
0003c0 74 e3 4c 3d 5b 24 fc 3d 36 39 6e 3c a3 30 27 3c
       0.050021604 0.12311622 0.014540007 0.010204467
0003d0 38 54 59 3d 05 4f b0 bd 0b eb 02 bc 30 61 1c 3e
       0.053058833 -0.08608822 -0.007990609 0.15271449
0003e0 13 03 ec bc da 62 10 ba a3 89 09 be 34 75 b3 bd
       -0.02881006 -0.0005507894 -0.1343141 -0.08762589
0003f0 f7 e9 64 3e 1a 71 c2 bc 7a b3 06 bd 5b 0b a8 bb
       0.22354876 -0.023735572 -0.032886006 -0.005128307

network_body._body_endoder.seq_layers.2.bias f4 [128]
000000 8e a8 4a 3d 27 6c 67 bd 1c 79 2e 3d 29 5e 18 bb
       0.049477153 -0.056499626 0.042595968 -0.0023249483
000010 4f 8d 2b 3d 88 44 7d 3d 18 b0 54 3d eb 62 32 3d
       0.04188281 0.061832935 0.05192575 0.043551367
000020 b0 ee 3c 3d e4 3a 6b 3d 2c 06 d6 3a 11 8e c9 3c
       0.046126068 0.05742921 0.0016328744 0.024603875
000030 ec e7 b5 bc a6 bc 4c 3d 1c 59 5b 3d da b2 55 3d
       -0.022205316 0.049984597 0.05355178 0.05217252
000040 d6 93 3a 3d 25 47 17 bd 84 1a 67 3d 6c 6d 6a 3d
       0.045551144 -0.036933083 0.05642177 0.05723326
000050 0c 38 06 bd d7 b0 40 3d 1a b1 26 3d a7 73 79 3d
       -0.032768294 0.047043648 0.04069624 0.06090131
000060 30 83 66 3d 95 81 83 3d 21 07 66 3d b8 69 00 3d
       0.056277454 0.064212 0.056159142 0.03135082
000070 a6 d2 5f bd ef 6e 42 bd 45 85 6e 3d 62 43 58 3d
       -0.05464425 -0.047469076 0.058232564 0.052798636
000080 f7 4a 55 3d ad 58 48 3d ff 3e 5e 3d ea 9f 7a 3d
       0.052073445 0.048912693 0.054259297 0.061187662
000090 0a e4 6c bd 12 33 01 bd 29 d8 f0 b9 5d 6d 5d bb
       -0.057834662 -0.031542845 -0.0004593742 -0.003378711
0000a0 bd 21 54 bd 97 25 73 3d 92 7a 08 bd b5 e4 2d bd
       -0.051789988 0.05936202 -0.033320017 -0.04245444
0000b0 5b 49 03 bd c2 5b 6c 3d 0b 77 6b 3d 4b 9b 19 3d
       -0.03205238 0.057704695 0.057486575 0.037501615
0000c0 fc f1 5c 3d f1 e3 ea bc 05 f5 6c 3d 91 30 7a 3d
       0.05394171 -0.028673144 0.057850856 0.061081473
0000d0 ad f3 70 3d 0d d3 61 3d fe bb 1e 3d 5f 0e 4b 3d
       0.058826137 0.055132914 0.038753502 0.049574252
0000e0 f1 f5 98 bc bf bc 1e bd 11 4f 53 3d 5d 68 4b 3d
       -0.018671962 -0.03875422 0.051589075 0.049660075
0000f0 4e ef 67 3d 32 b6 15 bd a8 88 61 3d ca 81 6e bd
       0.056624703 -0.036550708 0.055061966 -0.058229245
000100 de f7 d8 bb 92 9b 25 3d 44 e8 55 3d fc 23 28 bd
       -0.006621345 0.040431567 0.05222346 -0.041049942
000110 6d 4f 67 3d af 56 c5 bc d8 f3 2e 3d 40 a0 39 3d
       0.05647223 -0.024089186 0.042713016 0.045318842
000120 55 ba 6a 3d cf fc b7 3c 42 c3 4d bd fb a7 16 3d
       0.057306606 0.022459416 -0.05023504 0.036781292
000130 6f 0d 25 bd d6 5f f9 bc 5c e1 58 3d 35 aa 13 3d
       -0.040296014 -0.030441206 0.052949294 0.036050994
000140 41 ba 60 bd 64 e1 3a bd 2c 68 52 3d ba 97 f5 bc
       -0.054865126 -0.045625106 0.051368877 -0.029979575
000150 43 4d 56 3d a6 45 2f 3d 2c 4b 58 bd d1 72 2d bd
       0.052319776 0.04279103 -0.052806064 -0.042345826
000160 cc e0 8d 3d 34 23 84 3d 72 fa 65 3d de 1c c2 bc
       0.06927642 0.06452027 0.056147046 -0.023695406
000170 45 49 3a 3d 19 cb 3e bd cf 92 60 3d f2 f9 5d 3d
       0.04548003 -0.046580408 0.054827508 0.054193445
000180 bf f8 4c 3d 34 61 d2 bc 02 1f 1f bd 57 3d 12 3d
       0.05004191 -0.025681116 -0.03884793 0.03570303
000190 48 64 56 bd ad 19 17 bc d6 52 1e bc 25 a8 5d 3d
       -0.05234173 -0.00922243 -0.009663304 0.054115433
0001a0 d3 40 53 3d 54 8b 35 3d a9 8c 97 bc 28 44 49 bd
       0.051575493 0.044322327 -0.01849969 -0.049137264
0001b0 b2 e0 65 3d 38 cc c3 bb a7 72 01 3d 75 f0 6a 3d
       0.05612249 -0.0059752725 0.03160348 0.057358224
0001c0 58 8f 62 3d ad 39 81 3d c9 16 02 3d a5 16 79 3d
       0.055312485 0.06309829 0.03176001 0.06081261
0001d0 ed 36 6e 3d a1 e4 50 3d 5a 9e 67 bd 35 7a 34 bd
       0.05815785 0.050999288 -0.0565475 -0.04406186
0001e0 cf f7 32 bd 70 07 35 bd e8 10 46 bd 5f d6 23 bd
       -0.04369336 -0.044196546 -0.048355967 -0.039999362
0001f0 21 ad 43 bd d8 15 19 bd 06 b7 37 3d f2 b2 4c bd
       -0.04777253 -0.037374347 0.04485228 -0.049975343

network_body._body_endoder.seq_layers.4.weight f4 [128, 128]
000000 24 94 5e be 8a 61 ab 3c 65 ba 30 3d fb 59 66 bd
       -0.21736199 0.020920534 0.04314651 -0.056238156
000010 05 98 58 3e fc d6 c7 3c 92 82 c4 3d 0a 39 da 3d
       0.21151741 0.024394505 0.09595217 0.106554106
000020 58 46 20 3e 56 a7 bf 3d 69 41 4f 3c 54 41 6e 3d
       0.15651834 0.09358089 0.012649872 0.05816777
000030 ea 5c f2 bd b7 4d 42 3e d2 3d d1 ba b3 38 76 3d
       -0.11834128 0.18974958 -0.0015963858 0.060112666
000040 50 d3 27 3e 4b e7 f4 bc d9 b2 17 3e a4 f9 28 3e
       0.16389203 -0.029895445 0.14814319 0.1650148
000050 b6 6c dd 3d 15 2b 28 bd f7 d0 b5 3d 3d 3d 8b 3e
       0.108117506 -0.04105671 0.088777475 0.2719516
000060 cb 65 b2 3d 17 6e 05 3d ab 6b d5 bc d0 7b 23 3e
       0.08710822 0.032575693 -0.026052317 0.159652
000070 6a 3b 27 be 9b 19 41 3d b7 8f 84 bc 47 cf 93 3e
       -0.16331258 0.04714356 -0.01618181 0.28869078
000080 c2 de fb bd 88 ba d7 bd f3 89 3d bd 04 0e a9 bd
       -0.12298347 -0.10533625 -0.046274137 -0.082546264
000090 c9 b3 38 bd 55 dc 72 3e 6a 0e 11 3e 99 cc 3f bd
       -0.04509333 0.23716862 0.14165655 -0.04682598
0000a0 e5 fc 18 bd d0 5e 72 3e ea 31 3c 3e a7 98 3a bc
       -0.037350554 0.2366898 0.18378416 -0.011388934
0000b0 23 3c 4c bc 54 e6 09 3e e9 61 07 be 8c f2 75 3d
       -0.01246551 0.1346677 -0.13220944 0.060045764
0000c0 05 27 f6 3c db 1b 36 bd 45 ac 2f bd 81 d0 9a 3d
       0.030047903 -0.04446016 -0.0428889 0.075593
0000d0 51 7e 28 3d 99 26 30 3e 01 86 98 bd 3d db 85 bd
       0.04113609 0.17202224 -0.07447434 -0.06535957
0000e0 9e 93 06 3e a6 20 bc 3d d6 40 a8 37 15 ae 88 3e
       0.13142249 0.09185915 2.0057352e-05 0.26695314
0000f0 df 0b 9f 3d f9 5a 9c 3d cc c7 39 3d 88 e2 de bc
       0.07765936 0.07634539 0.045356557 -0.027207628
000100 3d ea 50 3d 6d ec 06 3e fc d7 db 3d 7d c1 84 3b
       0.051004637 0.13176127 0.10734555 0.004051386
000110 55 05 20 bd 32 e9 02 3c db 52 bc 3d f0 79 d3 bd
       -0.039067585 0.007990168 0.09195491 -0.10325992
000120 4f 5b 82 bd 31 5d 1b 3e 7c d4 9a 3a 40 82 07 3d
       -0.06365072 0.15172268 0.0011812593 0.0330832
000130 90 af bb bd 6f d9 66 bd c5 bf 64 3e d1 1c 92 bb
       -0.09164345 -0.056359705 0.2233878 -0.0044590016
000140 58 30 e3 bd 4d 45 81 be 50 d2 fe 3c 92 3c c2 3c
       -0.11093205 -0.25248185 0.031106144 0.023710523
000150 03 6f 88 bd 48 10 9b 3d ad ad 94 bd 3d 69 b9 3a
       -0.06661799 0.07571465 -0.072596885 0.0014145743
000160 84 f6 af 3d b9 d8 e4 bc 7e e2 f9 bd c7 d8 51 3e
       0.08591941 -0.027935373 -0.12201403 0.2049285
000170 d4 9f a7 3d 53 7c 59 be f6 5a 1a bd 77 af 08 3d
       0.08184782 -0.21238832 -0.037684403 0.03337046
000180 09 aa 98 3c 39 7c 06 3e 6c c5 47 3d 63 56 37 3e
       0.018635767 0.13133325 0.04877226 0.17904048
000190 ee f3 11 be aa 3b ed 3d 16 de 93 3e b2 42 fe 3d
       -0.14253208 0.11583646 0.28880376 0.12415065
0001a0 98 fe 83 3e 9e a1 58 be ef a8 f8 3d ee e5 22 be
       0.25780177 -0.21155402 0.121415965 -0.15908024
0001b0 51 f6 b8 3d b0 b5 e5 3c 71 24 3b be f3 e6 95 3e
       0.09031356 0.028040737 -0.1827562 0.29277763
0001c0 30 9a 2a 3e db bb 68 3d e2 75 a8 3d e6 ee 81 bc
       0.1666038 0.056819778 0.08225609 -0.015860986
0001d0 b5 e0 ae 3d bf b6 e6 3d 70 e0 19 be 0b 05 1c bc
       0.08538953 0.11265325 -0.15027022 -0.009522687
0001e0 a3 ad 4c bd b5 ad b3 3b 48 a6 b6 bd 6a 1f 58 b9
       -0.04997028 0.005483354 -0.089184344 -0.00020611068
0001f0 53 d0 70 bd f8 a4 93 3c 21 95 27 3d be 08 a5 bd
       -0.058792423 0.018023 0.040913705 -0.08058308
000200 ad 80 e8 3d 10 aa 8e be 86 1d 79 3d 1f c7 ae 3d
       0.11352668 -0.27864122 0.06081917 0.08534073
000210 d2 d1 13 be a6 83 86 3c 39 96 86 bb 42 c5 c6 3d
       -0.14435509 0.016420197 -0.0041072634 0.09705593
000220 2e 2d 6c 3b ce 30 89 bc 6a 93 b8 bd 13 10 66 3d
       0.0036037671 -0.016746905 -0.09012492 0.056167673
000230 ce 98 22 be 64 a3 06 bd 73 9d 78 3c a2 9d 11 3e
       -0.15878603 -0.032870665 0.015174258 0.14220288
000240 1d d4 94 bc 0f 68 c2 3d 86 cc f1 bb 9e a8 08 3e
       -0.01816755 0.09492504 -0.0073791174 0.13345572
000250 06 aa b2 bd 31 0c 31 3d 01 3c 46 3e d9 e6 69 3d
       -0.08723836 0.043224517 0.19358827 0.05710492
000260 da 87 81 3d 09 7a c1 3d 25 3e 2e 3e 4b 64 17 be
       0.0632474 0.094471045 0.17015894 -0.14784352
000270 45 aa 63 be 05 f3 78 bb ae ef 64 3e 2b f3 3a 3d
       -0.22232921 -0.0037986648 0.22357056 0.04564206
000280 e4 50 4d 3e 75 5a 2a 3e f1 91 13 3d 13 a5 23 3d
       0.20050389 0.16636069 0.036027852 0.03995235
000290 39 e3 fe bc 27 53 cf 3c 9a f3 db bc 30 48 1e 3d
       -0.031114208 0.025308205 -0.026849557 0.038643062
0002a0 61 74 c7 bd e7 23 da 3d 7e c3 00 be 9a b2 e0 bc
       -0.097389944 0.10651379 -0.12574574 -0.027428914
0002b0 1e d4 00 bd 40 7e ef 3d 6e 48 fa 3d e6 de 07 bd
       -0.03145229 0.11694002 0.12220846 -0.033171557
0002c0 cf c0 2a bd 4e a1 9a 3d 0c 1d 96 bc 7b f1 4d 3d
       -0.041687783 0.07550298 -0.018324398 0.05027912
0002d0 9c 79 94 bd c8 86 01 3d b2 0e 09 3e 7d d4 15 bc
       -0.07249758 0.031622678 0.13384512 -0.009144899
0002e0 6c 84 0e be bb 46 14 3c 0b 97 65 3d 0a 22 ed 3d
       -0.13917702 0.009050067 0.05605225 0.11578758
0002f0 e4 c2 77 3c b9 a7 0c bc 92 cb b4 bd 53 0c 6a bd
       0.015122149 -0.00858491 -0.088278905 -0.05714066
000300 69 3c 3a 3d 00 72 2b be c3 8e 3e bd 57 31 7a bc
       0.045467768 -0.16742706 -0.046522867 -0.015270553
000310 fb 2f 06 3d b7 eb 42 bd 39 fc 48 bd 97 1b 68 bd
       0.0327606 -0.047588076 -0.049068663 -0.056666937
000320 df 3b 4b 3e 99 6c 4b bd da e6 e0 3c b4 bd a3 be
       0.19847058 -0.049664114 0.027453829 -0.3198067
000330 08 83 6c be 81 21 06 3d 66 5d 3e be ce 6f 92 3d
       -0.2309686 0.032746796 -0.18590316 0.07150231
000340 55 da 28 be 7b 4a 91 bd 58 2a e4 bc 74 ae cc bd
       -0.16489537 -0.07094284 -0.027852222 -0.09994212
000350 d5 fd fb 3c c1 59 a4 bc e9 1a a1 3c c1 57 3c be
       0.030760685 -0.02006233 0.019666152 -0.1839285
000360 a4 42 bb 3d 89 74 c5 3d 53 c7 42 3e 05 bc 57 3d
       0.0914357 0.09641368 0.19021349 0.052669544
000370 0f 6b b3 3d bb 8a 6d 3d 66 bb 4d 3e e7 91 00 bd
       0.08760654 0.05799363 0.20091018 -0.031389143
000380 52 70 88 bd dc 32 0a be d2 b6 00 be 82 93 02 be
       -0.066620484 -0.13495964 -0.1256974 -0.12751582
000390 03 96 41 bd 9f 55 21 bd ca 2d 36 be 4f fb 08 3e
       -0.047262203 -0.039388295 -0.17790905 0.13377117
0003a0 f4 2c 80 3d 99 27 7b bd 59 05 87 bc aa a7 1e be
       0.06258574 -0.06131706 -0.016482042 -0.15493646
0003b0 54 7a 93 3d e8 79 13 3d 3d ee 19 3e 96 bc fa 3d
       0.072010666 0.03600493 0.15032287 0.12243001
0003c0 c5 ea 1c 3d ee 83 7f bd 65 01 ba bd 0d fd 1f 3e
       0.03830983 -0.062381677 -0.09082297 0.15623875
0003d0 cd 66 3e 3e ac fc 23 3e 44 59 0f bc 72 2d 33 bd
       0.18593903 0.16014355 -0.00874931 -0.043744512
0003e0 5b c4 cc bd 28 9c 26 be 99 1e 3c bd 30 68 53 be
       -0.09998389 -0.16270506 -0.045927618 -0.20645213
0003f0 c9 89 86 be 62 65 de bd 2c 06 61 3c f5 ec 1b 3b
       -0.26276997 -0.10859181 0.013734382 0.002379236

network_body._body_endoder.seq_layers.4.bias f4 [128]
000000 7a 08 3d 3d 26 bc 51 3d 8e b5 29 3d ab 9d 25 3d
       0.046150662 0.051204823 0.04143291 0.040433567
000010 4c 66 d7 3c 3e ea 31 3d 46 56 1e 3d c8 21 34 3d
       0.026293896 0.04343628 0.038656496 0.04397753
000020 84 41 0a bd 54 c9 37 3d c7 e6 07 bb 12 3d 37 3d
       -0.033753887 0.044869736 -0.002073692 0.044735976
000030 39 79 3c 3d 1d 29 c2 ba e9 84 06 3d d4 c4 38 3d
       0.046014044 -0.0014813278 0.032841597 0.045109585
000040 8a 36 cb bc a9 ff eb 3c a1 20 74 bc 6c 06 42 3d
       -0.02480628 0.028808432 -0.014900357 0.047369406
000050 6b 05 00 bd a2 13 24 3d 01 c3 3a 3d dc 1a 02 bd
       -0.031255167 0.040057786 0.045596126 -0.031763896
000060 17 07 c8 bc e0 37 bc 3c 38 38 f4 bc 48 05 2e 3d
       -0.024417443 0.022975862 -0.029811963 0.042485505
000070 57 76 2b 3d 67 6d 2d 3d 4e 29 0a 3d 23 03 44 3d
       0.041860905 0.042340662 0.033730797 0.047854554
000080 0f a4 22 3d 89 cb 4c 3d 0e 93 29 3d 78 4b 67 bc
       0.03970724 0.049998794 0.041400008 -0.014117114
000090 9a cd 3b 3d 0a 2a 32 3d c8 8c f8 bc 99 ce 38 3d
       0.045850374 0.043497123 -0.030340567 0.045118902
0000a0 f0 bb 14 3d 48 f5 13 3d b6 68 4b 3d 2a df 21 3d
       0.036312044 0.03612259 0.049660407 0.039519466
0000b0 e5 e2 78 3c e7 5a 27 3d 6d 46 d5 bc c1 7d 29 3d
       0.015190815 0.040858176 -0.026034558 0.041379694
0000c0 eb 32 27 bc 32 55 d2 3c 55 c2 95 3c c9 b8 18 3d
       -0.010205011 0.02567539 0.018281141 0.0372856
0000d0 09 0a bd bc 37 a5 e7 bc b3 6f ee bc f6 df 73 bc
       -0.023076074 -0.028277023 -0.029105997 -0.014884939
0000e0 93 b3 2d 3d 89 03 16 3d e9 94 e5 3c 4b 41 51 3d
       0.042407583 0.036624465 0.028025107 0.05108766
0000f0 94 a9 2d 3d c5 81 39 3d f9 60 1b 3d 1b a7 48 ba
       0.04239805 0.045289773 0.037934277 -0.0007654295
000100 9d 9c 80 bc 8b eb 16 3d 45 35 16 3d 02 d9 b7 3c
       -0.015699679 0.036845725 0.036671896 0.022442345
000110 d7 88 ce bc 58 fa 1e 3d 5d ff 3c 3d e8 1d 35 3d
       -0.025211735 0.038812965 0.04614197 0.044217974
000120 2c 65 e2 bc f6 05 42 3d 3e df f0 bc af 07 28 3d
       -0.027636133 0.047368966 -0.029403325 0.041022953
000130 1b d1 06 bd 3a 33 ef bc 1b e1 35 3d 03 78 4c 3d
       -0.032914262 -0.029199231 0.04440413 0.04991914
000140 ea e9 20 3d d4 48 dc bc 90 4a 41 3d f0 a1 33 3d
       0.039285578 -0.026890196 0.04719025 0.043855608
000150 f6 7c f7 bc 1d c4 ac 3b ab b7 fd 3c 59 f3 3f 3d
       -0.030210953 0.005272402 0.030971369 0.046862934
000160 90 a2 21 3d 70 d8 35 3d 62 af 32 3d 31 ee a6 bc
       0.039461672 0.044395864 0.04362429 -0.02037725
000170 7b 4d af bc 1a 31 42 3d ff 79 70 3c d6 a1 5e bc
       -0.02139925 0.04741011 0.014677524 -0.013588389
000180 45 b7 c0 bc 83 a8 ef bc 5e bb 4b 3d a6 bc 34 3d
       -0.02352489 -0.029255157 0.049739234 0.04412522
000190 de 9f 9a bc d0 1d 22 3d 15 3c dc bc 85 5d 98 3c
       -0.018875059 0.039579213 -0.026884118 0.018599281
0001a0 34 96 44 3d e6 b1 0c 3d db d9 d9 bc b7 b8 f9 bc
       0.047994807 0.034349345 -0.02659314 -0.030483587
0001b0 72 e0 18 3d 4f 49 08 3d 2f d7 f0 bb c4 47 2b 3d
       0.037323423 0.033273038 -0.0073498706 0.041816488
0001c0 c5 49 81 bc 2d 3c c9 bc 2a c7 ea bc 01 4f 28 3d
       -0.015782246 -0.024564827 -0.028659422 0.04109097
0001d0 05 4f 1c 3d e4 db ff bc 82 1f 30 3d 33 e0 d1 bc
       0.038161296 -0.031232782 0.0429988 -0.025619602
0001e0 93 e4 45 3d a4 3d 18 b8 eb c7 a0 bc 70 83 ac 3c
       0.04831369 -3.629703e-05 -0.019626578 0.021058768
0001f0 16 a7 ed 3c a7 16 33 3d 61 e7 33 3d 69 f6 4d 3d
       0.029010337 0.043722775 0.043921832 0.050283823

action_model._discrete_distribution.branches.0.weight f4 [25, 128]
000000 39 29 41 bd 27 6e c1 bb e0 69 13 bd 62 61 f4 bc
       -0.047158454 -0.0059030238 -0.035989642 -0.029831592
000010 d3 43 1f ba 25 6a ed bc 53 b5 e5 bc 13 33 20 bd
       -0.0006075475 -0.028981278 -0.028040564 -0.03911121
000020 6e 9b bd 3b 0e 46 7e bc 5c c0 13 3d a7 2d 06 bd
       0.005786351 -0.015519632 0.03607212 -0.03275838
000030 11 73 fd bc be 39 35 3c 37 87 14 bd 15 6e ef bc
       -0.030938657 0.01106113 -0.036261763 -0.029227296
000040 43 1f 89 3c 3c 36 0a bd fd 6a a0 3c c5 cd 82 bc
       0.01673854 -0.03374313 0.019582266 -0.01596726
000050 c3 91 8e 3c 26 8f 4e bc d3 ad 74 bc b2 3f f6 3c
       0.017403489 -0.012607371 -0.014934021 0.03005967
000060 e9 e0 b5 3c 43 89 11 3d 3f 95 d4 3c a5 2c 4a bc
       0.022201972 0.035531294 0.025950072 -0.012339746
000070 1c 7a 75 bd ca dc ba bc 96 4c d5 bc c0 f1 dc bc
       -0.059930906 -0.022810359 -0.026037496 -0.026970744
000080 87 a6 aa bc f1 4a 3f bb 90 08 ec bc 21 97 e2 3c
       -0.02083136 -0.0029188956 -0.028812677 0.027659955
000090 63 85 44 bc 39 59 60 bb 3e f2 d6 3c c3 22 be bc
       -0.0119946925 -0.0034232868 0.026238557 -0.023209935
0000a0 ef e7 e3 bc 98 d9 24 bd f8 d4 4c bc 45 f0 d3 bb
       -0.027820555 -0.040246576 -0.012501948 -0.0064678513
0000b0 1f ca 6e bb c7 64 2c bc ac d1 2a 3d 89 17 7b bc
       -0.0036436392 -0.010522074 0.041703865 -0.015325435
0000c0 65 65 c1 3c 09 45 d3 3c 78 46 57 bc b6 e8 f8 bc
       0.023607919 0.025789754 -0.01313936 -0.030384403
0000d0 ad ae b6 3b b4 78 c8 3c 9b 7f 71 3b ad 77 09 3c
       0.005575022 0.024471618 0.003684974 0.008390349
0000e0 e5 03 5a bd 33 6c a2 bc 66 d6 17 bd bf 33 90 bc
       -0.05322637 -0.019826984 -0.0370697 -0.0176028
0000f0 c1 51 9d bc 81 10 1e bd 4c b9 f9 bc ff c7 d9 3c
       -0.019204022 -0.038589958 -0.030483864 0.026584623
000100 5f f7 d3 3b f8 d1 9d 3b 39 2b 07 bd 9d 1e a8 3c
       0.006468698 0.00481629 -0.033000205 0.02052241
000110 a1 15 2c 3c 9b 1c dd bc 26 8f bb bc 5d 89 07 bd
       0.010503204 -0.02699118 -0.022895407 -0.033089984
000120 e9 2d 05 3c 8c df ec bc fc cd 0a 3d 6f 17 96 bc
       0.008128622 -0.02891519 0.03388785 -0.01832172
000130 23 6e bf 3c 5b 4a c3 3c e1 bb 0f bc db 37 20 bd
       0.023367947 0.023839166 -0.008772821 -0.039115768
000140 32 01 3e bc d7 78 09 3d 2d 6a 85 bc 9b 86 2b bd
       -0.011596965 0.033562507 -0.01628598 -0.041876417
000150 cb 36 e7 3c bb a4 d2 bc 56 ba 37 bd ed ed 1c bc
       0.02822437 -0.025713315 -0.04485544 -0.00957821
000160 d6 a5 d2 bc a2 ff c9 bc 13 7c e7 bc 3a db f2 3c
       -0.025713842 -0.024658028 -0.028257405 0.029645551
000170 c4 8e 8d 3c 6d f0 18 bd 58 7c 9b bc 54 d3 d3 3c
       0.01727999 -0.037338663 -0.01898019 0.025857605
000180 a1 22 00 3d 55 30 bd 3c e0 a3 9a bc db f3 a1 bc
       0.031283025 0.023094336 -0.01887697 -0.0197696
000190 87 f3 bb 3b ed 36 1b bd 19 25 ca 3c 7a 25 00 bd
       0.005735818 -0.03789418 0.024675893 -0.03128574
0001a0 64 49 e7 bc 82 09 96 3c 26 ca cb 3c 29 b8 cd 3c
       -0.028233238 0.01831508 0.024876665 0.025112228
0001b0 85 71 db bc 26 47 16 bd f4 61 be 3c ff e0 88 3c
       -0.026787529 -0.036688946 0.023240067 0.016708849
0001c0 a3 d4 c7 3c 05 db 42 3c 32 9a 45 3a c9 dd 02 bd
       0.024393385 0.011893039 0.00075379305 -0.031949792
0001d0 30 ff 27 bb 6d 3d 5b 3c 7b 2e 0b ba 5c 4d 2e 3c
       -0.0025634281 0.013381344 -0.00053093553 0.010638561
0001e0 2f eb bb bc 0d 3b e4 3b ea 24 ae 3c 40 b0 27 3d
       -0.022939293 0.006965047 0.021257836 0.04093957
0001f0 46 68 0d 3d f5 f6 b3 bc ff ab c4 bc 13 a3 1a bd
       0.03452327 -0.021968344 -0.024007795 -0.037753176
000200 d5 d5 4b bd 45 06 bb bc 17 83 4f bd e3 57 3b bd
       -0.049764473 -0.022830138 -0.050662126 -0.045738112
000210 11 da d7 bc 84 f1 a6 bc 00 fb 11 bd e6 79 08 bd
       -0.0263491 -0.020378835 -0.035639763 -0.033319376
000220 e6 b2 46 3c ea b2 80 bc 8b e1 36 3d 61 f6 f9 bb
       0.012127614 -0.015710313 0.04464869 -0.0076282476
000230 bb 87 d5 bc 95 53 98 3c 80 32 51 bd 77 07 c9 bc
       -0.026065698 0.018594543 -0.05107355 -0.024539692
000240 8d d4 9c 3c a6 40 64 bd 61 5b 2f 3b 12 19 ab bc
       0.01914432 -0.055725716 0.0026757347 -0.020885978
000250 02 f6 1b 3d 10 17 b6 ba 96 78 8e bb f1 de d4 3c
       0.03807641 -0.0013892371 -0.004347871 0.025985213
000260 7a d9 e7 3c a4 14 30 3d f4 f8 c5 3c 06 90 2b bc
       0.028301943 0.042988434 0.024166562 -0.01047135
000270 90 f1 5f bd 7e 2e bd bc bc 2b f2 bc 58 0e fc bc
       -0.05467373 -0.023093458 -0.02956187 -0.030768558
000280 7f 21 5e bd ee d6 85 bc 88 37 7d 3a 16 c4 8a 3c
       -0.054231163 -0.016337838 0.0009659459 0.016939204
000290 21 6f c6 bc f2 83 bb bb 1d 42 a6 3c 53 f4 c2 bb
       -0.024222912 -0.005722516 0.020295197 -0.005949536
0002a0 c8 88 3d bd 56 d6 2a bd cd f5 db 3c 79 c6 8d 3b
       -0.046273023 -0.041708313 0.026850605 0.0043266383
0002b0 29 36 05 bd 0d 09 c9 3c 28 86 31 3d 60 04 94 bb
       -0.032522354 0.024540449 0.043340832 -0.004517123
0002c0 83 1f 46 3d 57 a0 1a 3d 40 28 62 bd 16 9d 72 bd
       0.048369896 0.03775057 -0.055214167 -0.05923184
0002d0 88 78 06 bc 7f 93 23 3d e9 ea c3 3c 7a 53 9b 3c
       -0.008207448 0.039935585 0.023915725 0.018960703
0002e0 59 37 85 bd ec 96 49 bd f8 76 f3 bc 72 db 0d bd
       -0.06504697 -0.049216196 -0.029719815 -0.034633107
0002f0 a3 5c af bb cc e5 24 bd 35 3b 23 bd 6b 3b 3c 3d
       -0.0053516193 -0.040258214 -0.039851386 0.045955103
000300 23 bc 9b 3c db c4 ef 3b 6b 53 31 bd 7f 5a 08 3d
       0.019010609 0.007317168 -0.043292444 0.03328943
000310 8c ea 9b 3b a8 bc ea bc e3 14 55 3c d6 d7 ac bc
       0.004758185 -0.028654411 0.013005468 -0.021099012
000320 6f 0e ae 3b 32 c5 60 bd 02 ab 13 3d 2e 3e e7 bc
       0.005311779 -0.05487556 0.036051758 -0.028227892
000330 0e 80 ca 3c cf 54 9c 3c b6 b1 a1 3b ac e5 31 bd
       0.024719264 0.019083409 0.004934515 -0.043431923
000340 9e b6 a8 bc d6 56 7b 3c 36 60 39 bc bb 05 7f bc
       -0.020594891 0.0153405275 -0.011314442 -0.015565331
000350 47 d1 e8 3c 2e 20 55 bd d2 cf 31 bd 3d 9f cf 38
       0.028420104 -0.052032642 -0.043411084 9.9001896e-05
000360 23 ca 5a bc d3 2d fd bc 75 c7 24 bc 5a e0 71 3c
       -0.013353857 -0.03090564 -0.01005732 0.014762962
000370 7f b0 d1 3c 3d 38 90 3a 11 e3 39 bd f8 07 e4 3c
       0.025596855 0.0011003088 -0.045382563 0.027835831
000380 77 34 3a 3d af 29 18 3d ba ed d8 bc 9c 8d c1 bc
       0.04546019 0.037149128 -0.026480544 -0.023627095
000390 4e 05 99 3c ad ee 19 bd 2f ca 1e 3d 1b 22 c6 bc
       0.018679287 -0.037581135 0.038767036 -0.024186185
0003a0 4e 5f 4f bd d9 57 12 3d 8e dc b3 3c 8b 6b 81 3c
       -0.050628 0.03572831 0.021955755 0.01579835
0003b0 d3 b6 3b bd 59 88 14 bd c3 ce e3 bb 8c d8 de 3c
       -0.04582865 -0.036262844 -0.006952138 0.027202867
0003c0 a6 20 92 3b 68 59 f7 3c cb 9b b1 3c b1 b9 04 bd
       0.0044594584 0.030194 0.021680733 -0.03240365
0003d0 a7 1e 32 3c da ca f2 3c 0b 27 e1 bb d4 6f 86 3c
       0.010871566 0.029637743 -0.0068711094 0.016410746
0003e0 f8 2a af bc 94 6c e3 3b 15 1b c7 3b 0e 2f 4d 3d
       -0.021382794 0.0069404338 0.0060762265 0.050093703
0003f0 89 60 47 3d ce cf 88 bb 11 25 a5 bb 8f 9b 86 bd
       0.048676047 -0.004175163 -0.005039819 -0.06572639

action_model._discrete_distribution.branches.0.bias f4 [25]
000000 82 4e 90 bc 60 5b a8 bc 2d aa 05 bc 7a 0b 4a 3c
       -0.01761556 -0.020551383 -0.008158249 0.012331838
000010 4d 95 88 3c 0e 56 a1 bc 7b 06 79 bc 35 b0 71 bc
       0.016672755 -0.019694354 -0.015199299 -0.014751484
000020 e5 76 14 3b da 8a e3 3c 2a 19 b4 bc 6f a0 6b bc
       0.0022653874 0.02777617 -0.021984655 -0.014381512
000030 c1 52 e0 bb 73 6c c4 3b f0 45 0b 3d f7 fb dd bc
       -0.0068458025 0.0059943735 0.034002244 -0.027097685
000040 5d 6a 67 bc 4f 45 ba bb 38 c3 da 3b fa 1c bf 3c
       -0.01412448 -0.0056845318 0.006676104 0.023329247
000050 95 16 8e bc 77 e9 91 bc d6 8c 66 bc ba 62 9c 3b
       -0.017344752 -0.01781152 -0.014071664 0.0047725113
000060 c3 e2 be 3c
       0.023301488
