Assets/Env5/Brains/MoveToButton2.onnx (onnx, 155478 bytes, 8 tensors)

network_body._body_endoder.seq_layers.0.weight f4 [128, 13]
0.3693831 0.29806104 0.4128508 -0.652059 -0.018760594 0.34121427 -0.25494933 0.55214536
-0.09998865 0.2816457 -0.02844736 -0.008588845 -0.2809567 0.09271902 -0.2731461 0.010956761
0.5736378 -0.012068666 0.24373248 0.3638135 0.36150005 -0.20159875 -0.32371455 -0.15982269
-0.7378248 -0.018551653 0.17775588 0.35577 0.5299603 0.5474447 -0.16724569 0.8120421
-0.13415307 -0.648506 -0.0984482 0.048625544 0.10377512 0.3052888 0.21786395 0.040739235
0.19300447 -0.0070863687 -0.4904655 -0.17903073 0.5235815 0.31582552 -0.26136196 -0.24727674
-0.2582657 -0.36055937 -0.21756773 0.448773 0.005605388 -0.13048972 0.08895137 0.48630917
0.15435912 -0.44034785 -0.14003976 -0.12964623 -0.26644072 0.85313547 0.09843698 -0.1920439
-0.33301488 -0.051171508 0.23445645 0.19738242 0.4542435 -0.02122987 0.5174336 -0.3274632
-0.12688719 0.27392134 0.18467808 0.03634337 0.13210478 0.33991858 -0.08070428 -0.20582187
0.28490037 0.41606733 0.45577687 -0.46485797 -0.17725323 0.035623945 -0.18964155 0.5094329
0.19166784 0.18344091 -0.44845188 0.2034592 -0.2344246 -0.0025975918 -0.3900181 -0.16831048
0.46753898 -0.28086236 0.22865236 0.20480134 0.32044226 -0.13907771 -0.42529026 0.1944416
0.35671198 -0.14058572 0.07132303 -0.2942433 -0.39807847 -0.6031896 -0.34839565 -0.017704997
-0.31251922 0.15032348 0.3182082 -0.09420919 -0.32580948 0.027028767 0.4432659 -0.50477624
-0.38944972 0.38922322 -0.1507255 0.070845835 -0.37305945 -0.2234068 0.25537083 0.13007723
0.13461041 0.1687024 0.46590945 -0.07368891 -0.4950027 -0.28068942 -0.06497044 0.57391226
-0.05986074 -0.07762054 0.047960766 -0.13175288 0.15462303 -0.25216335 0.47272915 0.1200769
0.4053919 0.097999565 -0.038732708 0.0037298913 -0.17979696 -0.34112778 -0.22577423 0.41662425
-0.048386764 0.37441584 -0.68108606 0.34280702 0.24829198 0.15574658 -0.44171664 0.17222528
-0.34566474 -0.33399147 -0.018929763 0.39560813 -0.08763531 0.20739152 -0.076435834 0.3041674
-0.19549383 0.080181606 0.23579553 0.35448173 -0.1262922 -0.41504526 0.17156447 -0.08622445
-0.02855985 0.33657703 -0.6858328 -0.041008852 -0.21380916 0.32313687 -0.2067599 0.036043376
0.2476174 -0.6096896 -0.61915207 -0.6216784 -0.041349806 -0.16707034 -0.31938025 0.23085672
-0.29309028 -0.48530403 0.07747821 0.079180665 0.26714882 0.008921944 0.37089962 -0.009879741
0.71340466 0.04608449 0.40720394 -0.16946481 -0.14960203 -0.14424862 -0.31741974 -0.41111043
0.12146991 -0.42839277 0.06998052 0.27613145 -0.15419394 -0.594598 -0.08999463 0.28714615
0.12254965 -0.13721934 0.23281386 -0.04826805 -0.1468474 -0.038494192 -0.6836026 -0.26031375
0.0036758797 0.36553702 0.38172823 0.22258192 -0.19027205 0.2515047 0.19931263 -0.0029251312
0.110320136 -0.1607347 0.35697713 0.32490322 0.012010886 -0.21447614 -0.31940842 -0.39008787
-0.13152614 -0.05547129 0.06691247 0.060599834 0.15814412 -0.24033192 0.20798582 0.20787042
-0.22131562 -0.022678772 -0.19175589 -0.05020024 0.28145763 -0.16818154 0.64886564 0.15308526
00000000: c81f bd3e 759b 983e 2e61 d33e 57ed 26bf
00000010: d1af 99bc a3b3 ae3e b888 82be 6659 0d3f
00000020: d9c6 ccbd dd33 903e 700a e9bc 3ab8 0cbc
00000030: 8ed9 8fbe 78e3 bd3d ced9 8bbe fd83 333c
00000040: edd9 123f a7bb 45bc 0295 793e c345 ba3e
00000050: 8916 b93e e76f 4ebe eabd a5be 8fa8 23be
00000060: 16e2 3cbf a3f9 97bc a305 363e 7c27 b63e
00000070: 7aab 073f 5625 0c3f 7442 2bbe fee1 4f3f
00000080: 6c5f 09be 7d04 26bf 369f c9bd 942b 473d
00000090: 0d88 d43d d04e 9c3e ba17 5f3e 2fde 263d
000000a0: f7a2 453e c534 e8bb 4b1e fbbe d553 37be
000000b0: 7009 063f e2b3 a13e 3cd1 85be 1d36 7dbe
000000c0: 673b 84be 3d9b b8be 13ca 5ebe 93c5 e53e
000000d0: 67ad b73b 199f 05be 232c b63d 84fd f83e
000000e0: 5110 1e3e 4675 e1be 9566 0fbe fbc1 04be
000000f0: eb6a 88be 1667 5a3f 5499 c93d 28a7 44be
00000100: ed80 aabe 3799 51bd 5a15 703e 9e1e 4a3e
00000110: 9b92 e83e 44ea adbc 8776 043f 42a9 a7be
00000120: b7ee 01be 6b3f 8c3e 401c 3d3e c9dc 143d
00000130: 7a46 073e cf09 ae3e 4948 a5bd f8c2 52be
00000140: 76de 913e c706 d53e 965b e93e dd01 eebe
00000150: df81 35be 6aea 113d 6531 42be 326a 023f
00000160: 9344 443e efd7 3b3e 7c9b e5be 9c57 503e
00000170: 010d 70be 5c3c 2abb 74b0 c7be 9559 2cbe
00000180: 4561 ef3e 31cd 8fbe d823 6a3e 71b7 513e
00000190: 0211 a43e 636a 0ebe a5bf d9be b31b 473e
000001a0: f4a2 b63e b4f5 0fbe cf11 923d 0fa7 96be
000001b0: f1d0 cbbe a26a 1abf ea60 b2be 120a 91bc
000001c0: 8502 a0be 66ee 193e 2fec a23e bff0 c0bd
000001d0: 80d0 a6be 6f6b dd3c bff3 e23e 0439 01bf
000001e0: f465 c7be 4448 c73e c957 1abe 9f17 913d
000001f0: a601 bfbe c1c4 64be f7bf 823e f732 053e
00000200: 50d7 093e 52c0 2c3e af8b ee3e 36ea 96bd
00000210: fe70 fdbe 86b6 8fbe 390f 85bd eaeb 123f
00000220: 8930 75bd 85f7 9ebd 8272 443d 3aea 06be
00000230: 8055 1e3e 8e1b 81be 8e09 f23e e1ea f53d
00000240: 878f cf3e ffb3 c83d 30a6 1ebd 3171 743b
00000250: b21c 38be 4da8 aebe 5c31 67be c64f d53e
00000260: 3331 46bd 6fb3 bf3e a85b 2ebf 6784 af3e
00000270: 4140 7e3e 087c 1f3e af28 e2be d35b 303e
00000280: f8fa b0be ee00 abbe 9712 9bbc 268d ca3e
00000290: 247a b3bd 715e 543e 648a 9cbd d4bb 9b3e
000002a0: 892f 48be 4136 a43d 6274 713e a17e b53e
000002b0: be52 01be d080 d4be 99ae 2f3e 7296 b0bd
000002c0: 59f6 e9bc d353 ac3e bd92 2fbf e6f8 27bd
000002d0: caf0 5abe 3272 a53e deb8 53be 38a2 133d
000002e0: 6a8f 7d3e 9e14 1cbf c080 1ebf 5126 1fbf
000002f0: 6a5e 29bd 7d14 2bbe cf85 a3be b465 6c3e
00000300: ee0f 96be c579 f8be e5ac 9e3d 7929 a23d
00000310: bbc7 883e 582d 123c 8ee6 bd3e a3de 21bc
00000320: b0a1 363f 17c3 3c3d 097d d03e 2f88 2dbe
00000330: 4631 19be e9b5 13be d784 a2be 117d d2be
00000340: 37c5 f83d 4c56 dbbe f251 8f3d 1a61 8d3e
00000350: 04e5 1dbe 9337 18bf 1b4f b8bd d204 933e
00000360: 50fb fa3d 3a83 0cbe c266 6e3e b8b4 45bd
00000370: 2a5f 16be 16ac 1dbd 9400 2fbf d847 85be
00000380: 07e7 703b ab27 bb3e e271 c33e 84ec 633e
00000390: add6 42be 39c5 803e 9c18 4c3e 8fb3 3fbb
000003a0: 86ef e13d a397 24be b5c5 b63e b759 a63e
000003b0: 4fc9 443c a29f 5bbe 8089 a3be 99b9 c7be
000003c0: caae 06be dd35 63bd 6809 893d 8837 783d
000003d0: 88f0 213e 9219 76be 3cfa 543e fcdb 543e
000003e0: 90a0 62be d5c8 b9bc a85b 44be c49e 4dbd
000003f0: 371b 903e c837 2cbe 0f1c 263f 62c2 1c3e

network_body._body_endoder.seq_layers.0.bias f4 [128]
0.047676865 -0.034453616 0.03960228 -0.036652967 0.027933089 0.019077912 0.02823072 0.019816816
0.03261371 0.0049318857 0.026914407 0.030490736 0.037556358 0.044932835 0.01715867 0.014813998
0.021059606 0.02875193 0.037376627 0.043436974 -0.015886229 0.008939064 0.032487728 0.03772715
0.007131046 0.028891679 0.0015922326 0.021783313 0.059680726 0.03353697 0.017712628 0.025695488
0.014537733 0.0060148747 0.004823308 -0.0010057933 0.032918144 0.03836303 0.020470759 0.020088108
0.010121761 -0.07949595 0.0012213897 -0.0009691959 -0.032345816 0.051930264 0.012893138 -0.054100346
0.08975804 -0.024161493 0.030552732 -0.011549482 0.018400826 -0.0053703045 0.014255635 -0.055812854
0.029235272 -0.01806105 0.022108525 0.052265774 0.00063166453 -0.043605287 0.025958832 0.024307236
0.0054914323 0.039127894 0.06362071 0.030064028 0.01963184 0.028705256 -0.016433777 0.025947236
0.02482249 0.026881434 0.0247061 0.06896203 0.045052495 0.024292674 0.0065236 -0.09259811
0.078479216 0.012601937 -0.057786245 0.012694491 -0.018920623 0.06641038 -0.014296501 0.044336572
-0.0025940386 0.04944854 0.029115422 0.030324068 0.010919424 0.046860754 0.022415033 0.007431067
0.043665133 0.03335321 0.034565058 0.014603094 0.030754015 0.030719852 0.018640375 0.050962254
0.026341874 0.0069991243 -0.020448798 0.032589156 0.0074489443 0.0036892965 -0.04174298 0.00875836
0.026966818 0.04037884 -0.012438606 0.033230834 0.01617691 0.026854543 0.019362282 0.034466732
0.03981069 0.016155954 0.010974391 0.06194297 -0.06534231 0.012880311 -0.060015712 0.04425483
00000000: d148 433d 3c1f 0dbd 0036 223d 6c21 16bd
00000010: efd3 e43c 4849 9c3c 1c44 e73c e056 a23c
00000020: f495 053d a89b a13b 9a7b dc3c b5c7 f93c
00000030: b2d4 193d 7e0b 383d 5790 8c3c 69b6 723c
00000040: 3285 ac3c 2b89 eb3c 3c18 193d f8ea 313d
00000050: d623 82bc 2775 123c da11 053d c987 1a3d
00000060: 8dab e93b 3eae ec3c 76b2 d03a eb72 b23c
00000070: c773 743d 105e 093d 131a 913c 587f d23c
00000080: ac2f 6e3c 6d18 c53b d70c 9e3b d3d4 83ba
00000090: 2dd5 063d 8d22 1d3d 4bb2 a73c d18f a43c
000000a0: bed5 253c c6ce a2bd 0a17 a03a a311 7eba
000000b0: 0c7d 04bd d4b4 543d be3d 533c 5398 5dbd
000000c0: 10d3 b73d 53ee c5bc b949 fa3c 0a3a 3dbc
000000d0: 54bd 963c 61f9 afbb 7890 693c 059c 64bd
000000e0: cf7e ef3c c4f4 93bc f01c b53c a314 563d
000000f0: 4a96 253a 759b 32bd 9ea7 d43c f81f c73c
00000100: 79f1 b33b 9244 203d 934b 823d d648 f63c
00000110: f4d2 a03c 4927 eb3c 21a0 86bc 4c8f d43c
00000120: 8958 cb3c 7436 dc3c 7264 ca3c f73b 8d3d
00000130: f788 383d 6e01 c73c ecc3 d53b 14a4 bdbd
00000140: b6b9 a03d 5b78 4e3c 45b1 6cbd 8efc 4f3c
00000150: 6cff 9abc 2a02 883d df3b 6abc 449a 353d
00000160: bf00 2abb 8d8a 4a3d 7783 ee3c 2e6a f83c
00000170: 62e7 323c 10f1 3f3d bb9f b73c 4f80 f33b
00000180: 36da 323d 609d 083d 1794 0d3d d141 6f3c
00000190: d8ef fb3c 33a8 fb3c b3b3 983c ccbd 503d
000001a0: eaca d73c e958 e53b 3d84 a7bc 357c 053d
000001b0: 4616 f43b 20c8 713b b0fa 2abd 397f 0f3c
000001c0: 84e9 dc3c 4864 253d 4bcb 4bbc 0e1d 083d
000001d0: 7085 843c 0ffe db3c a69d 9e3c fd2c 0d3d
000001e0: 8910 233d 7e59 843c efcd 333c e9b7 7d3d
000001f0: 30d2 85bd f107 533c 09d3 75bd 8d44 353d

network_body._body_endoder.seq_layers.2.weight f4 [128, 128]
-0.061488427 0.09446361 -0.04871685 -0.090807915 0.007959701 -0.14746591 0.17000173 -0.091333434
0.11486791 0.0023911502 0.145459 0.16132428 0.03884671 -0.024721194 0.15962443 -0.19477125
0.20076221 0.13705736 0.021533823 0.015993802 0.1280664 -0.0038004678 -0.025734475 -0.08226322
0.09969259 -0.02677066 0.120247126 0.0912082 -0.06394458 0.08992152 0.020874819 -0.09442754
-0.1091687 0.08044823 -0.0018603773 0.120564915 -0.11184862 0.14748643 0.05585316 0.04672826
-0.06691172 -0.06617222 0.15037817 0.04277421 0.02271752 -0.10834724 0.011380151 -0.00092210487
-0.072620876 0.014490109 -0.042675044 -0.031829346 0.052066024 -0.06661136 0.01435328 0.001312487
0.027256655 -0.024532571 -0.07624456 0.005222314 -0.04190384 0.015606956 0.1961356 -0.11672522
0.13951962 0.052864425 0.051446185 -0.08445459 0.14999308 -0.07962154 0.07042784 -0.19737256
-0.051069114 -0.03874384 0.020101374 -0.08664644 0.09200933 0.078553766 0.019815013 0.18899018
0.060217857 -0.087585196 -0.21333028 0.038361218 0.046281725 0.14132088 -0.02154187 -0.08353504
-0.00806772 0.03325486 0.06718167 0.07748203 0.029319666 -0.09810228 0.11382943 -0.03257144
0.09666241 -0.03781631 -0.023880666 0.0074999146 -0.18291688 -0.136543 0.115396194 -0.04084343
-0.02603651 -0.009527068 0.04864535 0.019316006 -0.0597481 -0.1968189 -0.09569833 -0.020466566
-0.08711778 0.008930431 -0.026562762 -0.108714685 -0.007964736 0.1267786 -0.043101825 0.0875779
0.070444405 -0.011367099 -0.027034689 -0.05519374 0.06385899 0.21685132 0.045636278 0.1200591
-0.1795633 -0.08320537 0.04512331 -0.08516903 -0.073290505 0.03122374 -0.011434918 -0.042785447
-0.19173056 0.10482098 -0.018932687 0.0054625077 0.010739751 -0.020332683 0.100143686 0.0143789
0.10236386 -0.047407404 0.008968399 0.18085063 0.056351017 -0.09679773 -0.05535461 -0.005617287
0.06326947 0.019498415 -0.041101195 -0.09988721 -0.08101449 -0.01805542 0.10009518 -0.07750986
-0.045371316 -0.11358119 0.057505947 0.045061693 -0.054856364 0.0814136 0.14102872 0.03580882
-0.0026652021 -0.13895765 -0.030177249 0.14773016 0.0962033 -0.0036279256 0.24785715 -0.03153934
0.09776772 0.110669255 -0.090501085 0.08271085 0.040955618 -0.03418953 0.01150512 -0.048294816
-0.14959536 0.11364685 0.03121088 0.093091756 0.060141195 -0.028572395 -5.590121e-05 -0.014592757
0.010063072 0.062212646 0.022523424 -0.098750494 -0.045655232 -0.052839175 -0.06713513 0.010975308
-0.07350654 -0.12435654 0.24635312 -0.07994692 0.1602524 0.051286988 -0.004879898 -0.039253373
-0.019575045 -0.12707861 -0.12435483 -0.09825125 0.03301862 -0.034372307 0.006104286 0.039771542
0.13152286 -0.002153379 -0.24352898 0.16113086 -0.07352847 -0.06878135 0.033471376 0.08388319
0.15900515 -0.02737584 -0.18781556 -0.110150084 -0.21072277 -0.12360209 0.0790885 0.03442014
-0.008210833 -0.25873935 -0.06557227 0.031643663 0.07112972 0.08868833 -0.011309522 0.00832153
0.017354064 0.040419776 -0.06401738 -0.08583565 -0.10027767 -0.027461909 -0.09251834 -0.05053444
-0.10705712 0.18662465 -0.109044194 -0.076105475 -0.04934033 0.027839484 -0.08589698 -0.005396843
00000000: 4adb 7bbd 2376 c13d 528b 47bd 80f9 b9bd
00000010: 6869 023c 4e01 17be ef14 2e3e 060d bbbd
00000020: de3f eb3d d8b4 1c3b 34f3 143e 3132 253e
00000030: ba1d 1f3d 1a84 cabc 9674 233e 1d72 47be
00000040: 9c94 4d3e c458 0c3e b367 b03c 6f05 833c
00000050: d723 033e 4511 79bb 1bd1 d2bc 9e79 a8bd
00000060: a12b cc3d 254e dbbc 2044 f63d 5dcb ba3d
00000070: 60f5 82bd c628 b83d ab01 ab3c 3a63 c1bd
00000080: d793 dfbd 0bc2 a43d e7d7 f3ba bdea f63d
00000090: e410 e5bd af06 173e 48c6 643d 2266 3f3d
000000a0: 0309 89bd 4d85 87bd bcfc 193e 0334 2f3d
000000b0: 181a ba3c 28e5 ddbd d073 3a3c 69b9 71ba
000000c0: 41ba 94bd ec67 6d3c 07cc 2ebd 7d5f 02bd
000000d0: 2f43 553d 896b 88bd 052a 6b3c c107 ac3a
000000e0: 5949 df3c 88f8 c8bc 1c26 9cbd f21f ab3b
000000f0: 5ca3 2bbd 51b4 7f3c c5d7 483e a20d efbd
00000100: 3bde 0e3e 5e88 583d 3cb9 523d 87f6 acbd
00000110: c997 193e 9e10 a3bd 793c 903d 081c 4abe
00000120: d92d 51bd dcb1 1ebd a3ab a43c b073 b1bd
00000130: 636f bc3d cce0 a03d 1853 a23c a486 413e
00000140: 00a7 763d de5f b3bd 4173 5abe a720 1d3d
00000150: e891 3d3d 6cb6 103e 9378 b0bc 6b14 abbd
00000160: 782e 04bc 4036 083d 8b96 893d e6ae 9e3d
00000170: cc2f f03c d9e9 c8bd 671f e93d a169 05bd
00000180: f1f6 c53d 46e5 1abd 63a1 c3bc d8c1 f53b
00000190: 904e 3bbe eed1 0bbe d754 ec3d 714b 27bd
000001a0: 854a d5bc 6b17 1cbc 5940 473d 9a3c 9e3c
000001b0: 6cba 74bd e58a 49be 7cfd c3bd 80a9 a7bc
000001c0: cf6a b2bd f150 123c 269a d9bc cea5 debd
000001d0: 867e 02bc 40d2 013e 8a8b 30bd 0b5c b33d
000001e0: 2845 903d 123d 3abc da77 ddbc d512 62bd
000001f0: 81c8 823d 460e 5e3e 1bed 3a3d 8ce1 f53d
00000200: 71df 37be 9467 aabd 38d3 383d 1a6d aebd
00000210: 5519 96bd eec8 ff3c 8659 3bbc cb3f 2fbd
00000220: 0455 44be 62ac d63d b918 9bbc d6fe b23b
00000230: c8f5 2f3c ba90 a6bc 2218 cd3d 7a95 6b3c
00000240: 25a4 d13d 442e 42bd 31f0 123c e830 393e
00000250: 53d0 663d e33d c6bd 84bb 62bd 3811 b8bb
00000260: 6d93 813d 24bb 9f3c ba59 28bd aa91 ccbd
00000270: edea a5bd f6e8 93bc b4fe cc3d 7dbd 9ebd
00000280: 46d7 39bd 419d e8bd 5b8b 6b3d 9c92 383d
00000290: 11b1 60bd 2cbc a63d d569 103e 45ac 123d
000002a0: acaa 2ebb ea4a 0ebe 4736 f7bc 9346 173e
000002b0: 3c06 c53d 7ec2 6dbb 44ce 7d3e 652f 01bd
000002c0: 713a c83d 90a6 e23d a258 b9bd 4e64 a93d
000002d0: 14c1 273d 520a 0cbd f97f 3c3c c9d0 45bd
000002e0: 872f 19be aebf e83d f6ad ff3c e4a6 be3d
000002f0: 9d56 763d a810 eabc 7877 6ab8 7616 6fbc
00000300: 95df 243c b0d2 7e3d 0b83 b83c b33d cabd
00000310: fb00 3bbd e46d 58bd 257e 89bd c7d1 333c
00000320: 998a 96bd a4ae febd fe43 7c3e 36bb a3bd
00000330: 3519 243e 4e12 523d 8de7 9fbb 25c8 20bd
00000340: d85b a0bc e520 02be bfad febd f437 c9bd
00000350: 883e 073d fac9 0cbd 7606 c83b 7ce7 223d
00000360: eead 063e b41f 0dbb a95f 79be 7dff 243e
00000370: 1896 96bd 3ddd 8cbd 4819 093d f3ca ab3d
00000380: 3fd2 223e 4c43 e0bc b952 40be 5e96 e1bd
00000390: b6c7 57be 1823 fdbd 27f9 a13d 22fc 0c3d
000003a0: bb86 06bc 7c79 84be c14a 86bd c99c 013d
000003b0: 75ac 913d 3aa2 b53d 934b 39bc 0757 083c
000003c0: 1c2a 8e3c 358f 253d 8b1b 83bd 9aca afbd
000003d0: 615e cdbd ccf7 e0bc 417a bdbd 33fd 4ebd
000003e0: c340 dbbd 881a 3f3e 9052 dfbd 30dd 9bbd
000003f0: 1619 4abd a10f e43c c1ea afbd 00d8 b0bb

network_body._body_endoder.seq_layers.2.bias f4 [128]
-0.015648006 0.020326884 0.055175968 0.09396218 0.03892983 0.05352372 0.013168114 -0.07070332
0.018981248 0.03159874 0.030540146 -0.003027928 -0.0044453465 0.019418791 0.0353669 0.0158632
0.025647456 0.03168592 0.027827136 0.06451238 0.018906165 -0.003274632 0.03153801 0.014270724
0.04550456 0.013340699 0.021438899 0.04245279 0.024358084 0.03916477 0.03839935 0.027826957
0.029541032 0.026274994 0.02960435 0.06290096 -0.028943771 0.027292283 0.026161635 -0.01076343
0.027231582 0.038031936 0.03280991 0.013686509 0.04962353 0.01789388 0.060137317 0.041743834
0.026281834 0.029234152 0.09755536 0.005516229 0.042707864 0.025521679 0.019568536 0.0047723544
0.031923212 0.020090736 0.006867996 0.02126614 0.0051920293 0.043493632 0.02305432 0.04219166
0.02733185 0.03942847 0.025707448 0.027087506 0.027595399 0.029643845 0.046262793 0.014670779
0.03083276 0.008540743 0.0134982765 -0.008978056 0.032622952 -0.066857025 0.023944331 0.012451023
0.09033173 0.053845815 0.026218612 0.03729301 0.03515373 0.015307556 0.029543882 0.031608168
0.026296573 0.0874193 0.03259182 0.08402398 0.102937244 0.004518802 0.036619484 -0.042401467
0.026141651 0.005112799 0.03142248 0.029112902 0.027851935 0.019253075 0.044625826 0.021380698
0.051424418 -0.057876986 0.039705332 0.045319695 0.031420246 -0.0015370634 0.025083298 0.013437862
0.02485823 0.022503434 0.0064696735 0.029057687 0.015545242 0.028962346 0.025018686 0.07597454
0.007815289 0.041695148 -0.010767008 0.0760914 0.039189678 0.013538733 0.04371581 0.025916837
00000000: 3f30 80bc 9184 a63c 3200 623d 3e6f c03d
00000010: e374 1f3d b03b 5b3d 13bf 573c e7cc 90bd
00000020: 907e 9b3c ae6d 013d 542f fa3c 3470 46bb
00000030: 45aa 91bb 2814 9f3c e2dc 103d 8bf3 813c
00000040: 9d1a d23c 18c9 013d bcf5 e33c 111f 843d
00000050: 1ae1 9a3c 359b 56bb 002e 013d c1cf 693c
00000060: fd62 3a3d f292 5a3c a1a0 af3c fae2 2d3d
00000070: 9b8a c73c 3d6b 203d a348 1d3d 5cf5 e33c
00000080: 0900 f23c a83e d73c d284 f23c 38d2 803d
00000090: 7d1b edbc 1194 df3c ed50 d63c 1959 30bc
000000a0: c414 df3c 60c7 1b3d af63 063d 613d 603c
000000b0: 0b42 4b3d 3096 923c 8c52 763d 95fb 2a3d
000000c0: 004d d73c 767c ef3c 1bcb c73d 7cc1 b43b
000000d0: 71ee 2e3d d712 d13c 324e a03c 6961 9c3b
000000e0: eac1 023d 5495 a43c ed0c e13b 5436 ae3c
000000f0: e621 aa3b 6126 323d 6adc bc3c 29d1 2c3d
00000100: 0be7 df3c bf7f 213d 6d98 d23c 9ee6 dd3c
00000110: bf0f e23c a6d7 f23c 0e7e 3d3d b55d 703c
00000120: fc94 fc3c 79ee 0b3c e027 5d3c b218 13bc
00000130: a59f 053d 56ec 88bd e726 c43c 60ff 4b3c
00000140: d8ff b83d 6e8d 5c3d 6ac8 d63c 8ec0 183d
00000150: 5cfd 0f3d 8bcc 7a3c 0306 f23c 9177 013d
00000160: e96b d73c e408 b33d 007f 053d c414 ac3d
00000170: c3d0 d23d 7512 943b 50fe 153d 29ad 2dbd
00000180: 0427 d63c 4489 a73b dcb4 003d 2e7e ee3c
00000190: be29 e43c a0b8 9d3c 92c9 363d 9326 af3c
000001a0: 69a2 523d 6b10 6dbd 0fa2 223d 25a1 393d
000001b0: 84b2 003d 4a77 c9ba 7d7b cd3c 7a2a 5c3c
000001c0: 7da3 cb3c 1f59 b83c 8eff d33b 630a ee3c
000001d0: 78b1 7e3c 7142 ed3c fdf3 cc3c 8a98 9b3d
000001e0: b30b 003c 88c8 2a3d 1b68 30bc cfd5 9b3d
000001f0: 5b85 203d 90d1 5d3c 590f 333d 8c4f d43c

network_body._body_endoder.seq_layers.4.weight f4 [128, 128]
-0.010745042 -0.20713463 0.17829238 0.060731165 0.05155843 0.2573197 0.16445814 -0.07017372
-0.20889387 0.013433383 0.022907956 -0.10349859 0.04706698 0.04280962 -0.05840252 -0.019592306
-0.022433698 0.14094189 -0.100902826 0.102571584 -0.08290952 0.027269626 0.16070081 -0.035427045
0.04964795 0.008476742 0.040805485 0.08035953 0.012985537 0.025533365 0.09703641 0.057026763
0.09877946 0.0092229275 0.031056125 -0.19677337 -0.34299245 0.06895895 -0.013757303 -0.017956607
-0.037675638 -0.12984633 0.01879183 0.009875648 0.059084766 -0.10681524 0.04933835 -0.17276213
-0.02124944 -0.12582093 -0.101045445 0.09577137 0.2872852 0.090751804 -0.05069633 -0.015119707
0.032717545 -0.18280554 0.11072901 0.053880252 0.06880845 0.0236114 0.13435559 0.05536899
-0.10246277 -0.23103473 -0.003498413 -0.022825008 -0.05051686 0.038692396 0.13850848 0.12313174
-0.042536683 0.013561655 0.20256436 -0.11555527 0.0083564045 -0.10690605 0.08293199 -0.13152039
0.08474934 -0.076152645 0.0168606 -0.15880549 0.094500944 0.12737773 -0.1915003 0.16785476
-0.02359497 -0.156518 -0.082927115 0.03994747 -0.21972121 0.041790366 -0.12251699 -0.038899787
0.08592094 -0.01811883 0.11010701 -0.058051582 -0.027482128 0.07845297 0.039916396 0.047581226
0.027104793 0.20349517 0.11592696 0.035284176 0.116672955 -0.1626618 0.12904143 0.01405678
0.03952612 -0.12634605 0.06637162 -0.18462929 -0.01730099 0.022106988 0.03916493 -0.11329789
0.0013662394 -0.16720548 -0.060420707 -0.065337695 -0.04219619 0.1025239 0.010555429 0.03326193
-0.099707656 0.19300313 0.011294244 0.035278093 -0.10277033 0.13924782 -0.15685534 -0.04077527
0.19114387 0.122335814 -0.16814211 -0.009307142 0.09179182 0.21775469 0.057904452 0.11969644
-0.01649364 -0.007672218 -0.17047162 0.05919968 0.019970782 -0.0050913333 -0.053896658 0.18198486
-0.031719323 0.03512261 -0.011118586 -0.14670314 0.012412134 0.077197246 -0.11589375 -0.1784107
-0.18359762 -0.10954705 0.052959185 -0.015589594 0.026853217 0.0063981595 -0.0884853 -0.018582737
0.22949755 0.13201976 0.017424924 0.016288608 0.1015359 0.061113093 -0.02212886 -0.133037
0.019216636 0.022721276 -0.006826254 -0.07798308 -0.0328803 0.0015000894 -0.040593427 -0.119823806
0.12121546 0.0063489187 -0.0583199 0.09619099 0.276897 0.0028132133 0.06263331 -0.031563178
0.019257708 0.15836644 -0.1338008 0.13179521 -0.07067095 0.014862719 0.07346586 0.039538845
-0.06266733 0.08492279 -0.15725419 -0.010702327 -0.10207613 -0.011396702 0.031248001 0.2598404
0.018213613 0.07653283 -0.0022127507 0.07269424 0.0024809989 0.018450484 -0.0028025757 -0.052560158
0.0031907589 0.0082907975 0.13941936 -0.03407357 -0.07290662 0.09685356 -0.24697027 0.1309156
0.07178864 0.051200602 -0.122087546 -0.10912466 0.04241436 -0.027667088 -0.028268443 -0.0030818398
-0.0880904 -0.14328413 0.12125827 0.08145232 -0.1623926 0.010821847 0.055570435 0.06196733
-0.040329523 -0.10337554 -0.0072313477 -0.06075325 0.040201996 0.069137655 -0.09649378 -0.09974223
-0.06293444 0.12876967 -0.040446747 -0.12794529 -0.10362731 -0.21164346 -0.15671597 -0.14057793
00000000: f90b 30bc 1a1b 54be 4792 363e 3ec1 783d
00000010: ef2e 533d 68bf 833e b767 283e 3db7 8fbd
00000020: 46e8 55be b117 5c3c 77a9 bb3c 12f7 d3bd
00000030: 4ec9 403d 2459 2f3d 7b37 6fbd 0b80 a0bc
00000040: e0c6 b7bc 1253 103e 24a6 cebd 0d11 d23d
00000050: 77cc a9bd 8d64 df3c c18e 243e f31b 11bd
00000060: a65b 4b3d 08e2 0a3c a723 273d 8a93 a43d
00000070: 4ac1 543c 592b d13c 06bb c63d e594 693d
00000080: e34c ca3d c31b 173c 6a69 fe3c f57e 49be
00000090: b59c afbe 5a3a 8d3d 5066 61bc bc19 93bc
000000a0: c551 1abd 70f6 04be 53f1 993c 78cd 213c
000000b0: de02 723d f3c1 dabd 0217 4a3d 8ee8 30be
000000c0: 4e13 aebc 34d7 00be eaf0 cebd c823 c43d
000000d0: 0c17 933e 15dc b93d f4a6 4fbd a6b8 77bc
000000e0: d502 063d 6031 3bbe e4c5 e23d 8ab1 5c3d
000000f0: 72eb 8c3d b26c c13c 8394 093e 98ca 623d
00000100: 00d8 d1bd 5e94 6cbe a145 65bb 83fb babc
00000110: c4ea 4ebd eb7b 1e3d 2bd5 0d3e 7e2c fc3d
00000120: f23a 2ebd b431 5e3c 086d 4f3e 3ea8 ecbd
00000130: 4de9 083c 8ff1 dabd 3fd8 a93d 48ad 06be
00000140: 1091 ad3d ebf5 9bbd 3e1f 8a3c e89d 22be
00000150: b689 c13d 4f6f 023e a818 44be 1ee2 2b3e
00000160: 3d4a c1bc 4146 20be b1d5 a9bd f59f 233d
00000170: 99fe 60be 602c 2b3d 30ea fabd 6255 1fbd
00000180: 51f7 af3d f16d 94bc c97f e13d 7fc7 6dbd
00000190: 3322 e1bc f3ab a03d 607f 233d 88e4 423d
000001a0: df0a de3c 0a61 503e 1d6b ed3d 2486 103d
000001b0: 3bf2 ee3d d190 26be 7023 043e 694e 663c
000001c0: 24e6 213d dc60 01be d8ed 873d 760f 3dbe
000001d0: ceba 8dbc b719 b53c 686b 203d b908 e8bd
000001e0: 6313 b33a ea37 2bbe b47b 77bd c5cf 85bd
000001f0: ead5 2cbd 0df8 d13d aef0 2c3c a93d 083d
00000200: 8733 ccbd 9da2 453e 7e0b 393c c37f 103d
00000210: 4079 d2bd fb96 0e3e b09e 20be f803 27bd
00000220: 38bb 433e 338b fa3d 722d 2cbe fc7c 18bc
00000230: 5afd bb3d 16fb 5e3e 382d 6d3d 6823 f53d
00000240: ac1d 87bc 3b67 fbbb 1d90 2ebe 5d7b 723d
00000250: c499 a33c 33d5 a6bb bec2 5cbd 3d5a 3a3e
00000260: 1fec 01bd badc 0f3d bb2a 36bc 5939 16be
00000270: 435c 4b3c 9719 9e3d b459 edbd 4bb1 36be
00000280: 0401 3cbe 345a e0bd bbeb 583d 7f6b 7fbc
00000290: 47fb db3c a7a7 d13b c837 b5bd d33a 98bc
000002a0: 6801 6b3e 3030 073e b7be 8e3c b06f 853c
000002b0: 0ef2 cf3d b951 7a3d 9547 b5bc da3a 08be
000002c0: 356c 9d3c f821 ba3c c5ae dfbb 98b5 9fbd
000002d0: 7ead 06bd a69e c43a 4b45 26bd 2f66 f5bd
000002e0: d03f f83d 970a d03b d9e0 6ebd c8ff c43d
000002f0: 72c5 8d3e e35d 383b e545 803d 6448 01bd
00000300: 57c2 9d3c d02a 223e 1403 09be 53f5 063e
00000310: eebb 90bd c382 733c 4575 963d 7cf3 213d
00000320: bb57 80bd 00ec ad3d 3e07 21be d058 2fbc
00000330: 4a0d d1bd 3cb9 3abc cffb ff3c cd09 853e
00000340: b734 953c 3fbd 9c3d cc03 11bb b8e0 943d
00000350: 4198 223b 7825 973c 6bab 37bb 5249 57bd
00000360: 0d1c 513b 20d6 073c f3c3 0e3e ba90 0bbd
00000370: 1150 95bd 295b c63d c6e5 7cbe bd0e 063e
00000380: ec05 933d b9b7 513d 0909 fabd c07c dfbd
00000390: aeba 2d3d 17a6 e2bc 3993 e7bc b1f8 49bb
000003a0: bd68 b4bd 13b9 12be 4256 f83d 79d0 a63d
000003b0: 3f4a 26be 1e4e 313c d39d 633d 74d1 7d3d
000003c0: 9230 25bd 8eb6 d3bd f1f4 ecbb 66d8 78bd
000003d0: d9aa 243d 0b98 8d3d 889e c5bd a745 ccbd
000003e0: c6e3 80bd 32dc 033e 7dab 25bd 1704 03be
000003f0: 8e3a d4bd 10b9 58be 277a 20be a9f3 0fbe

network_body._body_endoder.seq_layers.4.bias f4 [128]
0.0047445297 0.02047017 0.02677063 0.029368324 0.045341525 0.06655023 0.017647617 -0.01906362
0.051587656 -0.0063677626 0.043761574 0.04668828 0.02184498 0.02361319 0.042481605 0.029307272
0.050580926 0.026337974 -0.0050486824 0.026448825 0.039058704 0.06596132 0.043632783 0.07790909
0.012761911 0.01704901 0.02198768 0.013362941 -0.005958268 0.07003125 0.006266816 -0.008768849
-0.019137487 0.051233716 0.017867917 0.032452304 0.035079733 0.04509229 -0.0059863576 0.052421078
0.004770851 0.03042843 0.043166056 0.004332582 0.049221557 0.056777168 0.044435177 0.037303492
0.035986576 0.0021761688 0.031389758 0.041073352 -0.0074009267 0.032296177 0.053231202 0.074286096
0.017640999 0.043069787 0.02783654 0.053103127 0.034690473 0.050081342 0.027235547 0.01977031
0.03126185 0.041152824 0.026148556 0.023476826 0.022969235 0.037688505 0.035592988 0.0429699
-0.0053962534 0.081492834 0.040156294 0.015490276 0.04888158 0.047710344 0.06293977 0.0080622295
0.034557737 -0.0070455614 0.039339382 0.017311553 0.04143783 -0.0015308019 0.004587725 0.041313987
0.037140273 0.010683214 0.0032196052 0.02916726 0.013001998 0.024106268 -0.0075410013 -0.0068318625
0.022439169 -0.00067712495 0.02403463 0.032143928 0.023274323 0.050590977 0.03728195 0.017981667
0.028290618 0.008974918 0.0053657764 -0.003694337 0.0007942209 -0.0008748564 0.0007396529 0.06065051
0.044533662 -0.0018261747 0.010558291 0.030385016 0.04708946 0.037343554 0.041001115 0.0798905
0.059405025 0.012490947 0.014124753 -0.0028841698 0.029344698 0.028583322 -0.00994489 0.041229963
00000000: 0078 9b3b 0fb1 a73c 154e db3c d795 f03c
00000010: 09b8 393d 7d4b 883d bc91 903c 4f2b 9cbc
00000020: 944d 533d aaa8 d0bb 563f 333d 363c 3f3d
00000030: 3ef4 b23c 7370 c13c 3101 2e3d ce15 f03c
00000040: f22d 4f3d bcc2 d73c 6b6f a5bb 35ab d83c
00000050: 05fc 1f3d bb16 873d 4ab8 323d cd8e 9f3d
00000060: 5617 513c 5eaa 8b3c 821f b43c 3df0 5a3c
00000070: 933d c3bb 8b6c 8f3d dd59 cd3b 38ab 0fbc
00000080: 38c6 9cbc 72da 513d bd5f 923c b5ec 043d
00000090: c4af 0f3d b1b2 383d 3529 c4bb 7cb7 563d
000000a0: cd54 9c3b 0b45 f93c e4ce 303d 55f8 8d3b
000000b0: 8b9c 493d 2d8f 683d a901 363d 8ccb 183d
000000c0: a966 133d 0e9e 0e3b 8c92 003d 883c 283d
000000d0: 7983 f2bb ff48 043d f608 5a3d 4f23 983d
000000e0: db83 903c f269 303d 7509 e43c aa82 593d
000000f0: 9917 0e3d 1822 4d3d 151d df3c 58f5 a13c
00000100: 6d0c 003d dd8f 283d 7f35 d63c 7952 c03c
00000110: fa29 bc3c 435f 1a3d f4c9 113d 3501 303d
00000120: 0ed3 b0bb b7e5 a63d ed7a 243d edca 7d3c
00000130: 0d38 483d ec6b 433d 91e6 803d 7117 043c
00000140: 6a8c 0d3d 74de e6bb 5522 213d f5d0 8d3c
00000150: b7ba 293d 30a5 c8ba a054 963b db38 293d
00000160: 6620 183d a608 2f3c 0300 533b 2df0 ee3c
00000170: 5506 553c 827a c53c 811a f7bb d1dd dfbb
00000180: 59d2 b73c 1681 31ba 46e4 c43c 5aa9 033d
00000190: cba9 be3c 7c38 4f3d f5b4 183d 4a4e 933c
000001a0: bac1 e73c 890b 133c 65d3 af3b b11c 72bb
000001b0: 4333 503a 9f56 65ba 44e5 413a ab6c 783d
000001c0: ee68 363d 415c efba affc 2c3c ffe9 f83c
000001d0: e1e0 403d 8ef5 183d c9f0 273d a19d a33d
000001e0: af52 733d d4a6 4c3c 826b 673c 5704 3dbb
000001f0: 4b64 f03c 9227 ea3c e4ef 22bc c0e0 283d

action_model._discrete_distribution.branches.0.weight f4 [25, 128]
-0.021923041 0.027598532 -0.042368274 0.03638382 0.0091743255 0.005798165 0.039088357 0.016108878
-0.051727246 0.00730344 0.02577099 0.019343907 0.042010903 0.041889016 0.020665182 -0.062129796
-0.062363062 0.016674463 0.012858381 -0.03841548 -0.05375808 -0.0038555209 -0.021992551 -0.09625529
-0.030112242 0.030860774 -0.03803369 -0.02847855 -0.0106768105 0.02547083 0.028252523 0.02624891
-0.021591773 0.023436867 0.02564966 -0.06022937 0.03508305 -0.053676948 0.04991901 0.012046403
0.036290534 -0.036769286 0.022187209 0.024180552 0.02789203 -0.035548024 0.014982622 -0.05339305
-0.046048805 -0.004405896 -0.05816325 -0.054312687 -0.0007885001 0.020382948 0.008282232 0.01938561
-0.049575582 0.03088959 -0.03262721 -0.07511084 0.03880459 -0.073882714 0.022157898 0.029082242
0.03894092 0.024433093 -0.040168528 -0.021499775 0.0023353512 -0.05766445 -0.044156056 -0.029489191
-0.03520075 -0.0009238442 0.0083449865 0.008631494 -0.039579596 -0.061158158 -0.00413946 -0.028658513
-0.02400476 0.01297487 0.030548403 0.026248472 -0.041524474 -0.04354796 -0.0008938941 -0.057625193
0.031136325 0.02621111 -0.01913194 0.032862086 -0.014754831 0.03592724 0.021648737 -0.00877351
-0.02408517 0.030996827 -0.044816747 -0.035810776 -0.044330813 -0.029709078 -0.049279142 0.032777425
-0.031496815 -0.021543542 0.01828475 0.018673282 -0.02213634 0.043236233 0.03280516 -0.07406129
-0.055232607 0.020502342 0.020607673 0.021011652 -0.05662849 -0.04372002 0.028676677 -0.06112718
-0.07289024 -0.04106213 0.023174688 0.016478779 0.014160612 -0.02647967 0.018362163 0.03458395
0.029402884 -0.0068135187 -0.058661908 0.0630942 0.031941753 -0.035376664 0.049704272 -0.026936876
-0.07064388 0.034152023 0.04122365 0.06319515 0.06234091 0.06557461 0.041124728 -0.055608574
-0.068765186 0.038315464 0.050695837 -0.054199733 -0.046200868 0.0012144181 -0.076839715 -0.06276593
-0.02976883 0.04514152 -0.0034833297 -0.025399877 -0.03519689 0.023936838 0.047117535 0.035848867
0.048726957 0.04481134 0.046738736 -0.042699315 0.040960845 -0.059452925 0.04546693 0.05048585
0.06696013 -0.050289597 0.061085686 0.01796709 0.03586028 -0.026950032 0.038325783 -0.032227915
-0.05098383 0.024158234 -0.046976082 -0.054543223 0.06010256 0.05793545 0.04385834 0.028148273
-0.061649032 0.059050933 0.024434347 -0.0469754 0.06489037 -0.084166594 0.035395175 0.050464835
0.014821751 0.039365653 -0.027156878 -0.056209844 -0.040551215 -0.062657684 -0.02975343 -0.06119333
-0.010311649 0.004509856 0.047657337 0.054425158 -0.05416731 -0.044154815 -0.0163876 -0.030484386
-0.08381582 0.044579826 0.05082481 0.05227902 -0.08184808 0.02858689 -0.057346914 -0.034292433
0.049413618 -0.008848407 -0.06662674 0.07055106 -0.03399596 0.047164105 0.028906878 0.04076019
-0.045851316 0.06775108 -0.0006165294 -0.0811598 -0.05757213 -0.09800654 -0.039943602 0.0025144436
-0.06573128 -0.023926117 0.037069634 -0.035488017 0.043800186 0.021236502 -0.030633224 -0.05743353
-0.06918156 0.026026836 0.059946164 0.058711935 -0.059898183 -0.038183715 0.03298547 -0.05646892
-0.07211823 -0.011316672 0.05741933 0.061047398 0.030377785 -0.053575687 0.05242885 0.004813406
00000000: f397 b3bc 5116 e23c 5b8a 2dbd 3307 153d
00000010: e94f 163c 89fe bd3b 1d1b 203d c4f6 833c
00000020: f3df 53bd b251 ef3b af1d d33c 1d77 9e3c
00000030: a013 2c3d d193 2b3d 074a a93c d07b 7ebd
00000040: 6970 7fbd e298 883c f5ab 523c 8d59 1dbd
00000050: 6f31 5cbd e8ac 7cbb b929 b4bc 7e21 c5bd
00000060: f3ad f6bc bccf fc3c 37c9 1bbd d94b e9bc
00000070: caed 2ebc 34a8 d03c d671 e73c f407 d73c
00000080: 3be1 b0bc acfe bf3c 3c1f d23c 12b3 76bd
00000090: 3fb3 0f3d 5cdc 5bbd e077 4c3d 475e 453c
000000a0: 62a5 143d 649b 16bd f3c1 b53c 4b16 c63c
000000b0: d47d e43c ce9a 11bd ac79 753c acb2 5abd
000000c0: ac9d 3cbd 565f 90bb 973c 6ebd fb76 5ebd
000000d0: 59b3 4eba 24fa a63c 33b2 073c 92ce 9e3c
000000e0: c40f 4bbd 2a0c fd3c 1ca4 05bd b6d3 99bd
000000f0: 90f1 1e3d d24f 97bd 7b84 b53c e23d ee3c
00000100: 8480 1f3d e927 c83c c187 24bd 4c20 b0bc
00000110: b10c 193b 8f31 6cbd fbdc 34bd 5193 f1bc
00000120: a92e 10bd 232e 72ba 69b9 083c 1c6b 0d3c
00000130: 371e 22bd fa80 7abd 4fa4 87bb 42c5 eabc
00000140: a1a5 c4bc 8d94 543c a540 fa3c 0907 d73c
00000150: 9115 2abd 595f 32bd 3854 6aba 6508 6cbd
00000160: 9b11 ff3c afb8 d63c 96ba 9cbc 659a 063d
00000170: 3fbe 71bc 7128 133d b158 b13c c5be 0fbc
00000180: 434e c5bc 0fed fd3c c491 37bd 52ae 12bd
00000190: 3a94 35bd 7460 f3bc edd8 49bd 9f41 063d
000001a0: ce02 01bd 157c b0bc e6c9 953c b6f8 983c
000001b0: 4557 b5bc 7a18 313d b45e 063d 72ad 97bd
000001c0: 963b 62bd 87f4 a73c 6cd1 a83c a120 ac3c
000001d0: 47f3 67bd c413 33bd 5aeb ea3c 7e60 7abd
000001e0: 7a47 95bd c430 28bd d8d8 bd3c 81fe 863c
000001f0: e901 683c e5eb d8bc 3f6c 963c e6a7 0d3d
00000200: 51de f03c f043 dfbb 7847 70bd 8837 813d
00000210: 5bd5 023d 1fe7 10bd b596 4b3d b9aa dcbc
00000220: bdad 90bd fee2 0b3d 21da 283d 756c 813d
00000230: 2f59 7f3d fb4b 863d 6772 283d d1c5 63bd
00000240: c3d4 8cbd adf0 1c3d 70a6 4f3d 8a00 5ebd
00000250: 1f3d 3dbd 1c2d 9f3a 245e 9dbd 6d8b 80bd
00000260: c3dd f3bc 51e6 383d 9348 64bb 6713 d0bc
00000270: 9d2a 10bd 3017 c43c 51fe 403d 43d6 123d
00000280: eb95 473d 188c 373d 1e71 3f3d 7ae5 2ebd
00000290: 8fc6 273d e984 73bd 883b 3a3d 40ca 4e3d
000002a0: 6522 893d 77fc 4dbd fc34 7a3d b82f 933c
000002b0: 3be2 123d 50c6 dcbc 7ffb 1c3d 6b01 04bd
000002c0: 6cd4 50bd 7de7 c53c fe69 40bd b768 5fbd
000002d0: 1a2e 763d b94d 6d3d cda4 333d 3597 e63c
000002e0: b283 7cbd 64df 713d 8a2a c83c 4769 40bd
000002f0: 3ee5 843d 895f acbd 88fa 103d 37b4 4e3d
00000300: eed6 723c e13d 213d 1a78 debc 4b3c 66bd
00000310: 0819 26bd ac52 80bd 77bd f3bc dba5 7abd
00000320: 31f2 28bc 6ac7 933b 5734 433d eaec 5e3d
00000330: 8bde 5dbd aedb 34bd 4a3f 86bc 64ba f9bc
00000340: a1a7 abbd 5699 363d ad2d 503d 8722 563d
00000350: f79f a7bd 0e2f ea3c 99e4 6abd 3976 0cbd
00000360: ef65 4a3d e9f8 10bc 9a73 88bd 137d 903d
00000370: 593f 0bbd 262f 413d 1ece ec3c 28f4 263d
00000380: 97ce 3bbd 14c1 8a3d 969e 21ba 1c37 a6bd
00000390: c1d0 6bbd a7b7 c8bd e79b 23bd 5dc9 243b
000003a0: 1f9e 86bd b400 c4bc 54d6 173d e25b 11bd
000003b0: d367 333d 2cf8 ad3c 87f2 fabc 6c3f 6bbd
000003c0: 10af 8dbd 3b36 d53c 1c8a 753d ed7b 703d
000003d0: cc57 75bd 8766 1cbd c61b 073d f44b 67bd
000003e0: b9b2 93bd 9069 39bc 8830 6b3d d60c 7a3d
000003f0: d5da f83c 2e72 5bbd a2bf 563d c7b9 9d3b

action_model._discrete_distribution.branches.0.bias f4 [25]
-0.019744907 0.009956217 0.008580925 0.003682992 0.024169713 -0.020035777 -0.027116632 0.00096960884
0.003957838 0.018508384 -0.02732037 -0.013549497 -0.017529065 -0.012030739 0.020083973 -0.018665193
-0.011605696 0.011726464 0.0035222173 0.03377645 0.0011047428 0.007987764 -0.003304734 0.014708599
0.005257327
00000000: 12c0 a1bc 671f 233c 0297 0c3c 5a5e 713b
00000010: 90ff c53c 1222 a4bc b323 debc 592d 7e3a
00000020: c0b0 813b e59e 973c f8ce dfbc b6fe 5dbc
00000030: 1d99 8fbc 941c 45bc 2587 a43c bfe7 98bc
00000040: d125 3ebc 5b20 403c 00d5 663b 2d59 0a3d
00000050: 04cd 903a 1cdf 023c 3c94 58bb 56fc 703c
00000060: a845 ac3b
