Assets/Env5/Brains/MoveToButton1.onnx (onnx, 153942 bytes, 8 tensors)

network_body._body_endoder.seq_layers.0.weight f4 [128, 10]
00000000: da6a 5dbf f31d d6bd 428b a53e f046 7b3f
00000010: 905a 7dbe 9378 a5bd f0bf b2be 88e2 453e
00000020: 045f 85be bc70 85be b387 97be dcdb ac3e
00000030: cf1f 103f 8a29 8cbe 13c7 c5bd ad2b 13bf
00000040: e1fd 3d3e f79b 55be a27f e13e ce91 183e
00000050: 0fef bc3e b112 d1bd 1a65 dfbe b824 053f
00000060: 3e4b 6ebe 6672 ddbe 1d99 24bc f653 0e3e
00000070: 6d27 603e 1f0a 2abe 2d4e 92be 7688 bdbd
00000080: afdf f4be 0347 86be 6ffb d0be d391 a6be
00000090: a184 56be 4955 67bd bddd 183f a379 443d
000000a0: 6cf6 cabe 0c6b ff3b dba9 e3be 9b44 9cbf
000000b0: a9b2 13be 192b c9bd 458e a33e 91c0 423e
000000c0: 6375 46be e694 803e 370e 7f3f 0d84 e13d
000000d0: 9bdb e93e ae87 243f d91e 37bc 99c1 003d
000000e0: f326 9fbc 6033 1bbf 21f3 123f d522 56be
000000f0: fde2 07bf 3a9c 923e 1373 3c3e 4e93 773e
00000100: 9230 703d 7b4b 8dbe fb51 8c3b 3a1a b03e
00000110: 63c2 1ebe c7d9 df3d ea7e 45be e0bb 383e
00000120: 90ef c03d 0b9d f03d 36e0 823e 381f fcbe
00000130: 1e89 9c3e 698d 543d 79ef d9be 06aa 88bd
00000140: 7f6f 3e3d 74c8 5c3f 0467 a33d 3d36 01be
00000150: 7f50 8abd 9204 063f a32e cebe 4fc0 0abe
00000160: e03f 0cbf a95a 183d e808 d63e 0725 dd3e
00000170: b10d 84be 4f47 7cbe e423 8b3e e462 a63e
00000180: bb38 52be 5436 12be c485 8bbe 133e 9ebe
00000190: 217e 18be 6b0a 0cbf 5328 5fbe 9c6f 0bbe
000001a0: 47d0 a83e 160c 55bf d167 78bf 5ef7 03bf
000001b0: 6feb 7dbe 4e20 2abf d80f 613e deed 30bd
000001c0: 3d8d b5be b78d 6cbf 8dd2 9bbe 700f 4b3e
000001d0: 1e56 733e 0c27 8f3e 3541 d8be adfa 0f3e
000001e0: be8b 83be d374 b7be 65f3 f23d ab20 1f3f
000001f0: d884 57be adcd 8dbe 2df0 943e 9c64 1f3f
00000200: 54fc 4e3e 131d 683e 67e3 d73c fe3b 07be
00000210: a719 8a3e b5db 313f 0b48 0cbe 8ddc 323e
00000220: 8775 f1be d03d 22bd 09cc 76be 2a67 34bf
00000230: 6c8f 05be 75e2 25be 0a55 603d 3750 25bf
00000240: 3d49 2e3e 349b b53e f8d9 0cbe 84d1 57be
00000250: 20d5 ab3e 8c88 9a3d 1a47 b0be b96e e2bb
00000260: 0db5 62be b15f 043f 7d64 353e 2d09 a0bd
00000270: 99c9 923e a13d 403c 6836 463c 71d3 29bd
00000280: 63c8 87be 018d 813e 186a f1be 4c26 313e
00000290: 9bae 01be 16da a1be 5569 05be 89a1 283e
000002a0: 4e82 c6be 83b0 d83d 4c5c b4be c8a0 92be
000002b0: 79b8 2a3d 7348 05bf cea0 0ebe a97e 223f
000002c0: f0c9 a2bd 48d7 0b3e 3a30 153d c081 b63b
000002d0: 711e 3bbf 3361 9339 56cf 12be d276 96bd
000002e0: 6635 3d3e 6ce3 9e3e 12b2 723e 9383 e8be
000002f0: 80f8 383e b361 09be 91b9 f5be 04f1 d5be
00000300: 6bc1 d1bc 64ca 093f c780 0abe fe6a 103d
00000310: cd29 2f3e 2c89 bbbe 33b1 c6bd 8008 ba3d
00000320: d2d3 e4be 6b1e 073e 5077 24be 8bff 5b3e
00000330: ca3f cf3d ce35 84be d8c4 873e ebab 89be
00000340: ca23 4dbd 12ea 37be 231c 4a3e 040a 3d3c
00000350: 16af 13be daf4 223f f348 943b a186 1ebe
00000360: 2327 653e df4f 8dbe d7ed d73d 89a8 9e3c
00000370: 2118 b1bd 3ecc d8be 2cb8 85bc ab43 dd3e
00000380: 0bfe 3a3e 5d11 99be 7670 f3bc c9dd 5e3e
00000390: 0a2c 02bd 4ef9 703c 1202 753c db08 e2be
000003a0: f27d 35bf 93df 283f 7860 85be 9c2c 2dbf
000003b0: 9933 7c3e 5899 02bf 46d2 d03d dffa 09bc
000003c0: 515f f0be 7d4c 2bbe 077f de3e 3124 98be
000003d0: f498 c43d 238c 433f 4ad0 64be a9e2 09bd
000003e0: 67d6 00be 8b1b eb3e afa6 04bf bc4b 753e
000003f0: 16fa fabe ec1e 163f d310 02bf 89f2 6abf
-0.8649117 -0.10454931 0.32332808 0.9815512 -0.24741578 -0.08079638 -0.34912062 0.19324696
-0.26049054 -0.26062572 -0.29595718 0.3376149 0.56298536 -0.27375442 -0.09657111 -0.5748852
0.18553878 -0.20860277 0.4404269 0.1489937 0.36901137 -0.10208643 -0.43631822 0.52009153
-0.2327089 -0.43251342 -0.010046271 0.13899216 0.2189004 -0.16605423 -0.28575268 -0.092545435
-0.47826907 -0.26226053 -0.4081683 -0.3253313 -0.20949031 -0.05647782 0.59713346 0.047967564
-0.3964113 0.0077947434 -0.44465527 -1.2208437 -0.14423622 -0.09822673 0.3194448 0.19018771
-0.19380717 0.251136 0.99631065 0.11011515 0.45675358 0.6426953 -0.011176788 0.03143463
-0.019427752 -0.6062527 0.57402235 -0.20911725 -0.5308073 0.28634816 0.18403272 0.24177286
0.05864007 -0.2759665 0.004282234 0.3439501 -0.1550384 0.109302096 -0.19286695 0.18040419
0.09420693 0.117487036 0.25561684 -0.49242568 0.30573362 0.05189267 -0.42565516 -0.066730544
0.04649305 0.8624337 0.07978633 -0.12618347 -0.06753635 0.52350724 -0.40269956 -0.13549922
-0.54784966 0.037195835 0.4180367 0.43192312 -0.25791696 -0.24636577 0.2717582 0.32497323
-0.20529453 -0.14278537 -0.27250493 -0.30906734 -0.14891864 -0.54703397 -0.21792726 -0.13616794
0.32971403 -0.83221567 -0.9703341 -0.5154933 -0.24796842 -0.66455543 0.219787 -0.043195598
-0.3545932 -0.9240374 -0.30434075 0.19830108 0.2376332 0.27959478 -0.4223725 0.14060469
-0.25692552 -0.35831317 0.1186283 0.6215922 -0.2104677 -0.2769598 0.2908949 0.6226289
0.20213443 0.22667341 0.026353551 -0.13206479 0.26972696 0.6947587 -0.13699357 0.17466946
-0.4715998 -0.03960973 -0.2410127 -0.70469916 -0.13042992 -0.16199668 0.0547686 -0.64575523
0.17020126 0.35469973 -0.13755023 -0.21076018 0.3356104 0.075455755 -0.34429246 -0.006910172
-0.22139378 0.51708513 0.17714114 -0.0781425 0.28669432 0.0117334435 0.012097932 -0.041461412
-0.2652007 0.2530289 -0.47151256 0.17299765 -0.12664263 -0.316117 -0.13028462 0.16467871
-0.3877129 0.10580542 -0.35226667 -0.2863829 0.041679833 -0.52063674 -0.1392853 0.6347452
-0.07948673 0.13656342 0.036422946 0.0055696666 -0.73093325 0.00028110444 -0.14336905 -0.07346882
0.18477401 0.31032884 0.23700741 -0.45412883 0.18063545 -0.13416176 -0.47993138 -0.41785443
-0.025604924 0.5382445 -0.13525687 0.035258286 0.1710579 -0.3662809 -0.09701767 0.090836525
-0.44692856 0.13195197 -0.16061139 0.214842 0.10119589 -0.258223 0.26517367 -0.26888976
-0.05008296 -0.17960384 0.19737296 0.011538032 -0.14422259 0.63654864 0.004525298 -0.15481044
0.2237821 -0.276 0.10543411 0.019367473 -0.0864718 -0.42343324 -0.016323172 0.4321569
0.18260972 -0.2989606 -0.029716711 0.21764292 -0.03178028 0.014707876 0.014954107 -0.4414738
-0.708953 0.6596615 -0.26050162 -0.67646194 0.24629058 -0.51015234 0.101963565 -0.008421629
-0.4694772 -0.16728397 0.4345629 -0.29715112 0.09599486 0.76385707 -0.22345081 -0.033663426
-0.12581788 0.4591945 -0.5181684 0.23954672 -0.49018925 0.58640933 -0.5080692 -0.9177633

network_body._body_endoder.seq_layers.0.bias f4 [128]
00000000: 51a8 8b3c f282 373d 60d3 1dbd 1072 443d
00000010: 55bb f93d c647 ecbd 18e4 493d cdca d33c
00000020: 8810 2c3d a222 4ebb dcfe 6e3d 453f d43c
00000030: b803 5c3c 8007 3abd f684 963c 700d ab3d
00000040: 593e ae3c 8b2c d33c a9a6 273d 480d 9d3d
00000050: d8f2 863d 87b4 abbd 2fa8 bf3c e2fe 2d3c
00000060: 22f2 9f3c af97 363d a09d aebc 2231 2dbd
00000070: c3a5 c83b dbf3 063d 8e05 333d 3242 e13c
00000080: 0694 7dbc d347 973d 6b28 4b3d 4267 3bbc
00000090: 5e2e b53c 8115 0f3d 4230 edbc 2c95 423d
000000a0: a4ec ee3c fe97 783d c957 963c c67f 6bbd
000000b0: 3848 6abd 5d3a 00bc 417d 9b3b 4540 903d
000000c0: ff7e b03b dba5 653b a1cb 0c3d c8a5 bc3c
000000d0: eb89 dc3c ebae 8c3d cd45 c33c 4698 c53c
000000e0: 68c3 3fbe 0ad1 3d3c 63b9 8ebc 6941 ba3d
000000f0: a2eb 493d f056 8c3c fc68 ec3c 6abe db3c
00000100: c3cc a13c b512 e13d 2a4d b73c e55e 0d3b
00000110: ca5d 0fbc 3ddf 2e3d 67c7 dd3c a8fe 7c3c
00000120: 1283 9b3c e3b0 583d 607d 053d 421b 1bbc
00000130: 6769 7a3c 7c48 173d 5eb0 e43c 00cc 773c
00000140: 43fa 273d 4f1f 11be 6731 7cbd 5fe2 423d
00000150: 1e39 383c 1164 823d c1a2 d53c ff2f 843d
00000160: 9d23 f33c 5abb ab39 0274 48bc 5b10 053c
00000170: a63c f23c f1c4 c83c ccb3 573d 27f0 233d
00000180: 30f0 c53c b3ff c13d b271 21be 92bb f83c
00000190: ce9f c23b 7bdb 4e3c c1aa 183d d675 1b3d
000001a0: e776 303d 633c aebd 13a1 d2bc 795a eb3c
000001b0: c067 2b3c c1ce 893c c61d bf3c bbb9 8d3c
000001c0: 0d25 ac3c 1b4a 8d3c 306c b23c 51c0 e5bc
000001d0: 78e1 423c ddda 233d e4db 693a da4d a33d
000001e0: e04a 713d 0e75 16bc a07e c9bb ff3e 973c
000001f0: f52e 1f3d 949e 643c 18c8 103d 656f 663d
0.017048033 0.044802614 -0.03853166 0.04796034 0.12193934 -0.11537127 0.049289793 0.025853539
0.042007953 -0.0031453748 0.05834852 0.025909076 0.013428621 -0.04541731 0.018373948 0.083521724
0.021269964 0.025778076 0.040930424 0.07668549 0.065892875 -0.08384042 0.023395626 0.010619851
0.019524638 0.04457825 -0.021315396 -0.042283185 0.006123276 0.032947402 0.04370647 0.027497385
-0.015477186 0.07386746 0.049599092 -0.011438193 0.022116836 0.034932617 -0.028953675 0.047505543
0.029165573 0.060691826 0.018352406 -0.0574949 -0.05719778 -0.007826415 0.004745156 0.070435084
0.005386233 0.0035041485 0.034373883 0.02302827 0.026921233 0.068693005 0.023836995 0.024120461
-0.18726885 0.011585483 -0.017422384 0.09094507 0.049296983 0.017131299 0.028858654 0.026824195
0.019750958 0.10989896 0.022375662 0.0021571454 -0.008750388 0.042693365 0.027072622 0.015441574
0.018983398 0.052903067 0.03259027 -0.009466948 0.015283919 0.03693436 0.02791613 0.015124321
0.041010153 -0.141721 -0.06157055 0.047579166 0.011244087 0.063667424 0.026078584 0.06454467
0.029680068 0.0003275525 -0.01223469 0.008121575 0.029569935 0.024507971 0.052661702 0.04002395
0.024162382 0.09472599 -0.15766028 0.030362878 0.0059394604 0.01262557 0.03727222 0.037954174
0.043082144 -0.085076116 -0.025711572 0.028729664 0.010461748 0.01682222 0.023329627 0.017300477
0.021013761 0.01724725 0.021780103 -0.028045805 0.011894576 0.040003646 0.0008921011 0.079738334
0.058909297 -0.009183181 -0.006149128 0.018462656 0.03886314 0.013953824 0.035347074 0.056258578

network_body._body_endoder.seq_layers.2.weight f4 [128, 128]
00000000: 8fda fa3d 35a5 d03c 0d6a 0c3e 31a7 81bb
00000010: e287 f2bc d20f b7bb 03be 91bd 2597 ecbc
00000020: 2d51 75bd e612 223e 42ea 853d d6fe bd3c
00000030: c16f 9d3d 1648 2cbe 48f8 8f3d 86b2 53bd
00000040: 73a7 08be 60e3 22be fb71 c5bc ec19 8bbc
00000050: 7e0c aebc 4a16 e1bd c610 943d 27c2 4c3d
00000060: 2c08 95bd f2d7 90bd 0fbd 023e 1214 90bd
00000070: 94a9 40be 12eb 82be 101f 9f3c bb76 babd
00000080: b117 693e ccc6 b5bc ca1a 84bc ab2c 10be
00000090: 2ff5 f6bd 5123 6ebc 85b0 cc3d 355d b53b
000000a0: 6153 f5bc 2f33 29be 3694 8fbe d6ab b13d
000000b0: 9abf 85bd dbbe f3bd 3287 d23b 08ab 283c
000000c0: 0294 823d d423 363d 938d 5a3e f1db 97bd
000000d0: eaa8 4abc 39ef 1b3e 6514 3dbd eb47 1b3e
000000e0: d27f 273c b4da 91bd f603 83bc e8f4 54be
000000f0: d789 6fbd c472 953d ec40 463d 75e9 a1bd
00000100: 4cde 8e3c f05f edbd 94f0 043d 5cac 543d
00000110: 5015 d23c 7be3 3cbe 9fb1 2ebd e686 893d
00000120: 532c 1ebd ad2c 0dbe 3b8f e03c ab58 d33d
00000130: 1eaa 663d 9f74 cdbd dd87 b83c 69ba 7a3d
00000140: 7222 2e3d b0b6 bd3d b46c 343d fffb 643d
00000150: abc8 2dbe cba7 83bd 122b 9fbd 9433 16bc
00000160: ff21 823c 36f7 2d3e 3ab5 3c3d e18f 5fbc
00000170: a038 8ebd 6a9a 0a3e 979d 91be ef46 74bd
00000180: a257 1cbe 1222 e33c b819 943d 3929 08be
00000190: 61ff 463c 0900 eb3b 0961 34be 442a 903d
000001a0: e73a d4bc d89d 493e c3a4 b53d 13e5 ed3c
000001b0: bb02 9b3d 61fc 943d 81c1 bf3d b5ee 263e
000001c0: 8be0 18be 8172 59be 11ff c8bd 2f02 7a3d
000001d0: 9f82 5c3d b390 babd d8da ee3c f909 43bb
000001e0: 6329 03be 4b3c d7bd b4ca 663d dde4 04be
000001f0: 3740 41be a409 563e 77d1 2c3e df3e d6bd
00000200: 2f3b 5e3e 55a9 323e 497c 003d 2a5c cf3d
00000210: fab1 13be 860f 0abe 7ff3 6cbd 6a2d 6dbd
00000220: 1bc1 74be cc76 10be 211c 5d3e e09c 90be
00000230: 849c 8abc 992b 81be 9bfb 17be ada1 0bbd
00000240: ec11 a53d 7a56 83bd 6c57 c33b e0a6 d73d
00000250: 01b9 153d 8b18 23bd 2af1 06bd 9e43 803e
00000260: 7db8 d4bd 9413 313d a60e a9bd cf75 52be
00000270: e25c 563d 2dfe 67bc f367 a03c 40d0 b93d
00000280: 5fc4 303c ffe0 663d 0f70 53be 2425 e03d
00000290: 2d33 8bbd a5dd acbc edcc 0b3e d27f 5d3c
000002a0: 3094 053e a7bb 9bbd a4a1 b0bd 4a06 81bd
000002b0: c0c5 8c3d 46b2 20be 72dd 35bd ad9b 513c
000002c0: c879 2fbd fa95 383e 9b54 40be 2c90 0fbc
000002d0: 303e 0abe eea9 2e3e c25d f23c e11a a23d
000002e0: 4bb9 64bd 5026 9abd dbc3 adbc 43a8 c23d
000002f0: 0f21 24be b1c5 0d3e 6a9d 6a3d 6878 c73c
00000300: 674b 16bd fd80 9f3d fa90 cebc 001d 5fbd
00000310: 9d68 3abe 0dcc 123e c8dc 72bd d0b0 973d
00000320: ce04 d1bd be31 d93d bf11 823b 83d9 ea3d
00000330: 7dd6 46bd 1cb4 c6bd 77eb f7bc 8405 623e
00000340: 1ce0 04be 5d3e edbc ed76 223c 9d6a 5a3d
00000350: 2bd7 2ebc c915 73bd 9778 e43b a867 57bd
00000360: 20f5 f6bd c616 1d3d b399 86bd 85ae 54bd
00000370: d85a e8bd f7fe acbd b3f2 513d b86a 9ebc
00000380: 02e3 0cbe d452 7d3d c925 11be 041e 173c
00000390: 7e73 2abe 001a 25be 1c7d 05be aef1 963d
000003a0: 7f23 673e 0c09 84bd 8e45 60bd 0bb6 8c3d
000003b0: e120 0d3d 82af 423c 69d2 2a3c 7507 583d
000003c0: 040a 2e3d ac27 3dbe d467 a23c 2757 c23b
000003d0: 1b12 afbd d63c c6bb 7ee6 1fbe efbf 9abd
000003e0: c9c1 c63d d1e7 cc3c 31c2 cb3d 4cd7 9d3d
000003f0: f527 1a3d ed30 b2bd f012 a83b f816 703e
0.12248718 0.025469402 0.1371233 -0.0039566983 -0.02960581 -0.0055866027 -0.0711632 -0.028880665
-0.05989187 0.15827522 0.06538822 0.023192804 0.07687331 -0.16824374 0.07029778 -0.051683925
-0.13345127 -0.15907049 -0.024102202 -0.016980134 -0.021246191 -0.109905794 0.07229762 0.049989846
-0.07276949 -0.07072438 0.12767433 -0.07035078 -0.18814689 -0.2556997 0.019423991 -0.09104677
0.22762944 -0.02218952 -0.016126055 -0.1407954 -0.12058484 -0.014534787 0.09994606 0.005534793
-0.029946985 -0.16523431 -0.28042763 0.08675353 -0.06530686 -0.11901637 0.006424808 0.010294683
0.063758865 0.044467762 0.21343069 -0.07414997 -0.012369374 0.15227975 -0.046162028 0.15164153
0.010223346 -0.071217924 -0.0159931 -0.2079655 -0.058481064 0.072972804 0.048401758 -0.079058565
0.017439984 -0.11590564 0.032455996 0.051922187 0.025644928 -0.18446152 -0.04264986 0.06715183
-0.03861649 -0.13786574 0.027412048 0.103196464 0.05631458 -0.10032009 0.022525722 0.06121293
0.04251332 0.092633605 0.04404898 0.055904385 -0.1697108 -0.06428488 -0.07771887 -0.009167571
0.015885351 0.16988835 0.04607127 -0.013645143 -0.06944394 0.13535467 -0.28440544 -0.05963796
-0.15267804 0.027726207 0.07231468 -0.13296975 0.012145848 0.007171635 -0.17615141 0.070393115
-0.025906993 0.19689119 0.088693164 0.029039895 0.0756888 0.072747 0.0936308 0.16301997
-0.14929406 -0.21235086 -0.09814275 0.06103724 0.053835507 -0.091096304 0.029157087 -0.0029760583
-0.12808757 -0.10509547 0.056345657 -0.1297793 -0.18872152 0.20902115 0.1687678 -0.104612105
0.21702264 0.17447408 0.031368528 0.10125001 -0.14423361 -0.13482484 -0.057849403 -0.05790464
-0.23901789 -0.14107817 0.21592762 -0.28244686 -0.016920336 -0.25228575 -0.14842074 -0.034089733
0.08060059 -0.064129785 0.0059613492 0.10529876 0.036553387 -0.039818328 -0.032944836 0.25051588
-0.10386751 0.04323156 -0.08254747 -0.20552753 0.052334674 -0.014159721 0.019580817 0.09072924
0.010789006 0.056366917 -0.20648216 0.10944584 -0.067968704 -0.021101782 0.13652392 0.013519244
0.1304481 -0.07604151 -0.086245805 -0.06300028 0.06873655 -0.15693006 -0.04440064 0.012793464
-0.04284075 0.18025962 -0.18782274 -0.008762401 -0.13500285 0.1705701 0.029585723 0.07915283
-0.05584077 -0.07526839 -0.021211555 0.095047496 -0.16028236 0.13844945 0.057279028 0.024349406
-0.036693003 0.077882744 -0.025215615 -0.054471016 -0.1820397 0.14335652 -0.059292585 0.07406771
-0.102059945 0.10605191 0.0039694007 0.11467268 -0.048544396 -0.09702322 -0.030263646 0.22072417
-0.12976116 -0.028960401 0.009916049 0.05332433 -0.010671417 -0.059346948 0.0069723832 -0.05258909
-0.12058473 0.038351797 -0.065722845 -0.051924247 -0.11345452 -0.08447068 0.051256847 -0.019337997
-0.13758472 0.06184657 -0.1417457 0.009223465 -0.1664562 -0.161232 -0.13036007 0.073703155
0.22572134 -0.06447038 -0.054753833 0.068706594 0.034455184 0.011882665 0.010426142 0.052741487
0.04249002 -0.18472165 0.0198249 0.0059307995 -0.08548375 -0.0060497327 -0.1561527 -0.0755614
0.0970493 0.025012882 0.099491484 0.0770708 0.037635762 -0.08700738 0.0051292107 0.23446262

network_body._body_endoder.seq_layers.2.bias f4 [128]
00000000: 64b1 32bd b82f 8d3c fbff 583d 81a3 b83b
00000010: 6411 fc3c 4ac5 603d 800e 163d a687 403d
00000020: b4b8 8e3c f272 353c 2534 0a3d b11a f63c
00000030: e85f b93b de9a 68bc 228a 8e3b 5d6c 1d3b
00000040: 57a5 683d 51f5 b43c 6399 bdbd b1e7 cb3c
00000050: 098d d33c 43c9 df3c ff68 ae3b 4412 3bbd
00000060: dcd0 243d f10a 943c 84c9 273d 4f40 e5bc
00000070: d3a3 9abc ed59 d03c 7719 b13d 5b0d 2f3d
00000080: e3f1 143d 5044 0b3d 8d3b a73c f3c2 2a3d
00000090: 2d37 6e3d 59df 273d 0eed 91bd 51cd 4ebb
000000a0: c4f2 e93b 091e ab3d 2127 333d a511 ed3c
000000b0: d56d b43c a177 cd3c f9d5 703c e895 c53c
000000c0: 66ad f43c 5a2b 503d 5fb6 303d 4f07 5ebd
000000d0: eb21 203d 00fe 1c3d f3d2 423d ec05 cb3b
000000e0: ca88 ae3d 2bb9 383d d711 633b acff 383d
000000f0: 4a96 09bb 1bc7 003d 7433 ad3c 4329 353d
00000100: 1a27 b139 2e92 e23c 37f2 c13c 489a 143d
00000110: 72d0 123d 71a2 033d bec0 2b3d 0d6a 883d
00000120: 25b7 913c 2ccd db3c a40f c03c 1ea1 de3c
00000130: 8674 f03c f8df 113d 52a0 013d a18d 8dbc
00000140: 131b 2e3c ff60 c53d 8d20 36bc c7d5 fa3d
00000150: 04e1 063d f04b 843d c1ee d9bc 9b78 fb3b
00000160: 9eb6 0c3e 400f 473d 01f6 d33c 05ad cabd
00000170: 9a8a 3d3d 8e1d 663d 5adf ab3d 6554 bbbd
00000180: 0834 a83c f9ff 0f3d 9132 0e3d fdae 323d
00000190: 083e 323d 17af 123d c870 1b3d fe96 b6bc
000001a0: 8298 ef3c 5146 b83c 9fce ce3c a03b 083d
000001b0: 492c a33c 0a78 5d3d 35e6 8bbc f234 b7bd
000001c0: a3a4 3a3d 6cfd db3c b4a1 113d dc07 aa3c
000001d0: 91e1 553d 0854 6b3c 688d 2d3d 3c19 3c3d
000001e0: 4b90 a83c 164c 273d 0a96 813c 6a68 1f3d
000001f0: 7751 a4bd eb68 a33d 47b2 6b3d cdbd e33c
-0.043626204 0.017234668 0.052978497 0.0056347256 0.030770011 0.05487565 0.036634922 0.047004364
0.017422058 0.011074768 0.033741135 0.030042024 0.005657185 -0.014197079 0.004349963 0.0024020888
0.056798305 0.022089632 -0.09257772 0.024890753 0.025824087 0.027317649 0.005322575 -0.045671716
0.040238246 0.018071624 0.040963665 -0.027984766 -0.018876946 0.025433505 0.08647435 0.042737346
0.036363494 0.034000695 0.020414138 0.041689824 0.05815809 0.040984485 -0.07125293 -0.0031555484
0.0071395356 0.08355338 0.043738488 0.028939078 0.022025028 0.025081458 0.014699453 0.024119332
0.029867839 0.050822593 0.043142673 -0.05420619 0.039094847 0.03832817 0.047564458 0.0061957743
0.08522184 0.045098465 0.0034648085 0.045165703 -0.002099412 0.03143988 0.021142699 0.044228803
0.00033789204 0.027657595 0.023675067 0.036279947 0.03584332 0.032137338 0.04193186 0.066608526
0.017787525 0.026831232 0.023444958 0.027176436 0.029352438 0.035613984 0.031647034 -0.017279448
0.010626572 0.09637641 -0.011116159 0.12247806 0.032929435 0.064597964 -0.026603105 0.0076742894
0.13741538 0.048598528 0.02587414 -0.09896282 0.04627476 0.05618053 0.0839221 -0.09146956
0.020532623 0.035156224 0.034716193 0.043623913 0.04351619 0.03581151 0.037949353 -0.022288796
0.029247526 0.022494467 0.025245009 0.033259988 0.019918578 0.054069556 -0.017077545 -0.089456454
0.045567166 0.02685424 0.035554603 0.0207557 0.05221707 0.014363296 0.042371184 0.045922503
0.020576617 0.040844046 0.015818615 0.038917936 -0.08023351 0.07978996 0.057543065 0.027800465

network_body._body_endoder.seq_layers.4.weight f4 [128, 128]
00000000: 8d36 b93d 16d3 f93d ee2c b9bd 9065 9abd
00000010: c034 0c3e be08 cbbd 8cc9 1e3d 7af0 8a3e
00000020: 2430 41bd 6658 043e e1ef 69bd 19d1 ef3d
00000030: 6dcf 943d 663f 29be 4ffa a03c a2de 26bd
00000040: 0369 2f3c 0cc0 08be f74b 80bd 8f56 e33c
00000050: 2183 533e 9411 473e 4258 fb3d 54d9 8dbc
00000060: 5597 36bd b59d a93d fdc5 bdbc 533d 1abe
00000070: 033e aabd 8b70 b23d 15bb ad3d 456b 903e
00000080: d5f5 4cbe 66a0 a5bd ad2c ab3d c774 313d
00000090: 5457 2a3e 1b1d 1f3e f784 f13c 77df 78bd
000000a0: 019d abbc 79d7 bd3e 86d0 0a3e 48fd 24be
000000b0: 2730 d7bd 08d2 b1bd bbcf 9bbb 2d92 ec3d
000000c0: 831d 17be 8b6d b9bd fc78 363e 2786 2b3b
000000d0: 56f1 3cbd 9628 183e f586 073e f547 16bc
000000e0: 47fc 9bbc f3c0 21be 16c0 1abe d72f 403e
000000f0: 36c3 083e 70c4 56be f39a b53d 9515 06bd
00000100: ee7a 403e 0c3e 5b3d b157 0c3e 61fc a2bd
00000110: b5c8 8b3e 7498 05bc 503c c13c b090 a33d
00000120: 1ac2 f8bd e867 49be ce50 ae3d 821b f5bd
00000130: 4408 853b 497c 38be d1f6 23be 6b75 00be
00000140: db16 d83c b908 4c3d 95f1 afbd 0291 b0bc
00000150: 795c f83d 35be fb3c 093d 5dbe 9edd 0cbe
00000160: 3f86 033d 885d 033e 6159 ec3d 71fd acbb
00000170: 6ff9 88bd b701 15be 0d1f fbbc b366 46be
00000180: 4b7a 01be 57cb b13c dbf1 553e 441b d93c
00000190: 5e79 bf3d 5717 efbb 5c52 563e a369 533e
000001a0: 618f 333e a7dc be3d f56a 5d3d 8787 503d
000001b0: 1aa2 203e b095 1a3d 6df3 80bd 38a6 71be
000001c0: 9dad 8e3d a182 123e 6703 353e 7115 013d
000001d0: ab01 8b3d d879 52be ec49 05bd d260 6e3c
000001e0: 930c 7fbc 0005 20bc d99b 5ebc cbc8 d3bd
000001f0: e67d e0bd 18d5 283e e530 2e3e 33fd b13d
00000200: 87ff 023d 0480 983d 8276 03be 58fd 0ebe
00000210: 29b8 633e c0ac bb3d c8ee 013d c2ce 853d
00000220: e781 45be f885 393e 3a6f 553d c9c7 5f3e
00000230: 3dc9 f83d ab6f b03d db8c 603d 8fb8 273c
00000240: 823c e03b ebc2 24bc 0e61 15bd 7caa 763c
00000250: 2c89 253e 2a4a 183e abda 053c cebd 813c
00000260: d849 febd 273e e93d 40b2 19ba 8a70 9cbe
00000270: 63fd 0fbe 4a62 1a3e 51fa f4bd 82af ae3d
00000280: 4358 81bd 4bac f9bd 5509 0b3d e57f 94bd
00000290: 5fcc 7c3e 162d 3bbc 46ae 70bd b4af 4e3b
000002a0: 4fc9 823e 7455 c53b 77e1 29bd 96a5 713d
000002b0: 70ef 1dbe 6451 94bd 85d2 f2bd 5961 22bd
000002c0: 7a45 44bd e9f6 fb3b 4bac bc3b 360d cf3d
000002d0: c495 973d 1d38 90bd a109 ecbd f08c 393d
000002e0: bd0c 053e 660b e6bc d44c 98bc 3b1f 4cbd
000002f0: ee86 54bd 1ae3 aabc 6543 8b3c c47f 5bbc
00000300: c0af 2d3e 75b7 013e 8144 e63d b7bc 903c
00000310: 86c6 533e b80a b9bc 310d 3abd a6e6 043e
00000320: 59d0 01be def7 2bbc ec29 8cbd 365e 3a3d
00000330: 1312 e83d e452 a4be 97f2 1cbe 0c45 a7bc
00000340: 5337 083e b561 dd3c 44d1 bd3d 3041 083e
00000350: 4c4b 183e f7eb 723c a12b 9fbd e020 d2bc
00000360: b0a0 663c 9981 6f3c b2a1 9fbc cfb5 c2bb
00000370: 5168 e33d 3d2c 70bd d01a a53d 93af 18be
00000380: d533 363c d4a4 713d 8345 6c3d 160b 1e3d
00000390: 1ae3 f1bc 6854 5f3d dd2d da3d 1622 f53d
000003a0: 50af 053d f277 bd3d 87f7 c03a c3d2 373e
000003b0: d56c 87bc 68c2 7e3d dbab 443e beb7 1d3d
000003c0: eb55 ecbc 72ce 9f3d edaa 1e3c 0406 023e
000003d0: 447a 9b3d fc1d bbbc 4042 acbc 25fa 81bd
000003e0: 720f c03d c273 263d fc97 77ba 7be1 bebc
000003f0: e345 ddbd 1085 a93d af7d 0b3d 6da9 0b3e
0.09043608 0.121984646 -0.09041773 -0.07538903 0.13691998 -0.09913777 0.03876643 0.27136594
-0.04716505 0.12924346 -0.057113532 0.11709804 0.07266126 -0.16528091 0.019650606 -0.040739663
0.010706189 -0.1335451 -0.06264489 0.027751235 0.2065549 0.194403 0.12272693 -0.017315544
-0.044577915 0.08282033 -0.023165697 -0.15062456 -0.08312609 0.08712872 0.08482949 0.2820684
-0.20015652 -0.08087234 0.083581306 0.04332426 0.16634876 0.15538447 0.029482348 -0.060759988
-0.020948889 0.37078455 0.13556108 -0.16112244 -0.10507231 -0.086826384 -0.004754988 0.11551318
-0.14757352 -0.09054097 0.1781959 0.002617249 -0.046128593 0.14859232 0.13235076 -0.009172429
-0.019041194 -0.1579626 -0.15112337 0.1876825 0.13355717 -0.20973372 0.08867445 -0.032735426
0.18796894 0.05352597 0.13705327 -0.07958294 0.27301565 -0.008154023 0.02358833 0.07986581
-0.12146397 -0.19668543 0.08511506 -0.11968137 0.004059823 -0.18016161 -0.16012122 -0.12544791
0.026378086 0.049813006 -0.08591 -0.02155352 0.12127013 0.030730346 -0.21605314 -0.13756415
0.03211045 0.12828648 0.11540485 -0.005279236 -0.06688201 -0.14551435 -0.030654455 -0.19375114
-0.12644307 0.021703405 0.20893042 0.02650226 0.09349321 -0.0072964835 0.20929855 0.20645766
0.17535163 0.0931943 0.05405708 0.0509105 0.15686837 0.03774041 -0.0629643 -0.23598564
0.06966708 0.14307643 0.17677079 0.03151459 0.067874275 -0.20554292 -0.0325412 0.014549451
-0.015566963 -0.009766817 -0.013586962 -0.103410326 -0.10961513 0.16487539 0.1701084 0.08690872
0.03198197 0.07446292 -0.12838176 -0.1396383 0.2223822 0.09163809 0.03172186 0.065335765
-0.19287835 0.18117511 0.052108027 0.21853556 0.12147758 0.08615049 0.05482183 0.010236873
0.0068431506 -0.010056238 -0.03646951 0.015055295 0.16165608 0.14872041 0.00816981 0.015837576
-0.12416428 0.11388808 -0.0005863048 -0.3055461 -0.14061503 0.15076557 -0.119618066 0.08529569
-0.06315663 -0.121910654 0.033944447 -0.072509564 0.24687336 -0.011424324 -0.05875995 0.0031537833
0.2554421 0.0060221497 -0.041474786 0.058995806 -0.1542337 -0.072420865 -0.1185656 -0.03964362
-0.04791782 0.007689346 0.0057578436 0.10109942 0.074016124 -0.07041953 -0.11525274 0.045300424
0.1299314 -0.028081607 -0.018591322 -0.04983447 -0.05188649 -0.020860244 0.01699991 -0.013397161
0.16961575 0.1266764 0.11243535 0.017668111 0.206812 -0.022588119 -0.045422737 0.1297861
-0.12677135 -0.010496108 -0.068439335 0.045500003 0.113315724 -0.3209449 -0.15326916 -0.020418666
0.13302355 0.02702413 0.0926843 0.13306117 0.14872473 0.014826766 -0.077719934 -0.025650442
0.014076397 0.014618301 -0.019486282 -0.0059420834 0.11103881 -0.05863594 0.08061755 -0.14910726
0.011120756 0.058995083 0.05768348 0.03858479 -0.029527236 0.054523855 0.10653279 0.11969392
0.032637894 0.092513934 0.0014722206 0.17951493 -0.016531387 0.06219712 0.19206183 0.03850531
-0.028849563 0.07803048 0.009684307 0.12697607 0.0759168 -0.022841446 -0.021027684 -0.063465394
0.09377946 0.04063774 -0.00094449497 -0.023300877 -0.108043455 0.08277333 0.034055408 0.1363885

network_body._body_endoder.seq_layers.4.bias f4 [128]
00000000: d49c 503d 603a 9b3c 2b82 a53b 6b13 aa3c
00000010: d76b 633d ffcc e83c ca97 163d 60a1 343d
00000020: f1df 6b3d 821e 033d 3679 e73c f102 e2ba
00000030: 8632 d83c e51e 423d dbeb 043d 9228 123d
00000040: d87d 913d 1860 523d 5bca 06bc 7dd7 f23c
00000050: e40d b53d a1fd 303d 5cf4 1c3d 8297 ef3c
00000060: a356 363d f542 293d 9b56 aa3b 274b db3d
00000070: 1b01 333d 3547 153d c02b fd3c 090b 7c3a
00000080: 876c ca3c 7996 8c3c 268b 0d3d f007 513d
00000090: 8d07 543b bcc9 a93d a4be 873c 10fd c13c
000000a0: d4d2 3f3d 2102 e33c 4285 b83d 0aaf db3c
000000b0: 6f18 aeba 9a2d 583c 9382 6d3d a5fd 583c
000000c0: 1f15 8a3d 72c8 783d 2ade 36ba b4b4 963d
000000d0: e79b 343d 2dd0 e43c c690 e43c 3d5c bc3b
000000e0: 38bc 853c d2c4 c13c 54e4 67bc 7f3f f5b9
000000f0: 940c 353d 1b71 5a3c e435 ea3c eda9 c13c
00000100: 16a2 d63c 6403 823c 7a83 b53c e114 673d
00000110: 1f7c 943a 9131 713d 31aa 893d 7bd8 cb3c
00000120: 2924 633d 4d17 343d 120c a7bb bfb1 ab3d
00000130: dd03 963d 8fb7 a73c 86bd e13d 3e5a 193d
00000140: 49a2 e03c 1ac1 073d 80c8 68bc bfab 353d
00000150: 4c6d 893d ca30 193e d49f 003d bfa6 813c
00000160: 81dc 883c 6bd7 3a3c 4ece 4a3d 726f 893d
00000170: 36db 413b 3935 4b3d 9688 183d 2b8c c43c
00000180: f860 1fbd a750 6b3d 882f 183d daa5 1b3d
00000190: 5fa8 303c d7d7 7d3d 5ff5 e63c d3bf b23d
000001a0: 8cb5 c13d e96e 1d3d 8924 173d 108c 0d3d
000001b0: 6aca 0d3c 0e34 843d 2e92 923c 4f4d c83d
000001c0: b2e3 0fbd ce3f e03c 8fee ad3d 67d7 a93d
000001d0: 69ff 473d 8205 923d a87a b93a aae3 353d
000001e0: 0d97 843c b932 173d 459e 8c3d 26c7 023d
000001f0: 352a 313d 8fb6 283d 8b29 b93c e72d 7e3c
0.050930813 0.018948734 0.0050509176 0.020761212 0.055522766 0.028418062 0.03676585 0.04409921
0.057586614 0.032011516 0.02825604 -0.0017243308 0.026391279 0.047392745 0.03245149 0.035683222
0.07104081 0.051361173 -0.008226956 0.029643768 0.0884054 0.04321063 0.038318977 0.02924705
0.044516217 0.04132362 0.0051983125 0.107076935 0.043702226 0.03644486 0.03090465 0.00096146815
0.024709953 0.017161595 0.03455653 0.05103296 0.0032353133 0.08290431 0.016570397 0.02368024
0.04683192 0.027710976 0.09009792 0.026816864 -0.0013282428 0.013194466 0.057985853 0.013244067
0.0674231 0.060738035 -0.0006975854 0.07358685 0.044093993 0.027931297 0.027901065 0.0057483003
0.016325101 0.023653422 -0.014153559 -0.0004677735 0.04420145 0.0133326305 0.02859015 0.023640597
0.026200335 0.015870757 0.02215742 0.056416396 0.0011328495 0.05888516 0.067219146 0.0248835
0.055454407 0.043967534 -0.0050978744 0.08383512 0.073249556 0.02047327 0.11022477 0.037439577
0.027421134 0.03314314 -0.014207959 0.044353243 0.067103 0.14960018 0.031402424 0.015826581
0.016706707 0.011403899 0.049513154 0.0671071 0.0029580123 0.049611304 0.037239634 0.023992619
-0.038910836 0.057449963 0.037154704 0.037999965 0.01078233 0.06197342 0.028193174 0.08727994
0.094584554 0.03843585 0.036900077 0.034557402 0.008654216 0.06455241 0.01789197 0.097803704
-0.035129257 0.027374174 0.08492767 0.08293038 0.048827562 0.07129957 0.0014150934 0.04440657
0.016185308 0.036913607 0.06866125 0.031928204 0.043253142 0.041189726 0.022602817 0.015513874

action_model._discrete_distribution.branches.0.weight f4 [25, 128]
00000000: a157 e03c dc19 743c 1d23 753c 1e4b 9dbd
00000010: 4c19 ddbc 9d49 75bd dcb6 433c a3cb 33bd
00000020: b6e4 f9bc 6847 423d ed5d 243c 2f2e bb3c
00000030: 6640 8cbd 7db6 a13c c610 2cbd b353 babc
00000040: 7e09 fb3c 0ddf c73c fff7 90bd 72f0 6cbd
00000050: f227 2b3d 0755 9d3c 3c05 b5bd cce6 0ebd
00000060: 148f 5ebd 335b 903c 7e3f 693c 675b 613d
00000070: b586 83bd a0f9 7dbd b9bb bb3c 14a1 69bc
00000080: 000c 11bd e1ff 213c 51c1 65bd 7357 1b3d
00000090: 5331 95bd f0ac 0d3d d64a f23a 3288 073d
000000a0: 7c22 2c3d eb11 bc3c 62c6 3ebd 3794 c93c
000000b0: cf35 2bbc 0972 813c 72aa 5ebd ff02 d3b9
000000c0: 8af5 2f3d 41a5 fbbc b3bd 4dbd 0ffe d2bc
000000d0: 8f64 08bd 0a7b 5fbd 4431 ae3c ac23 7e3c
000000e0: 7237 2c3c 9c4d a13a 75c4 54bc 3d42 b1bd
000000f0: 5008 46bd af57 27bb c048 8abd 9fc0 88bb
00000100: 0f70 6bbd 2bb1 eb3b f287 a33c ccf1 61bd
00000110: ffcf e3bc 25b3 e43b 80b4 38bd 668d 4fbd
00000120: 76b8 03bd c77e 5fbd 8d4e 5dbd 250e 163d
00000130: 8e0d 3c3d f10f 9fbd 507d 453b 1835 8bbd
00000140: 0a2a 29bc d1da 03bd df81 64bc 95de f53c
00000150: fe24 82bc 9287 933d e819 053b 786a 3a3c
00000160: 1344 043b 63d9 f83b 9d9b 1bbd 183f e23b
00000170: eded cc3c b8c6 2f3d 9063 a3bc 2701 7fbd
00000180: 499d 89bd 95fd 71bd 1fa6 883c 4704 5c3c
00000190: 6ab5 79bd 2bf7 fc3c 0542 4bbd ec72 503d
000001a0: 14c1 2d3d 1cf5 813c 2e17 ae3c f2b9 513d
000001b0: d436 87bd df9f 89bc 4006 373c 7b14 89bc
000001c0: 5ce5 76bd 1d0e 71bd bb97 cebc 524b aebc
000001d0: 1d8d 1dbd 0c2a a83b 3553 a6bd 718a 89bd
000001e0: f7dd aabc ac01 ffbc 1b86 13bd dee5 4fbd
000001f0: 6620 78bd 9b1c 503c 57f0 0f3c 5040 223c
00000200: 1593 823d 7fc7 073d 41ff c93b d646 b8bd
00000210: 5808 943c 5e53 25bd 1622 2c3d bdc5 78bc
00000220: 3e3b 52bc 6dbb 173d 069f 833d 7aa1 9b3c
00000230: 18a1 92bd bd14 fe3c 8330 8bbc e153 0f3c
00000240: bcaf 823d de0b 243d d7a8 f3bd c390 21bd
00000250: be99 843d 3a8b 473d 00e4 28bd 0d75 25bd
00000260: 3f41 06bd 5cba e73c 3659 8c3c 05c0 7c3d
00000270: e52d 88bd 97a3 25bd 1ad9 063d d236 18ba
00000280: 5828 adbb 28b6 d13c 2548 12bd 2f65 563d
00000290: 2adc 87bd 90e1 8d3d 2adc 583d 538c 213d
000002a0: 6c69 673d 1b27 383d 4c39 493b 344f 0e3d
000002b0: 618c 323c dbcd 823c a3fb e3bc 88b9 dc3c
000002c0: 7e5a 5c3d dfaf 173c 71a6 73bd e18a 643c
000002d0: 3e3e fcbc 95a8 37bd e08a 223d d126 b43c
000002e0: 8e17 3a3d 0dac 2c3d e763 a4bc 3996 b0bd
000002f0: dbe8 d2bc bbc7 943c a80a 44bd 30da 0f3d
00000300: 9787 ec3a 0cad c53c 04b7 263d d4b8 3dbd
00000310: 97a1 84bc 6e23 67bb 98ea 0f3c 6cb7 c1bc
00000320: a3a8 fb3a 87ac 89bd c508 7fbc 8be5 783d
00000330: 4765 813d 7e74 93bd 123d 293d 9961 8dbd
00000340: b5a3 043d be4d 9abc 9a9b 94bd 3037 493d
00000350: c417 913d aeb1 993d 744f 293d 9ef5 aa3c
00000360: 36bd 0a3d ead9 9a3b 73e9 8ebc 56ee 1d3d
00000370: 8301 bd3c 3748 3f3d d8a8 f5bc 1b30 0dbd
00000380: 03ee a3bd f4f9 38bd ab52 123d 598c 093d
00000390: 40d7 8fbd a5c5 763d 3e8a 68bd 5e07 823d
000003a0: f043 8c3d fc93 4c3d d2aa 2f3d e660 433d
000003b0: fdd6 82bd 8cd0 7dbc 0350 133d f4b7 5a3d
000003c0: 15a3 57bd 08d3 61bd d17b b83c 577f 993c
000003d0: 754a cabc 77f8 403d 825e b1bd 35ca 2fbd
000003e0: a937 3c3c 06e7 3b3b e48a a33c c2be f3bc
000003f0: 6a7f 10bd c1ee 253d 3f8e 203d 8dfe ba3c
0.027385535 0.0148987435 0.014961985 -0.07680343 -0.026989602 -0.059884656 0.011945453 -0.043895375
-0.030504566 0.04743138 0.010032159 0.02284917 -0.068482205 0.019740338 -0.042008184 -0.022744989
0.030644175 0.024398351 -0.070785515 -0.057846494 0.04178614 0.019205583 -0.08838889 -0.034888074
-0.05433567 0.017621612 0.014236329 0.05501881 -0.06422178 -0.06200564 0.022916662 -0.014259595
-0.035411835 0.009887666 -0.056092564 0.037925195 -0.072847985 0.034588754 0.0018485438 0.03308887
0.042025074 0.022957763 -0.04657591 0.024606807 -0.010449841 0.015801447 -0.054361768 -0.00040247288
0.042958774 -0.030718448 -0.05022974 -0.02575591 -0.033299025 -0.0545607 0.021263726 0.0155114345
0.010511266 0.0012306455 -0.012986292 -0.08655212 -0.04834777 -0.0025534441 -0.06752157 -0.004173353
-0.057479914 0.007192751 0.019962285 -0.055162236 -0.027809141 0.0069793635 -0.045094013 -0.050671957
-0.032158338 -0.054564264 -0.05402999 0.036634583 0.045911364 -0.077667125 0.0030134507 -0.06797236
-0.010324964 -0.0321911 -0.013946979 0.030013362 -0.01588678 0.07203592 0.002030963 0.011377923
0.0020182177 0.007594274 -0.0379902 0.006904494 0.025015796 0.042914122 -0.019944936 -0.06225696
-0.06719453 -0.059079725 0.016680775 0.013428754 -0.060964026 0.030879578 -0.049623508 0.050890848
0.04242046 0.015863948 0.021251287 0.051202722 -0.066022545 -0.016799865 0.011170924 -0.016733399
-0.060277328 -0.05885135 -0.025218835 -0.02127615 -0.038464654 0.0051319655 -0.08121339 -0.06715859
-0.020857794 -0.031128727 -0.036016565 -0.050756328 -0.060577773 0.012702133 0.008785329 0.009903029
0.0637571 0.03314924 0.006164462 -0.08997886 0.018070385 -0.04036271 0.042024694 -0.015183863
-0.012831507 0.037043978 0.06426816 0.018997896 -0.071596324 0.031015748 -0.016990906 0.008748026
0.06381175 0.04005038 -0.11897438 -0.039444696 0.064746365 0.04871676 -0.041233063 -0.04039483
-0.032777067 0.028287105 0.017132383 0.06170656 -0.06649379 -0.040439215 0.032921888 -0.00058065087
-0.0052843504 0.025599554 -0.035713334 0.05234259 -0.0663379 0.06927788 0.05294434 0.039440464
0.056497023 0.04495917 0.0030704318 0.034743503 0.010897727 0.0159673 -0.02782995 0.026943937
0.053797238 0.0092582395 -0.059484903 0.013949127 -0.030791398 -0.044838507 0.039683223 0.021991165
0.04543262 0.042156268 -0.020067168 -0.08622403 -0.0257458 0.018161645 -0.047861725 0.03512019
0.001804578 0.024130367 0.04070188 -0.046318844 -0.016190333 -0.003526892 0.008783959 -0.023647033
0.0019200038 -0.0672236 -0.015566056 0.060765784 0.06318145 -0.071999535 0.041318007 -0.06903381
0.032382686 -0.018835898 -0.07256241 0.049124897 0.07084611 0.07504593 0.041335538 0.020869073
0.03387185 0.0047256844 -0.017445302 0.038557373 0.02307201 0.04669973 -0.029987738 -0.034469705
-0.080043815 -0.04516025 0.03572337 0.03358111 -0.070234776 0.060247082 -0.056772463 0.063490614
0.068488955 0.049945816 0.042887516 0.04769983 -0.06388662 -0.015491616 0.035964977 0.053398088
-0.05264576 -0.055132896 0.022519978 0.018737478 -0.024693707 0.047111955 -0.08660604 -0.04291745
0.01148788 0.0028671636 0.01996369 -0.029754046 -0.03527776 0.040510897 0.039198156 0.022826457

action_model._discrete_distribution.branches.0.bias f4 [25]
00000000: ba91 b83b 5c35 f13c 5938 0a3c 787f d8ba
00000010: 16f2 c0bc e24e c23c 810c 8b3b 627f adbb
00000020: 5e15 92bc 8813 99bc d66e db3c 8ceb 873c
00000030: 6ae4 64bc 6f00 d1bc 96db 0bbd 914f 133d
00000040: 2d0c e1b8 68b5 893a 70c2 2fbc c1d7 1abd
00000050: 8b5c 4d3c dad2 cc3c 9c7d 9e3c 5f2c 9bbc
00000060: 6228 6fbc
0.0056326063 0.029444389 0.008436286 -0.0016517481 -0.023552936 0.023719255 0.004243434 -0.005294726
-0.017832454 -0.018686071 0.02678625 0.01659181 -0.013970474 -0.025512902 -0.03414496 0.035964552
-0.00010731104 0.0010506334 -0.01072751 -0.037803415 0.012534271 0.025002886 0.019347005 -0.018942056
-0.01459703
