Assets/Environment1/Brains/MoveToGoalAgent1.onnx (onnx, 73426 bytes, 7 tensors)

network_body._body_endoder.seq_layers.0.weight f4 [128, 6]
0	0x3f6016b5	0.8753465
1	0x3d58d815	0.052940447
2	0x3e586e46	0.21135816
3	0x3e9ec5a2	0.31010157
4	0x3ec0741d	0.37588587
5	0x3eeeee3e	0.4666614
6	0xbf0a3c4b	-0.5399825
7	0x3f1f9018	0.62329245
8	0x3f02f3b9	0.5115314
9	0xbe815e63	-0.25267324
10	0x3eaa7403	0.33291635
11	0x3afddbfe	0.0019367931
12	0x3ea008f8	0.31256843
13	0x3dd89f1c	0.10577223
14	0xbf74ac5a	-0.9557549
15	0x3f89c82f	1.0764216
16	0x3eb6837a	0.35647184
17	0x3ec4a3ff	0.3840637
18	0x3e56dd79	0.20982923
19	0x3d2554ed	0.040364195
20	0x3f17ef7a	0.5934979
21	0x3eb4d5dc	0.35319412
22	0x3e22d6b2	0.15902212
23	0x3f5e9a4f	0.86954206
24	0xbf703460	-0.9382992
25	0xbf1f28c1	-0.6217156
26	0xbefb7df2	-0.49119526
27	0xbe5d1b18	-0.21592367
28	0xbde916d6	-0.11381309
29	0x3f009ab2	0.50236046
30	0x3f05989c	0.5218599
31	0xbed284d8	-0.41116977
32	0x3e19b5d8	0.15010774
33	0x3f1dad3f	0.6159248
34	0xbf745886	-0.95447576
35	0xbe51f0a8	-0.2050196
36	0xbef5726a	-0.47938854
37	0xbc7feb55	-0.015620072
38	0x3eb56ca1	0.3543444
39	0x3ecb2c97	0.39682457
40	0x3e37549d	0.17903371
41	0xbf13322e	-0.57498443
42	0xbed234ce	-0.41055912
43	0xbc9be7fa	-0.019031513
44	0xbdcda8ea	-0.100419834
45	0x3e748f07	0.23882686
46	0x3f80ffc4	1.0078053
47	0x3d6e8256	0.058229767
48	0x3ebbbdd1	0.36668256
49	0xbe64816b	-0.22314994
50	0xbf3d1958	-0.73866796
51	0xbf2b7f91	-0.66991526
52	0x3eb712c9	0.3575652
53	0x3f0582ca	0.52152693
54	0x3ebd15de	0.36930746
55	0x3b9cc531	0.0047842492
56	0x3e8cfac6	0.27535075
57	0x3ee5186c	0.44745195
58	0x3ed98d49	0.42490605
59	0xbc8b39b8	-0.016995296
60	0xbe1f0d99	-0.15532531
61	0xbe894455	-0.26809946
62	0x3e14b041	0.1452036
63	0xbe40e983	-0.18839078
64	0x3eb4baaf	0.35298678
65	0x3f548868	0.8302064
66	0x3e7858b7	0.24252592
67	0x3edee926	0.43537253
68	0xbed27583	-0.4110528
69	0x3db4d64b	0.08829936
70	0x3ee3c170	0.4448352
71	0x3f1831a3	0.5945074
72	0x3eddab5b	0.43294796
73	0xbedde08b	-0.43335375
74	0x3ebefa05	0.37300125
75	0x3bb9295b	0.005650682
76	0x3edc6572	0.43046147
77	0xbe9667ac	-0.2937597
78	0x3d608d1a	0.054822065
79	0xbed15972	-0.40888554
80	0x3e9286f7	0.28618595
81	0xbe5c448b	-0.21510522
82	0xbe566c5c	-0.20939773
83	0x3e9f7336	0.31142586
84	0x3f0a8514	0.5410931
85	0x3e792d28	0.24333632
86	0x3ea47929	0.32123688
87	0xbb18fcbe	-0.0023344005
88	0xbe312adb	-0.17301504
89	0xbc447593	-0.0119909225
90	0xbf156099	-0.5835052
91	0x3d8e97f2	0.06962575
92	0x3e9423f6	0.28933686
93	0xbebfa169	-0.37427834
94	0xbf3fb037	-0.7487826
95	0x3ea18460	0.31546307
96	0x3e9595dc	0.29215896
97	0x3d235e7b	0.039885025
98	0xbe87a7fa	-0.26495343
99	0x3f2220f7	0.6333155
100	0xbea4468e	-0.3208508
101	0xbe87ac5e	-0.26498693
102	0x3ef7bc47	0.48385832
103	0x3f1d721b	0.61502236
104	0x3d9af47f	0.07566165
105	0xbf160c92	-0.5861293
106	0x3f904e2e	1.1273859
107	0xbef9bf1c	-0.48778617
108	0x3e8566ba	0.26054937
109	0x3eb54693	0.35405406
110	0xbf6897c9	-0.90856606
111	0xbf398d7b	-0.7248151
112	0xbe526000	-0.20544434
113	0x3ed3ff31	0.41405633
114	0xbe3c2341	-0.18372823
115	0xbe1accc5	-0.15117176
116	0x3eb89617	0.3605201
117	0x3cb607fa	0.0222206
118	0xbf0cbb47	-0.5497326
119	0x3f35bf47	0.7099499
120	0x3ecad747	0.3961737
121	0xbe6e9159	-0.23297633
122	0x3ef02b3f	0.46907994
123	0xbdefe397	-0.11713331
124	0xbe08e1ae	-0.1336734
125	0xbddb825f	-0.10718226
126	0x3db7fcf3	0.08983793
127	0xbe3c4d24	-0.18388802
128	0xbd9db127	-0.07699805
129	0x3f76a463	0.96344584
130	0xbe877704	-0.2645799
131	0x3da5a997	0.08088987
132	0xbe25a529	-0.16176285
133	0xbe20a676	-0.156885
134	0x3d4a7593	0.049428534
135	0x3e21b821	0.15792896
136	0x3f49f70a	0.78892577
137	0xbe8eae46	-0.27867335
138	0xbe554e7b	-0.20830719
139	0x3cebe455	0.0287954
140	0x3e8c5b7b	0.27413544
141	0x3e022c39	0.12712182
142	0xbeb9219b	-0.3615845
143	0x3e93cab5	0.2886559
144	0xbefeb8b0	-0.4975028
145	0xbdc9012d	-0.098146774
146	0xbe015b4e	-0.12632486
147	0xbec21c62	-0.3791228
148	0xbe76edce	-0.24114153
149	0xbee01237	-0.43763897
150	0x3e899392	0.268704
151	0xbe1991b4	-0.14996988
152	0xbdf4025e	-0.11914514
153	0xbf0ba76e	-0.5455235
154	0x3e6ee970	0.23331237
155	0xbf52970f	-0.8226175
156	0x3ece0c70	0.40243864
157	0x3eb35a52	0.35029846
158	0x3ebdd92d	0.37079754
159	0x3cf49ff3	0.029861426
160	0x3ef73cfa	0.4828871
161	0xbe4659ab	-0.19370143
162	0x3ea033ea	0.31289607
163	0x3d0d2d38	0.034466952
164	0xbd9716c8	-0.07377392
165	0xbead7287	-0.3387644
166	0x3c93800e	0.018005397
167	0x3e7a2372	0.24427584
168	0x3d9d7ad1	0.07689441
169	0x3e13dd38	0.14439857
170	0xbf61efa9	-0.8825632
171	0xbe83f9c7	-0.25776502
172	0x3e8586fa	0.2607954
173	0x3e4271c6	0.18988714
174	0x3ccae271	0.024766179
175	0x3e9f26fe	0.31084436
176	0x3f3a5132	0.72780144
177	0x3e980a09	0.29695156
178	0xbd6b37f2	-0.0574264
179	0xbe9130a1	-0.28357413
180	0x3d925866	0.07145767
181	0x3e566e9a	0.20940629
182	0xbec7153f	-0.38883397
183	0xbf303f25	-0.6884635
184	0x3ef6715d	0.48133364
185	0xbde26cdc	-0.110559195
186	0xbdd08373	-0.10181322
187	0x3d73a5b2	0.05948419
188	0xbe156586	-0.1458951
189	0xbd833161	-0.06405903
190	0xbf427672	-0.75961983
191	0x3f53292d	0.82484704
192	0xbe97e31b	-0.29665455
193	0xbe853461	-0.26016524
194	0x3ddaa126	0.10675268
195	0x3e09ffe1	0.13476516
196	0xbe07fa03	-0.13278966
197	0x3ea42188	0.32056832
198	0xbe523ce9	-0.20531048
199	0xbdbc2814	-0.09187332
200	0xbe4091a8	-0.18805563
201	0xbe91a41a	-0.28445512
202	0xbef28910	-0.47370195
203	0xbe8561a5	-0.2605106
204	0xbe8d4152	-0.27588898
205	0xbe735744	-0.23763758
206	0x3ea6d39d	0.32583323
207	0xbd410ec7	-0.047133233
208	0x3ed6a7e6	0.4192497
209	0xbf5582f8	-0.8340297
210	0x3d906042	0.0704961
211	0xbf0587b3	-0.52160186
212	0x3ee4cba5	0.44686618
213	0x3f151bab	0.5824534
214	0xbde423a8	-0.111396134
215	0xbf333625	-0.70004493
216	0xbbbf30ec	-0.0058346894
217	0xbe9616c4	-0.29314244
218	0xbf1f5352	-0.6223651
219	0xbeca06d2	-0.39458328
220	0x3e8dd363	0.27700338
221	0x3f488688	0.7833028
222	0xbf62f138	-0.8864932
223	0x3ed13610	0.4086156
224	0xbd15becc	-0.03655891
225	0x3e2a5e03	0.16637425
226	0x3c16112b	0.009159367
227	0xbe369960	-0.17831945
228	0x3e9ed2b3	0.31020126
229	0xbe9bba09	-0.3041537
230	0x3ea41443	0.32046708
231	0x3e87cf24	0.26525223
232	0xbe9adad2	-0.30245072
233	0xbd225307	-0.039629962
234	0xbf71cf11	-0.94456583
235	0x3d231e36	0.039823733
236	0x3f22755c	0.63460326
237	0x3e0abc7e	0.13548467
238	0xbeaa6db3	-0.3328682
239	0x3efef27b	0.49794373
240	0xbe9d83e2	-0.3076468
241	0x3baa1c41	0.0051913564
242	0x3e6a3882	0.22873119
243	0x3ee38fd7	0.4444568
244	0x3eb4de8b	0.35326037
245	0xbe8073a9	-0.25088242
246	0x3f01c383	0.5068895
247	0xbe9b4b04	-0.3033067
248	0x3e6e821e	0.23291823
249	0x3e500fd2	0.20318535
250	0x3f8a0073	1.0781387
251	0xbcf850d5	-0.030311981
252	0x3f577df0	0.8417654
253	0x3e27efea	0.16400114
254	0x3e8b3d44	0.2719518
255	0xbebb999e	-0.36640638

network_body._body_endoder.seq_layers.0.bias f4 [128]
0	0x3de2ae86	0.11068444
1	0x3d573714	0.05254276
2	0x3c9547a1	0.018222632
3	0x3db951cb	0.09048804
4	0xbd0162a4	-0.03158821
5	0x3d6067ef	0.05478662
6	0x3d8ec104	0.069704086
7	0x3d46d5bc	0.048543677
8	0x3dfaad08	0.12240034
9	0xbcaf1c25	-0.021375725
10	0xbd160a0b	-0.03663067
11	0xbc4bc7b3	-0.012437749
12	0x3cdb3848	0.026760235
13	0xbc0d4d58	-0.008624397
14	0x3c6d121c	0.01446965
15	0x3d275d17	0.04086026
16	0xbc919d18	-0.017775103
17	0x3cca5df5	0.024703005
18	0x3d43013e	0.047608607
19	0x3db647ad	0.0890039
20	0xbd0cf8fa	-0.03441713
21	0x3b29a115	0.0025883366
22	0x3e001474	0.12507802
23	0xbc724d02	-0.014788868
24	0x3db61d57	0.08892315
25	0x3c20055a	0.009766901
26	0x3d10768e	0.035269313
27	0x3cd983a9	0.026552038
28	0xbba72fbf	-0.0051021273
29	0xbc272638	-0.010201983
30	0x3d3ee62b	0.046606224
31	0x3d66c639	0.056341384
32	0xbbe01d35	-0.0068394192
33	0x3d8219b6	0.0635256
34	0x3d999db8	0.075007856
35	0x3cfc8d16	0.030828994
36	0x3da74cc3	0.08168938
37	0x3d45959d	0.048238385
38	0xbd0997c2	-0.033591993
39	0x3d652bdb	0.055950027
40	0x3da09d35	0.07842485
41	0x3dba4114	0.09094444
42	0xbd0ada7b	-0.033899765
43	0xbd99298f	-0.0747863
44	0xbcf1a355	-0.029496828
45	0x3d05c9f5	0.032663304
46	0x3b60b64d	0.0034288347
47	0x3dc3af18	0.09554881
48	0x3d65cddb	0.056104522
49	0x3d0b35a6	0.03398671
50	0x3d82af2a	0.06381066
51	0x3d8346b9	0.06409974
52	0x3d32a8e6	0.043618105
53	0x3d8b965e	0.0681579
54	0x3da36132	0.07977523
55	0x3b965fd5	0.004589061
56	0xbacc6839	-0.0015595026
57	0x3d808762	0.06275822
58	0x3ceea1fb	0.029129973
59	0x3cd7b952	0.026333485
60	0x3d681c9d	0.056667913
61	0x3e049b30	0.12949824
62	0x3cb0119a	0.021492768
63	0xbc755215	-0.014973183
64	0x3cf93c56	0.030424278
65	0xbd2e5285	-0.042559166
66	0xbd21ab09	-0.039469752
67	0x3d3ba635	0.045812804
68	0x3d2bd6d3	0.04195292
69	0x3d809c98	0.06279868
70	0xbcf3493b	-0.029698005
71	0x3db65893	0.08903613
72	0x3d567d4e	0.052365594
73	0x3d46a824	0.048500195
74	0x3b417b43	0.0029522933
75	0x3d030169	0.031983767
76	0x3d7a8b10	0.061167777
77	0x3d8d86c2	0.06910469
78	0xbd401b4a	-0.046901025
79	0x3cdbdbf4	0.02683828
80	0xbc9e7a4e	-0.019345429
81	0x3d922743	0.07136395
82	0xbd7422ef	-0.059603628
83	0x3c10e24a	0.008843014
84	0x3c1be883	0.009515884
85	0x3da04cf4	0.07827178
86	0x3d37786e	0.044792585
87	0x3d59be47	0.05315998
88	0x3dbced99	0.09225006
89	0x3d4ea3e9	0.050449286
90	0xbd0e33f6	-0.034717523
91	0x3c9fc3b6	0.019502502
92	0xbd8cc7f1	-0.06874073
93	0x3c8c09d3	0.017094528
94	0xbc85a4d0	-0.01631394
95	0x3db40e5d	0.08791802
96	0x3dddd4a4	0.108315736
97	0x3d4a7c78	0.04943511
98	0xbcaf6515	-0.021410504
99	0xbba44f22	-0.005014316
100	0x3dd71f7d	0.10504053
101	0x3db6db68	0.08928567
102	0x3da1b71a	0.07896252
103	0x3d3d9d8c	0.046292827
104	0x3d5377f8	0.051628083
105	0x3ccbb4aa	0.02486642
106	0xbdd67e4e	-0.104733095
107	0x3bf9937c	0.0076164585
108	0x3d2c9637	0.042135444
109	0x3d334c27	0.043773796
110	0x3d743af0	0.05962652
111	0xbd1d1dc1	-0.038358454
112	0x3d1f9982	0.038964756
113	0x3c864df7	0.016394598
114	0xbc4e3058	-0.012584768
115	0x3d6e7fbe	0.058227293
116	0x3cf1fe25	0.02954013
117	0x3cd73821	0.026271882
118	0x3da77cda	0.081781104
119	0xbc83aaf4	-0.016072728
120	0xbbc3d33b	-0.0059761084
121	0xbd120060	-0.03564489
122	0x3cb5abaa	0.022176582
123	0x3da3ded1	0.08001483
124	0x3de92400	0.113838196
125	0x3d100d87	0.03516915
126	0x3d1ae3cd	0.037814904
127	0x3d4cc63c	0.04999374

network_body._body_endoder.seq_layers.2.weight f4 [128, 128]
0	0x3cea955a	0.02863567
1	0x3da77f7a	0.08178611
2	0x3e65652e	0.22401878
3	0xbd366e93	-0.044539046
4	0xbded7fa4	-0.11596611
5	0x3c98e2f4	0.018662907
6	0x3e03242c	0.12806767
7	0x3d271fcd	0.040801812
8	0x3e891943	0.26777086
9	0xbc46d6d5	-0.012136181
10	0x3db2e29c	0.087346286
11	0xbd5375ea	-0.051626123
12	0x3cf37607	0.029719366
13	0x3dae8957	0.08522289
14	0xbdaf23f7	-0.085517816
15	0xbad4e4d8	-0.0016242517
16	0x3cc34929	0.023838596
17	0xbe390e75	-0.18071921
18	0xbbc396af	-0.0059688906
19	0xbe02ca19	-0.12772407
20	0xbe06476e	-0.13113186
21	0xbe137600	-0.14400482
22	0x3db779b6	0.089587614
23	0x3d907efa	0.07055469
24	0x3c2c3cda	0.010512555
25	0x3d97efef	0.074188106
26	0x3dfbacec	0.122888416
27	0x3d580142	0.052735575
28	0xbe2f593f	-0.17123888
29	0xbc6ebd26	-0.014571464
30	0x3c97bd70	0.018522948
31	0x3ddb8d0b	0.10720261
32	0x3cdb43d9	0.02676575
33	0x3ce92a00	0.02846241
34	0xbca472a3	-0.020074194
35	0x3d1b2050	0.037872612
36	0xbe0b9c07	-0.13633738
37	0xbe0aa8dc	-0.13540977
38	0x3d9b7f2d	0.07592616
39	0x3e29e454	0.16591007
40	0xbe204a71	-0.15653397
41	0x3da1b032	0.07894935
42	0x3c7645c5	0.015031283
43	0x3d9a739d	0.07541583
44	0xbce58968	-0.028019622
45	0x3ca5336b	0.02016612
46	0x3cbf369b	0.023341468
47	0x3d83541e	0.064125285
48	0x3e28dc06	0.16490182
49	0x3dca8bfd	0.09889982
50	0xbe25ebfa	-0.16203299
51	0x3d6bb856	0.057548843
52	0xbd87df5c	-0.06634399
53	0xbb26dc07	-0.0025460736
54	0xbddfb8bc	-0.10923907
55	0x3b34ca60	0.0027586445
56	0x3d14b618	0.03630647
57	0x3e0d83eb	0.13819854
58	0xbe0b7f4f	-0.13622783
59	0x3d0f6c36	0.035015307
60	0x3de0fe0d	0.10985956
61	0xbd6c7a9d	-0.05773412
62	0x3db11567	0.0864666
63	0x3bce2d23	0.006292002
64	0xbdb1528d	-0.086583234
65	0xbe0d9e7c	-0.13829988
66	0xbc020842	-0.007936539
67	0xbd824d8f	-0.063624494
68	0x3dda23c4	0.10651353
69	0x3c04fb58	0.008116566
70	0xbe4d6cae	-0.2006099
71	0xbdeee0e4	-0.11663988
72	0xbda05345	-0.078283824
73	0x3e40b396	0.18818507
74	0xbd56bfe5	-0.0524291
75	0xbd5b24bc	-0.05350183
76	0x3dae13a4	0.0849984
77	0x3e744257	0.23853432
78	0x3cd7cce3	0.026342815
79	0x3d4e8f4e	0.050429635
80	0xbd32576a	-0.043540396
81	0x3d27573d	0.04085468
82	0xbda2187a	-0.07914825
83	0x3e526f02	0.20550159
84	0xbd473007	-0.048629787
85	0xbd0a258c	-0.033727214
86	0xbe06b4b1	-0.13154866
87	0xbcae6703	-0.021289354
88	0xbd3ee1a2	-0.0466019
89	0xbd37e4ab	-0.04489581
90	0xbce7be7e	-0.028289076
91	0x3d4c9178	0.049943417
92	0xbd35c386	-0.04437592
93	0xbd90bfcf	-0.070678346
94	0xbdbdda7f	-0.092701904
95	0xbdaa8246	-0.08325629
96	0x3dd7a18c	0.105288595
97	0xbdac8909	-0.08424575
98	0x3e07a8fc	0.13248056
99	0xbccbcc55	-0.024877707
100	0xbe0976db	-0.13424246
101	0x3d04cd64	0.03242244
102	0xbdc0eea6	-0.094205186
103	0xbda84413	-0.08216109
104	0xbd0cc3b5	-0.03436633
105	0xbd3261f6	-0.043550454
106	0xbe1ce748	-0.15322602
107	0xbd315589	-0.043294463
108	0x3c705ac0	0.014670074
109	0x3d51d648	0.051229745
110	0xbd8745ea	-0.06605132
111	0xbd5cfbfc	-0.05395125
112	0x3d12791c	0.03576003
113	0x3b5a6793	0.0033325895
114	0xbd90738a	-0.07053287
115	0x3caaa12d	0.020828808
116	0xbdae5cdf	-0.085138075
117	0xbbb7f5e5	-0.0056140297
118	0xbd924521	-0.071420915
119	0x3d153c01	0.036434177
120	0xbdd47042	-0.10372974
121	0xbd2789d4	-0.040902928
122	0xbc2e8588	-0.0106519535
123	0xbc0b5116	-0.008503219
124	0x3df1ce1a	0.11806889
125	0x3d6043e0	0.05475223
126	0x3d150d35	0.03638955
127	0xbcd01165	-0.02539892
128	0xbdfe9a1e	-0.12431739
129	0x3dce647e	0.10077761
130	0xbb7c4315	-0.0038492132
131	0x3c2828aa	0.010263601
132	0xbd61d015	-0.055130083
133	0x3b15ccde	0.0022857706
134	0xbe12738f	-0.14301895
135	0xbe0b1e9e	-0.13585898
136	0x3e1dd2b3	0.15412407
137	0xbd94c67c	-0.072644204
138	0xbd11e654	-0.03562005
139	0xbd06b2cb	-0.032885354
140	0xbd68a364	-0.056796446
141	0xbe1e4f56	-0.15459952
142	0x3cb83da3	0.022490328
143	0xbdebc7c2	-0.1151271
144	0x3d8994c2	0.067178264
145	0x3dbfb051	0.093598016
146	0xbca7a24d	-0.020463133
147	0xbda7d358	-0.081946075
148	0xbded17b1	-0.115767844
149	0xbd9fb1ad	-0.07797561
150	0x3dc9f9a8	0.09862071
151	0xbdf8288c	-0.12117109
152	0x3e2e032d	0.16993399
153	0x3dd897be	0.105758175
154	0x3c9a151e	0.018808898
155	0x3b1c0e77	0.0023812333
156	0xbe24d53d	-0.16096969
157	0xbe39c05e	-0.18139789
158	0xbc33a84d	-0.010965419
159	0xbe05a10f	-0.1304972
160	0xbddc5e08	-0.107601225
161	0xbcbd7933	-0.023129081
162	0xbb070792	-0.0020603877
163	0xbe47413d	-0.1945848
164	0xbc6f2ef1	-0.014598594
165	0xbcaab34b	-0.020837447
166	0xbe4df729	-0.20113815
167	0xbd5ad9ba	-0.053430296
168	0x3d9b95b4	0.07596913
169	0xbccb4203	-0.02481175
170	0x3da79a9f	0.081837885
171	0x3d598a2d	0.05311029
172	0xbc68d6ac	-0.014211338
173	0xbe4ef633	-0.20211105
174	0x3e2a43fa	0.16627494
175	0xbe9c9176	-0.30579728
176	0xbe1e8b97	-0.15482937
177	0xbc77f340	-0.015133679
178	0xbc74ec5a	-0.014948929
179	0x3c185a57	0.009298882
180	0xbe2cdb1d	-0.1688046
181	0xbd9f4a38	-0.07777828
182	0x3ba20ab7	0.004945125
183	0x3d5cfd32	0.053952403
184	0xbd951aa4	-0.07280472
185	0x3c6caf83	0.014446142
186	0x3dcb400a	0.09924324
187	0xbe115741	-0.14193441
188	0x3dee7272	0.116429225
189	0xbdfab22c	-0.12241015
190	0xbdb2f73e	-0.08738564
191	0xbd88faba	-0.06688447
192	0x3dd90d89	0.10598285
193	0xbdc8e9ae	-0.09810196
194	0xbd63f31a	-0.05565176
195	0xbe12a4b9	-0.14320649
196	0xbe2e8407	-0.17042552
197	0x3e2098ab	0.15683238
198	0x3d2b43f4	0.041812852
199	0x3db9435f	0.09046053
200	0xbb412aca	-0.0029474967
201	0xbba3ebff	-0.005002498
202	0xbdaa95f5	-0.08329383
203	0xbdc21ab3	-0.09477749
204	0xbc9ed799	-0.019389914
205	0x3dbbc5d7	0.09168594
206	0xbe262d85	-0.16228302
207	0x3d18137e	0.037127964
208	0x3d901f8d	0.07037268
209	0xbcc1d244	-0.023659833
210	0xbd905ddb	-0.070491515
211	0xbd879c1e	-0.06621574
212	0x3d035f89	0.03207353
213	0xbd46098a	-0.04834894
214	0x3c4b6d68	0.012416221
215	0xbd19ff3e	-0.037596934
216	0xbc41eb72	-0.01183592
217	0xbdfa749f	-0.12229275
218	0x3bfaab87	0.007649842
219	0xbdeeb86e	-0.11656271
220	0x3c03e41f	0.008049994
221	0xbcef9a66	-0.029248428
222	0xbd0d8e7b	-0.034559708
223	0xba6de3bf	-0.00090747693
224	0xbd88d2a2	-0.066808
225	0xbcaf74cb	-0.021417996
226	0xbd28ccf6	-0.04121109
227	0xbe071d2c	-0.13194722
228	0x3d80cf7c	0.062895745
229	0x3da0cb50	0.07851279
230	0x3e475562	0.19466165
231	0xbe14f647	-0.14547072
232	0x3d7a78f1	0.061150495
233	0x3d5a1751	0.053244893
234	0x3d5d33ba	0.05400441
235	0xbd6ad170	-0.05732864
236	0xbda125f5	-0.07868568
237	0xbe0f24ba	-0.13978854
238	0x3bfc1516	0.0076929433
239	0x3e061f3d	0.13097854
240	0x3e5950e3	0.21222262
241	0xbd011b3d	-0.031520117
242	0xbdb253d1	-0.08707393
243	0x3e096c89	0.13420309
244	0x3c5f3bbf	0.013625084
245	0xbdf5a7c6	-0.11994891
246	0xbda2387a	-0.07920928
247	0xbe78bddf	-0.2429118
248	0xbe167bd6	-0.14695677
249	0x3dbc51cf	0.09195291
250	0x3e816559	0.25272635
251	0xbdb3614f	-0.087587945
252	0x3e64e72c	0.2235381
253	0xbd93ad6a	-0.072108105
254	0xbda64d22	-0.08120181
255	0xbdd0f6dc	-0.10203335

network_body._body_endoder.seq_layers.2.bias f4 [128]
0	0x3d0b5459	0.034015987
1	0x3d05b58f	0.03264385
2	0x3d89018e	0.0668975
3	0x3da3b8d5	0.07994238
4	0xbc39b025	-0.0113335
5	0x3c9a4aea	0.01883455
6	0xbc36394f	-0.011122062
7	0x3d5b9e24	0.05361761
8	0x3d26494d	0.04059725
9	0x3dd9bb60	0.10631442
10	0x3cd4fe6b	0.026000222
11	0xbbeae937	-0.0071689147
12	0x3dac562f	0.08414876
13	0x3cc67175	0.024224022
14	0x3b9e373c	0.004828362
15	0x3cc06871	0.023487302
16	0x3c6f4bf3	0.01460551
17	0x3dac461d	0.084118105
18	0x3de30089	0.110840864
19	0x3e1dac93	0.15397863
20	0x3ca0fd5c	0.019652061
21	0xbb24caab	-0.0025145214
22	0x3d8aa453	0.067696236
23	0x3cd777d8	0.026302263
24	0xbd9234da	-0.07138987
25	0x3cce3951	0.025173815
26	0x3c20d9b5	0.00981753
27	0x3d0dd141	0.03462339
28	0x3cf5cde3	0.030005401
29	0x3db14ddb	0.08657428
30	0xbbf2c0f7	-0.007408257
31	0x3cb1e4f4	0.021715619
32	0x3d4f73c3	0.05064751
33	0x3d9cc282	0.07654287
34	0x3c73178b	0.014837156
35	0x3d0b938a	0.03407625
36	0x3d4d92ee	0.05018895
37	0x3d99599f	0.07487797
38	0xbd72f6ef	-0.059317525
39	0x3de9dc5c	0.11418983
40	0x3c7ead54	0.015544254
41	0x3d8af619	0.06785221
42	0x3d0f464a	0.034979142
43	0x3d30b0a2	0.0431372
44	0x3d8238b2	0.0635847
45	0x3d88fb34	0.06688538
46	0x3d7cbd29	0.061703835
47	0x3c8418d2	0.016125116
48	0x3d56f2a9	0.052477513
49	0xbb78e889	-0.0037980399
50	0x3c836913	0.016041314
51	0xbb77db42	-0.0037819897
52	0x3b58e5ef	0.0033096035
53	0x3dcbb060	0.0994575
54	0x3b6ad38e	0.0035831663
55	0x3d8dc13f	0.069216244
56	0x3d62473e	0.055243723
57	0x3d817c19	0.06322498
58	0x3d0f7f64	0.0350336
59	0x3de6a6ef	0.11262309
60	0x3c38b516	0.011273643
61	0x3d9ae55b	0.07563277
62	0x3dcb5eba	0.09930177
63	0x3cd0fbaa	0.025510628
64	0x3c9edd0a	0.019392509
65	0xbc773236	-0.015087655
66	0x3c7e9424	0.015538249
67	0xbca7b36c	-0.020471297
68	0x3d2ca388	0.042148143
69	0xb972ba4d	-0.00023148321
70	0xbbd90d00	-0.006623864
71	0x3b965dfc	0.0045888405
72	0x3daef4ac	0.08542761
73	0x3c44af74	0.012004722
74	0x3d3ce9eb	0.04612152
75	0x3d0b4901	0.03400517
76	0x3d02ffcf	0.03198224
77	0x3c7978df	0.015226572
78	0xba9a9154	-0.0011792579
79	0xbce98aa8	-0.0285085
80	0x3dc6009f	0.09668087
81	0x3ba34515	0.0049826005
82	0x3dda1b2a	0.106497124
83	0xbbb75535	-0.0055948743
84	0x3c2bf034	0.010494281
85	0x3d78369b	0.06059895
86	0x3d9b391c	0.07579252
87	0xbd84697f	-0.06465434
88	0x3d982fe8	0.074310124
89	0x3d249334	0.040179446
90	0x3d84264e	0.064526185
91	0x3d010d13	0.03150661
92	0x3d6c7524	0.0577289
93	0x3ba9df00	0.0051840544
94	0x3d3b676b	0.045752924
95	0x3c92d98e	0.017926004
96	0x3ccf7842	0.025325898
97	0xbc1e7c6a	-0.009673217
98	0x3d4de250	0.050264657
99	0x3caad939	0.020855533
100	0x3db4d0e1	0.08828903
101	0x3de98914	0.11403099
102	0x3ca911b0	0.020638317
103	0x3c477f26	0.012176311
104	0x3d9196cd	0.07108841
105	0x3d4d7091	0.05015618
106	0x3b5ccb29	0.0033690429
107	0x3b32a16c	0.002725686
108	0xbc5c74c8	-0.013455577
109	0x3d1c3943	0.038140547
110	0x3c8ba0c7	0.017044438
111	0x3c23ba28	0.009993114
112	0xbc199e38	-0.009376101
113	0x3da4991d	0.080370165
114	0x3d6133e1	0.054981116
115	0xbc44d001	-0.012012483
116	0x3d23c8a4	0.039986268
117	0xbb141c34	-0.0022599818
118	0x3da8d11a	0.08243008
119	0x3bda8531	0.0066687097
120	0x3c1e2c90	0.009654179
121	0x3d64e1e1	0.055879477
122	0x3c28f800	0.010313034
123	0x3d39c51f	0.045354005
124	0x3cd37907	0.025814546
125	0x3c76d839	0.0150662
126	0x3d3d967e	0.0462861
127	0xbb380ba7	-0.0028083117

action_model._continuous_distribution.log_sigma f4 [1, 2]
0	0xbd6d8471	-0.057987634
1	0xbd97ae96	-0.074063465

action_model._continuous_distribution.mu.weight f4 [2, 128]
0	0x3ce7e3c7	0.028306855
1	0xbdda4bcf	-0.106589906
2	0x3d257e25	0.040403504
3	0x3d2094e7	0.039204504
4	0xbc23eaac	-0.010004681
5	0x3bc02341	0.0058635776
6	0xbc9b4fd8	-0.01895897
7	0xbd825c1d	-0.063652255
8	0xbd9ff19f	-0.078097574
9	0x3dab2f2c	0.08358607
10	0xbc754d87	-0.014972097
11	0x3c038ac2	0.008028688
12	0x3d429966	0.047509573
13	0x3ce12db3	0.027487611
14	0x3d07c913	0.033150744
15	0xbcf3e46d	-0.029772008
16	0xbc57b611	-0.013165967
17	0x3dc9f565	0.098612584
18	0xbde4aad6	-0.11165397
19	0x3e003919	0.12521781
20	0xbd58f962	-0.052972205
21	0x3cd2b9f3	0.025723433
22	0x3d615a80	0.05501795
23	0x3a10ca65	0.0005523323
24	0xbcddafed	-0.027061427
25	0xbc9448cc	-0.018101119
26	0xbc52d2b7	-0.012867621
27	0xbc974bc6	-0.018468749
28	0x3b8e93d7	0.00435112
29	0x3db7e97a	0.08980079
30	0x3c8a102a	0.01685341
31	0x3c57d8ac	0.013174217
32	0xbd330c69	-0.043713007
33	0xbdaad1c6	-0.08340792
34	0x3c7d9c8b	0.015479217
35	0xbcdb9795	-0.026805678
36	0x3b85c6c9	0.004082535
37	0x3dae416a	0.085085705
38	0xbd43d2fb	-0.04780863
39	0xbc8cfd22	-0.017210547
40	0x3d8b33d3	0.06796994
41	0x3d032fe5	0.032028098
42	0x3d7008c1	0.0586021
43	0xbd969d42	-0.07354213
44	0x3d87a0c8	0.066224635
45	0x3d703b42	0.058650263
46	0x3db9d6cd	0.09074173
47	0x3c9924e7	0.018694354
48	0xbcf8c45f	-0.030367075
49	0xbc383099	-0.011242055
50	0x3b845810	0.004038818
51	0xbcea2884	-0.028583772
52	0xbc150e67	-0.009097672
53	0x3dc63620	0.09678292
54	0xbb3989fb	-0.0028311003
55	0xbda7773d	-0.0817704
56	0x3baae0a0	0.0052147657
57	0x3d9ecd9f	0.07754063
58	0x3cff9f94	0.031204022
59	0x3d910d82	0.070826545
60	0xbcd0f6fe	-0.0255084
61	0xbd35c324	-0.044375554
62	0xbdda6a34	-0.10664788
63	0x3cc42800	0.023944855
64	0x3c358ce2	0.011080952
65	0xbc09bf99	-0.008407497
66	0x3cbaa608	0.022784248
67	0xbd4b17e0	-0.049583316
68	0x3c7b9d20	0.015357286
69	0x3c3abead	0.011398
70	0x3b0aebe9	0.0021197742
71	0xbd1fdee2	-0.039030917
72	0xbd8a52f4	-0.06754103
73	0xbb482557	-0.0030539834
74	0xb9a2a9f9	-0.00031025687
75	0x3ce28bbb	0.02765452
76	0x3d3650c4	0.044510618
77	0xbc56eba1	-0.013117702
78	0x3cc0dcdd	0.023542816
79	0xbd345437	-0.044025626
80	0xbd937b6a	-0.07201274
81	0xbd00ddcd	-0.031461526
82	0x3d800da2	0.062526
83	0xbc6cf429	-0.014462509
84	0xbcd24e50	-0.025672108
85	0x3d6e4992	0.05817563
86	0x3bc2a145	0.005939635
87	0xbd5ce75e	-0.053931586
88	0x3d0bf72d	0.034171272
89	0xbccd8e48	-0.025092259
90	0xbdaa134a	-0.0830446
91	0xbd49c3f5	-0.049259145
92	0x3cf6f026	0.030143809
93	0xbd0aeb9f	-0.033916112
94	0x3d215182	0.039384373
95	0x3cbbf187	0.022942318
96	0x3c81e0d2	0.015854273
97	0x395472ac	0.00020260614
98	0x3cebd719	0.02878909
99	0xbb0f1977	-0.0021835247
100	0xbb439351	-0.0029842446
101	0x3dbca73d	0.09211586
102	0x3cb94ac3	0.022618657
103	0x3ce3989c	0.02778273
104	0x3b9e7852	0.0048361206
105	0x3d083bd2	0.033260174
106	0xbd188404	-0.037235275
107	0x3c4111e9	0.011784055
108	0x3a295438	0.0006459388
109	0x3c6fb788	0.01463116
110	0x3cf0b368	0.029382423
111	0xbc8916a3	-0.016734427
112	0x3cf9746c	0.030451022
113	0xbd289f36	-0.04116746
114	0x3c21d8ac	0.009878319
115	0xbcff5477	-0.031168206
116	0x3d3f84ef	0.046757635
117	0xbbab654b	-0.005230581
118	0x3d807297	0.06271856
119	0x3c66ef27	0.014095104
120	0xbba748fc	-0.005105136
121	0x3d6949ee	0.05695527
122	0x3c132f71	0.008983479
123	0x3bbcd872	0.005763107
124	0xbd41a368	-0.047274977
125	0xbd826f76	-0.06368916
126	0x3d5a914e	0.05336123
127	0xbbd70ba8	-0.006562669
128	0x3d4673de	0.048450343
129	0xbd72c438	-0.05926916
130	0xbba153dd	-0.0049233274
131	0x3d952e33	0.072842024
132	0xbcd76939	-0.026295291
133	0xbc8553c1	-0.016275289
134	0xbafa0eb1	-0.0019077865
135	0x3dc9d7ff	0.09855651
136	0xbdb5fb1a	-0.088857844
137	0x3b58abb4	0.0033061327
138	0xbd818695	-0.063244976
139	0x3c9f8658	0.01947324
140	0x3bdd43ca	0.006752466
141	0xbd02432f	-0.031802353
142	0x3999f46d	0.00029364545
143	0x3d3a1254	0.045427635
144	0xbd57af3f	-0.052657362
145	0x3c2df178	0.010616653
146	0x3a526b93	0.0008026894
147	0xbca09273	-0.019601082
148	0x3d3f763a	0.04674361
149	0x3d54f44a	0.051990785
150	0x3c9e3281	0.019311192
151	0xbd325c7e	-0.04354524
152	0xbc100224	-0.008789573
153	0x3caee2a7	0.02134831
154	0xbcfed4df	-0.031107364
155	0x3ce20487	0.02759005
156	0xbd0f3d45	-0.03497054
157	0x3dab69e9	0.0836981
158	0xbd1162d9	-0.03549466
159	0x3cf5c022	0.029998843
160	0x3c7aff24	0.015319619
161	0x3b884fd5	0.0041599073
162	0xbae66d4e	-0.0017580183
163	0xbd3101c8	-0.04321459
164	0x3d9a6472	0.0753869
165	0xbdbd0a10	-0.09230435
166	0x3d10011b	0.035157304
167	0x3d9106e4	0.070813924
168	0x3c3233b4	0.010876585
169	0x3de2abd4	0.1106793
170	0xbda33210	-0.07968533
171	0xbd13998d	-0.03603511
172	0xba8e6839	-0.0010864801
173	0x3d39df7c	0.045379147
174	0xbca0abf3	-0.019613242
175	0xbcb6b200	-0.022301674
176	0xbd211ccf	-0.039334115
177	0xbc6f4a5b	-0.01460513
178	0xbd05b8b0	-0.032646835
179	0xbb8d546c	-0.0043130424
180	0xbd03d955	-0.032189686
181	0xbd4b76a2	-0.049673684
182	0x3d420b21	0.047373895
183	0x3c90f6ce	0.01769581
184	0xbd84a862	-0.06477429
185	0x3d8f2295	0.06989018
186	0xbd59d9ca	-0.053186215
187	0xbcbe7e7e	-0.023253676
188	0xbcd07be1	-0.025449695
189	0xbde4b2f2	-0.111669436
190	0xbcb7a461	-0.02241725
191	0x3cff4fb0	0.031165928
192	0x3cb4a9fe	0.022053715
193	0xbcb394e2	-0.021921579
194	0x3cdede66	0.027205657
195	0xbd4c89f5	-0.049936254
196	0x3d2d5d1d	0.042325128
197	0xbcc75ae3	-0.02433533
198	0x3d123699	0.0356966
199	0x3c52d854	0.012868959
200	0x3da440c3	0.08020165
201	0x3d8eb737	0.06968539
202	0x3d510281	0.05102778
203	0x3d5465f3	0.05185504
204	0x3c554196	0.013016125
205	0xbccbd867	-0.024883462
206	0xbd3ea6c2	-0.04654575
207	0x3d3d98d5	0.04628833
208	0x3c27f7a6	0.010251915
209	0xbc9a5dc0	-0.018843532
210	0xbb7472a3	-0.0037299774
211	0xbc1468a0	-0.009058148
212	0x3c9d4686	0.019198667
213	0x3dd26655	0.102734245
214	0xbddb4e80	-0.10708332
215	0xbcc96460	-0.024583995
216	0xbd767274	-0.060167745
217	0xbd15d117	-0.036576357
218	0xbd9c4341	-0.07630015
219	0x3c8f60bf	0.017502187
220	0xbdd1525e	-0.102207884
221	0xbb0b2747	-0.0021233128
222	0x3cf97480	0.03045106
223	0x3c4267b3	0.011865544
224	0x3d3a9e0c	0.04556088
225	0x3c88ab48	0.016683236
226	0x3cf91232	0.030404184
227	0x3cc4e3d8	0.024034426
228	0xbdf6b006	-0.120452926
229	0xbd9a998b	-0.07548817
230	0x3d63a990	0.05558163
231	0xbb643ff1	-0.003482815
232	0x3d9da554	0.076975495
233	0xbcc6deb5	-0.024276117
234	0xbc4ba0a7	-0.012428439
235	0x3b90d06d	0.0044193775
236	0xbb1c8c81	-0.0023887458
237	0xbd5f1d50	-0.054471314
238	0xbd04360e	-0.032278113
239	0x3d042a55	0.032266933
240	0x3c75119c	0.014957812
241	0xbde58534	-0.11207047
242	0xbd4eb410	-0.05046469
243	0xba56cafe	-0.00081937003
244	0x3c56148e	0.013066424
245	0xbd361115	-0.044449884
246	0x3cb60a26	0.022221636
247	0xbbe420ed	-0.006961933
248	0xbc9677df	-0.018367706
249	0x3a18b129	0.0005824739
250	0xbcce7c77	-0.025205834
251	0x3d2e4b3e	0.042552225
252	0x3d80116b	0.06253322
253	0xbd7ebdf2	-0.062192865
254	0xba200c73	-0.00061053707
255	0xbc1389e2	-0.009005042

action_model._continuous_distribution.mu.bias f4 [2]
0	0x3c550eaa	0.0130039845
1	0x3ae49961	0.001744073
